clustering/clustering/encoder_weights/old_ground_lidar/lidar_encoder_autoencoder_ground_lidar.pth (torch, 116186 bytes, 14 tensors)

encoder.conv2d_1.weight f4 [16, 1, 1, 3]
-0.43760878 -0.4673367 0.5233081 -0.2878674 0.032242734 0.4084505 -0.16429318 -0.46492496
-0.5025379 0.14816985 0.4514637 0.27875888 0.60040784 0.5550551 0.34770417 0.54369855
-0.49560082 -0.38426334 0.5639684 0.61298585 0.07422966 0.7418613 -0.19299269 0.36888146
-0.33931804 0.11096889 -0.21566916 -0.55906516 0.05138843 -0.12727779 0.2092233 0.10443532
0.42881474 -0.98907095 0.5155022 0.38086316 0.451562 0.24952362 -0.46946257 -0.38812235
-0.34436172 -0.35727316 0.14032054 0.39452368 -0.34912366 -0.14200032 -0.04768156 -0.20912674
00000000: 420e e0be c246 efbe 85f7 053f 5b63 93be
00000010: f510 043d 6d20 d13e 793c 28be a50a eebe
00000020: 53a6 00bf d6b9 173e 4026 e73e 7cb9 8e3e
00000030: 54b4 193f 1718 0e3f 4806 b23e d42f 0b3f
00000040: 64bf fdbe 2abe c4be 3c60 103f a4ec 1c3f
00000050: b805 983d 9fea 3d3f e09f 45be 08de bc3e
00000060: 18bb adbe a843 e33d 60d8 5cbe e51e 0fbf
00000070: ad7c 523d 1c55 02be a23e 563e 2fe2 d53d
00000080: 9b8d db3e c133 7dbf f4f7 033f 7f00 c33e
00000090: 2233 e73e 1f83 7f3e 665d f0be f9b7 c6be
000000a0: 2e50 b0be 82ec b6be 30b0 0f3e 02ff c93e
000000b0: 56c0 b2be 8868 11be bd4d 43bd 5225 56be

encoder.conv2d_1.bias f4 [16]
0.5921995 0.35769248 0.045148574 0.4924226 -0.1456718 0.35001183 -0.11045342 -0.47318405
-0.10826907 0.04058097 0.46089572 -0.3952351 0.57146573 -0.23502013 0.3875243 -0.029972617
00000000: 639a 173f 7823 b73e b6ed 383d d11e fc3e
00000010: fd2a 15be c034 b33e 6735 e2bd 2e45 f2be
00000020: 2dbc ddbd 3b38 263d 86fa eb3e 415c cabe
00000030: 944b 123f 1ea9 70be 9669 c63e 2289 f5bc

encoder.conv2d_2.weight f4 [32, 16, 1, 3]
0.07675275 0.07779223 0.02916225 0.078900225 -0.022472354 0.067473084 -0.052485906 0.0005254484
0.08976624 -0.13653989 -0.059647772 -0.0044020847 -0.030238153 0.06760196 -0.10699619 0.011764469
0.04256893 -0.012000369 -0.019263927 -0.1071774 -0.0904784 0.10683621 0.041872628 -0.10398409
-0.13971698 0.097625755 -0.07185611 0.0934198 0.050701536 -0.06809479 -0.06751915 -0.0510083
0.051150452 0.108859226 -0.031238414 0.02874212 0.004883593 -0.06964897 0.032344658 -0.11322458
-0.110871695 -0.02622586 -0.12729977 0.026472773 -0.15675403 -0.070611 0.0008583918 0.07219566
-0.11707793 -0.13858962 0.06775002 0.025352562 -0.11077873 0.09891285 0.0023038136 0.14288598
-0.08173331 -0.08413399 0.028367532 -0.020556133 0.0051746517 -0.018902026 -0.068251275 -0.124174066
-0.37818775 0.6056203 0.12957108 0.09787811 -0.09262916 0.08447366 -0.38591897 0.2127909
0.0011254004 -0.05615386 0.0010213879 0.05069737 0.08972695 0.05904066 0.13690802 0.08312574
0.10248018 0.2672718 0.19005573 0.23227134 0.012393802 0.10227952 -0.049666356 -0.057657525
-0.01484069 -0.07042825 -0.068458624 0.09441721 -0.016914494 -0.13329723 -0.050645668 0.082256466
-0.004394536 0.071256 -0.1173508 -0.13999994 0.06100581 -0.014704692 0.072061226 -0.010028961
0.06519776 0.0073177773 -0.060640775 0.09814615 0.1124667 0.0371755 0.07918514 0.09256625
-0.20871772 -0.121401355 -0.080156066 0.12428139 -0.05107503 -0.0038877202 -0.1902531 -0.040524345
-0.020055221 0.115721 0.057597406 0.0906898 0.1128799 -0.013508969 -0.022619408 0.124012664
0.14525981 -0.55625117 0.07367832 0.23885517 0.12414649 -0.10096547 0.09756314 -0.08169301
0.0359146 0.0009419976 -0.03031621 -0.080565766 0.12498271 0.09343428 -0.13012557 0.101190366
0.17759949 0.15924838 0.15768388 0.016826848 0.011565536 0.11691348 -0.096564196 0.13797605
-0.0071606236 -0.009375454 -0.13177922 -0.017481245 -0.07859809 0.029524343 -0.10650575 0.2888892
0.54857504 0.49839514 -0.08344264 0.082824245 -0.09583652 -0.23056687 -0.087275244 0.21890861
0.05074796 -0.084262356 0.028790178 0.089901656 0.10106591 -0.08327147 -0.010275321 0.14447054
0.06657257 0.5277211 0.18601273 -0.15297362 -0.09398252 0.0132605545 0.11238896 0.021724429
0.05001168 0.020000556 -0.08163177 0.14717276 0.05695161 -0.035043027 0.029845754 -0.08449011
0.053590868 0.014425177 0.024560241 0.1756816 0.08284031 0.11574096 -0.05891619 -0.11395151
0.08213162 -0.12997834 0.006535788 0.12262364 -0.09426012 0.07810669 0.07556023 -0.18791518
-0.4174794 0.19886477 -0.07550913 -0.002455367 0.11202046 -0.2049917 -0.08726012 -0.14006844
-0.035769273 -0.13538393 0.100174844 -0.082289144 0.09330553 0.11948761 0.14223635 -0.06515334
-0.017782593 0.39403924 0.13714796 0.31850722 -0.04528606 -0.08398421 0.16593315 0.05701602
-0.12170963 0.024596862 0.008133797 0.05379114 0.12388223 -0.10110597 0.0508736 0.07977978
0.33371317 0.38207236 0.023626005 0.00816664 0.3886327 0.04518946 0.06861124 -0.054227278
-0.110889584 -0.10215668 -0.05933446 0.21261081 -0.0539151 -0.121732205 0.2550907 0.21579975
00000000: 8c30 9d3d 8851 9f3d ace5 ee3c 7196 a13d
00000010: f117 b8bc 542f 8a3d 76fb 56bd 3fbe 093a
00000020: 5dd7 b73d 1dd1 0bbe 3951 74bd 5d3f 90bb
00000030: 01b6 f7bc e572 8a3d d220 dbbd c2bf 403c
00000040: c25c 2e3d 329d 44bc 62cf 9dbc d37f dbbd
00000050: bd4c b9bd f1cc da3d a282 2b3d 9cf5 d4bd
00000060: f811 0fbe 03f0 c73d 4c29 93bd e152 bf3d
00000070: 6aac 4f3d 4875 8bbd 7b47 8abd 14ee 50bd
00000080: 2383 513d 96f1 de3d b4e7 ffbc 9874 eb3c
00000090: 8c06 a03b 1fa4 8ebd d57b 043d 4ae2 e7bd
000000a0: b310 e3bd 9dd7 d6bc df5a 02be 6edd d83c
000000b0: 2184 20be 809c 90bd b305 613a 51db 933d
000000c0: 8ec6 efbd 70ea 0dbe 86c0 8a3d 2db0 cf3c
000000d0: f5df e2bd d292 ca3d 94fb 163b b450 123e
000000e0: cb63 a7bd 714e acbd 0763 e83c 5665 a8bc
000000f0: 2090 a93b 6cd8 9abc 53c7 8bbd f94e febd
00000100: d3a1 c1be ef09 1b3f 48ae 043e 5274 c83d
00000110: 5bb4 bdbd 8700 ad3d 2c97 c5be dce5 593e
00000120: 2c82 933a 9701 66bd 17e0 853a 0ca8 4f3d
00000130: c3c2 b73d 9ed4 713d 9e31 0c3e d43d aa3d
00000140: 21e1 d13d d9d7 883e f89d 423e 8ad8 6d3e
00000150: 600f 4b3c ed77 d13d f36e 4bbd 4c2a 6cbd
00000160: 5e26 73bc b03c 90bd 0934 8cbd cf5d c13d
00000170: 4490 8abc 127f 08be d571 4fbd 1476 a83d
00000180: 0a00 90bb aaee 913d 9e55 f0bd 255c 0fbe
00000190: 3ae1 793d f3eb 70bc d694 933d 8350 24bc
000001a0: 6786 853d f7c9 ef3b 7662 78bd d900 c93d
000001b0: f154 e63d 5645 183d d22b a23d 6093 bd3d
000001c0: 19ba 55be 46a1 f8bd dd28 a4bd 3e87 fe3d
000001d0: 0d34 51bd 1fc9 7ebb b5d1 42be dbfc 25bd
000001e0: d94a a4bc 22ff ec3d 42eb 6b3d 93bb b93d
000001f0: 942d e73d b954 5dbc 564c b9bc 5afa fd3d
00000200: fdbe 143e 7a66 0ebf a9e4 963d 7396 743e
00000210: 8440 fe3d fcc6 cebd 2fcf c73d aa4e a7bd
00000220: 301b 133d 64f0 763a b359 f8bc aaff a4bd
00000230: eff6 ff3d 795a bf3d a33f 05be e53c cf3d
00000240: a4dc 353e 0212 233e e277 213e 75d8 893c
00000250: 607d 3d3c 5670 ef3d 73c3 c5bd 9849 0d3e
00000260: aaa3 eabb 819b 19bc 22f1 06be d434 8fbc
00000270: 09f8 a0bd 09dd f13c b01f dabd 49e9 933e
00000280: 6a6f 0c3f a62d ff3e fae3 aabd c29f a93d
00000290: f045 c4bd b919 6cbe 5dbd b2bd 9429 603e
000002a0: 18dd 4f3d be91 acbd 61d9 eb3c 5c1e b83d
000002b0: a5fb ce3d 3c8a aabd d259 28bc 16f0 133e
000002c0: 3357 883d bb18 073f 1f7a 3e3e 1ea5 1cbe
000002d0: e879 c0bd cc42 593c 2f2c e63d 6ef7 b13c
000002e0: 0cd9 4c3d 35d8 a33c 8f2e a7bd 75b4 163e
000002f0: 1746 693d 4789 0fbd 157f f43c 2709 adbd
00000300: 1982 5b3d 9457 6c3c 8f32 c93c e1e5 333e
00000310: 2ea8 a93d 9909 ed3d 1a52 71bd 695f e9bd
00000320: 9f34 a83d 0b19 05be 2a2a d63b 1a22 fb3d
00000330: 730b c1bd 66f6 9f3d 52bf 9a3d d66c 40be
00000340: dcbf d5be 35a3 4b3e 88a4 9abd 39ea 20bb
00000350: fc6a e53d 58e9 51be 6fb5 b2bd 1a6e 0fbe
00000360: cd82 12bd 16a2 0abe 7828 cd3d 3687 a8bd
00000370: f816 bf3d ecb5 f43d 68a6 113e 1d6f 85bd
00000380: cdac 91bc 83bf c93e 8470 0c3e 6113 a33e
00000390: e07d 39bd eaff abbd 61ea 293e a189 693d
000003a0: e642 f9bd 5c7f c93c 9e43 053c 1954 5c3d
000003b0: f7b5 fd3d a610 cfbd d660 503d 9563 a33d
000003c0: 74dc aa3e fd9e c33e 538b c13c 5fcd 053c
000003d0: defa c63e 9518 393d 0d84 8c3d 6c1d 5ebd
000003e0: 141a e3bd 8537 d1bd b108 73bd a6b6 593e
000003f0: 14d6 5cbd bc4e f9bd 409b 823e 9cfa 5c3e

encoder.conv2d_2.bias f4 [32]
-0.00829974 0.015278997 -0.13452247 -0.05417077 0.072144195 0.0975773 0.14630748 0.073916115
0.06850873 0.060068496 0.070366085 -0.1316061 -0.045573525 0.1380784 -0.053345334 0.208901
-0.08388283 -0.09485291 -0.073504254 0.10473171 -0.036591463 0.009147386 -0.014283325 -0.014668518
0.06705957 -0.018871797 0.010043692 0.0778509 -0.13813601 0.050869573 -0.007713555 -0.08671665
00000000: a2fb 07bc c254 7a3c 42c0 09be 2be2 5dbd
00000010: 56c0 933d 9cd6 c73d a1d1 153e 5561 973d
00000020: 4e4e 8c3d 620a 763d 181c 903d c0c3 06be
00000030: 4eab 3abd 6d64 0d3e a380 5abd 25ea 553e
00000040: c3ca abbd 3e42 c2bd 6689 96bd 947d d63d
00000050: eee0 15bd ebde 153c 9b04 6abc 3954 70bc
00000060: 8756 893d 0799 9abc 4c8e 243c 4b70 9f3d
00000070: 8773 0dbe 9d5c 503d fdc1 fcbb 8098 b1bd

encoder.conv2d_3.weight f4 [64, 32, 1, 3]
-0.08060557 -0.08536942 0.07058627 0.00891741 -0.08498153 0.051965877 0.038746428 -0.048806116
0.04311772 -0.011732105 -0.07777307 -0.0029381737 -0.045480717 -0.03022551 -0.0354897 0.07668742
-0.07547973 -0.013266613 0.03586408 0.081224225 -0.08940061 -0.027292633 -0.11362225 -0.06926396
0.026491404 -0.11364725 -0.078510106 0.026451986 -0.0029054775 0.064980455 0.060815975 -0.069410115
-0.06663812 -0.026562326 0.002426061 -0.082684 0.07469041 -0.0781625 -0.10930097 -0.087942824
0.022475585 0.00037119313 0.068560354 0.07269439 -0.100054316 -0.011857737 -0.045039013 -0.07198875
-0.058655635 -0.06646473 0.087924935 -0.0036515202 0.023212312 -0.06062414 -0.07416809 0.05794057
0.046803046 0.077258565 0.005485764 0.029307054 -0.10199878 0.08319942 -0.07251107 0.0030973481
-0.0026375642 0.06468047 -0.058275983 0.09140708 -0.074877605 0.017152818 -0.04655352 0.0018872501
-0.07434811 -0.046377745 0.055048883 -0.05852804 -0.10055793 0.055447746 -0.085277505 -0.035397246
-0.06889056 -0.06150415 -0.019971145 -0.09866721 0.029807521 -0.09767253 0.058805104 -0.02808281
-0.108935185 -0.043175247 -0.026259625 0.04442352 -0.08207674 0.024563964 -0.10723351 0.07488084
0.07876331 -0.08408399 0.08048495 -0.03842022 -0.037267387 -0.08086117 -0.103176214 0.09242505
0.079468384 0.11056656 -0.069106594 0.0939911 0.032875124 -0.10338174 0.13584808 -0.087544814
-0.012573869 0.1224133 -0.11771928 0.073566765 -0.03764933 0.026401408 0.06682185 0.04957855
0.15059553 0.0071600117 -0.056542315 -0.058330633 -0.01272677 -0.12734672 0.08639247 0.018176563
0.053551786 -0.06232376 0.017695094 0.025097119 0.04799823 0.008244061 0.018766204 0.15470487
0.06944285 -0.12512854 0.041129928 0.028838534 0.08432733 0.13933086 0.10406381 -0.1987698
0.068216436 0.006612615 0.046430767 -0.06504148 0.06420004 0.016061077 -0.057531342 -0.1020427
-0.08587085 0.08192344 -0.121468455 -0.1247559 0.07461523 -0.007034777 -0.032517545 -0.1499854
-0.09614608 -0.06732119 -0.009221105 0.098179266 -0.014484209 0.014260361 0.012322573 0.040118106
-0.023639034 0.07975384 -0.08624913 0.040170405 0.029114315 0.03051736 0.038779795 -0.08911138
-0.056185998 0.18261504 -0.02524071 -0.047288705 -0.081825234 -0.03077979 0.041964293 -0.012425791
-0.094365865 -0.04015228 0.29935235 -0.21646146 0.43276098 0.01171624 0.11741956 -0.013723204
-0.014553803 0.080501325 -0.060985006 0.03939711 0.013521527 -0.03771098 0.06748623 -0.029522492
0.030648645 -0.07600561 -0.08366082 -0.014103086 0.038167354 -0.08753267 0.0046581365 -0.012597463
0.06669967 0.045818157 -0.023215396 0.09493471 -0.08199546 0.03580231 -0.04010963 -0.033411667
-0.02585873 -0.05160914 -0.08634028 -0.041980814 -0.09304008 -0.0747635 0.07283393 0.0023039684
0.01406358 0.0037505704 -0.052868363 -0.1014968 -0.055260357 -0.02828135 0.100577086 -0.066275254
0.035125595 -0.0815522 -0.057977546 -0.02041691 -0.08175546 0.08276498 -0.0137743885 0.093687445
-0.020536315 0.07968136 -0.082126096 0.07832456 0.05202477 0.087383114 -0.04890172 0.09189389
-0.0771792 0.042401686 0.081960045 -0.051836222 -0.03144194 0.03581355 0.09549863 -0.01196787
00000000: 8814 a5bd 2ad6 aebd 898f 903d 541a 123c
00000010: cc0a aebd 2cda 543d 93b4 1e3d ece8 47bd
00000020: 359c 303d 0438 40bc 7d47 9fbd 608e 40bb
00000030: fd49 3abd 7d9b f7bc a65d 11bd 4b0e 9d3d
00000040: 1e95 9abd 355c 59bc 37e6 123d e358 a63d
00000050: ab17 b7bd cd94 dfbc c8b2 e8bd 43da 8dbd
00000060: 8004 d93c e4bf e8bd e8c9 a0bd d6b1 d83c
00000070: d369 3ebb 7914 853d 2c1a 793d e426 8ebd
00000080: 9179 88bd 3c99 d9bc 8dfe 1e3b 3b56 a9bd
00000090: 49f7 983d a913 a0bd 30d9 dfbd 5e1b b4bd
000000a0: b81e b83c b39c c239 5f69 8c3d cce0 943d
000000b0: 47e9 ccbd f446 42bc d47a 38bd d66e 93bd
000000c0: e440 70bd a91e 88bd fd11 b43d 584e 6fbb
000000d0: bf27 be3c 0551 78bd 71e5 97bd 1753 6d3d
000000e0: 8db4 3f3d bd39 9e3d ecc1 b33b 5915 f03c
000000f0: bde4 d0bd 7564 aa3d af80 94bd e1fc 4a3b
00000100: fcda 2cbb 3277 843d ccb2 6ebd a333 bb3d
00000110: 6e59 99bd 1184 8c3c e7ae 3ebd 9b5d f73a
00000120: d243 98bd 97f6 3dbd f07a 613d 19bb 6fbd
00000130: 51f1 cdbd 2d1d 633d f9a5 aebd b4fc 10bd
00000140: 7e16 8dbd c7eb 7bbd 879a a3bc 0912 cabd
00000150: e72e f43c 8908 c8bd 9fdd 703d ec0d e6bc
00000160: 6919 dfbd 87d8 30bd 6d1e d7bc 70f5 353d
00000170: da17 a8bd 5e3a c93c 3e9d dbbd 205b 993d
00000180: a94e a13d 3a34 acbd 4bd5 a43d 855e 1dbd
00000190: b0a5 18bd 8b9a a5bd 0d4e d3bd 5849 bd3d
000001a0: 52c0 a23d b870 e23d c287 8dbd 687e c03d
000001b0: 11a8 063d ceb9 d3bd c21b 0b3e b24a b3bd
000001c0: a102 4ebc d3b3 fa3d ce16 f1bd 2caa 963d
000001d0: 2f36 1abd c447 d83c e5d9 883d e112 4b3d
000001e0: b735 1a3e 889e ea3b ea98 67bd 1aec 6ebd
000001f0: f183 50bc 2e67 02be 89ee b03d 04e7 943c
00000200: 1e59 5b3d 3347 7fbd 4df5 903c 7998 cd3c
00000210: cb99 443d 1912 073c 95bb 993c f46a 1e3e
00000220: 0e38 8e3d b221 00be db77 283d ca3e ec3c
00000230: cfb3 ac3d c0ac 0e3e 681f d53d 4f8a 4bbe
00000240: 0fb5 8b3d a3ae d83b 302e 3e3d 7834 85bd
00000250: 507b 833d 8592 833c fca5 6bbd c3fb d0bd
00000260: 0edd afbd 7ac7 a73d 74c4 f8bd 0580 ffbd
00000270: dfcf 983d fd83 e6bb 1e31 05bd c695 19be
00000280: 3ce8 c4bd b1df 89bd 1e14 17bc 3612 c93d
00000290: 2d4f 6dbc 4aa4 693c 9ee4 493c e252 243d
000002a0: a6a6 c1bc fb55 a33d 62a3 b0bd b989 243d
000002b0: 2581 ee3c 8bff f93c 90d7 1e3d 0780 b6bd
000002c0: 4a23 66bd 70ff 3a3e 9bc5 cebc cdb1 41bd
000002d0: fd93 a7bd e625 fcbc c0e2 2b3d 8b95 4bbc
000002e0: e442 c1bd b876 24bd b644 993e 13a8 5dbe
000002f0: d992 dd3e 79f5 3f3c ab79 f03d 4ad7 60bc
00000300: 1373 6ebc e1dd a43d 6acb 79bd dd5e 213d
00000310: 6589 5d3c d476 1abd 3836 8a3d 27d9 f1bc
00000320: de12 fb3c d4a8 9bbd 5d56 abbd a110 67bc
00000330: 5f55 1c3d 5444 b3bd 48a3 983b 9765 4ebc
00000340: d699 883d d2ab 3b3d 372e bebc 216d c23d
00000350: 3ced a7bd 71a5 123d ff49 24bd acda 08bd
00000360: b0d5 d3bc 1b64 53bd 2cd3 b0bd 13f4 2bbd
00000370: cc8b bebd 9b1d 99bd f529 953d 2dfe 163b
00000380: ee6a 663c 21cc 753b 7f8c 58bd 8edd cfbd
00000390: af58 62bd 4aae e7bc 5cfb cd3d 52bb 87bd
000003a0: dbdf 0f3d d704 a7bd dd79 6dbd 5d41 a7bc
000003b0: 686f a7bd b080 a93d f9ad 61bc 34df bf3d
000003c0: c63b a8bc fb2f a33d ba31 a8bd a068 a03d
000003d0: ed17 553d ebf5 b23d 2c4d 48bd dd32 bc3d
000003e0: 2110 9ebd 64ad 2d3d abda a73d 3852 54bd
000003f0: 44c9 00bd 3bb1 123d c994 c33d e314 44bc

encoder.conv2d_3.bias f4 [64]
-0.11824195 -0.06915921 -0.08510893 -0.037570402 -0.05563332 0.07326352 -0.007479801 0.09257412
-0.0995002 -0.022350809 0.0935217 -0.058383893 -0.017680809 0.0072148987 0.046754938 -0.10805829
-0.021323053 0.10449196 0.016621659 -0.03240128 -0.06864219 0.10146096 -0.025573164 0.09434868
0.03378571 -0.091949284 0.007588712 -0.019287972 0.055872425 0.014925017 0.043951027 0.009792113
0.028259471 -0.052642744 -0.06316181 -0.047218118 0.093918435 -0.029724957 -0.012130296 -0.060218837
0.018526224 -0.042634904 -0.048634022 -0.055183485 0.003149264 0.012970824 -0.029074062 -0.10882885
-0.0044470783 0.04945271 -0.037059445 -0.099972606 0.041911002 0.075314604 0.02506552 -0.10381828
0.0022977723 0.088644266 -0.038718242 0.052857246 -0.0908246 0.09697746 0.0006336607 0.06396205
00000000: d628 f2bd 58a3 8dbd 974d aebd 6ce3 19bd
00000010: c4df 63bd 2f0b 963d 1e19 f5bb 8097 bd3d
00000020: c3c6 cbbd 0b19 b7bc 4e88 bf3d f323 6fbd
00000030: 58d7 90bc f56a ec3b 1b82 3f3d aa4d ddbd
00000040: afad aebc e1ff d53d 252a 883c 34b7 04bd
00000050: 4794 8cbd c4ca cf3d d07e d1bc e139 c13d
00000060: e262 0a3d e84f bcbd bbaa f83b cf01 9ebc
00000070: 7cda 643d 0f88 743c fe05 343d 196f 203c
00000080: 6880 e73c eb9f 57bd fb5a 81bd c967 41bd
00000090: 4f58 c03d c181 f3bc 26be 46bc 07a8 76bd
000000a0: 4fc4 973c f0a1 2ebd 7834 47bd 1408 62bd
000000b0: e263 4e3b 9483 543c ba2c eebc a9e1 debd
000000c0: ccb8 91bb ed8e 4a3d a5cb 17bd 70be ccbd
000000d0: dfaa 2b3d 8b3e 9a3d 3556 cd3c ae9e d4bd
000000e0: 3996 163b 208b b53d 0597 1ebd d780 583d
000000f0: 3f02 babd 1e9c c63d 401c 263a 89fe 823d

encoder.fc.weight f4 [16, 64]
-0.101020925 -0.105697125 -0.060447156 0.17053194 -0.013996473 -0.030619398 -0.11989301 -0.05213111
-0.02841639 0.059341464 -0.07798753 0.07412908 0.038112428 -0.038513117 -0.05226378 -0.08734938
0.0055533675 -0.12576765 0.078370005 -0.08083277 0.09718106 0.042524703 0.010176128 0.086833894
0.11824077 -0.015382774 0.047220018 -0.14009592 -0.13256375 0.0345321 -0.030054929 -0.023345502
0.07298748 0.03706881 -0.009622682 0.30606958 -0.11663844 0.09144999 0.044222146 -0.124858305
0.020304153 -0.10619106 -0.07481823 -0.06634632 0.08626264 0.08023812 -0.06967077 -0.10746573
-0.0926785 0.088156775 -0.04982114 0.031583544 -0.11675609 -0.049826924 -0.0791998 -0.082735404
-0.008849417 -0.118721806 0.011349565 0.03613197 -0.19633251 0.034005757 -0.011261486 0.015378416
-0.02037781 -0.027569823 -0.03144923 -0.20112212 0.09782747 0.019540422 -0.08141235 0.049186453
0.07365556 -0.08511161 -0.10139697 -0.022198837 0.15311952 -0.057460055 0.07866638 0.078225285
-0.052117854 0.031583764 -0.003745277 0.09994639 0.06288111 -0.009471085 -0.08065576 -0.08015749
-0.02128026 0.11156046 -0.11978978 -0.0898531 -0.03069226 -0.032989256 -0.087445684 0.03814961
0.08873827 -0.041001752 -0.048818186 0.32515493 0.07619771 0.03353385 0.09091771 -0.04428497
0.091580406 0.015481951 -0.101922214 0.031067621 -0.080847576 0.15294787 -0.12321216 -0.070934765
-0.047866654 -0.07164622 -0.11338472 0.05364392 0.15269412 0.05584079 0.078322254 0.11630621
0.09351507 0.033294883 0.03142007 0.003397175 -0.2915034 0.041044485 -0.05621867 -0.11552146
-0.11450556 -0.043827906 -0.07423872 -0.06991293 -0.05999037 -0.00047206695 -0.09020145 0.07229435
0.0004209764 -0.05728036 -0.014267079 0.10551863 -0.059397727 -0.1174071 0.12264364 0.049913064
-0.09168864 0.0051589385 -0.057863675 0.089960515 -0.14180435 -0.049435586 -0.020969216 0.011791953
-0.084669925 0.054927208 -0.0932985 0.06081172 -0.11321256 0.07472628 0.10999824 0.05325207
-0.05696574 -0.08299193 0.13211572 -0.519818 0.06145221 0.020179443 0.02601558 0.23414356
0.107739955 0.060995445 -0.061193883 -0.06624229 0.06490526 -0.10612285 -0.042315304 0.0827334
-0.003668441 0.09088115 -0.0055546416 -0.075880505 -0.15012947 0.02712367 -0.083053514 0.056495205
0.11598844 -0.044161543 -0.102013126 0.10397327 0.1877166 -0.036305066 0.11860239 0.10743958
-0.08979892 0.09989879 0.054307356 -0.085501485 0.10987638 -0.16503935 -0.105770804 0.18915503
0.05713661 -0.07299544 -0.10050473 0.07189164 -0.023414675 0.020528825 -0.05793039 0.11536227
0.07966972 0.092899375 -0.11473082 -0.07325664 0.07067404 -0.029019719 -0.0072329724 0.02932486
-0.10306647 0.13286264 0.014663 -0.086849585 0.09295498 0.085061125 -0.15523688 -0.0935724
-0.12784442 -0.02041473 -0.05225433 0.1540581 -0.059004113 0.04205369 0.11541276 0.04983292
0.039731335 0.049888715 0.02546976 0.10427345 0.09595092 0.04092235 -0.005040288 0.09156638
-0.2039291 0.004186604 0.109417446 -0.06826443 0.008342626 0.08014713 -0.21976855 -0.02830631
0.097764105 -0.13601956 0.114125036 -0.041168224 -0.32628965 0.15167923 -0.16136502 0.06002903
00000000: 0fe4 cebd bc77 d8bd 7097 77bd ed9f 2e3e
00000010: 7651 65bc 88d5 fabc 778a f5bd 6e87 55bd
00000020: 7dc9 e8bc 0910 733d edb7 9fbd fdd0 973d
00000030: c71b 1c3d eebf 1dbd 8c12 56bd 3be4 b2bd
00000040: 06f9 b53b 3cc9 00be 7480 a03d a78b a5bd
00000050: dd06 c73d 622e 2e3d c6b9 263c f8d5 b13d
00000060: 3828 f23d 0808 7cbc c769 413d 4e75 0fbe
00000070: cbbe 07be 8871 0d3d c135 f6bc 113f bfbc
00000080: 767a 953d 77d5 173d 74a8 1dbc 27b5 9c3e
00000090: 22e0 eebd 224a bb3d 4822 353d b6b5 ffbd
000000a0: e554 a63c b37a d9bd 4d3a 99bd 94e0 87bd
000000b0: 78aa b03d e253 a43d 8caf 8ebd fe16 dcbd
000000c0: 3ace bdbd 8a8b b43d 4011 4cbd bf5d 013d
000000d0: d11d efbd 5117 4cbd 8133 a2bd 2e71 a9bd
000000e0: 25fd 10bc 6b24 f3bd 87f3 393c 1eff 133d
000000f0: 640b 49be 9f49 0b3d 1982 38bc c0f5 7b3c
00000100: 5def a6bc 1cda e1bc e8d0 00bd f5f2 4dbe
00000110: c559 c83d 3c13 a03c 85bb a6bd bc77 493d
00000120: bad8 963d ff4e aebd 37a9 cfbd 56da b5bc
00000130: 5dcb 1c3e 3c5b 6bbd d71b a13d 9434 a03d
00000140: 8879 55bd fa5d 013d 5273 75bb b1b0 cc3d
00000150: d0c7 803d 9c2c 1bbc d92e a5bd 9c29 a4bd
00000160: f153 aebc cf79 e43d 5854 f5bd e704 b8bd
00000170: 566e fbbc be1f 07bd b916 b3bd c442 1c3d
00000180: 69bc b53d 74f1 27bd 94f5 47bd b57a a63e
00000190: 8c0d 9c3d ca5a 093d 1033 ba3d 2864 35bd
000001a0: 828e bb3d 02a8 7d3c 98bc d0bd 8681 fe3c
000001b0: 6a93 a5bd 5e9e 1c3e a856 fcbd 3f46 91bd
000001c0: d30f 44bd 41bb 92bd 4036 e8bd bab9 5b3d
000001d0: d95b 1c3e 50b9 643d 6b67 a03d f331 ee3d
000001e0: d484 bf3d 3760 083d 55b2 003d 24a3 5e3b
000001f0: ef3f 95be 431e 283d 8c45 66bd 8496 ecbd
00000200: e481 eabd e484 33bd 780a 98bd 832e 8fbd
00000210: 76b8 75bd c17f f7b9 8abb b8bd 0f0f 943d
00000220: 7fb6 dc39 d09e 6abd 77c0 69bc 271a d83d
00000230: 084b 73bd 2273 f0bd 972c fb3d a471 4c3d
00000240: 41c7 bbbd 500c a93b 7602 6dbd 383d b83d
00000250: 2935 11be f87c 4abd a2c7 abbc 0933 413c
00000260: 6d67 adbd 5afb 603d 4913 bfbd b615 793d
00000270: fddb e7bd 180a 993d c246 e13d d81e 5a3d
00000280: e854 69bd acf7 a9bd 5849 073e cb12 05bf
00000290: 50b5 7b3d 5c4f a53c a01e d53c 54c3 6f3e
000002a0: c4a6 dc3d 5cd6 793d 70a6 7abd 0aaa 87bd
000002b0: 0ded 843d f056 d9bd d052 2dbd 2170 a93d
000002c0: 3a6a 70bb e51f ba3d b603 b6bb 3d67 9bbd
000002d0: 8abb 19be 7532 de3c f617 aabd 8467 673d
000002e0: 598b ed3d bce2 34bd 42ec d0bd f0ef d43d
000002f0: c838 403e 9fb4 14bd cfe5 f23d 4809 dc3d
00000300: 7fe8 b7bd bd97 cc3d 6471 5e3d 671b afbd
00000310: de06 e13d 1300 29be 5d9e d8bd dbb1 413e
00000320: 1408 6a3d a27e 95bd 6dd5 cdbd ed3b 933d
00000330: 22d0 bfbc 112c a83c 6b48 6dbd 0e43 ec3d
00000340: e129 a33d 0742 be3d fef7 eabd 9407 96bd
00000350: 8dbd 903d c3ba edbc 9202 edbb b03a f03c
00000360: 8314 d3bd 250d 083e 143d 703c 32de b1bd
00000370: 2e5f be3d 8734 ae3d 6bf6 1ebe e3a2 bfbd
00000380: a6e9 02be cb3c a7bc a308 56bd 68c1 1d3e
00000390: 4cae 71bd 7d40 2c3d 865d ec3d 9b1d 4c3d
000003a0: 53bd 223d 1c58 4c3d f5a5 d03c 528d d53d
000003b0: ea81 c43d 329e 273d 0029 a5bb 2787 bb3d
000003c0: cad2 50be c82f 893b 4116 e03d 39ce 8bbd
000003d0: 82af 083c 2e24 a43d 020b 61be a2e2 e7bc
000003e0: 8c38 c83d b648 0bbe 63ba e93d 03a0 28bd
000003f0: 700f a7be cd51 1b3e df3c 25be 00e1 753d

encoder.fc.bias f4 [16]
0.037477266 -0.08743673 0.017734008 -0.06703482 -0.09268538 0.11679489 0.15430483 -0.12555169
-0.03606228 0.08452542 -0.07161491 0.10229105 -0.09433765 -0.011943904 0.03471488 0.12702179
00000000: c381 193d 0712 b3bd e946 913c 8d49 89bd
00000010: d5d1 bdbd 2932 ef3d 1602 1e3e 9f90 00be
00000020: 0bb6 13bd aa1b ad3d d7aa 92bd f87d d13d
00000030: 1934 c1bd 5db0 43bc 3131 0e3d 0012 023e

decoder.decoder_fc1.weight f4 [64, 16]
-0.07463062 -0.07927449 -0.22441998 0.15629077 -0.06000884 -0.15541962 -0.09350303 -0.20619677
0.06479663 0.11516018 -0.16363753 0.11505711 0.057718433 0.06606754 -0.17258961 -0.16643085
-0.118983135 0.013472579 0.23693036 -0.22706494 -0.068601005 -0.11820757 -0.064425625 -0.13480769
-0.03118263 -0.6603092 -0.6048282 0.06807412 0.047052044 0.52088624 0.09920123 0.22213121
0.20031174 -0.2421153 0.070232034 0.16959141 -0.10534606 0.07192335 -0.016661853 -0.18731515
0.14728907 0.010055944 0.18693136 0.17856634 -0.047678877 0.2428047 -0.07356836 -0.15081832
-0.046234895 -0.08320126 -0.046116866 -0.46557885 0.13135917 -0.20618996 0.23522618 -0.21436213
0.19472885 0.49004227 0.571043 -0.042217456 0.04777783 -0.55265445 -0.075554326 -0.2673438
0.042361915 0.09494731 0.09749237 0.084908396 0.09040114 -0.14844608 -0.02968344 -0.020686239
-0.23342988 0.19526464 0.238844 -0.1397511 -0.0024875402 -0.04763466 -0.04805404 -0.099674165
-0.10172706 0.25225165 -0.1510839 -0.042458043 -0.15355596 0.23150796 0.19715242 0.18642578
0.14785796 0.08430423 -0.18455184 0.15974295 0.013910585 0.10825623 0.15100163 0.1678805
-0.14533682 0.024469605 -0.056362204 -0.04441763 0.015354776 -0.21785194 0.17199893 -0.020323167
-0.079718865 -0.21257365 -0.09693042 0.14361806 -0.07580999 -0.025102096 -0.2389152 0.079742216
-0.10099132 0.10682522 -0.2595992 0.20507157 -0.050969843 -0.01276131 0.10872432 -0.18091261
0.25962973 0.17314279 -0.23011237 0.21413092 -0.050212767 -0.26714498 -0.20095441 -0.22371902
0.028417915 0.107624464 0.037613638 0.26492354 -0.10836684 0.19578256 -0.21979916 -0.08843382
0.15831971 0.20650007 0.23718001 0.19816919 -0.046009235 -0.16117862 0.21056463 0.041706443
0.123437464 0.07537433 -0.14291106 0.39194956 -0.027000068 0.21964355 0.20798923 -0.016926972
0.008089602 -0.24414462 -0.41498336 0.010877177 0.009013695 -0.073775195 0.06342234 0.16815893
-0.2015382 0.14941564 -0.18472761 -0.012870009 -0.13060015 0.0034406008 -0.029033879 -0.2463998
0.1541486 -0.75619346 -0.27260715 0.38870057 0.15433812 -0.1893391 -0.11991076 0.0417653
-0.18542145 -0.16111313 -0.050957743 -0.3771367 -0.2262634 0.021625169 0.18955511 -0.22521774
-0.01316611 -0.25635293 -0.15144365 0.2115984 0.032748282 0.13521308 -0.07224996 -0.14800394
-0.10538402 -0.11916834 0.11657742 -0.048381418 0.019505084 0.17934984 0.0061601996 -0.07960093
-0.17755988 -0.064510316 0.15720859 -0.23684436 -0.12990728 0.09485537 -0.14935488 -0.08950254
0.033467237 0.17651507 0.080666736 -0.060226705 0.15387453 0.20689134 0.011614173 -0.13409325
0.08671196 0.18624213 0.06597725 -0.17940472 -0.005366271 0.19802049 -0.037943635 0.14864436
0.20481531 0.15372495 -0.36781612 0.19157432 -0.021199353 0.2632757 0.20144865 0.23442933
0.30477488 0.31570607 0.08374464 -0.40930977 0.055154793 0.096309915 -0.02649332 0.10250837
-0.19541718 0.07542692 -0.15947926 -0.09515487 -0.0708987 0.20804845 0.16214375 0.19074522
0.03558559 -0.18500033 0.021291545 0.099576265 -0.022397267 0.13585672 -0.012274995 0.13352062
00000000: f0d7 98bd aa5a a2bd 5ace 65be b00a 203e
00000010: d4cb 75bd 5226 1fbe 847e bfbd 3f25 53be
00000020: 18b4 843d 1ad9 eb3d 9990 27be 10a3 eb3d
00000030: 2a6a 6c3d 6b4e 873d 55bb 30be d96c 2abe
00000040: 6ead f3bd 18bc 5c3c df9d 723e b683 68be
00000050: af7e 8cbd cf16 f2bd 95f1 83bd 070b 0abe
00000060: b772 ffbc 060a 29bf 05d6 1abf 726a 8b3d
00000070: a5b9 403d cd58 053f 042a cb3d 5d76 633e
00000080: 851e 4d3e 13ed 77be d0d5 8f3d 5fa9 2d3e
00000090: adbf d7bd 8d4c 933d 707e 88bc 8bcf 3fbe
000000a0: f2d2 163e b0c1 243c ef6a 3f3e 18da 363e
000000b0: ed4a 43bd cca1 783e 02ab 96bd 1e70 1abe
000000c0: cd60 3dbd 6c65 aabd 0ae5 3cbd 5a60 eebe
000000d0: 0583 063e 7623 53be 22df 703e bf81 5bbe
000000e0: 0067 473e d2e6 fa3e e02f 123f 36ec 2cbd
000000f0: b0b2 433d c37a 0dbf 3abc 9abd 49e1 88be
00000100: b083 2d3d bc73 c23d 14aa c73d 74e4 ad3d
00000110: 3c24 b93d 4002 18be b02a f3bc 3076 a9bc
00000120: 3e08 6fbe 74f3 473e 8693 743e ea1a 0fbe
00000130: 0006 23bb 901c 43bd 50d4 44bd f821 ccbd
00000140: 4756 d0bd 2127 813e bdb5 1abe 7ce8 2dbd
00000150: c63d 1dbe 6c10 6d3e 53e2 493e 66e6 3e3e
00000160: 1468 173e b2a7 ac3d 28fb 3cbe a893 233e
00000170: 39e9 633c 71b5 dd3d 2ca0 1a3e dee8 2b3e
00000180: 2dd3 14be 7b74 c83c 0edc 66bd 43ef 35bd
00000190: 9992 7b3c 9414 5fbe 7d20 303e c57c a6bc
000001a0: a543 a3bd e8ac 59be 7583 c6bd 9d10 133e
000001b0: 4542 9bbd e9a2 cdbc 30a6 74be e34f a33d
000001c0: 8ad4 cebd 2ec7 da3d 30ea 84be 48fe 513e
000001d0: c1c5 50bd d014 51bc dbaa de3d 2841 39be
000001e0: 30ee 843e 584c 313e 94a2 6bbe 2345 5b3e
000001f0: e7ab 4dbd 3ac7 88be fec6 4dbe 9916 65be
00000200: b0cc e83c 376a dc3d c210 1a3d 0fa4 873e
00000210: 6fef ddbd 397b 483e 0813 61be ca1c b5bd
00000220: 901e 223e c174 533e 51df 723e ddec 4a3e
00000230: 2e74 3cbd 020c 25be 419e 573e 60d4 2a3d
00000240: c8cc fc3d db5d 9a3d 4757 12be 9dad c83e
00000250: 3f2f ddbc 3dea 603e 21fb 543e 6faa 8abc
00000260: 408a 043c 0c01 7abe b378 d4be 3036 323c
00000270: 2dae 133c 7317 97bd 92e3 813d db31 2c3e
00000280: 0860 4ebe 6a00 193e 3c29 3dbe bbdc 52bc
00000290: 0cbc 05be b47b 613b 75d8 edbc 3b50 7cbe
000002a0: 21d9 1d3e e595 41bf 2a93 8bbe c303 c73e
000002b0: d00a 1e3e 1ce2 41be c693 f5bd 1712 2b3d
000002c0: 1fdf 3dbe d7fa 24be 11b9 50bd 1018 c1be
000002d0: 98b1 67be 4427 b13c bc1a 423e 7b9f 66be
000002e0: abb6 57bc b140 83be 0b14 1bbe 40ad 583e
000002f0: 1023 063d 4c75 0a3e c9f7 93bd 588e 17be
00000300: 94d3 d7bd 880e f4bd 24c0 ee3d 982b 46bd
00000310: 20c9 9f3c 7ca7 373e 80db c93b d005 a3bd
00000320: 42d2 35be fc1d 84bd 4afb 203e 5487 72be
00000330: 6a06 05be 8843 c23d 7cf0 18be 1c4d b7bd
00000340: f114 093d 5ec0 343e 9a34 a53d 47b0 76bd
00000350: 4991 1d3e 53db 533e 5f49 3e3c be4f 09be
00000360: 0a96 b13d 42b6 3e3e 151f 873d dfb5 37be
00000370: 8bd7 afbb e2c5 4a3e c96a 1bbd 3a36 183e
00000380: 1bbb 513e 136a 1d3e 6552 bcbe 0f2c 443e
00000390: 44aa adbc 13cc 863e 8e48 4e3e 3e0e 703e
000003a0: 740b 9c3e 3aa4 a13e 4f82 ab3d 0d91 d1be
000003b0: fee9 613d 223e c53d 8508 d9bc e9ef d13d
000003c0: 711b 48be 6e79 9a3d 884e 23be 8ee0 c2bd
000003d0: 5633 91bd a70a 553e 0309 263e b752 433e
000003e0: 32c2 113d ba70 3dbe 9b6b ae3c a4ee cb3d
000003f0: 797a b7bc 061e 0b3e 101d 49bc a1b9 083e

decoder.decoder_fc1.bias f4 [64]
-0.028953822 -0.043138657 -0.20336638 -0.1965869 -0.24652526 0.16168302 -0.0035241016 0.0950663
0.060666326 -0.19769342 -0.13862401 0.01170943 -0.016000926 0.24532695 -0.10787439 0.06564658
0.15252803 0.23753892 -0.2485947 -0.07678679 -0.07625115 0.13747899 -0.021239135 -0.18187699
0.055951133 -0.17061715 -0.14104933 0.15586448 0.1601181 -0.17552307 -0.24999085 -0.21924971
-0.13322991 0.24802783 -0.16494179 -0.1657744 0.074814744 0.061544634 -0.09737444 0.101940826
-0.0868015 0.043403022 -0.03519805 -0.12282905 -0.16286108 0.23297164 -0.22697732 -0.088537164
-0.007166111 0.23775627 -0.23976108 -0.19502333 0.09464858 -0.17138043 -0.13400032 -0.07386003
0.032902494 0.06788239 -0.14691764 -0.102207586 -0.07717583 0.27334097 -0.10305908 -0.021461766
00000000: 9130 edbc 29b2 30bd 473f 50be 144e 49be
00000010: 1e71 7cbe 3c90 253e 9df4 66bb 1fb2 c23d
00000020: 417d 783d 2570 4abe 74f3 0dbe e9d8 3f3c
00000030: 6014 83bc fd36 7b3e 40ed dcbd b771 863d
00000040: 4f30 1c3e 673d 733e 9c8f 7ebe 6442 9dbd
00000050: 9029 9cbd 4bc7 0c3e b2fd adbc f63d 3abe
00000060: 042d 653d 43b6 2ebe 3c6f 10be f09a 1f3e
00000070: 00f6 233e 52bc 33be 9afd 7fbe ff82 60be
00000080: 6c6d 08be 02fb 7d3e 80e6 28be c4c0 29be
00000090: 7938 993d 3a16 7c3d 406c c7bd 5ac6 d03d
000000a0: fcc4 b1bd 5ec7 313d d52b 10bd cc8d fbbd
000000b0: 0ec5 26be 1e90 6e3e be6c 68be f952 b5bd
000000c0: b2d1 eabb 6176 733e ee83 75be 32b4 47be
000000d0: 1dd7 c13d 5a7e 2fbe 6137 09be ed43 97bd
000000e0: c4c4 063d ec05 8b3d 9471 16be 3652 d1bd
000000f0: 5d0e 9ebd 59f3 8b3e a410 d3bd 96d0 afbc

decoder.decoder_fc2.weight f4 [128, 64]
-0.06078817 0.1150025 0.11120218 -0.06194648 0.036226556 -0.108871266 0.065270156 0.022868754
-0.093564905 0.0005182905 -0.033101514 -0.066678345 -0.0229498 0.010011233 0.013732934 0.010079883
-0.010954834 0.04996966 -0.053923547 -0.018084206 -0.04957807 -0.09026745 0.09356247 0.112954825
-0.09712521 -0.0505971 -0.032736197 0.06851964 0.0016230774 0.036962777 0.037490726 -0.022428595
0.12472984 -0.11334157 -0.04371035 -0.10414386 0.011496577 -0.10227145 0.024165064 -0.0010167211
-0.011858344 0.031006062 0.023617763 0.10029799 0.04246019 -0.096449174 0.11701189 -0.056690153
-0.07657353 -0.013000302 0.08641046 -0.11405881 0.008066443 -0.097942725 0.015224625 -0.07738334
0.104422316 -0.111144565 0.059292585 0.025342729 0.11148529 -0.123644225 0.029957041 -0.06335311
-0.11258836 0.08866248 0.074328676 0.05091797 -0.0805206 0.007387841 0.075728506 0.08415279
-0.08172034 0.0671966 -0.008075855 -0.09693207 0.12257099 -0.1038717 -0.0063475193 -0.12387335
0.022759635 0.049531672 0.09623565 -0.10120581 -0.11128859 0.097044185 -0.0872382 -0.067127556
-0.101488926 0.09339987 0.055658333 -0.08460912 0.052195955 0.066718444 -0.09997447 -0.081643745
-0.04768698 -0.026777076 -0.03334336 -0.021496877 0.010742491 -0.08890843 0.08472662 -0.06410743
-0.045417756 -0.088519365 0.118913576 -0.038861513 -0.05618085 0.04284568 0.08511415 -0.099478565
-0.047260392 -0.11386224 0.014946386 -0.03625931 -0.11629933 0.043968692 0.09370889 0.021418642
0.04512821 -0.04318457 -0.09700312 0.08718376 -0.0144060105 0.0836421 0.041668177 -0.016990865
0.07274729 -0.3711537 -0.014168159 -0.15763111 0.0783439 -0.07256135 -0.025412967 -0.13868596
-0.06666601 -0.064765505 0.09635252 -0.086318254 -0.079719186 -0.035257302 0.1725456 -0.034465764
-0.15326568 -0.58438045 0.06810306 0.19923677 0.005300328 -0.13102946 0.058243953 -0.0050625056
0.103929 -0.07289368 -0.30255798 0.057634175 0.061113365 0.08976428 -0.10894807 -0.08802009
0.049987465 0.0913906 -0.07445969 0.104051456 -0.10508716 0.08726472 0.025199475 0.019506335
0.06819528 -0.111669846 0.09187035 0.09033416 -0.026046008 -0.05432361 0.102119386 -0.012679884
0.008221572 -0.1560557 0.034058303 -0.0089440495 -0.0702364 0.033740148 0.12954535 0.13949093
-0.03578247 0.035804037 -0.019690126 -0.28217924 0.0965027 0.04925333 -0.086319506 0.29195744
-0.085781075 0.14917415 -0.12752746 -0.31665748 0.12496315 0.0342298 -0.07456957 0.109610036
-0.097519085 -0.057272103 0.0016301249 -0.07514002 -0.033644453 0.010767935 -0.22559413 -0.050758258
-0.018768784 -0.0061521837 -0.06688617 0.036025982 -0.09826891 0.016116897 0.05426557 0.071482554
0.1275607 0.062998034 0.1033895 -0.041071218 0.122391604 -0.030213475 -0.05715841 0.03113921
-0.0075894445 -0.11212422 -0.018201903 -0.038284943 0.01776857 0.0120668905 0.032001935 -0.058743034
0.120418414 -0.087703496 -0.2949972 0.10006653 -0.11510156 0.11134655 -0.07095592 0.119627126
-0.005879445 0.03179843 -0.038483337 -0.017029136 0.03184516 0.0063033253 0.028160905 -0.109236166
0.039019845 -0.03659076 0.002841914 0.23939812 0.01732996 0.09491278 -0.05627346 -0.22748685
00000000: 04fd 78bd 6e86 eb3d f8bd e33d 98bb 7dbd
00000010: 4c62 143d e6f7 debd 5cac 853d 4157 bb3c
00000020: f59e bfbd e3dd 073a 7495 07bd a88e 88bd
00000030: 3801 bcbc 2806 243c 1a00 613c 1826 253c
00000040: e77b 33bc fcac 4c3d f0de 5cbd 5425 94bc
00000050: 6012 4bbd 24de b8bd ae9d bf3d dc54 e73d
00000060: 95e9 c6bd e83e 4fbd 6416 06bd 0654 8c3d
00000070: 71bd d43a 4866 173d e08f 193d 2cbc b7bc
00000080: 5c72 ff3d a01f e8bd a009 33bd 6049 d5bd
00000090: 245c 3c3c b273 d1bd d0f5 c53c 8043 85ba
000000a0: 8049 42bc 6d00 fe3c 0a7a c13c 0869 cd3d
000000b0: bcea 2d3d 2587 c5bd eea3 ef3d ef33 68bd
000000c0: 95d2 9cbd 38ff 54bc f8f7 b03d aa97 e9bd
000000d0: 1d29 043c 3296 c8bd b570 793c 287b 9ebd
000000e0: 5edb d53d c39f e3bd c8dc 723d 8e9b cf3c
000000f0: 6652 e43d 2f39 fdbd 7868 f53c 46bf 81bd
00000100: ba94 e6bd ad94 b53d a239 983d 5c8f 503d
00000110: fce7 a4bd b415 f23b 8c17 9b3d 4c58 ac3d
00000120: fe5c a7bd 5f9e 893d 9750 04bc 5284 c6bd
00000130: 8006 fb3d b0ba d4bd dafe cfbb 50b1 fdbd
00000140: 6a72 ba3c b9e1 4a3d 3217 c53d fe44 cfbd
00000150: 46eb e3bd 1abf c63d f1a9 b2bd 2c7a 89bd
00000160: 6dd9 cfbd 6e48 bf3d fef9 633d 8c47 adbd
00000170: 6dcb 553d aea3 883d 6abf ccbd d634 a7bd
00000180: 6c53 43bd 995b dbbc 0c93 08bd 381a b0bc
00000190: 4601 303c 9f15 b6bd 2685 ad3d c24a 83bd
000001a0: f807 3abd a449 b5bd f688 f33d 402d 1fbd
000001b0: e41d 66bd f47e 2f3d 5450 ae3d 6bbb cbbd
000001c0: 1d94 41bd 9b30 e9bd b0e1 743c a484 14bd
000001d0: 582e eebd 8418 343d 72ea bf3d 2676 af3c
000001e0: 5cd8 383d 4ee2 30bd 92a9 c6bd 668d b23d
000001f0: 3007 6cbc 8d4c ab3d 40ac 2a3d 6d30 8bbc
00000200: 88fc 943d dc07 bebe 9121 68bc 0d6a 21be
00000210: c472 a03d 0c9b 94bd db2e d0bc b103 0ebe
00000220: 3088 88bd c7a3 84bd 7854 c53d a0c7 b0bd
00000230: d043 a3bd f669 10bd cbaf 303e f92b 0dbd
00000240: aef1 1cbe f599 15bf 9e79 8b3d b904 4c3e
00000250: 60ae ad3b 962c 06be 3691 6e3d 60e3 a5bb
00000260: bad8 d43d 4849 95bd e1e8 9abe d011 6c3d
00000270: 0252 7a3d 56d6 b73d 2a20 dfbd e043 b4bd
00000280: a8bf 4c3d ff2a bb3d 527e 98bd ee18 d53d
00000290: f037 d7bd d8b7 b23d 216f ce3c c0cb 9f3c
000002a0: f8a9 8b3d 29b3 e4bd 8626 bc3d 1e01 b93d
000002b0: 705e d5bc 6f82 5ebd f823 d13d 4abf 4fbc
000002c0: c6b3 063c 11cd 1fbe b880 0b3d 108a 12bc
000002d0: 1ad8 8fbd 1c33 0a3d 89a7 043e b6d6 0e3e
000002e0: a490 12bd 41a7 123d 304d a1bc cc79 90be
000002f0: 35a3 c53d dcbd 493d 48c8 b0bd 727b 953e
00000300: fdad afbd 1cc1 183e 8f96 02be ee20 a2be
00000310: aeec ff3d 8c34 0c3d eeb7 98bd 3a7b e03d
00000320: 16b8 c7bd 2796 6abd eaa9 d53a 03e3 99bd
00000330: c4ce 09bd fe6b 303c 2602 67be e4e7 4fbd
00000340: fec0 99bc 4298 c9bb 9efb 88bd fb8f 133d
00000350: 3641 c9bd 9507 843c 9345 5e3d 7265 923d
00000360: 469f 023e 1d05 813d e0bd d33d 4b3a 28bd
00000370: 73a8 fa3d 4082 f7bc f01e 6abd a817 ff3c
00000380: e0b0 f8bb 62a1 e5bd 281c 95bc acd0 1cbd
00000390: 648f 913c 35b4 453c 7614 033d 899c 70bd
000003a0: ee9d f63d e49d b3bd df09 97be aeef cc3d
000003b0: 5eba ebbd a909 e43d 5651 91bd 11ff f43d
000003c0: 5ca8 c0bb 123f 023d b4a0 1dbd b080 8bbc
000003d0: 1270 023d 208c ce3b b3b1 e63c 36b7 dfbd
000003e0: 46d3 1f3d 31e0 15bd 683f 3a3b c824 753e
000003f0: 8ff7 8d3c a261 c23d 007f 66bd 50f2 68be

decoder.decoder_fc2.bias f4 [128]
-0.1399831 -0.10240719 -0.15367414 0.12465844 -0.06094561 -0.082221255 0.01784823 -0.10231201
-0.04214552 -0.108398 -0.008328706 -0.015583507 -0.12685569 0.047145497 -0.09346324 -0.028250493
0.10560307 0.07510149 -0.061783865 -0.011765956 0.13186245 -0.05519013 0.06291799 0.0721827
0.11310291 0.083407134 -0.0010714382 -0.098796345 0.11888247 0.10723916 0.048130266 -0.019152064
0.06754321 0.044735633 -0.12568304 0.036847293 0.08880958 -0.06372043 -0.017569508 0.16442612
0.12559438 0.10180256 -0.08385351 0.049240332 0.05317975 0.02321972 -0.09393308 -0.017141474
-0.11472509 0.06375637 0.046865355 -0.12280308 -0.056535434 -0.12812343 -0.09368536 0.09771875
0.09926961 -0.13195673 -0.039360523 0.114934705 -0.068898335 0.059263706 0.13515985 0.083778486
0.06862791 -0.08773908 -0.090469025 -0.005013302 0.10139917 -0.12721342 0.10292064 0.09349798
-0.11926567 -0.007879383 -0.071472466 -0.06454913 0.15473774 0.07021652 0.0039172405 -0.05038993
0.14239 -0.05572583 -0.028498236 -0.0632727 0.099878274 0.014765903 0.0022675036 0.06553501
0.119285405 -0.020400357 -0.094044566 -0.0787051 -0.04985571 -0.0049732924 0.15835942 0.11786818
-0.07420538 0.02504608 -0.045833092 -0.08757221 -0.05332072 -0.10250181 -0.10682966 0.14930528
-0.0058287773 -0.07671793 0.036440518 0.005283087 0.04610988 0.109309 -0.105555624 0.093780756
-0.03290719 -0.109218165 0.116375774 0.050606314 -0.07562317 0.04364784 0.01575833 0.10170485
-0.035742372 -0.10093775 0.13802841 0.013206665 0.039744586 -0.012087509 0.14137459 0.023351252
00000000: bb57 0fbe dcba d1bd c15c 1dbe ed4c ff3d
00000010: 1ba2 79bd 9e63 a8bd 7436 923c f688 d1bd
00000020: c8a0 2cbd c5ff ddbd 2075 08bc f751 7fbc
00000030: 75e6 01be a31b 413d a869 bfbd 946d e7bc
00000040: 6c46 d83d cfce 993d 1411 7dbd ffc5 40bc
00000050: f306 073e 0c0f 62bd 26db 803d 86d4 933d
00000060: 80a2 e73d 5cd1 aa3d 806f 8cba bd55 cabd
00000070: a778 f33d 34a0 db3d 3e24 453d cae4 9cbc
00000080: 1854 8a3d b63c 373d 0eb3 00be 30ed 163d
00000090: cce1 b53d db7f 82bd eeed 8fbc 525f 283e
000000a0: d09b 003e dc7d d03d 64bb abbd 3bb0 493d
000000b0: 02d3 593d 4837 be3c fd5f c0bd 476c 8cbc
000000c0: fdf4 eabd b392 823d e3f5 3f3d 2e80 fbbd
000000d0: b391 67bd ca32 03be 1cde bfbd c520 c83d
000000e0: de4d cb3d aa1f 07be 8038 21bd e362 eb3d
000000f0: 921a 8dbd 80be 723d 5867 0a3e 0e94 ab3d
00000100: ca8c 8c3d 8cb0 b3bd d347 b9bd a046 a4bb
00000110: 5eaa cf3d 3c44 02be 0ec8 d23d de7b bf3d
00000120: 8f41 f4bd 8718 01bc 2860 92bd 5632 84bd
00000130: 9273 1e3e aecd 8f3d 325c 803b ac65 4ebd
00000140: afce 113e c540 64bd 2275 e9bc 1e95 81bd
00000150: fb8c cc3d b0ec 713c 669a 143b 3837 863d
00000160: e84b f43d a61e a7bc 709a c0bd 2430 a1bd
00000170: 8035 4cbd 00f7 a2bb f928 223e df64 f13d
00000180: fef8 97bd 702d cd3c 7bbb 3bbd 0f59 b3bd
00000190: d466 5abd 78ec d1bd 82c9 dabd 7ce3 183e
000001a0: 54ff bebb 4a1e 9dbd a742 153d bf1d ad3b
000001b0: b7dd 3c3d 66dd df3d 8c2d d8bd 2010 c03d
000001c0: b1c9 06bd c6ad dfbd 6c56 ee3d 9148 4f3d
000001d0: 52e0 9abd 14c8 323d 9d17 813c a24a d03d
000001e0: 9866 12bd 73b8 cebd 5257 0d3e c560 583c
000001f0: 38cb 223d b00a 46bc 80c4 103e 204b bf3c

decoder.decoder_fc3.weight f4 [72, 128]
0.07874993 0.080402866 0.01731905 0.120033264 -0.031816904 0.052777663 -0.019672336 0.030254303
-0.0025639718 -0.041976754 0.05526317 -0.07413806 -0.09712211 0.090247534 0.08555358 0.07501438
0.11489585 0.071914345 0.09787363 0.036292363 0.07449387 0.07748173 0.048056345 0.041393325
-0.008463762 0.06403004 -0.032996345 -0.0826223 0.06484802 0.10951335 -0.052695476 -0.05384096
0.043102104 0.059601013 -0.017610583 0.08325124 0.11589824 0.07215731 0.0463899 -0.020748524
0.06890921 0.08022892 -0.05327547 0.022323929 -0.03351808 0.074670956 0.028620284 0.02371431
-0.065752305 0.012709616 0.059017777 0.015098571 0.046979953 0.07393194 0.0135627445 0.059599455
-0.018920083 -0.009639876 0.037108783 0.12286597 0.005522965 0.006695891 -0.0067501427 0.09729867
0.061155457 0.038222708 -0.04023931 -0.072281025 0.009072125 0.039886855 0.013306689 0.0990393
-0.04148619 0.04462547 -0.022994725 -0.04677687 0.12323465 0.115884475 0.17145269 -0.04284669
-0.016361635 0.069588974 -0.08670736 0.047084916 0.096294574 0.06707551 -0.031702496 0.09919154
-0.029526189 -0.0052254912 -0.04619832 -0.08036444 -0.035773978 -0.0021039706 -0.038413692 0.06359781
0.04002054 -0.04219258 -0.04096888 0.073333345 -0.011673791 0.038186297 0.021832157 -0.021052001
-0.0648225 0.08895573 0.029447129 0.09115184 0.09467153 0.045610268 -0.0802436 0.051761188
0.013531013 0.00053038646 0.09858912 0.02070291 -0.0694988 0.074074276 0.025579194 0.027067117
0.08163269 -0.01887243 0.052155133 0.06478925 0.066698305 0.02484975 -0.010751725 0.067219354
-0.04318686 0.08328119 -0.056317426 -0.02138061 0.01803001 -0.079276755 0.05527465 0.029053308
0.06981519 -0.07503215 0.06851422 -0.053172305 0.055591177 0.11055348 -0.033493858 -0.023295175
-0.048235852 -0.04184243 0.014507776 0.085972175 0.045199633 -0.048712738 0.046843633 0.0017915181
-0.0015648433 -0.037776846 -0.08716107 -0.08155373 -0.03461748 0.11120746 0.07995666 0.061950613
0.040723324 0.033737127 -0.02498853 0.103258215 -0.024625111 0.042947095 -0.042405218 0.013062672
0.009422389 0.096513726 -0.045679893 0.044259474 0.06824423 0.07511011 0.013800217 0.1288041
-0.06600529 0.008650141 0.020947885 -0.060685992 0.053927027 -0.036126923 0.039327297 0.053532135
0.06452515 0.009546366 -0.06474338 0.014560777 0.020531952 0.005512818 0.0710326 0.026364945
0.031812042 0.09601446 0.005128582 0.037054706 0.08838372 -0.049571343 0.10338443 -0.009921981
-0.05328977 -0.0149578005 0.029848004 -0.037740953 0.02127285 0.06714344 0.13656232 -0.05179373
0.11842474 0.035079118 -0.0029132252 0.0312407 -0.02824253 -0.01182155 0.019879712 0.089414485
0.02165883 -0.065732986 -0.021847395 0.01361622 0.091689095 -0.013147899 0.09783292 0.13164486
0.031549823 -0.0057467334 0.0027254461 -0.037504338 0.044600595 0.010946811 -0.049565364 0.11353495
-0.02905562 0.03491831 0.016672947 -0.017533144 0.018418245 0.08913793 -0.043749418 0.06076327
0.09413023 -0.016326604 0.116879314 0.102779254 0.038757145 -0.006132377 0.043669768 -0.020255648
0.037555497 -0.06237194 0.023317462 0.0805964 0.01856772 0.00469459 0.039079234 -0.020654632
00000000: a547 a13d 42aa a43d aee0 8d3c 00d4 f53d
00000010: 7152 02bd 642d 583d e127 a1bc dfd7 f73c
00000020: 4f08 28bb d1ef 2bbd a25b 623d b2d5 97bd
00000030: f5e7 c6bd b3d3 b83d b736 af3d 24a1 993d
00000040: 844e eb3d d447 933d f871 c83d 4da7 143d
00000050: 3e90 983d beae 9e3d bbd6 443d 0c8c 293d
00000060: 97ab 0abc 2e22 833d 2d27 07bd e135 a9bd
00000070: 0acf 843d 8948 e03d 36d7 57bd 5788 5cbd
00000080: d58b 303d 3120 743d 1244 90bc a07f aa3d
00000090: 0e5c ed3d 36c7 933d 5603 3e3d cff8 a9bc
000000a0: 4620 8d3d 0f4f a43d 6137 5abd ace0 b63c
000000b0: 414a 09bd 16ed 983d 1675 ea3c 8344 c23c
000000c0: 25a9 86bd fe3b 503c a0bc 713d ff5f 773c
000000d0: 0d6e 403d a169 973d 4636 5e3c 8f1e 743d
000000e0: 4afe 9abc 92f0 1dbc 61ff 173d 27a1 fb3d
000000f0: fdf9 b43b 3469 db3b 4d30 ddbb 8644 c73d
00000100: 257e 7a3d 6a8f 1c3d fad1 24bd 1308 94bd
00000110: 40a3 143c 6660 233d 4d04 5a3c 1ed5 ca3d
00000120: 6ced 29bd 32c9 363d 6f5f bcbc 1a99 3fbd
00000130: 7362 fc3d d754 ed3d 4b91 2f3e 0380 2fbd
00000140: d608 86bc aa84 8e3d a193 b1bd 1ddc 403d
00000150: 1736 c53d e35e 893d 7ada 01bd ef24 cb3d
00000160: e8e0 f1bc 993a abbb 733a 3dbd 1d96 a4bd
00000170: bc87 12bd c5e2 09bb ad57 1dbd 923f 823d
00000180: 94ec 233d 20d2 2cbd fcce 27bd cb2f 963d
00000190: 6e43 3fbc 3c69 1c3d 5ad9 b23c 3f75 acbc
000001a0: a9c1 84bd 6c2e b63d 1b3b f13c d1ad ba3d
000001b0: 26e3 c13d d5d1 3a3d c256 a4bd 8a03 543d
000001c0: 2fb1 5d3c a209 0b3a 18e9 c93d 2699 a93c
000001d0: 6355 8ebd 41b4 973d 758b d13c dcbb dd3c
000001e0: 0a2f a73d 5b9a 9abc 9fa0 553d 3ab0 843d
000001f0: 1f99 883d b491 cb3c 0128 30bc 4daa 893d
00000200: b4e4 30bd 548f aa3d 1aad 66bd 6426 afbc
00000210: acb3 933c da5b a2bd ac67 623d 3401 ee3c
00000220: 44fb 8e3d 75aa 99bd 2f51 8c3d 34cb 59bd
00000230: 93b3 633d dd69 e23d db30 09bd 86d5 bebc
00000240: f592 45bd f862 2bbd 06b2 6d3c 2e12 b03d
00000250: 4023 393d 0287 47bd 1cdf 3f3d 5fd1 ea3a
00000260: 6e1b cdba e5bb 1abd 8181 b2bd a405 a7bd
00000270: 0fcb 0dbd bdc0 e33d 51c0 a33d edbf 7d3d
00000280: 80cd 263d f12f 0a3d bfb4 ccbc 0b79 d33d
00000290: 9aba c9bc 4be9 2f3d 18b1 2dbd d104 563c
000002a0: 5d60 1a3c fda8 c53d d71a 3bbd 6c49 353d
000002b0: a1c3 8b3d 54d3 993d 4e1a 623c 39e5 033e
000002c0: c82d 87bd 52b9 0d3c e69a ab3c e091 78bd
000002d0: 96e2 5c3d d3f9 13bd a915 213d 8344 5b3d
000002e0: c325 843d 5c68 1c3c 2d98 84bd 5390 6e3c
000002f0: a032 a83c dfa4 b43b 8a79 913d 4cfb d73c
00000300: 584d 023d 3ba3 c43d aa0d a83b adc6 173d
00000310: 8602 b53d 520b 4bbd 37bb d33d ce8f 22bc
00000320: 6046 5abd 9011 75bc cd83 f43c 4296 1abd
00000330: 6644 ae3c 8082 893d fed6 0b3e aa25 54bd
00000340: ac88 f23d 1faf 0f3d cfeb 3ebb 7fec ff3c
00000350: e15c e7bc 2daf 41bc c7da a23c f11e b73d
00000360: dc6d b13c 049f 86bd 4ff9 b2bc 9116 5f3c
00000370: 7ec7 bb3d 496a 57bc a05c c83d e9cd 063e
00000380: 633a 013d 184f bcbb 669d 323b 269e 19bd
00000390: 1daf 363d 415a 333c 0d05 4bbd 0385 e83d
000003a0: 0d06 eebc 8006 0f3d b495 883c aba1 8fbc
000003b0: dce1 963c f28d b63d 9732 33bd e8e2 783d
000003c0: 5ac7 c03d 5fbf 85bc 6c5e ef3d ee7d d23d
000003d0: d0bf 1e3d 1bf2 c8bb 12df 323d 2cef a5bc
000003e0: cbd3 193d b879 7fbd 4304 bf3c ba0f a53d
000003f0: 551b 983c 13d5 993b 8c11 203d e733 a9bc

decoder.decoder_fc3.bias f4 [72]
0.053086728 0.013704215 0.12944226 -0.0036936218 0.00035219776 0.009138088 -0.024498165 0.0021331545
-0.0045660003 -0.034468308 0.052843377 -0.038000934 -0.023735411 -0.039055035 -0.06841168 -0.024687018
0.0553641 0.092418686 0.0784545 -0.074661106 0.06586287 0.0048107584 0.044499848 -0.004267295
0.0669651 -0.033643782 -0.03779806 0.10939614 -0.006954914 0.08203261 0.05540989 0.008920461
0.0034445282 -0.019300098 -0.020594409 0.076936215 0.04519604 0.08039302 -0.02358515 -0.04940483
0.08035042 -0.020185664 -0.010012488 -0.010836077 0.081085175 0.04765298 0.023149744 0.03622396
-0.007403152 0.047046848 -0.014179255 0.060781505 0.018083682 0.032478336 0.051895887 0.050865367
0.042649806 0.096236795 0.10954122 0.008118253 0.0018358243 -0.022938212 0.039278664 -0.012483542
0.016334021 0.11323353 -0.019201988 0.040681057 0.04281494 0.00038116556 0.063675605 0.054006565
00000000: 7871 593d a587 603c 838c 043e b110 72bb
00000010: 2fa7 b839 ebb7 153c 60b0 c8bc 65cc 0b3b
00000020: 639e 95bb a42e 0dbd 4c72 583d dea6 1bbd
00000030: c470 c2bc 2cf8 1fbd 6c1b 8cbd 6e3c cabc
00000040: 77c5 623d 0246 bd3d c1ac a03d ece7 98bd
00000050: 1de3 863d 91a3 9d3b 7945 363d aad4 8bbb
00000060: 0025 893d 10ce 09bd 23d2 1abd 150b e03d
00000070: 0ce6 e3bb b700 a83d 7bf5 623d 2027 123c
00000080: 98bd 613b 3d1b 9ebc 9bb5 a8bc bc90 9d3d
00000090: 7c1f 393d 18a5 a43d a535 c1bc b85c 4abd
000000a0: c38e a43d 685c a5bc 6b0b 24bc cd89 31bc
000000b0: fc0f a63d c52f 433d 88a4 bd3c 935f 143d
000000c0: 2496 f2bb 32b4 403d 1b50 68bc 07f6 783d
000000d0: 3b24 943c 0108 053d c890 543d 3458 503d
000000e0: 90b1 2e3d cc17 c53d 2657 e03d 6c02 053c
000000f0: 0ba0 f03a ebe8 bbbc aae2 203d c587 4cbc
00000100: edce 853c fbe6 e73d 7d4d 9dbc 2ea1 263d
00000110: b85e 2f3d 2dd7 c739 5b68 823d fd35 5d3d
