clustering/clustering/encoder_weights/combined/lidar_encoder_autoencoder_combined.pth (torch, 116114 bytes, 14 tensors)

encoder.conv2d_1.weight f4 [16, 1, 1, 3]
-0.5634571 -0.15282238 0.33031875 -0.075143784 0.77769965 -0.5436742 0.09350436 0.07209957
0.10828132 0.59037054 0.48093903 -0.41925448 -0.30011377 -0.102362216 -0.41190532 0.6236994
-0.47418624 -0.39889175 0.054959383 -0.121918775 0.46031076 0.4919311 -0.04586091 -0.31446016
-0.19432767 0.09126862 0.04640285 -0.0811579 0.4941603 0.16848561 0.36054513 -0.051488847
0.32053167 0.27440408 0.46896267 -0.7800075 -0.45140913 0.05082379 0.055412453 0.13551968
0.6864225 -0.46883506 -0.53290886 0.2014092 0.520874 -0.46759486 -0.4657707 0.6512802
00000000: b93e 10bf 787d 1cbe 8a1f a93e fce4 99bd
00000010: 5317 473f 3b2e 0bbf 377f bf3d f0a8 933d
00000020: 99c2 dd3d 8622 173f a43d f63e 86a8 d6be
00000030: 83a8 99be 48a3 d1bd 41e5 d2be c4aa 1f3f
00000040: 8ac8 f2be 8a3b ccbe 171d 613d 8db0 f9bd
00000050: daad eb3e 65de fb3e a6d8 3bbd ec00 a1be
00000060: d5fd 46be 0beb ba3d ea10 3e3d 1d36 a6bd
00000070: 9402 fd3e 7e87 2c3e 5f99 b83e f8e5 52bd
00000080: ba1c a43e b17e 8c3e e01b f03e 92ae 47bf
00000090: 191f e7be 9b2c 503d 2bf8 623d acc5 0a3e
000000a0: 63b9 2f3f 260b f0be b76c 08bf 373e 4e3e
000000b0: 0058 053f 9868 efbe 7f79 eebe 4dba 263f

encoder.conv2d_1.bias f4 [16]
-0.2482402 -0.024902038 0.4023484 0.26883876 0.49959987 0.24625748 -0.070234954 0.49712205
-0.3680992 -0.22940768 0.2582161 -0.32793757 -0.40605444 -0.34626824 0.43246475 0.283827
00000000: ae32 7ebe 5cff cbbc 9c00 ce3e 3ca5 893e
00000010: 8ecb ff3e ec2a 7c3e 58d7 8fbd c886 fe3e
00000020: 8077 bcbe d9e9 6abe e734 843e 6fe7 a7be
00000030: 5ee6 cfbe 124a b1be 056c dd3e c651 913e

encoder.conv2d_2.weight f4 [32, 16, 1, 3]
0.07856269 0.13028431 0.011895802 -0.055807546 -0.03806982 -0.030504622 -0.008944908 -0.09605972
-0.05466967 0.118720464 -0.072504476 -0.01513523 -0.02947198 -0.0652337 0.0932447 0.018501176
0.046509407 -0.042678993 -0.13459165 0.11166346 0.017449075 0.059000827 -0.07142927 -0.088909574
0.021994708 -0.07247421 0.042021193 0.07315977 0.09118469 0.03974474 0.027388718 -0.022815159
0.09170043 -0.114316136 -0.110659964 -0.11928742 -0.055525225 0.106430516 0.11778348 -0.13242726
-0.0749197 -0.04213257 0.0069263587 0.06149859 -0.12501024 0.10117165 -0.022312887 -0.08831625
-0.07097548 -0.0715938 -0.13260226 0.18419306 0.11598272 -0.24586542 -0.031626374 -0.11474566
0.0042113 0.15656309 -0.09073595 0.11601954 -0.16787733 -0.2677063 -0.37379247 -0.078769766
0.015347332 -0.22708908 0.1874069 0.036723133 0.16294734 0.09914536 0.1498875 0.1056536
-0.095950134 0.09716311 -0.023573719 0.09621329 0.17718217 0.004682189 0.15796968 0.14858899
0.07472331 0.016054476 -0.28691682 0.083736725 -0.08102687 -0.051633745 -0.0826995 -0.15419416
-0.13654526 -0.204194 0.066964164 -0.05952375 0.04955952 -0.21206455 -0.3298745 -0.17213681
-0.037352726 0.121794045 -0.07060271 0.1526847 -0.15024713 -0.18432157 0.06237753 0.099320725
-0.01675299 -0.054732963 -0.12647066 0.117340386 0.41665208 0.3237686 0.072724395 -0.2540197
-0.26339674 -0.3586493 -0.04887405 0.14297126 0.20374218 -0.071817584 0.0353683 -0.044448085
-0.037905343 -0.094844826 0.0026227855 0.12137891 0.12746373 0.15165284 0.063642 -0.028338205
0.055222936 -0.013217139 -0.36764115 -0.22977592 0.10855086 -0.10703962 -0.004713842 0.14737746
-0.3041993 -0.30844232 0.018167652 0.16275862 0.24636023 0.4680323 0.13359368 -0.0026452376
0.1126173 -0.14348178 -0.09159292 0.21311392 -0.2406924 0.4529566 -0.04949146 0.11914569
-0.018061446 0.058120593 -0.11317507 0.11243702 -0.09746733 -0.18423763 -0.09282197 0.1364977
0.12138721 -0.1561829 -0.13477735 0.105742805 0.104256 -0.11910426 -0.06965628 0.034948386
-0.02893533 0.12886645 0.113714255 0.027456341 0.018742098 0.103679016 0.14636156 -0.09183674
0.058536395 0.06795201 0.27128842 0.10506471 -0.027167255 0.044020645 -0.024435088 0.24720095
0.034425013 0.3840229 -0.061724085 0.1537424 0.21381506 0.26599196 0.15966557 0.21702035
0.095394626 0.022281142 -0.08322956 -0.08755099 -0.17241412 0.31567833 -0.13134111 -0.07829467
-0.008855826 0.154157 0.05030432 0.1289046 0.31728235 0.2579216 0.21554479 0.03330234
-0.12466798 0.048766315 0.013369695 0.11040764 0.12340823 -0.01483752 -0.013242519 0.049184717
0.10045206 -0.016493225 0.05342744 -0.007916863 -0.09892746 0.13861828 -0.09501976 -0.05340837
0.00611067 -0.023347136 -0.2107415 0.1458042 0.0077550868 -0.11241608 -0.064435184 -0.09363199
-0.20305608 0.1983725 0.07471165 -0.12473095 0.14213358 -0.03297836 -0.1672341 -0.0366142
-0.01000883 -0.06489974 -0.05300542 -0.07777382 0.14846216 0.23677182 -0.02556298 0.033535942
0.097840495 0.024568949 0.14326465 -0.041050132 0.20045124 0.24720292 0.41833052 0.21902767
00000000: 7ae5 a03d 4069 053e 9ce6 423c 7496 64bd
00000010: 19ef 1bbd d4e4 f9bc aa8d 12bc f5ba c4bd
00000020: 4eed 5fbd b723 f33d 3a7d 94bd c1f9 77bc
00000030: 396f f1bc 3f99 85bd 14f7 be3d c78f 973c
00000040: a680 3e3d 2bd0 2ebd 65d2 09be d0af e43d
00000050: 5df1 8e3c daaa 713d 8249 92bd 3916 b6bd
00000060: 3f2e b43c 5c6d 94bd 6a1e 2c3d cad4 953d
00000070: 0abf ba3d 61cb 223d 4e5e e03c dbe6 babc
00000080: 6fcd bb3d 941e eabd b1a1 e2bd f64c f4bd
00000090: 6b6e 63bd 3ef8 d93d 7738 f13d 039b 07be
000000a0: 806f 99bd 3493 2cbd 82f6 e23b f2e5 7b3d
000000b0: af02 00be 1533 cf3d 84c9 b6bc 26df b4bd
000000c0: 985b 91bd c59f 92bd e3c8 07be 1b9d 3c3e
000000d0: 5988 ed3d 25c4 7bbe a88a 01bd c6ff eabd
000000e0: f2fe 893b 1352 203e c5d3 b9bd a79b ed3d
000000f0: 09e8 2bbe cd10 89be ba61 bfbe 0b52 a1bd
00000100: 6073 7b3c 0a8a 68be 98e7 3f3e ff6a 163d
00000110: abdb 263e b90c cb3d 1c7c 193e ea60 d83d
00000120: 8181 c4bd 74fd c63d ac1d c1bc 790b c53d
00000130: 3e6f 353e 0c6d 993b cec2 213e b627 183e
00000140: 8908 993d ad84 833c c3e6 92be 297e ab3d
00000150: 6af1 a5bd e87d 53bd 5b5e a9bd 13e5 1dbe
00000160: 85d2 0bbe 3b18 51be 8224 893d 2dcf 73bd
00000170: ecfe 4a3d 7327 59be 4fe5 a8be a244 30be
00000180: 2cff 18bd 286f f93d 2798 90bd 6159 1c3e
00000190: 62da 19be cbbe 3cbe 957f 7f3d aa68 cb3d
000001a0: 913d 89bc ac2f 60bd 8681 01be 2850 f03d
000001b0: 6c53 d53e ffc4 a53e 87f0 943d df0e 82be
000001c0: f0db 86be e2a0 b7be 2830 48bd 0f67 123e
000001d0: caa1 503e 1915 93bd 5ade 103d 320f 36bd
000001e0: a242 1bbd 013e c2bd 0ae3 2b3b 8295 f83d
000001f0: da85 023e e24a 1b3e bd56 823d 8625 e8bc
00000200: 7231 623d b38c 58bc 763b bcbe 614a 6bbe
00000210: ea4f de3d 9737 dbbd 9376 9abb 1eea 163e
00000220: 03c0 9bbe 27ec 9dbe 54d4 943c 32aa 263e
00000230: db45 7c3e eea1 ef3e c8cc 083e b95b 2dbb
00000240: e6a3 e63d e3ec 12be 1295 bbbd 893a 5a3e
00000250: 1278 76be ede9 e73e 8fb7 4abd a802 f43d
00000260: 99f5 93bc dc0f 6e3d 55c8 e7bd 6145 e63d
00000270: f49c c7bd caa8 3cbe 7219 bebd 0ec6 0b3e
00000280: dc99 f83d 69ee 1fbe 1303 0abe af8f d83d
00000290: 2b84 d53d efec f3bd f4a7 8ebd 0a26 0f3d
000002a0: c909 edbc 91f5 033e 05e3 e83d 1fec e03c
000002b0: 0789 993c aa55 d43d cedf 153e e714 bcbd
000002c0: dcc3 6f3d 6c2a 8b3d 51e6 8a3e 2b2c d73d
000002d0: dd8d debc fe4e 343d 182c c8bc 3f22 7d3e
000002e0: 3e01 0d3d a69e c43e 65d2 7cbd a66e 1d3e
000002f0: 56f2 5a3e 1930 883e 5f7f 233e 953a 5e3e
00000300: 425e c33d f186 b63c 4274 aabd ef4d b3bd
00000310: 548d 30be 97a0 a13e 497e 06be f558 a0bd
00000320: 0718 11bc 55db 1d3e e70b 4e3d 91ff 033e
00000330: d572 a23e 4d0e 843e c6b7 5c3e 0968 083d
00000340: ed51 ffbd 30bf 473d 910c 5b3c 671d e23d
00000350: 74bd fc3d 1219 73bc 27f7 58bc ea75 493d
00000360: cfb9 cd3d cd1c 87bc bbd6 5a3d bbb5 01bc
00000370: 7b9a cabd f3f1 0d3e b899 c2bd bcc2 5abd
00000380: 043c c83b 7e42 bfbc 9fcc 57be b24d 153e
00000390: 621e fe3b 673a e6bd 98f6 83bd 21c2 bfbd
000003a0: efed 4fbe 2922 4b3e 6c02 993d f172 ffbd
000003b0: 778b 113e 5114 07bd 6a3f 2bbe c5f8 15bd
000003c0: 13fc 23bc 28ea 84bd 361c 59bd e147 9fbd
000003d0: 7706 183e 5074 723e 7469 d1bc fc5c 093d
000003e0: 9960 c83d d244 c93c f8b3 123e 2f24 28bd
000003f0: 1743 4d3e c322 7d3e 6b2f d63e ca48 603e

encoder.conv2d_2.bias f4 [32]
-0.09968476 -0.09065356 0.07271897 -0.08433399 0.09088942 0.052742634 -0.093575306 -0.11606007
0.013178902 -0.12201922 -0.03867634 -0.0040999954 0.027741626 -0.13001546 0.14854258 0.015293774
0.040996898 -0.09964906 -0.060720168 -0.10855918 -0.12504648 0.10229405 -0.0075764917 0.022118917
0.075792186 -0.11436564 -0.09961375 0.18099612 -0.14128198 0.043459024 0.1594843 0.13919745
00000000: 8627 ccbd 93a8 b9bd afed 943d 4db7 acbd
00000010: 3b24 ba3d a908 583d 69a4 bfbd e7b0 edbd
00000020: 52ec 573c 36e5 f9bd 156b 1ebd 4159 86bb
00000030: 6842 e33c c622 05be 8c1b 183e bd92 7a3c
00000040: 5dec 273d ce14 ccbd b6b5 78bd 4654 debd
00000050: 2f0c 00be 8b7f d13d 3844 f8bb bb32 b53c
00000060: ef38 9b3d 8838 eabd 4b02 ccbd 0c57 393e
00000070: 39ac 10be 1702 323d da4f 233e c789 0e3e

encoder.conv2d_3.weight f4 [64, 32, 1, 3]
-0.0734349 -0.052054442 -0.10003763 0.0793937 -0.016698046 -0.06621245 0.008354297 -0.054121636
-0.026832545 0.009758242 -0.030478835 -0.02706791 -0.058904067 0.07330913 -0.017246827 0.045423556
0.069274396 -0.081747755 -0.07697351 0.09424522 0.046005476 -0.019779153 0.010522411 0.073232226
-0.008306725 0.02519529 0.046493974 0.07492041 -0.0006396911 -0.03429856 0.080842085 0.067459956
0.016456658 0.07408274 -0.04165662 -0.10091957 -0.089797094 -0.06560052 -0.044900592 -0.026479442
0.010840511 -0.022139855 -0.039983828 -0.09643602 0.07836248 -0.067787774 0.039933372 -0.08649343
-0.07662705 0.031150341 -0.050943315 -0.004101009 0.09297236 -0.032299113 0.03739462 -0.05378644
0.012737417 -0.043589015 0.049136676 -0.026586108 -0.101818144 -0.026767088 -0.02705915 -0.08398801
-0.042661555 -0.043968193 -0.098494515 0.097479925 0.054293673 -0.062370945 -0.100271195 -0.0013367363
-0.056334805 0.0065550543 -0.005232541 -0.10201862 0.010386314 -0.05522517 0.026190847 -0.081043534
0.010513384 0.019099457 -0.02356508 0.04010851 -0.06336981 -0.022343332 0.06954575 -0.018648814
-0.034470234 0.05119119 0.059190486 -0.076899834 0.042945456 -0.024839925 0.053486448 -0.080278635
-0.023973664 -0.09205147 -0.07074718 -0.012894243 0.081416085 0.08863973 -0.0287315 0.0495498
0.15225025 -0.002330784 0.108390525 -0.1400711 0.014162277 -0.026949052 0.033321112 -0.078947864
-0.08264351 -0.32313752 0.07267726 -0.026053313 0.0994403 0.010954093 0.088134594 0.055525437
-0.039486133 -0.0716242 0.13006164 -0.0315695 0.009268336 0.048980553 -0.014751089 0.052440397
-0.01193555 0.09802252 0.013491889 0.05405016 0.10633094 0.046795473 -0.04554099 0.012147056
0.11731481 -0.07054534 -0.0027974092 0.11317766 0.097185954 -0.05481509 0.069398366 0.09389466
0.0680407 0.015234462 0.128539 0.042323645 -0.01039889 0.12169944 0.06781743 -0.04406404
-0.018855268 -0.08404337 -0.03964212 0.0967679 -0.003992725 0.005039747 -0.04226116 0.007391111
0.07866115 0.035760753 -0.0012268538 -0.032485057 -0.07999467 -0.022422621 -0.033957455 0.02594989
-0.07989659 0.068918735 0.10798082 0.07419091 -0.0781734 -0.087243736 0.08104393 -0.044214267
0.03282784 -0.010694394 0.094736196 0.033668652 0.005893201 0.09590302 -0.035902403 0.0036805707
-0.086199544 0.13735098 0.099760525 0.03100379 -0.019855373 0.07406078 -0.079016335 -0.008384833
-0.09795805 -0.019196695 0.084874295 -0.035354156 -0.045758586 0.11147487 0.049439218 0.105889075
0.09296992 0.11637055 0.0800786 -0.15748343 -0.17533094 0.008480268 -0.048768952 -0.12069083
-0.017688995 -0.10906419 -0.09320774 -0.01103743 -0.008279837 0.06147962 -0.017538577 -0.07381409
0.019492624 0.085126795 0.14793204 -0.07359462 -0.053984445 -0.08569417 0.19050613 -0.053952675
0.103520304 -0.051674057 0.08056034 0.0042862026 -0.17267118 0.021730503 0.010306781 0.17682937
0.10345719 0.15617259 0.15887445 0.07841792 -0.020872189 -0.042056397 0.0062054307 0.047242288
-0.082525365 0.10398421 0.10480445 -0.20647916 0.083057545 0.008178882 -0.0364396 0.02244679
0.048801485 -0.015127477 0.022032963 0.006947523 -0.07017225 0.0338659 -0.047272548 -0.23365344
00000000: 0965 96bd 0a37 55bd 87e0 ccbd 2a99 a23d
00000010: 57ca 88bc 659a 87bd 76e0 083c a6ae 5dbd
00000020: edcf dbbc 09e1 1f3c c0ae f9bc 86bd ddbc
00000030: 6445 71bd 1923 963d 3849 8dbc 0d0e 3a3d
00000040: bcdf 8d3d 5e6b a7bd 4aa4 9dbd a303 c13d
00000050: 3d70 3c3d e407 a2bc 3166 2c3c c7fa 953d
00000060: ee18 08bc 5a66 ce3c 7770 3e3d df6f 993d
00000070: f1b0 27ba a67c 0cbd 8990 a53d 7228 8a3d
00000080: 1dd0 863c b1b8 973d 22a0 2abd ebae cebd
00000090: 8ae7 b7bd 9159 86bd afe9 37bd 6aeb d8bc
000000a0: 669c 313c a45e b5bc 15c6 23bd 4080 c5bd
000000b0: 827c a03d 51d4 8abd 2d91 233d 7823 b1bd
000000c0: a5ee 9cbd 002f ff3c f0a9 50bd c261 86bb
000000d0: 4b68 be3d 134c 04bd 1a2b 193d 2c4f 5cbd
000000e0: 99b0 503c 658a 32bd 8a43 493d 1ccb d9bc
000000f0: 0886 d0bd a746 dbbc 27ab ddbc e801 acbd
00000100: e2bd 2ebd fe17 34bd 7eb7 c9bd 8ea3 c73d
00000110: 0b63 5e3d ad78 7fbd fc5a cdbd 6d35 afba
00000120: 53bf 66bd c8cb d63b bc75 abbb 23ef d0bd
00000130: 5c2b 2a3c ca33 62bd 308e d63c 27fa a5bd
00000140: 5440 2c3c 7776 9c3c 8e0b c1bc d248 243d
00000150: 08c8 81bd 5d09 b7bc 016e 8e3d 66c5 98bc
00000160: a930 0dbd daad 513d b971 723d a97d 9dbd
00000170: 93e7 2f3d 197d cbbc 9b14 5b3d 2069 a4bd
00000180: 6b64 c4bc 7b85 bcbd e6e3 90bd 6042 53bc
00000190: 7abd a63d bf88 b53d 535e ebbc bbf4 4a3d
000001a0: 7de7 1b3e 11c0 18bb dafb dd3d cc6e 0fbe
000001b0: e508 683c 42c4 dcbc b87b 083d 6baf a1bd
000001c0: 0041 a9bd 4872 a5be d1d7 943d c26d d5bc
000001d0: 5ba7 cb3d cc78 333c e97f b43d a46e 633d
000001e0: 36bc 21bd b5af 92bd e12e 053e 054f 01bd
000001f0: 38da 173c d59f 483d 8dae 71bc becb 563d
00000200: 538d 43bc 08c0 c83d 160d 5d3c b363 5d3d
00000210: 09c4 d93d 9cac 3f3d 3089 3abd 7204 473c
00000220: bf42 f03d 137a 90bd bd54 37bb b0c9 e73d
00000230: 6e09 c73d ca85 60bd bb20 8e3d d84b c03d
00000240: ec58 8b3d f799 793c ba9f 033e 8f5b 2d3d
00000250: 1b60 2abc 8e3d f93d dde3 8a3d 7f7c 34bd
00000260: 5d76 9abc ee1e acbd c75f 22bd 402e c63d
00000270: 68d5 82bb 7624 a53b 0a1a 2dbd 2231 f23b
00000280: 1919 a13d de79 123d 62ce a0ba 0d0f 05bd
00000290: 3fd4 a3bd a5af b7bc f916 0bbd dd94 d43c
000002a0: d3a0 a3bd 4425 8d3d 0c25 dd3d 67f1 973d
000002b0: 6019 a0bd d8ac b2bd 5cfa a53d 051a 35bd
000002c0: 7c76 063d 8a37 2fbc 0d05 c23d 24e8 093d
000002d0: c11b c13b cd68 c43d 660e 13bd bb35 713b
000002e0: 6389 b0bd bca5 0c3e 3f4f cc3d a9fb fd3c
000002f0: bca7 a2bc 2ead 973d 51d3 a1bd 8a60 09bc
00000300: 3b9e c8bd 6342 9dbc 93d2 ad3d 85cf 10bd
00000310: 5b6d 3bbd f04c e43d c780 4a3d 5fdc d83d
00000320: 0367 be3d af53 ee3d 4000 a43d 5643 21be
00000330: f489 33be d2f0 0a3c f4c1 47bd c12c f7bd
00000340: 83e8 90bc 0c5d dfbd b3e3 bebd 56d6 34bc
00000350: 27a8 07bc 0ed2 7b3d 10ad 8fbc d72b 97bd
00000360: ffae 9f3c f556 ae3d 7f7b 173e c7b8 96bd
00000370: cb1e 5dbd 6d80 afbd 0a14 433e 7bfd 5cbd
00000380: 7402 d43d 2da8 53bd d2fc a43d 4673 8c3b
00000390: b7d0 30be 2b04 b23c c6dd 283c c212 353e
000003a0: 5de1 d33d b5eb 1f3e fcaf 223e 9399 a03d
000003b0: 27fc aabc 5443 2cbd ed56 cb3b 2181 413d
000003c0: 0f03 a9bd acf5 d43d b7a3 d63d 466f 53be
000003d0: 131a aa3d b800 063c b141 15bd 55e2 b73c
000003e0: 11e4 473d 3dd9 77bc 797e b43c 0ca8 e33b
000003f0: 78b6 8fbd f8b6 0a3d dca0 41bd d942 6fbe

encoder.conv2d_3.bias f4 [64]
-0.082950756 -0.0057574897 0.05728636 -0.03139048 0.01703382 -0.008221074 0.04904014 -0.01080949
0.0643755 -0.0030550512 0.085595325 0.05501928 -0.015852295 0.012250551 -0.029892301 -0.07574482
-0.07546408 -0.09756443 -0.066068396 0.0074115423 -0.067915194 0.049046643 0.086771004 0.07178596
-0.082843035 0.048495527 0.07311651 -0.09685395 0.04656374 -0.087253235 -0.09175104 0.07238041
0.026398005 -0.086733505 0.015881713 -0.037739508 0.074893266 -0.06515011 0.08165468 0.06348553
-0.08964953 -0.061222482 0.08409695 0.08131211 0.027635947 0.058512323 0.015657626 -0.10013527
-0.010834741 0.05163042 0.0064591765 -0.069247864 0.063761376 0.07944571 -0.0041532903 0.061327297
-0.05183121 -0.010959054 -0.054094996 -0.038412657 0.028358383 -0.05739995 -0.04215056 0.05058434
00000000: 16e2 a9bd 53a9 bcbb 1aa5 6a3d 4e93 00bd
00000010: 828a 8b3c afb1 06bc 50de 483d 4a1a 31bc
00000020: 4dd7 833d 4137 48bb 9a4c af3d e65b 613d
00000030: acdc 81bc 89b6 483c b3e0 f4bc 1a20 9bbd
00000040: e98c 9abd dccf c7bd de4e 87bd 86dc f23b
00000050: 1f17 8bbd 22e5 483d ffb4 b13d 8404 933d
00000060: 9ca9 a9bd 3fa3 463d 1cbe 953d 5d5b c6bd
00000070: 9fb9 3e3d d3b1 b2bd f8e7 bbbd 2e3c 943d
00000080: a140 d83c 56a1 b1bd 5e1a 823c be94 1abd
00000090: a461 993d 6c6d 85bd 923a a73d b404 823d
000000a0: 2c9a b7bd 6dc4 7abd 063b ac3d f786 a63d
000000b0: c864 e23c 9eaa 6f3d 6c44 803c b813 cdbd
000000c0: 3384 31bc 6b7a 533d 80a7 d33b d3d1 8dbd
000000d0: 5395 823d 6fb4 a23d 5318 88bb 5532 7b3d
000000e0: f64c 54bd 9b8d 33bc b792 5dbd 9756 1dbd
000000f0: d74f e83c 361c 6bbd 11a6 2cbd 8631 4f3d

encoder.fc.weight f4 [16, 64]
-0.07493001 -0.056876265 -0.13066874 -0.064179935 -0.08807572 0.065926105 0.06623424 0.22121628
-0.1064051 0.07401247 -0.014820979 0.05489946 -0.00017737823 -0.04816007 -0.22802907 -0.0670278
0.075621046 0.012300536 0.050216015 -0.11450803 -0.0363797 -0.14221805 -0.0112966485 -0.05916012
-0.092122786 -0.10684653 0.12767667 -0.0699355 0.19844036 -0.09861928 0.07586457 -0.0139001375
0.018920677 -0.06938541 0.05414415 -0.036301546 0.09995309 -0.11491011 0.051084228 -0.124425955
-0.10916933 0.058638692 0.025555221 0.027378147 0.09013284 0.009661563 0.044779707 -0.046910603
0.0090181315 0.04335479 0.043207746 0.015523229 -0.100629725 -0.03453491 -0.049785838 -0.15670452
-0.07929325 0.025348106 0.116231315 0.13795868 -0.14517993 -0.0012345864 0.0709801 -0.1787336
0.045715928 0.103267804 -0.06611623 0.09198276 0.037216287 -0.0826576 0.095226385 -0.050303802
0.050171826 0.019782402 0.05433634 0.14756127 0.17230296 -0.113120966 -0.15282235 0.007671037
0.0915202 0.07528348 0.07413376 0.086379595 0.10882455 0.09262833 0.043280553 0.047982186
-0.21525426 -0.08122644 -0.10519097 -0.03283432 0.14323801 -0.005921089 -0.016259909 0.11184086
-0.07727665 0.032802895 -0.3932709 0.072354175 0.14443767 0.02387005 0.111238964 0.029189814
0.0022978673 0.08687145 0.010099278 0.018026467 0.061568204 0.026136534 -0.0067464863 0.13151361
0.0013726144 0.044504322 -0.3142195 -0.025867764 -0.015958957 0.036824606 -0.083175965 0.108978905
-0.016687587 0.06691396 0.20534435 -0.13870496 0.0332557 -0.0073530055 0.06873175 0.14608069
-0.0004812479 -0.04858328 0.044837672 0.080254674 0.016577745 0.038140208 -0.0071561937 0.32669377
0.06187345 -0.01882009 -0.05062694 0.08959174 0.08154708 0.00025290338 -0.21766266 0.106185354
0.035976686 -0.054725707 0.14090084 0.08482525 0.06448246 -0.10358104 0.14291686 0.13325158
0.1601928 0.019277742 0.027180929 0.09078882 -0.21841423 -0.12654433 0.11749233 0.14762448
0.11813562 -0.093057826 -0.1738905 0.04913925 0.18515982 0.050460488 -0.09131544 0.040525444
0.08701716 -0.024024414 0.12969288 0.008861512 -4.0440926e-05 0.017846705 0.047820862 0.08646819
-0.10000777 0.08684476 -0.31633237 0.015415682 -0.015347165 -0.062569015 -0.061115623 0.05167019
-0.055651948 -0.042410485 0.09516251 0.22081058 -0.09963596 0.023146058 0.069503896 0.07357291
-0.066569656 -0.028533803 0.05291318 0.10816114 0.07376973 0.11790339 0.0851473 0.035596903
0.068159156 -0.046633713 0.08444106 0.1532349 0.1741219 0.12534612 0.13993457 0.06755282
0.06233254 0.108169034 -0.065476246 0.10924098 0.15908864 0.05670812 0.0001965588 0.16920395
-0.19237353 -0.026759943 0.17827877 0.079616144 -0.54058504 0.09159983 0.07016434 -0.094428
0.031014802 -0.019429252 -0.49510857 -0.049341764 -0.101284415 0.07372822 -0.022108236 0.103564605
-0.03826071 -0.21772814 -0.035525065 0.11397208 0.08104162 -0.09225888 0.012996321 -0.0103933485
0.103757456 0.007962312 0.024390612 -0.07870999 0.1516845 0.06315259 0.03676819 0.059789605
0.052226186 0.03588872 -0.20955458 -0.2560846 0.026863169 0.024167227 -0.10218047 0.13824579
00000000: e874 99bd 16f7 68bd 07ce 05be c570 83bd
00000010: 0b61 b4bd 4404 873d d1a5 873d 8586 623e
00000020: ebea d9bd da93 973d b1d3 72bc 42de 603d
00000030: 9bfe 39b9 7e43 45bd 7480 69be df45 89bd
00000040: 35df 9a3d 3088 493c 4faf 4d3d 3083 eabd
00000050: e102 15bd 9ca1 11be 9415 39bc e251 72bd
00000060: dfaa bcbd 5bd2 dabd acbd 023e 583a 8fbd
00000070: f333 4b3e e8f8 c9bd e25e 9b3d 67bd 63bc
00000080: 89ff 9a3c f019 8ebd 42c6 5d3d eeb0 14bd
00000090: 35b4 cc3d fe55 ebbd b23d 513d 09d3 febd
000000a0: 2b94 dfbd 202f 703d 2f59 d13c 2348 e03c
000000b0: 9197 b83d 884b 1e3c ed6a 373d 5525 40bd
000000c0: c9c0 133c cb94 313d 9bfa 303d 2455 7e3c
000000d0: f516 cebd 7a74 0dbd 3cec 4bbd 2677 20be
000000e0: 8064 a2bd d5a6 cf3c af0a ee3d 0a45 0d3e
000000f0: 0caa 14be d8d1 a1ba 045e 913d f105 37be
00000100: a040 3b3d 127e d33d f267 87bd 7561 bc3d
00000110: 1b70 183d 6348 a9bd 0d06 c33d 5c0b 4ebd
00000120: f980 4d3d b40e a23c c88f 5e3d 4d1a 173e
00000130: 3070 303e f7ab e7bd 767d 1cbe 535d fb3b
00000140: f16e bb3d 3a2e 9a3d 71d3 973d c9e7 b03d
00000150: 68df de3d ecb3 bd3d f346 313d f888 443d
00000160: 9d6b 5cbe 0c5a a6bd 5d6e d7bd 487d 06bd
00000170: fcac 123e b205 c2bb 8033 85bc d20c e53d
00000180: 3843 9ebd 545c 063d ce5a c9be 6d2e 943d
00000190: 78e7 133e 208b c33c 41d1 e33d 7a1f ef3c
000001a0: d197 163b a9e9 b13d 7177 253c 3eac 933c
000001b0: f12e 7c3d 491c d63c a111 ddbb 81ab 063e
000001c0: 4ce9 b33a 2a4a 363d 61e1 a0be a2e8 d3bc
000001d0: 5cbc 82bc 66d5 163d 2958 aabd 5530 df3d
000001e0: 68b4 88bc 300a 893d ca45 523e ac08 0ebe
000001f0: 2137 083d 7bf1 f0bb 3bc3 8c3d 2d96 153e
00000200: 0050 fcb9 43ff 46bd b5a7 373d 905c a43d
00000210: 0dce 873c e838 1c3d 817e eabb 6844 a73e
00000220: 046f 7d3d 972c 9abc 325e 4fbd e07b b73d
00000230: 2802 a73d 1e98 8439 f6e2 5ebe b577 d93d
00000240: 4a5c 133d 1028 60bd 4f48 103e dcb8 ad3d
00000250: 610f 843d 4c22 d4bd cc58 123e 1a73 083e
00000260: 9509 243e 5bec 9d3c 8aaa de3c 7def b93d
00000270: fba7 5fbe d694 01be d29f f03d df2a 173e
00000280: 17f1 f13d 1a95 bebd 5a10 32be 3d46 493d
00000290: 899a 3d3e a8af 4e3d 9703 bbbd 02fe 253d
000002a0: 0e36 b23d d9ce c4bc 36ce 043e e02f 113c
000002b0: 1d9f 29b8 4133 923c cfdf 433d 3c16 b13d
000002c0: e0d0 ccbd aadb b13d 51f6 a1be 0f92 7c3c
000002d0: ad72 7bbc 2f24 80bd 6054 7abd 1fa4 533d
000002e0: 4cf3 63bd 9eb6 2dbd 90e4 c23d 2b1c 623e
000002f0: f00d ccbd cd9c bd3c 0f58 8e3d 65ad 963d
00000300: ac55 88bd b9bf e9bc 7ebb 583d 9683 dd3d
00000310: 9614 973d 5577 f13d b561 ae3d 0fce 113d
00000320: 0797 8b3d fe02 3fbd 6fef ac3d 9ce9 1c3e
00000330: 034d 323e bc5a 003e 024b 0f3e 2259 8a3d
00000340: 6850 7f3d ba87 dd3d 6918 86bd bcb9 df3d
00000350: 22e8 223e c646 683d 5a1b 4e39 cd43 2d3e
00000360: 91fd 44be ab37 dbbc b68e 363e ca0d a33d
00000370: c863 0abf b198 bb3d 52b2 8f3d 7863 c1bd
00000380: c112 fe3c 182a 9fbc df7e fdbe 971a 4abd
00000390: 346e cfbd d2fe 963d 551c b5bc ae19 d43d
000003a0: 43b7 1cbd 20f4 5ebe bb82 11bd 326a e93d
000003b0: 26f9 a53d 39f2 bcbd 85ee 543c dd48 2abc
000003c0: ca7e d43d 5b74 023c d2ce c73c b432 a1bd
000003d0: 2e53 1b3e 2556 813d 3e9a 163d f2e5 743d
000003e0: 20eb 553d 0d00 133d 7a95 56be 851d 83be
000003f0: 2610 dc3c 59fa c53c ff43 d1bd 4e90 0d3e

encoder.fc.bias f4 [16]
-0.14548494 -0.08199305 -0.07456629 0.025665656 -0.08730638 -0.11055578 -0.079664364 0.10528842
-0.0031202778 0.02348493 0.091194816 -0.052220725 -0.06254325 -0.0734052 -0.054468825 -0.009096965
00000000: 01fa 14be f9eb a7bd 36b6 98bd c840 d23c
00000010: b0cd b2bd 126b e2bd 1227 a3bd 75a1 d73d
00000020: 937d 4cbb 7863 c03c 59c4 ba3d 66e5 55bd
00000030: ad16 80bd 7755 96bd b41a 5fbd 700b 15bc

decoder.decoder_fc1.weight f4 [64, 16]
0.043709226 -0.26232207 -0.06990225 0.225296 -0.030348394 -0.031829484 0.083659545 0.25571245
-0.1270325 0.1714053 -0.03349191 0.07209362 -0.14959371 -0.17643808 -0.19481364 -0.14469191
-0.02062099 0.22576824 -0.07907245 0.30606633 -0.1930894 0.11627248 0.15395996 0.08243597
-0.3084591 -0.21489465 0.37281176 0.19095209 -0.10443686 -0.040220715 -0.22499822 -0.13351251
0.06546565 0.19391264 0.18721987 -0.62694037 0.2836384 -0.07382774 0.01793896 0.2128059
-0.331839 0.10562048 0.17195398 -0.11629118 0.230903 0.11677249 -0.10901476 0.34549794
0.15709831 0.17471537 0.09890323 -0.13422412 -0.05728567 0.14219074 -0.12002697 -0.20818214
-0.11107599 0.11793332 0.102270395 0.056526016 0.13895908 -0.12483102 -0.056971397 -0.05500646
-0.21471785 0.35548794 0.24201314 -0.113291755 -0.18520555 -0.05171306 -0.19154465 -0.062433533
-0.07826803 0.15063563 0.2496592 -0.1292999 -0.23183848 0.15791696 -0.09310364 0.14167981
-0.0666287 -0.14782757 0.1887394 -0.16142134 0.20912527 0.162033 -0.1932668 0.114577636
-0.11887383 -0.2232702 -0.2565213 0.2591655 -0.20405796 -0.2586463 0.06783507 -0.19599298
-0.22490665 -0.104009524 -0.14750417 0.21992257 0.2585807 0.047969516 -0.002913046 -0.07261691
-0.18867783 0.041202754 0.29581887 0.25799116 -0.022567967 0.01775557 -0.026436236 -0.003740106
-0.19773556 -0.13522518 -0.30072874 -0.13369012 -0.20689271 0.3073567 0.33615535 -0.20964552
0.1414771 -0.22837107 0.28466296 0.033780646 -0.19609387 -0.083741605 -0.058332242 0.029694853
-0.14848495 0.20831238 0.21708055 -0.049314104 -0.025586212 0.20021372 -0.039512534 -0.073571675
0.2472015 -0.21541524 -0.11970723 -0.15868977 0.19888812 -0.027019847 -0.24794279 0.18692671
0.06503969 0.11247556 0.038799778 0.15124962 -0.322427 -0.2297204 -0.13700396 0.060226455
-0.22001255 -0.2591998 -0.1283252 -0.0854262 -0.2088643 -0.06028988 -0.13342284 0.036067642
-0.21017094 -0.2123471 0.05965501 -0.24054693 0.22547626 -0.05201305 0.21540587 0.119271696
0.20563358 0.09813166 0.1565267 0.223681 -0.046648256 -0.15155701 0.010999853 0.075505726
-0.005612104 0.116969116 -0.35350233 -0.22086066 -0.038716327 -0.22008047 0.39634573 -0.7115169
0.21143606 0.036172174 0.32097378 0.052688327 0.052663937 0.022101074 0.60718393 0.03293031
0.21982726 -0.42819056 -0.38379723 -0.13835047 -0.22973427 -0.034040045 0.04645219 -0.13783468
-0.18319306 -0.20693064 0.30428874 0.010601121 0.21393871 -0.03839636 0.5444814 -0.39274722
-0.032828968 0.23030932 -0.06363109 -0.20977592 0.098690405 0.22785844 -0.15975918 -0.09890252
-0.21091272 0.16869225 0.25284994 0.088664085 -0.104473725 -0.19690582 -0.17095399 -0.1389486
-0.14308968 0.05498537 -0.18998829 0.016738709 0.15406835 -0.11252977 -0.026998946 -0.17519446
0.050312012 -0.22164182 -0.18882026 0.07196715 -0.22582826 0.24472979 -0.14622234 -0.04060254
-0.14967313 0.14583814 0.04743597 -0.12238127 -0.0014803708 -0.021502584 -0.09249231 -0.22002256
0.07445651 -0.07367793 -0.23899066 0.09824726 0.17237696 0.19078988 -0.07130498 0.083498925
00000000: 7208 333d 144f 86be e928 8fbd ffb3 663e
00000010: 329d f8bc a25f 02bd b255 ab3d beec 823e
00000020: cf14 02be df84 2f3e d02e 09bd d2a5 933d
00000030: 182f 19be 2fac 34be 3a7d 47be 1e2a 14be
00000040: 5aed a8bc ca2f 673e bdf0 a1bd bab4 9c3e
00000050: 3ab9 45be 4420 ee3d aea7 1d3e 31d4 a83d
00000060: 5aee 9dbe 580d 5cbe 2fe1 be3e f288 433e
00000070: fee2 d5bd 7abe 24bd ef65 66be 81b7 08be
00000080: db12 863d 0991 463e 91b6 3f3e 2a7f 20bf
00000090: 0d39 913e 0033 97bd baf4 923c cae9 593e
000000a0: cde6 a9be 8d4f d83d b414 303e 122a eebd
000000b0: d671 6c3e 6a26 ef3d 2143 dfbd 1be5 b03e
000000c0: 61de 203e 96e8 323e c78d ca3d 0c72 09be
000000d0: 61a4 6abd 739a 113e b3d0 f5bd b32d 55be
000000e0: cf7b e3bd 0687 f13d 2473 d13d d387 673d
000000f0: 4a4b 0e3e 68a7 ffbd d75a 69bd 744e 61bd
00000100: ffde 5bbe 8402 b63e 4bd2 773e 8205 e8bd
00000110: 86a6 3dbe 13d1 53bd 4824 44be 4eba 7fbd
00000120: fd4a a0bd 3a40 1a3e a9a6 7f3e 3167 04be
00000130: 1167 6dbe fcb4 213e 1fad bebd 8314 113e
00000140: a174 88bd 1c60 17be e744 413e a34b 25be
00000150: ef24 563e fbeb 253e bbe7 45be aea7 ea3d
00000160: 1f74 f3bd f1a0 64be c356 83be 57b1 843e
00000170: 92f4 50be 4a6d 84be 1ded 8a3d 62b2 48be
00000180: ee4d 66be f202 d5bd 550b 17be 6233 613e
00000190: b164 843e af7b 443d cde8 3ebb 2db8 94bd
000001a0: c334 41be 38c4 283d 9275 973e 6b17 843e
000001b0: 75e0 b8bc 2174 913c ce90 d8bc 911c 75bb
000001c0: 317b 4abe 7878 0abe 1ef9 99be 10e6 08be
000001d0: afdb 53be db5d 9d3e 8e1c ac3e 51ad 56be
000001e0: 5fdf 103e 1bda 69be 58bf 913e 935d 0a3d
000001f0: d5cc 48be b880 abbd caed 6ebd 9f42 f33c
00000200: 700c 18be d74f 553e 5d4a 5e3e 96fd 49bd
00000210: 2d9a d1bc d304 4d3e e5d7 21bd bfac 96bd
00000220: 6422 7d3e d095 5cbe 1029 f5bd 927f 22be
00000230: 54a9 4b3e ba58 ddbc b7e4 7dbe b769 3f3e
00000240: 8733 853d 9659 e63d 84ec 1e3d 2ee1 1a3e
00000250: 2715 a5be d33b 6bbe c44a 0cbe 04b0 763d
00000260: f84a 61be d6b5 84be ae67 03be eef3 aebd
00000270: 86e0 55be 85f2 76bd ff9f 08be aabb 133d
00000280: 0d37 57be 8571 59be d058 743d ef51 76be
00000290: 40e3 663e a30b 55bd 5b93 5c3e b844 f43d
000002a0: 9c91 523e 40f9 c83d 8948 203e a20c 653e
000002b0: 3e12 3fbd c331 1bbe ba38 343c bfa2 9a3d
000002c0: bee5 b7bb 818d ef3d 42fe b4be 4c29 62be
000002d0: 0395 1ebd c65c 61be d4ed ca3e f925 36bf
000002e0: b282 583e 4629 143d ad56 a43e b7cf 573d
000002f0: 24b6 573d 500d b53c 6870 1b3f efe1 063d
00000300: 661a 613e cb3b dbbe 1281 c4be bfab 0dbe
00000310: 763f 6bbe 936d 0bbd a744 3e3d 8924 0dbe
00000320: f696 3bbe a0e5 53be bccb 9b3e 53b0 2d3c
00000330: c012 5b3e 8045 1dbd 2263 0b3f 2a16 c9be
00000340: ab77 06bd 35d6 6b3e 0451 82bd 80cf 56be
00000350: 321e ca3d b953 693e e997 23be 688d cabd
00000360: 81f9 57be a9bd 2c3e 8c75 813e 8495 b53d
00000370: 52f6 d5bd aea1 49be 900e 2fbe 8b48 0ebe
00000380: 1a86 12be 5738 613d 4a8c 42be 9e1f 893c
00000390: 18c4 1d3e 0276 e6bd e52c ddbc 2d66 33be
000003a0: f813 4e3d 13f6 62be 195a 41be 8363 933d
000003b0: 863f 67be 729a 7a3e 4fbb 15be d94e 26bd
000003c0: ea43 19be 9856 153e 384c 423d 08a3 fabd
000003d0: 0009 c2ba 3026 b0bc 9c6c bdbd 984d 61be
000003e0: a87c 983d 74e4 96bd f8b9 74be dc35 c93d
000003f0: 9683 303e 6c5e 433e 5808 92bd 7c01 ab3d

decoder.decoder_fc1.bias f4 [64]
-0.10298074 -0.27822584 0.16841917 0.19882959 0.057174206 -0.03017668 -0.09314137 -0.13810878
0.20576797 0.23652218 -0.09490904 -0.01184487 -0.028453976 0.23547946 0.15593454 -0.0588983
-0.26017743 0.14118296 -0.09545097 0.09828409 0.06798212 0.056728564 0.09112714 0.2534737
-0.2897292 0.06109889 0.03666958 0.068134435 0.18427703 0.25480753 -0.08605664 0.016069822
0.0081969835 -0.15128346 -0.053563073 -0.044742346 0.0064868783 -0.22916085 -0.115451485 0.24340999
-0.25612742 0.061840247 0.1765004 -0.1750319 -0.106909566 0.18839736 0.10145257 -0.021340696
0.23634389 0.20479381 0.03433163 -0.1254302 -0.20023671 0.11952877 0.24564649 -0.05060335
0.06661926 -0.22093832 -0.11283685 -0.19310993 0.0773637 0.24533765 0.18815544 0.101890154
00000000: 91e7 d2bd 9e73 8ebe 1376 2c3e fc99 4b3e
00000010: 802f 6a3d 1635 f7bc e7c0 bebd 636c 0dbe
00000020: d7b4 523e df32 723e ac5f c2bd fc10 42bc
00000030: 5018 e9bc 8721 713e 4ead 1f3e 583f 71bd
00000040: fa35 85be 4492 103e cc7b c3bd 2b49 c93d
00000050: 363a 8b3d 365c 683d dea0 ba3d 4ec7 813e
00000060: 6357 94be d442 7a3d d732 163d 118a 8b3d
00000070: 1eb3 3c3e 2276 823e 773e b0bd dca4 833c
00000080: a44c 063c 0dea 1abe f464 5bbd c043 37bd
00000090: e18f d43b 24a9 6abe d471 ecbd 7840 793e
000000a0: 2223 83be 334c 7d3d 85bc 343e 903b 33be
000000b0: 67f3 dabd 3deb 403e 5dc6 cf3d afd2 aebc
000000c0: 2204 723e 78b5 513e 539f 0c3d c670 00be
000000d0: da0a 4dbe 80cb f43d c18a 7b3e 7545 4fbd
000000e0: ae6f 883d a83d 62be 0217 e7bd 9cbe 45be
000000f0: dc70 9e3d cb39 7b3e d2ab 403e c9ab d03d

decoder.decoder_fc2.weight f4 [128, 64]
0.08917841 0.031177457 0.047837824 -0.09103087 -0.0025729132 -0.0607787 0.116349556 0.28922403
-0.18902051 -0.020948801 0.082771316 -0.14792813 0.19195253 0.00047293596 -0.061458744 -0.095181644
0.18730769 -0.03764123 0.11099473 0.119278185 -0.15231006 -0.09086764 -0.015318541 0.20425999
-0.11710986 0.047798518 0.0011602382 0.013824724 -0.03769915 0.1395798 0.06421671 0.115774214
0.028675226 0.20881021 0.08928187 0.05533226 -0.09313969 0.092769 0.025124416 0.15864865
0.13366821 -0.40280908 0.19347665 -0.1167641 -0.05041463 0.1402687 0.13178036 0.18273492
-0.042138167 0.0414986 -0.061594658 -0.08691274 0.18093152 0.03194817 0.22888602 0.04735418
0.08584893 0.002750352 0.0104424935 0.12088482 -0.11937633 0.28700197 -0.09336267 0.030329928
-0.09691502 -0.0791567 0.028400347 -0.08503431 0.039281458 0.06365137 0.09922318 0.01821898
-0.051465377 0.05889018 0.010655016 0.06726734 -0.09223503 -0.09466897 -0.103505775 0.044638246
-0.10963391 -0.103966564 -0.035724744 -0.039920762 -0.07018694 0.046629846 -0.059116796 -0.082179636
-0.028558359 0.032810107 0.037460178 0.069999084 0.0554208 -0.06988734 -0.06770164 -0.10620533
-0.099475875 -0.114317834 -0.08715737 -0.09859522 -0.096484944 0.0064320266 0.101123795 -0.011732236
-0.097886205 0.100943446 -0.05153501 -0.013745844 -0.049670994 -0.021749571 -0.053815156 0.10127689
-0.046207517 -0.09867114 -0.005674362 -0.042531222 -0.06541844 -0.040151224 0.04009776 0.04039119
0.094406396 0.09459524 -0.085397646 -0.0117292255 -0.0864014 -0.043518856 -0.016218677 0.023572445
0.041587096 -0.12411294 0.123200655 0.083399706 0.11800956 0.05602252 -0.08510399 -0.032635998
0.13183476 -0.11041178 -0.065119065 0.17231752 -0.030211229 0.09453798 -0.038058043 0.033288762
-0.00031595211 0.077985846 -0.10708375 0.08053162 -0.03117189 -0.059182502 0.1031696 -0.0749706
-0.105217025 -0.033350162 0.088767394 0.019755771 0.07290576 -0.075479075 0.046859812 0.11553144
0.030798854 -0.10394239 -0.05870194 -0.09490916 -0.13368283 -0.08913296 0.090721 0.0154244965
-0.12558101 -0.13846599 0.020853335 0.091633394 -0.1259974 -0.06802589 -0.08349475 -0.105257444
0.10910213 0.14788438 -0.059108842 -0.031186642 0.13140295 0.086016245 -0.036009938 -0.03964321
0.09122971 -0.10483007 0.110015586 0.06264129 0.010390272 -0.1438307 0.029131517 0.03726984
-0.040836915 -0.07644437 0.012501672 -0.008679122 -0.11557759 -0.09165494 0.08032225 -0.11063008
-0.08947691 -0.060341135 0.0859769 -0.09839368 -0.029492512 -0.11004397 0.041360945 -0.054540113
0.0037717223 -0.018315956 -0.039692223 0.06569947 0.10413973 0.054341614 0.04196325 -0.09386887
-0.11029415 -0.046853557 -0.08945586 0.04103753 0.06875178 0.06422117 0.004339233 0.06837314
-0.10545555 0.09537147 -0.00026623905 0.06535703 -0.00947997 -0.030832902 0.0653781 -0.055503264
0.09144218 -0.10759838 0.029453427 -0.045978844 0.055837885 0.11285192 -0.07857144 -0.007589489
-0.078424454 0.005197346 -0.092395216 0.08940728 0.060037777 -0.0067557693 -0.060250983 -0.06313592
0.10441582 0.0939361 0.054193705 0.07478215 0.035956338 0.0037494749 0.012132317 0.1022941
00000000: 2ca3 b63d de67 ff3c 98f1 433d 656e babd
00000010: 529e 28bb 16f3 78bd ad48 ee3d 2c15 943e
00000020: 988e 41be d29c abbc 0284 a93d 797a 17be
00000030: 348f 443e 64f4 f739 2abc 7bbd 98ee c2bd
00000040: 96cd 3f3e b12d 1abd 3451 e33d 1f48 f43d
00000050: 2bf7 1bbe d018 babd 9efa 7abc 8829 513e
00000060: 4bd7 efbd 61c8 433d 2213 983a 1881 623c
00000070: 6d6a 1abd 02ee 0e3e 0d84 833d 081b ed3d
00000080: 4fe8 ea3c 58d2 553e 6ad9 b63d 14a4 623d
00000090: 06c0 bebd acfd bd3d b8d1 cd3c cb74 223e
000000a0: 52e0 083e fe3c cebe be1e 463e 0422 efbd
000000b0: 927f 4ebd 99a2 0f3e 6ef1 063e dd1e 3b3e
000000c0: 1299 2cbd 70fa 293d ae4a 7cbd 4eff b1bd
000000d0: 1d46 393e 16dc 023d 1961 6a3e 75f6 413d
000000e0: 90d1 af3d 403f 343b fe16 2b3c 7692 f73d
000000f0: 947b f4bd ecf1 923e ed34 bfbd 7876 f83c
00000100: 627b c6bd e81c a2bd d8a7 e83c 7826 aebd
00000110: 98e5 203d a65b 823d 8635 cb3d f83f 953c
00000120: 5ccd 52bd d436 713d 6092 2e3c 76c3 893d
00000130: b8e5 bcbd cee1 c1bd d6fa d3bd 98d6 363d
00000140: be87 e0bd 6cec d4bd 1c54 12bd f483 23bd
00000150: 2cbe 8fbd f0fe 3e3d 7424 72bd cc4d a8bd
00000160: 38f3 e9bc e463 063d d86f 193d ae5b 8f3d
00000170: ec00 633d 1821 8fbd 28a7 8abd 2e82 d9bd
00000180: 02ba cbbd 781f eabd 907f b2bd 4aec c9bd
00000190: e699 c5bd c0c3 d23b fe19 cf3d 9038 40bc
000001a0: 9078 c8bd 70bb ce3d 6016 53bd 4036 61bc
000001b0: d073 4bbd 282c b2bc 486d 5cbd 426a cf3d
000001c0: 1844 3dbd 1814 cabd 00f0 b9bb 3835 2ebd
000001d0: 1afa 85bd 9c75 24bd 8c3d 243d 3c71 253d
000001e0: 2458 c13d 26bb c13d f6e4 aebd f02b 40bc
000001f0: 38f3 b0bd d440 32bd 08dd 84bc 001b c13c
00000200: 3b57 2a3d ed2e febd a050 fc3d 77cd aa3d
00000210: ffae f13d df77 653d 004b aebd 53ad 05bd
00000220: b1ff 063e 921f e2bd 255d 85bd 0174 303e
00000230: 8a7d f7bc 219d c13d c0e2 1bbd cc59 083d
00000240: 60a6 a5b9 0bb7 9f3d ba4e dbbd c3ed a43d
00000250: 315c ffbc 5a69 72bd 954a d33d 308a 99bd
00000260: 067c d7bd 2e9a 08bd aecb b53d dbd6 a13c
00000270: 9d4f 953d c694 9abd 13f0 3f3d bf9b ec3d
00000280: e14d fc3c bfdf d4bd 7271 70bd bc5f c2bd
00000290: 27e4 08be 578b b6bd efcb b93d 07b7 7c3c
000002a0: 4f98 00be 07ca 0dbe 9dd4 aa3c 4aaa bb3d
000002b0: 7605 01be 2851 8bbd 4cff aabd 3791 d7bd
000002c0: f070 df3d 016f 173e 1d1c 72bd 217b ffbc
000002d0: 7f8e 063e 4929 b03d 287f 13bd eb60 22bd
000002e0: a4d6 ba3d 26b1 d6bd da4f e13d 144a 803d
000002f0: f63b 2a3c 5b48 13be 38a5 ee3c 42a8 183d
00000300: 9c44 27bd de8e 9cbd d0d3 4c3c e032 0ebc
00000310: f2b3 ecbd 96b5 bbbd fe7f a43d 0692 e2bd
00000320: ac3f b7bd 4428 77bd a814 b03d a082 c9bd
00000330: 489a f1bc bc5e e1bd 186a 293d 7465 5fbd
00000340: 002f 773b 580b 96bc 5094 22bd 728d 863d
00000350: 3647 d53d 5095 5e3d a8e1 2b3d 523e c0bd
00000360: e6e1 e1bd 84e9 3fbd a234 b7bd f816 283d
00000370: bccd 8c3d 6486 833d 2030 8e3b 3807 8c3d
00000380: 14f9 d7bd 1e52 c33d 0096 8bb9 e8d9 853d
00000390: e051 1bbc 4895 fcbc f4e4 853d 6457 63bd
000003a0: 0a46 bb3d 8a5c dcbd 5048 f13c 5054 3cbd
000003b0: 44b6 643d e81e e73d 10ea a0bd 40b1 f8bb
000003c0: 009d a0bd 804e aa3b b439 bdbd 2a1b b73d
000003d0: 2cea 753d 805f ddbb bcc9 76bd 684d 81bd
000003e0: f6d7 d53d 9261 c03d 38fa 5d3d 6227 993d
000003f0: f446 133d c0b9 753b a0c6 463c 927f d13d

decoder.decoder_fc2.bias f4 [128]
-0.067795746 -0.11608498 0.12740906 -0.080725685 0.009509595 0.16838743 0.15981777 -0.029786743
0.012457111 0.0427071 0.12373409 0.13676612 0.0061620306 -0.07962397 0.12605563 0.036300145
0.014119216 -0.028243758 -0.072808884 -0.0033711544 0.12757897 -0.05540747 -0.121899426 -0.097111225
0.02827334 0.084884144 0.053101912 -0.1141519 0.02321874 0.045920786 0.019678948 -0.0421435
-0.069065906 0.11121061 0.15440528 -0.04548405 0.08622964 0.10521968 -0.116479285 0.01983041
-0.065197006 -0.17735785 -0.009150544 0.017259559 -0.09577833 -0.117800534 -0.098885134 -0.12058166
0.02542906 0.15538974 0.104959026 0.0043212944 0.029732035 0.12984975 0.034401346 0.033076346
-0.0065866504 0.0012268602 0.13175707 0.04357874 0.11292782 0.01298853 0.028422546 0.011318179
0.0116314 0.095289856 0.039422095 0.14909889 -0.097679585 0.104758985 0.082498975 0.08263987
0.15415472 -0.035667773 -0.05554128 0.03939335 0.052985102 0.13891792 -0.11747834 -0.03058387
0.11347268 0.17518196 -0.038754255 0.061587956 0.08965619 0.15010561 0.02819198 0.10858835
0.08598157 0.14523493 -0.040683195 0.04782066 -0.015092087 0.015397147 0.018330526 -0.034306083
-0.118473284 -0.11396048 -0.00724034 0.036523864 0.049465187 0.026565904 0.12671737 -0.02541555
0.026375614 0.13068195 0.117388695 0.083097026 0.026522841 0.013737942 -0.0116672665 0.09551861
0.04948479 -0.05569866 -0.13667905 -0.039423604 0.046495426 0.07633334 0.05684544 0.077179
0.069606565 -0.121987686 -0.05552003 0.09657959 0.15203306 -0.15787365 -0.13332039 0.116607346
00000000: 7fd8 8abd f6bd edbd 8577 023e 8253 a5bd
00000010: 22ce 1b3c c16d 2c3e 45a7 233e 5403 f4bc
00000020: e918 4c3c a4ed 2e3d 4c68 fd3d 6b0c 0c3e
00000030: dcea c93b e411 a3bd ba14 013e 76af 143d
00000040: 4954 673c 745f e7bc d31c 95bd 96ee 5cbb
00000050: 10a4 023e f1f2 62bd 68a6 f9bd 40e2 c6bd
00000060: 7e9d e73c bdd7 ad3d 6481 593d 79c8 e9bd
00000070: 3a35 be3c 6f17 3c3d bf35 a13c aa9e 2cbd
00000080: 6d72 8dbd 63c2 e33d 6b1c 1e3e 7c4d 3abd
00000090: 2a99 b03d 6a7d d73d b18c eebd 6273 a23c
000000a0: 0286 85bd 4c9d 35be 2aec 15bc eb63 8d3c
000000b0: 6e27 c4bd 6841 f1bd 4a84 cabd 84f3 f6bd
000000c0: 9b50 d03c 7d1e 1f3e c2f4 d63d a599 8d3b
000000d0: 9990 f33c 55f7 043e 6de8 0c3d 107b 073d
000000e0: d4d4 d7bb 99ce a03a 53eb 063e 9f7f 323d
000000f0: b346 e73d d8cd 543c 66d6 e83c e26f 393c
00000100: a191 3e3c 5427 c33d 1079 213d 61ad 183e
00000110: 3c0c c8bd e18b d63d 39f5 a83d 183f a93d
00000120: bcda 1d3e 5f18 12bd 417f 63bd ec5a 213d
00000130: e806 593d 8040 0e3e 7c98 f0bd 068b fabc
00000140: 5d64 e83d e662 333e c8bc 1ebd a743 7c3d
00000150: aa9d b73d 49b5 193e def2 e63c 9263 de3d
00000160: 1b17 b03d 77b8 143e 6ca3 26bd 99df 433d
00000170: cd44 77bc 5144 7c3c e629 963c 8984 0cbd
00000180: 1fa2 f2bd 1d64 e9bd 6040 edbb 0c9a 153d
00000190: 029c 4a3d bda0 d93c 33c2 013e 4634 d0bc
000001a0: ac11 d83c 7dd1 053e 7c69 f03d c62e aa3d
000001b0: 6e46 d93c 1b15 613c 1028 3fbc 439f c33d
000001c0: 90b0 4a3d 4724 64bd 98f5 0bbe a57a 21bd
000001d0: fd71 3e3d a754 9c3d c4d6 683d 0610 9e3d
000001e0: e38d 8e3d aed4 f9bd f968 63bd 85cb c53d
000001f0: 8eae 1b3e a1a9 21be 2485 08be d5cf ee3d

decoder.decoder_fc3.weight f4 [72, 128]
0.004632412 0.052488513 0.13810803 0.012617997 0.009789236 0.2223928 0.04681512 0.024537973
-0.07608444 -0.02048374 -0.01813302 0.07771955 0.0004904611 -0.038616534 0.09064478 -0.010955918
0.126506 0.033743452 -0.078044794 -0.06369415 0.084196955 0.010122979 0.02078984 0.07976336
0.02221129 0.060578186 0.02415058 -0.052919652 0.14708501 0.092105195 0.34461638 0.00869025
-0.013755595 0.021826547 0.07239711 0.0949739 0.0064899446 0.031214604 0.12577148 -0.0036568108
-0.05325332 -0.048395228 -0.016601097 0.09296709 -0.060069248 -0.0370557 0.051134422 0.059550833
-0.04801325 0.019524198 0.068745404 0.10392346 0.02514742 0.05151829 0.16068655 0.01112464
0.035686158 0.033432417 -0.018816074 0.021409513 0.09136623 0.13784228 0.012893939 0.017881697
0.08745956 0.007313666 -0.058914784 0.031901497 -0.09350148 0.020604959 0.08101407 0.011432114
0.018073577 -0.05798736 -0.070377514 -0.031418797 0.093671836 0.03338416 -0.026811128 0.0072474335
-0.025556609 0.1035708 -0.08070816 0.090459526 -0.008549552 0.120098054 0.0066840122 0.11894578
-0.034969002 0.08474534 -0.049429294 -0.048298195 -0.042698916 -0.01289305 0.00012570797 -0.044789948
-0.07420195 0.058231737 0.0021969539 -0.07327287 0.074026205 -0.021764811 -0.043932322 -0.0965095
0.0092589455 0.0006085906 -0.027256351 0.09842398 -0.07771132 0.019638097 0.004648046 0.065080225
-0.085044235 -0.276737 0.049913537 -0.034425467 -0.042035267 0.071405426 0.0404529 -0.014849341
-0.018816208 0.045206297 0.01443183 0.029058408 0.1261154 -0.07992172 0.073243104 0.05976774
-0.05360124 -0.0671947 -0.030538654 -0.03504407 -0.021912754 0.21810344 0.10955695 0.023663701
0.38811675 0.036681175 0.100970685 -0.04073927 -0.010134832 -0.098432705 -0.015431869 0.09653149
-0.019158123 -0.031020068 0.017476898 -0.06986559 0.11115356 0.044923577 -0.05194602 0.06395408
0.028862868 -0.026924927 0.104343206 0.06345199 -0.0053547225 0.024619909 0.029396024 -0.0019080802
-0.09541609 -0.0029988207 0.08448978 0.0908639 0.038330004 -0.054410614 0.10919191 -0.046600457
-0.04859434 -0.10981391 0.031818114 0.108398385 0.017124528 -0.072039895 -0.0054518003 0.024415156
0.06701236 -0.017053444 0.023087487 0.12965816 -0.03353954 0.07213093 0.039523937 -0.084925205
-0.032352 0.04525336 0.037909616 -0.03689138 0.087015465 0.01711476 0.023614762 0.0434896
0.023902515 0.066336274 -0.05433228 0.12185389 -0.025228744 0.03450209 0.010278404 -0.08407979
-0.01955502 -0.08354632 -0.025205828 -0.0693007 -0.07783939 0.032266464 -0.010092713 0.063320905
-0.053511996 0.03861395 0.058801945 0.042421825 0.111224316 0.10555651 0.055136118 -0.02779644
-0.03609119 0.058845323 -0.0059074126 -0.026413469 0.08126172 0.077978864 -0.015993122 0.09255998
0.026296515 0.0064991284 -0.022160437 -0.007941544 0.0558954 -0.07074446 0.095645145 0.0409456
-0.07320267 0.11715338 0.08278335 0.002811531 -0.088096954 0.05461775 -0.02712649 0.024144929
-0.029829178 -0.29466042 0.070259675 -0.103270635 -0.030253785 0.039617743 0.0064245495 -0.039176427
0.05610904 -0.077011995 0.038765702 0.0066993106 0.12242901 -0.038845666 0.1096153 0.046869826
00000000: 7dcb 973b 32fe 563d 316c 0d3e b7bb 4e3c
00000010: 0863 203c f0ba 633e 36c1 3f3d dc03 c93c
00000020: 29d2 9bbd 84cd a7bc b38b 94bc 6d2b 9f3d
00000030: 4a92 003a 5f2c 1ebd f8a3 b93d 7380 33bc
00000040: ca8a 013e 9336 0a3d f3d5 9fbd 1472 82bd
00000050: 746f ac3d dada 253c 744f aa3c f95a a33d
00000060: 74f4 b53c d520 783d 70d7 c53c 47c2 58bd
00000070: 749d 163e a6a1 bc3d 8f71 b03e 8d61 0e3c
00000080: 265f 61bc 96cd b23c f044 943d ad81 c23d
00000090: 9aa9 d43b c5b5 ff3c 3dca 003e 1ba7 6fbb
000000a0: 2720 5abd 133a 46bd 06ff 87bc 8865 be3d
000000b0: 2c0b 76bd b8c7 17bd 5472 513d 93eb 733d
000000c0: 8ba9 44bd 36f1 9f3c 64ca 8c3d d3d5 d43d
000000d0: f601 ce3c d804 533d 048b 243e 1f44 363c
000000e0: a62b 123d 6ef0 083d 2b24 9abc 0163 af3c
000000f0: 381e bb3d 8726 0d3e 1a41 533c a37c 923c
00000100: ff1d b33d 7aa7 ef3b a150 71bd 25ab 023d
00000110: b47d bfbd bbcb a83c b4ea a53d c34d 3b3c
00000120: 0a0f 943c 2784 6dbd 1622 90bd ffb0 00bd
00000130: 05d7 bf3d d4bd 083d 03a3 dbbc e17b ed3b
00000140: 185c d1bc ed1c d43d 524a a5bd d842 b93d
00000150: 6c13 0cbc f8f5 f53d 8f05 db3b d899 f33d
00000160: a83b 0fbd f78e ad3d 5f76 4abd 54d4 45bd
00000170: 0fe5 2ebd 5f3d 53bc 7ad0 0339 aa75 37bd
00000180: 31f7 97bd 6784 6e3d c5fa 0f3b 1610 96bd
00000190: 0d9b 973d 1e4c b2bc 61f2 33bd c6a6 c5bd
000001a0: d5b2 173c d389 1f3a b648 dfbc 8392 c93d
000001b0: 1d27 9fbd 13e0 a03c a34e 983b c848 853d
000001c0: ac2b aebd 79b0 8dbe 2372 4c3d b801 0dbd
000001d0: 2c2d 2cbd 023d 923d f1b1 253d a64a 73bc
000001e0: 7324 9abc 3d2a 393d 7b73 6c3c e60b ee3c
000001f0: 6524 013e 00ae a3bd 7b00 963d 05cf 743d
00000200: f98c 5bbd 609d 89bd 332c fabc 5f8a 0fbd
00000210: 6082 b3bc 8256 5f3e 655f e03d 61da c13c
00000220: 3db7 c63e 003f 163d b8c9 ce3d 39de 26bd
00000230: 910c 26bc 1697 c9bd f3d5 7cbc 4db2 c53d
00000240: 7ff1 9cbc cc1d febc b62b 8f3c b115 8fbd
00000250: 7aa4 e33d c901 383d 5ac5 54bd 5bfa 823d
00000260: d271 ec3c aa91 dcbc e4b1 d53d 1ef3 813d
00000270: ab76 afbb b1af c93c eecf f03c 8c18 faba
00000280: 8369 c3bd dd87 44bb fa08 ad3d da16 ba3d
00000290: ecff 1c3d aadd 5ebd 02a0 df3d 1fe0 3ebd
000002a0: dc0a 47bd 1ee6 e0bd b653 023d f9ff dd3d
000002b0: bd48 8c3c a789 93bd 04a5 b2bb 4b02 c83c
000002c0: c73d 893d aab3 8bbc f821 bd3c 1cc5 043e
000002d0: c260 09bd 62b9 933d dae3 213d 44ed adbd
000002e0: 8883 04bd 965b 393d 1d47 1b3d 6a1b 17bd
000002f0: 2a35 b23d 4134 8c3c bf73 c13c 2722 323d
00000300: 35cf c33c 50db 873d 868b 5ebd 888e f93d
00000310: 83ac cebc 1052 0d3d c066 283c 0632 acbd
00000320: d931 a0bc 551a abbd 747c cebc 87ed 8dbd
00000330: 426a 9fbd d729 043d e85b 25bc 64ae 813d
00000340: 652f 5bbd a929 1e3d 4fda 703d 82c2 2d3d
00000350: 93c9 e33d 032e d83d 69d6 613d 5cb5 e3bc
00000360: 5bd4 13bd cb07 713d f892 c1bb 0f61 d8bc
00000370: 8b6c a63d 62b3 9f3d 0204 83bc 1690 bd3d
00000380: ca6b d73c a4f6 d43b ce89 b5bc 401d 02bc
00000390: 93f2 643d 79e2 90bd 9ae1 c33d 93b6 273d
000003a0: 48eb 95bd 1cee ef3d 518a a93d aa41 383b
000003b0: 2d6c b4bd ddb6 5f3d 5f38 debc 96cb c53c
000003c0: 525c f4bc bbdd 96be 4ee4 8f3d 8e7f d3bd
000003d0: c9d6 f7bc 3746 223d 0785 d23b 7677 20bd
000003e0: 98d2 653d 77b8 9dbd c9c8 1e3d e485 db3b
000003f0: 10bc fa3d a21c 1fbd fd7d e03d 93fa 3f3d

decoder.decoder_fc3.bias f4 [72]
0.004204686 0.12949705 -0.02189201 0.047724824 0.058353625 -0.049660042 -0.05860573 -0.031354968
-0.033788674 0.09871132 -0.025393028 0.048899654 0.013945429 0.021699583 0.085379355 0.06162925
-0.025954243 -0.018601956 0.07357158 -0.059365727 -0.036245637 -0.0013629316 0.089326285 -0.058546163
-0.064580016 0.026114449 -0.044542853 0.059333883 0.054603137 0.093252786 0.109610006 -0.034345
0.036534816 0.045131207 0.009637787 0.06464817 -0.035153855 0.028958375 0.096282825 -0.05758616
-0.042627405 -0.03569856 -0.031040007 -0.0032704286 0.03448657 0.06330087 0.10050766 0.022447262
-0.06035669 -0.0036132953 0.06350679 -0.04241331 0.09838763 -0.03954378 0.024952337 0.05093972
-0.038856424 0.030918093 -0.043204565 -0.009860009 0.11430079 0.036868695 0.03972017 0.13150592
0.06252589 0.08152746 0.112264216 0.0010799619 0.079361215 -0.046314336 0.051374152 0.04589027
00000000: 76c7 893b e09a 043e df56 b3bc 1b7b 433d
00000010: 3604 6f3d 5468 4bbd 900c 70bd 116e 00bd
00000020: fe65 0abd 2929 ca3d 0a05 d0bc 014b 483d
00000030: 5e7b 643c 53c3 b13c 5fdb ae3d f46e 7c3d
00000040: fe9d d4bc 2163 98bc b2ac 963d 7a29 73bd
00000050: 4e76 14bd 65a4 b2ba b3f0 b63d 1ace 6fbd
00000060: 8742 84bd f8ed d53c 9172 36bd 1608 733d
00000070: 8aa7 5f3d 51fb be3d 367b e03d 58ad 0cbd
00000080: 88a5 153d 80db 383d cfe7 1d3c 4266 843d
00000090: 7dfd 0fbd 1d3a ed3c ee2f c53d 77df 6bbd
000000a0: 139a 2ebd a738 12bd 9d47 febc b054 56bb
000000b0: ca41 0d3d e3a3 813d f6d6 cd3d 52e3 b73c
000000c0: 9438 77bd 09cd 6cbb d90f 823d 94b9 2dbd
000000d0: 747f c93d a9f8 21bd d868 cc3c 2ba6 503d
000000e0: ea27 1fbd f147 fd3c 45f7 30bd e08b 21bc
000000f0: 8816 ea3d a103 173d 9eb1 223d 7da9 063e
00000100: 930d 803d def7 a63d c8ea e53d 828d 8d3a
00000110: 2288 a23d 1ab4 3dbd b46d 523d 70f7 3b3d
