clustering/clustering/encoder_weights/bridge2_carla/72_ranges/lidar_encoder_autoencoder_bridge2_carla.pth (torch, 116204 bytes, 14 tensors)

encoder.conv2d_1.weight f4 [16, 1, 1, 3]
0.52985847 0.101043485 -0.1792793 0.0297064 -0.22107457 -0.3085739 0.37360278 -0.21669741
-0.21548119 0.4651997 -0.10800154 0.5514759 0.101023056 -0.47911713 -0.44290897 -0.42745996
0.6140164 0.102634124 -0.41984817 -0.41643587 -0.3943987 0.23240617 -0.17595676 -0.6040196
-0.536075 0.031506326 -0.51156235 -0.3077671 -0.17915994 0.5791942 -0.28179517 0.30662996
0.23284444 -0.025794307 0.03511509 0.21886398 0.5350188 0.06863514 -0.16030005 -0.19303517
0.19876052 -0.2468949 0.61393636 0.045711823 -0.3214737 -0.13190609 -0.5454056 -0.4796784
00000000: cea4 073f e3ef ce3d fe94 37be d65a f33c
00000010: 5f61 62be 66fd 9dbe dd48 bf3e ede5 5dbe
00000020: 1aa7 5cbe a82e ee3e e92f ddbd 862d 0d3f
00000030: 2de5 ce3d d74e f5be f7c4 e2be 08dc dabe
00000040: 2e30 1d3f d731 d23d 57f6 d6be 1537 d5be
00000050: a0ee c9be e2fb 6d3e 022e 34be 07a1 1abf
00000060: 363c 09bf c70c 013d c0f5 02bf a693 9dbe
00000070: b475 37be 1246 143f 7547 90be 9afe 9c3e
00000080: c66e 6e3e 954e d3bc d7d4 0f3d e11d 603e
00000090: fef6 083f 9590 8c3d b225 24be 03ab 45be
000000a0: e187 4b3e 04d2 7cbe ef2a 1d3f 523c 3b3d
000000b0: 3398 a4be 6412 07be b49f 0bbf 6898 f5be

encoder.conv2d_1.bias f4 [16]
-0.16577092 -0.57355046 -0.3801084 -0.376483 -0.03665296 -0.048716586 -0.07736965 0.45246682
-0.36481625 0.5165706 0.46203396 -0.28434876 -0.19802277 -0.08571298 -0.17302237 -0.53060746
00000000: dabf 29be 34d4 12bf 919d c2be 61c2 c0be
00000010: 6a21 16bd 0b8b 47bd fb73 9ebd bba9 e73e
00000020: 32c9 babe f93d 043f b78f ec3e 2996 91be
00000030: 7bc6 4abe 498a afbd c72c 31be e4d5 07bf

encoder.conv2d_2.weight f4 [32, 16, 1, 3]
0.17821805 0.08802203 0.084036194 0.019244956 -0.11691261 0.074948974 0.031299796 0.088983335
-0.12230657 -0.13954721 0.1382601 -0.07213223 -0.0008176299 0.0112425275 0.0017601781 -0.07128257
-0.15624654 -0.03326996 -0.036520522 -0.09707713 0.055730443 0.01102624 0.3678567 0.3697019
-0.08435181 -0.12842746 0.062424347 0.08772562 -0.053120732 -0.0057213516 -0.08038865 -0.11544348
0.087337166 -0.13120063 -0.010416084 0.03601685 0.23303801 0.33757338 0.18186514 0.15376219
0.08441882 0.098274305 0.022609279 0.07277623 0.3257731 0.06776476 0.027307762 0.122822315
-0.1793271 0.17914763 -0.07053002 -0.11883327 0.08724178 -0.014658321 0.058920577 0.07480795
0.053992912 -0.0047309846 -0.06564763 0.13191779 -0.035487674 0.119927615 0.1134639 0.11930209
0.012296974 0.08531218 -0.022139654 0.10029918 0.030627938 -0.02189956 0.09230707 -0.41492426
-0.055648923 0.0033414788 0.110236205 0.07107583 -0.002966411 0.19490679 0.13043572 -0.014472649
-0.020079544 -0.0029990913 -0.11749871 0.067201264 -0.19346687 0.25197226 0.17317258 -0.07982867
0.12224101 -0.119635135 -0.024950493 0.009353608 -0.06827936 -0.1100059 0.046760518 0.06637999
0.11188297 0.14543484 0.014006535 0.061717406 0.084476955 0.012335614 0.02644715 0.08636389
0.12707917 0.10810436 0.12965105 0.03952556 -0.05679884 -0.08652305 0.13936962 0.1600971
-0.10048369 -0.024102388 0.11371481 0.04429283 -0.043384798 -0.2042248 -0.07167652 -0.026254287
0.07418807 0.001976514 -0.100642726 -0.022546284 -0.10310412 -0.03179868 0.13813722 0.045721292
-0.015340964 0.042346604 0.049598522 -0.13097954 -0.12950037 0.19542632 0.13256057 0.15631396
0.005211775 -0.1437653 0.13471468 0.0588848 0.06743037 0.08469613 0.12142151 0.024517162
0.0059422944 -0.0060215243 0.23050363 0.011406263 -0.021631462 -0.12748367 -0.07952652 -0.003681098
0.1157976 0.16378343 -0.09299148 -0.20781049 0.021281056 -0.016981542 0.059562307 0.2565854
0.210525 -0.072164856 0.022560677 -0.0011058884 0.14423327 -0.35441366 0.0054285275 0.43112174
0.08997857 0.0984785 0.12513433 0.13956079 -0.06442501 -0.3087992 0.0033276782 0.1883963
-0.010674155 -0.0805264 0.07225214 -0.025284635 0.02735408 -0.17024569 0.30960363 -0.06486428
-0.0009775627 -0.37254798 -0.059883446 -0.08779872 0.3212087 0.118223585 0.12100713 0.062471077
-0.05422259 0.009863014 -0.037423436 -0.0049292147 -0.066174336 -0.02289646 0.13013402 -0.13994944
-0.00284492 -0.004245135 -0.008185277 0.14160073 0.11525983 0.12705173 0.0844216 -0.019725047
0.016836142 -0.03684155 -0.07312262 -0.016017057 0.06559734 -0.029024359 -0.18648191 -0.07518913
-0.009491365 0.047241352 0.090012155 0.11916946 -0.008818215 -0.035198253 0.034360755 0.07136059
0.110501654 -0.008533628 -0.123534754 0.022525707 0.055786867 0.1762091 0.034989074 -0.09215886
-0.01004406 0.05372589 -0.018359838 0.060255863 -0.11367312 0.13643745 0.012972525 -0.043223783
0.21835522 0.078223415 -0.10542239 -0.1037099 0.07840109 0.077583216 0.13469645 -0.10503209
-0.02763341 0.13520288 -0.07714487 -0.043856457 0.059291992 -0.074627794 -0.0018287455 -0.12396185
00000000: cb7e 363e e544 b43d 2b1b ac3d 99a7 9d3c
00000010: e16f efbd d97e 993d 3734 003d e53c b63d
00000020: de7b fabd 77e5 0ebe 0e94 0d3e 10ba 93bd
00000030: 3756 56ba 9432 383c c7b5 e63a 99fc 91bd
00000040: 18ff 1fbe 1546 08bd 8b96 15bd 60d0 c6bd
00000050: 9b45 643d 67a7 343c b757 bc3e 9149 bd3e
00000060: a4c0 acbd 7d82 03be acb0 7f3d 7da9 b33d
00000070: 2095 59bd 2d7a bbbb cea2 a4bd a26d ecbd
00000080: d4dd b23d 7559 06be 39a8 2abc 6886 133d
00000090: 84a1 6e3e 6bd6 ac3e db3a 3a3e d673 1d3e
000000a0: c6e3 ac3d 0a44 c93d 1837 b93c b40b 953d
000000b0: bbcb a63e 40c8 8a3d 87b4 df3c 448a fb3d
000000c0: 86a1 37be 7a72 373e 0b72 90bd dc5e f3bd
000000d0: d1ab b23d 7429 70bc b456 713d e934 993d
000000e0: ac27 5d3d 6006 9bbb 4472 86bd 7515 073e
000000f0: 865b 11bd 9c9c f53d c35f e83d a754 f43d
00000100: 3f79 493c 27b8 ae3d 385e b5bc a869 cd3d
00000110: 71e7 fa3c b566 b3bc 7d0b bd3d f470 d4be
00000120: 20f0 63bd b6fc 5a3b 85c3 e13d 3490 913d
00000130: 1e68 42bb a595 473e f190 053e b11e 6dbc
00000140: db7d a4bc 678c 44bb 2aa3 f0bd d1a0 893d
00000150: 2e1c 46be 8202 813e 2754 313e 377d a3bd
00000160: 7f59 fa3d 4403 f5bd fa64 ccbc e03f 193c
00000170: 0dd6 8bbd c64a e1bd f587 3f3d 3bf2 873d
00000180: e622 e53d dfec 143e aa7b 653c 64cb 7c3d
00000190: 4102 ad3d 511b 4a3c b2a7 d83c 8ddf b03d
000001a0: 0b21 023e d265 dd3d 3fc3 043e 8ee5 213d
000001b0: e7a5 68bd ff32 b1bd e9b6 0e3e 7ff0 233e
000001c0: 65ca cdbd 5f72 c5bc 4fe3 e83d 666c 353d
000001d0: 42b4 31bd 4e20 51be 24cb 92bd 3b13 d7bc
000001e0: eaef 973d 6788 013b c61d cebd fcb2 b8bc
000001f0: 4128 d3bd 553f 02bd d873 0d3e 4046 3b3d
00000200: ab58 7bbc a273 2d3d d227 4b3d 801f 06be
00000210: bf9b 04be d61d 483e f5bd 073e c410 203e
00000220: 8ac7 aa3b 3637 13be a5f2 093e 3031 713d
00000230: ef18 8a3d 2a75 ad3d d7ab f83d 37d8 c83c
00000240: 94b7 c23b 3550 c5bb 2509 6c3e 56e1 3a3c
00000250: 7734 b1bc 148b 02be cdde a2bd 943e 71bb
00000260: 4b27 ed3d d8b6 273e 5172 bebd 46cc 54be
00000270: 9c55 ae3c e01c 8bbc 9bf7 733d 295f 833e
00000280: de93 573e 2bcb 93bd 2bd1 b83c 75f3 90ba
00000290: e3b1 133e b575 b5be cae1 b13b fdbb dc3e
000002a0: af46 b83d 19af c93d 3723 003e 06e9 0e3e
000002b0: 42f1 83bd ee1a 9ebe 2d15 5a3b f6ea 403e
000002c0: a7e2 2ebc 06eb a4bd eef8 933d b921 cfbc
000002d0: aa15 e03c e354 2ebe 5e84 9e3e 90d7 84bd
000002e0: 9021 80ba 9cbe bebe 5848 75bd d1cf b3bd
000002f0: 7775 a43e 351f f23d 96d2 f73d ace1 7f3d
00000300: 8218 5ebd 7b98 213c 5149 19bd 4085 a1bb
00000310: 6986 87bd 5b91 bbbc da41 053e e84e 0fbe
00000320: d671 3abb c61a 8bbb 8a1b 06bc c8ff 103e
00000330: 590d ec3d d919 023e 3be5 ac3d 6c96 a1bc
00000340: f3eb 893c 2ae7 16bd 50c1 95bd 3436 83bc
00000350: e657 863d 7ec4 edbc 1df5 3ebe c2fc 99bd
00000360: ac81 1bbc 2680 413d 4b58 b83d 1e0f f43d
00000370: 467a 10bc 0b2c 10bd ddbd 0c3d 8025 923d
00000380: b14e e23d a1d0 0bbc caff fcbd d587 b83c
00000390: c580 643d 2970 343e b450 0f3d c9bd bcbd
000003a0: d78f 24bc ae0f 5c3d 5f67 96bc dace 763d
000003b0: 74cd e8bd 42b6 0b3e b78a 543c 6c0b 31bd
000003c0: 8398 5f3e 9933 a03d b2e7 d7bd db65 d4bd
000003d0: c090 a03d f3e3 9e3d deed 093e 101b d7bd
000003e0: 765f e2bc a072 0a3e 21fe 9dbd d4a2 33bd
000003f0: 29dc 723d 75d6 98bd 84b2 efba b6df fdbd

encoder.conv2d_2.bias f4 [32]
0.14210977 -0.054671474 0.05082857 -0.03219208 0.122482084 0.1388184 -0.07888583 -0.0043186196
0.038099688 -0.13602361 0.11291503 -0.09160194 0.099713534 0.13130704 0.024145084 0.05075103
0.09196837 0.06996827 -0.019295508 -0.011311207 -0.12780441 -0.048208248 0.02156364 0.11744163
-0.13932545 -0.014018694 -0.025334531 0.093893774 -0.046011645 0.07104112 -0.039236687 0.0860082
00000000: 3985 113e 32ef 5fbd 9e31 503d d8db 03bd
00000010: e3d7 fa3d 6926 0e3e e58e a1bd 3583 8dbb
00000020: 6b0e 1c3d c649 0bbe ff3f e73d cc99 bbbd
00000030: 9c36 cc3d 5a75 063e e9cb c53c 50e0 4f3d
00000040: ea59 bc3d 864b 8f3d 9d11 9ebc a452 39bc
00000050: 29df 02be 0376 45bd 3ba6 b03c 3d85 f03d
00000060: 55ab 0ebe aaae 65bc 5d8a cfbc 614b c03d
00000070: b576 3cbd 027e 913d a6b6 20bd 1125 b03d

encoder.conv2d_3.weight f4 [64, 32, 1, 3]
-0.07969218 0.061169717 0.08606463 0.006719929 -0.005379472 -0.018385943 0.06439184 -0.0806289
0.01622055 0.093951575 -0.051324427 0.08030066 0.015210967 -0.014936268 -0.0857445 0.06980161
0.02743757 0.08843231 -0.04487264 -0.025390206 -0.04256364 0.02337706 0.015471207 -0.12155516
-0.09940459 0.00020335503 0.018486278 -0.06490407 -0.068358175 -0.08584385 0.07872222 -0.0058846283
-0.02094026 0.023844907 -0.02145767 0.013656742 -0.060773544 -0.095313825 0.019690257 0.037869696
-0.0034051824 -0.004858611 0.0024539414 -0.05170495 -0.060652673 -0.09850328 -0.036588877 -0.105494484
0.09833269 0.004423732 -0.017973024 -0.028336719 -0.02794771 -0.102231696 0.016952056 -0.00025797772
-0.052640405 0.019425686 -0.055682715 -0.053347923 -0.07282282 0.035396937 0.096266486 -0.012638246
0.03102332 -0.026648037 0.037812054 0.0034154714 0.010604147 0.08198472 -0.09182347 0.08185336
0.06973182 0.0082697505 -0.018078327 -0.012378065 0.037697233 -0.03595966 0.036613 -0.05577048
-0.06151995 -0.0824795 0.008496669 -0.091339394 0.07064149 0.010081294 0.045095917 -0.0754124
0.007716631 -0.04360867 -0.02438215 0.044438146 -0.053683512 0.011654067 -0.0112678 0.070976846
0.06254497 -0.08717219 -0.063837186 -0.04936972 0.10597313 0.14165205 -0.0021738769 0.024178
0.0071743894 -0.19649585 0.007942785 -0.12157204 -0.061066974 0.091859736 -0.04979967 0.031785578
0.09006143 -0.06658126 0.10421768 0.11826397 0.023489658 -0.055102374 0.06213456 0.06226604
-0.09610926 -0.046801757 -0.07585246 0.013133525 -0.013324199 0.11447113 0.06836251 -0.08026027
0.062417984 -0.06134467 -0.017984033 0.11282344 0.004653493 -0.049776513 -0.075043194 0.089062884
0.0206181 -0.039399993 -0.033066966 -0.09134827 0.08647881 -0.08748346 0.04786758 0.056903966
0.0047143106 0.042403784 0.030897796 0.05026163 -0.008096886 0.020328978 0.005483551 0.10094814
0.11491168 0.051313426 -0.048240375 0.06587054 -0.04096168 -0.07944655 -0.098728634 -0.007936832
-0.047679063 0.010033552 0.042617 0.09291164 0.08874679 -0.051943544 -0.05894845 0.0068925032
0.0714401 0.0023403955 -0.012145979 0.23681146 -0.02702301 0.116180696 -0.012855124 0.08681408
0.045657862 0.121878885 0.09634895 0.12082182 0.07895719 -0.047929164 -0.057380497 0.097633034
0.19909115 -0.18886961 0.03772395 0.023940181 0.05342155 0.11011821 0.09161215 0.04487885
-0.028950978 0.032259393 0.052338686 0.090889804 -0.04415632 -0.09770771 -0.013358798 -0.10293602
-0.0054683033 -0.024060035 0.057743378 -0.09263787 0.04173639 -0.026872708 -0.061012436 -0.053975765
0.01094559 -0.09839617 -0.08435808 -0.08670395 -0.029464947 -0.011266663 -0.122203335 0.00042802328
0.032012753 0.010788669 0.017331544 0.0047342395 0.01802526 0.09002822 0.028540269 0.02864623
0.008101104 0.005816016 0.0074261217 0.05511914 0.07104768 -0.03916343 -0.06263724 -0.051516026
-0.042305563 0.06831609 -0.11285132 -0.09856473 -0.05990863 0.010817071 0.061887715 -0.11304163
0.07417044 0.056764644 -0.034417965 0.065834224 0.050164547 -0.063708544 -0.034018148 -0.02312556
0.06607605 0.06757901 -0.003353699 -0.09493682 -0.0668001 0.063963026 0.07947587 -0.03104398
00000000: a735 a3bd 198d 7a3d a742 b03d da32 dc3b
00000010: 4846 b0bb 1e9e 96bc dedf 833d c420 a5bd
00000020: f5e0 843c af69 c03d 9039 52bd ac74 a43d
00000030: 6b37 793c 40b7 74bc d09a afbd 26f4 8e3d
00000040: c1c4 e03c 001c b53d 60cc 37bd 1fff cfbc
00000050: 3657 2ebd 4081 bf3c f27a 7d3c e9f1 f8bd
00000060: a294 cbbd b33b 5539 8970 973c 6dec 84bd
00000070: 5fff 8bbd e7ce afbd 1e39 a13d d7d3 c0bb
00000080: e88a abbc 6556 c33c ffc7 afbc 87c0 5f3c
00000090: aeed 78bd e533 c3bd 764d a13c 411d 1b3d
000000a0: 7b29 5fbb fc34 9fbb 4ed2 203b 92c8 53bd
000000b0: f06e 78bd 16bc c9bd 38de 15bd 7e0d d8bd
000000c0: a662 c93d f4f4 903b 2a3c 93bc 6822 e8bc
000000d0: 99f2 e4bc da5e d1bd 0adf 8a3c 2f41 87b9
000000e0: 779d 57bd 9e22 9f3c 8f13 64bd 5a83 5abd
000000f0: 2124 95bd 61fc 103d 5d27 c53d a510 4fbc
00000100: 9e24 fe3c fc4c dabc d0e0 1a3d 1ad6 5f3b
00000110: 04bd 2d3c 9be7 a73d f20d bcbd bca2 a73d
00000120: 8ecf 8e3d d97d 073c 0019 94bc 5ecd 4abc
00000130: 6a68 1a3d 704a 13bd 83f7 153d 966f 64bd
00000140: 58fc 7bbd 03eb a8bd 9d35 0b3c 2610 bbbd
00000150: 7cac 903d 032c 253c 7fb6 383d d171 9abd
00000160: cbdb fc3b 019f 32bd 13bd c7bc c604 363d
00000170: 3ee3 5bbd b3f0 3e3c 949c 38bc 4f5c 913d
00000180: 9417 803d 5587 b2bd 12bd 82bd e737 4abd
00000190: 7108 d93d 3c0d 113e 9a77 0ebb f110 c63c
000001a0: 2417 eb3b 3536 49be 7422 023c c3fa f8bd
000001b0: 5d21 7abd f520 bc3d bdfa 4bbd 9831 023d
000001c0: 2172 b83d c15b 88bd 1470 d53d 6134 f23d
000001d0: 626d c03c 07b3 61bd cf80 7e3d ad0a 7f3d
000001e0: efd4 c4bd 33b3 3fbd 8958 9bbd ff2d 573c
000001f0: be4d 5abc d76f ea3d a501 8c3d 7f5f a4bd
00000200: 00aa 7f3d 8c44 7bbd 4053 93bc fa0f e73d
00000210: 547c 983b 75e2 4bbd 3fb0 99bd 9a66 b63d
00000220: 4ae7 a83c e361 21bd 3a71 07bd cd14 bbbd
00000230: cd1b b13d 872a b3bd cc10 443d 2214 693d
00000240: 817a 9a3b 97af 2d3d 601d fd3c 24df 4d3d
00000250: cda8 04bc f588 a63c 5caf b33b e6bd ce3d
00000260: d156 eb3d 072e 523d b397 45bd 22e7 863d
00000270: 6fc7 27bd dfb4 a2bd 3d32 cabd 7c09 02bc
00000280: 1f4b 43bd c463 243c 2a8f 2e3d 7548 be3d
00000290: e1c0 b53d c1c2 54bd ee73 71bd 82da e13b
000002a0: 304f 923d 5261 193b eeff 46bc b47e 723e
000002b0: 5c5f ddbc 25f0 ed3d 4c9e 52bc 95cb b13d
000002c0: bd03 3b3d a39b f93d 9952 c53d 6e71 f73d
000002d0: 4fb4 a13d 5f51 44bd d007 6bbd d4f3 c73d
000002e0: 8dde 4b3e 0967 41be 6e84 1a3d 331e c43c
000002f0: 8ed0 5a3d a885 e13d 279f bb3d e3d2 373d
00000300: 9a2a edbc 6d22 043d 1761 563d 6f24 ba3d
00000310: 42dd 34bd fb1a c8bd dcde 5abc 1fd0 d2bd
00000320: 742f b3bb 8d19 c5bc 5284 6c3d ecb8 bdbd
00000330: c7f3 2a3d 2724 dcbc 2de8 79bd b115 5dbd
00000340: 2255 333c ee83 c9bd eec3 acbd d791 b1bd
00000350: 7960 f1bc cf97 38bc be45 fabd 5068 e039
00000360: ce1f 033d f5c2 303c e2fa 8d3c ae21 9b3b
00000370: b6a9 933c b760 b83d 48cd e93c 80ab ea3c
00000380: 7eba 043c 4794 be3b d356 f33b 9bc4 613d
00000390: 7281 913d d569 20bd f447 80bd 7802 53bd
000003a0: 9948 2dbd 4ee9 8b3d 981e e7bd 4edc c9bd
000003b0: c062 75bd 163a 313c f97d 7d3d 5f82 e7bd
000003c0: ace6 973d 0b82 683d daf9 0cbd 18d4 863d
000003d0: 5779 4d3d a079 82bd 9d56 0bbd d071 bdbc
000003e0: e152 873d dd66 8a3d bcc9 5bbb 3c6e c2bd
000003f0: 7ece 88bd 0cff 823d 3fc4 a23d f24f febc

encoder.conv2d_3.bias f4 [64]
-0.02502463 0.048653167 -0.026331924 -0.101206124 -0.016191741 -0.036828015 0.08335612 0.08571223
0.05796975 -0.085067615 -0.095390625 0.04523432 -0.09775091 -0.10509855 0.067040086 0.004311117
0.011336843 -0.055129215 -0.058801204 0.00019410923 0.026040727 0.08832807 -0.101285495 -0.039165113
0.044971194 -0.058285497 -0.055783406 -0.048331883 0.10565542 -0.10033013 0.019522017 0.1122111
-0.004569405 0.026097601 0.03367242 -0.03349628 0.08366351 -0.007969769 0.05371583 0.048084795
0.078527346 -0.0067942166 -0.033730514 0.038663246 -0.1091618 0.054989714 -0.037894353 0.03699319
0.060040236 -0.10242863 0.064017266 0.091748975 0.016278572 -0.0904596 0.07272291 0.08014691
0.051633738 0.033516772 0.039037645 -0.09162866 -0.034972962 -0.04325235 0.035792015 0.09170815
00000000: 7400 cdbc 8b48 473d 0cb6 d7bc 2845 cfbd
00000010: 8ba4 84bc f9d8 16bd 9db6 aa3d e589 af3d
00000020: b071 6d3d ee37 aebd 295c c3bd 9f47 393d
00000030: a131 c8bd e93d d7bd 504c 893d 4544 8d3b
00000040: 2abe 393c 2ccf 61bd 88d9 70bd cd89 4b39
00000050: 5d53 d53c 59e5 b43d c56e cfbd 996b 20bd
00000060: b733 383d c6bc 6ebd 247d 64bd a7f7 45bd
00000070: de61 d83d e279 cdbd a3ec 9f3c efce e53d
00000080: f3ba 95bb a3ca d53c 17ec 093d 6533 09bd
00000090: c657 ab3d a293 02bc 2105 5c3d 90f4 443d
000000a0: f2d2 a03d 05a2 debb 0229 0abd 5a5d 1e3d
000000b0: 3990 dfbd e53c 613d 1c37 1bbd 2c86 173d
000000c0: c0ec 753d 1ac6 d1bd 7c1b 833d e3e6 bb3d
000000d0: a45a 853c e242 b9bd c0ef 943d 1024 a43d
000000e0: e67d 533d e248 093d f0e5 1f3d cfa7 bbbd
000000f0: cf3f 0fbd 6029 31bd a69a 123d 7cd1 bb3d

encoder.fc.weight f4 [16, 64]
0.09256845 -0.12156004 -0.08955398 -0.073345564 0.11238884 -0.06567502 0.0019799157 0.0823524
0.0019157723 -0.09327749 -0.017623104 -0.08870751 -0.087808564 -0.08686746 0.028516648 -0.01490513
0.14780696 0.08860127 0.02878517 0.082882084 -0.027849065 -0.01927506 0.028654419 0.12110055
-0.15062138 -0.08848737 0.054683067 0.02351539 0.051477317 -0.047871433 -0.097017735 -0.12627962
-0.12431239 0.069327995 0.11001534 0.0939936 0.06965264 0.028048394 -0.13790655 -0.09693894
-0.04036523 -0.11250362 0.089224264 -0.13888171 0.042171698 -0.003160034 0.027445523 0.07641251
-0.019532057 -0.026364602 -0.121324554 0.050388943 -0.035054572 0.038088888 0.044335686 0.0388209
-0.0014939451 -0.05702023 -0.115072414 -0.10499371 0.07658286 0.22858652 0.067365415 -0.059887223
-0.109207146 -0.101153016 0.05683004 0.0032078102 0.3213344 0.074600354 0.015425007 0.09046464
-0.13008067 -0.12612663 0.08744285 0.08285538 0.015653491 -0.05665788 -0.07777121 0.05282537
-0.05368486 0.06654351 -0.05163235 0.049157448 0.0328299 -0.11386175 0.045533217 -0.03772359
0.09504713 0.10538946 0.11807122 -0.06425871 -0.0043081036 -0.086439185 -0.077484235 -0.02038685
-0.039510157 0.04777856 0.008108589 -0.01850592 -0.06328937 -0.020249793 -0.10877423 0.06424295
-0.06786644 0.077692635 0.108171344 -0.09054208 0.025290882 -0.095839806 -0.07148765 -0.063163474
-0.03026133 0.049218867 -0.08388867 0.052548535 0.02719844 -0.071826726 0.014752714 0.030574324
0.048912644 -0.14001133 -0.12902227 0.030371463 -0.10153139 -0.23627533 0.07810668 -0.04794787
-0.047245357 -0.07548854 -0.09020364 -0.005983656 -0.2676737 -0.008344824 0.1376564 0.034951355
-0.05717683 0.14726308 0.0042078025 -0.09679227 -0.02717926 -0.13169798 -0.12854616 0.002473994
-0.32179546 0.07809083 0.039919052 0.0065052793 0.023699904 0.051280167 -0.06908429 0.071227394
0.051372968 -0.10880709 -0.00055346184 0.020465748 -0.06718467 0.01109915 0.06313354 0.12023471
0.13745831 -0.015736433 0.10767354 0.017579548 -0.004879378 0.10322626 -0.05026157 0.09758952
-0.00057557476 0.044884946 -0.07148292 -0.04073027 0.025986293 0.14833592 0.06291601 0.05148855
0.047036994 -0.04963438 -0.0072860043 -0.019424532 0.11689276 -0.0021686256 0.028597407 -0.11604486
0.13193455 0.07165087 0.014387761 0.14918557 0.058771342 -0.13321379 0.030567752 0.11859557
-0.088134654 -0.1323717 -0.0076648337 0.122999504 -0.17704523 -0.0037238162 0.057749692 0.021007493
-0.023834497 0.03823489 0.12792492 0.0823824 0.098750666 -0.041954387 -0.058372397 0.10039519
0.23495393 -0.02638052 0.07441743 -0.03677627 -0.04466689 0.069821365 0.069044285 -0.100103214
-0.024290893 0.031747714 0.051496085 0.08024169 -0.07546232 0.11502405 -0.051719587 0.017577361
-0.12233603 0.1162951 -0.06003759 -0.044822153 -0.0026743852 0.0021452082 -0.020663952 -0.031814326
-0.039081052 0.107588485 0.07291006 -0.012674592 -0.110781364 0.009402876 0.06678735 0.08462842
0.005771201 0.04836546 0.09359751 -0.12214121 -0.051643703 -0.016410097 0.022879355 -0.116985396
0.07756434 -0.1145135 0.130947 -0.12214225 0.09008279 -0.037881136 0.01606754 0.03385592
00000000: 8794 bd3d 78f4 f8bd 1468 b7bd 3336 96bd
00000010: 1f2c e63d a080 86bd 79c1 013b 60a8 a83d
00000020: a71a fb3a 4508 bfbd 545e 90bc 48ac b5bd
00000030: fad4 b3bd 91e7 b1bd bf9b e93c a534 74bc
00000040: b55a 173e 9574 b53d e0ce eb3c 15be a93d
00000050: b923 e4bc bbe6 9dbc acbc ea3c 9103 f83d
00000060: 7e3c 1abe de38 b5bd 5afb 5f3d 59a3 c03c
00000070: e1d9 523d d614 44bd 3cb1 c6bd 724f 01be
00000080: 7f97 febd d6fb 8d3d b94f e13d b77f c03d
00000090: 0ba6 8e3d bfc5 e53c 6037 0dbe ec87 c6bd
000000a0: 0356 25bd 4c68 e6bd 36bb b63d 0237 0ebe
000000b0: 3bbc 2c3d 9318 4fbb 6fd5 e03c 297e 9c3d
000000c0: b101 a0bc 94fa d7bc 0279 f8bd a364 4e3d
000000d0: 6295 0fbd 1803 1c3d 5699 353d aa02 1f3d
000000e0: 7bd0 c3ba 0b8e 69bd 16ab ebbd f106 d7bd
000000f0: 79d7 9c3d 9612 6a3e e1f6 893d 4e4c 75bd
00000100: ffa7 dfbd 5029 cfbd 9ec6 683d 203a 523b
00000110: f185 a43e 12c8 983d 2bb9 7c3c 8645 b93d
00000120: de33 05be 5727 01be 3d15 b33d 15b0 a93d
00000130: c03b 803c 1812 68bd 8346 9fbd 6a5f 583d
00000140: a8e4 5bbd f747 883d 717c 53bd 5259 493d
00000150: a578 063d 5930 e9bd 0a81 3a3d 0d84 1abd
00000160: 12a8 c23d 6ed6 d73d 53cf f13d 129a 83bd
00000170: fe2a 8dbb 0707 b1bd 0eb0 9ebd 5302 a7bc
00000180: 67d5 21bd 74b3 433d e3d9 043c ba99 97bc
00000190: db9d 81bd e5e2 a5bc 06c5 debd cf91 833d
000001a0: 8ffd 8abd 511d 9f3d f088 dd3d 206e b9bd
000001b0: d32e cf3c a947 c4bd 1e68 92bd da5b 81bd
000001c0: 9ce6 f7bc b999 493d d3cd abbd 223d 573d
000001d0: 43cf de3c e419 93bd 5eb5 713c 0177 fa3c
000001e0: a058 483d 215f 0fbe 6a1e 04be 93cd f83c
000001f0: b0ef cfbd 29f2 71be 65f6 9f3d fc64 44bd
00000200: 5984 41bd bc99 9abd b0bc b8bd 8b12 c4bb
00000210: 870c 89be bbb8 08bc cdf5 0c3e 2729 0f3d
00000220: 4032 6abd 22cc 163e 9be1 893b 073b c6bd
00000230: 0aa7 debc d6db 06be 9ba1 03be bb22 223b
00000240: 60c2 a4be 16ee 9f3d 2982 233d 3d2a d53b
00000250: 4d26 c23c 270b 523d 107c 8dbd abdf 913d
00000260: 766c 523d 40d6 debd 3216 11ba c9a7 a73c
00000270: 1e98 89bd 36d9 353c 284c 813d 9e3d f63d
00000280: dfc1 0c3e b1e9 80bc f283 dc3d fc02 903c
00000290: 30e3 9fbb 4a68 d33d 13df 4dbd 04dd c73d
000002a0: 2be2 16ba 47d9 373d a365 92bd c9d4 26bd
000002b0: 35e1 d43c 5fe5 173e 1cda 803d a8e5 523d
000002c0: dda9 403d 6b4d 4bbd 6fbf eebb 3220 9fbc
000002d0: 7965 ef3d 801f 0ebb 1c45 ea3c eda8 edbd
000002e0: da19 073e b1bd 923d a5ba 6b3c 1ac4 183e
000002f0: 38ba 703d 3269 08be 3969 fa3c 3ce2 f23d
00000300: f17f b4bd 728c 07be 4929 fbbb 2ae7 fb3d
00000310: 584b 35be 450b 74bb f18a 6c3d e817 ac3c
00000320: 9040 c3bc 309c 1c3d c0fe 023e 1bb8 a83d
00000330: ca3d ca3d 5dd8 2bbd e517 6fbd fe9b cd3d
00000340: c397 703e f61b d8bc 2a68 983d b7a2 16bd
00000350: a1f4 36bd 81fe 8e3d 1767 8d3d ea02 cdbd
00000360: b2fd c6bc e409 023d 8fed 523d c155 a43d
00000370: fd8b 9abd bb91 eb3d ebd7 53bd 66fe 8f3c
00000380: 508b fabd 202c ee3d fae9 75bd 6f97 37bd
00000390: bd44 2fbb 9f96 0c3b 7347 a9bc bd4f 02bd
000003a0: 7413 20bd 5a57 dc3d df51 953d 18a9 4fbc
000003b0: 57e1 e2bd 850e 1a3c cec7 883d aa51 ad3d
000003c0: 581c bd3b dc1a 463d 0db0 bf3d 2c25 fabd
000003d0: 5988 53bd 786e 86bc 7c6d bb3c 0a96 efbd
000003e0: 0dda 9e3d 0e86 eabd f816 063e b725 fabd
000003f0: 537d b83d 4029 1bbd 13a0 833c 81ac 0a3d

encoder.fc.bias f4 [16]
-0.019473666 -0.046188246 0.068014465 0.021349987 -0.10641007 -0.11377093 0.15123092 -0.08375635
-0.13847105 -0.075655624 0.10851593 0.0406528 -0.1017339 0.062402956 -0.087879516 0.038324922
00000000: 3d87 9fbc e32f 3dbd 2b4b 8b3d 2be6 ae3c
00000010: 86ed d9bd bc00 e9bd 47dc 1a3e 7388 abbd
00000020: 5bcb 0dbe 56f1 9abd 9a3d de3d 8d83 263d
00000030: dd59 d0bd 3e9a 7f3d 2dfa b3bd 98fa 1c3d

decoder.decoder_fc1.weight f4 [64, 16]
-0.058274012 -0.25954413 -0.15981893 -0.12415893 -0.20128928 0.039119635 -0.04577929 -0.004957179
-0.18667093 0.10561555 0.032035366 0.053869817 -0.037804093 0.03002841 -0.04156373 -0.21736528
-0.12579294 -0.106493935 -0.011733514 -0.15129238 -0.053283382 -0.17835781 -0.09577887 0.13835882
0.018415697 0.15247333 0.07297491 -0.06112518 -0.14581133 -0.21481685 -0.26403517 0.1454892
0.03362134 -0.114474 -0.1804764 -0.08697149 0.07767916 0.1832163 -0.022872418 -0.14832383
0.091281444 -0.10342601 -0.1178779 -0.0077863038 0.11341882 0.074977696 -0.11354026 0.14762619
0.088717364 -0.15500797 -0.110024035 0.2370104 -0.16463725 -0.06399206 0.23839635 0.1576026
0.14877391 -0.18059903 -0.20266935 0.154567 0.2197073 0.29081884 0.09653681 -0.19208987
-0.13537893 -0.054962307 -0.058192402 -0.11324903 0.075406075 0.01251775 0.2013784 -0.10648975
-0.15970999 0.22196189 0.16874331 0.10931608 0.098374456 0.08686465 0.19527388 -0.17343485
-0.09177936 -0.19212814 0.19805935 0.19959609 -0.14029121 -0.08152751 0.048456594 -0.21698493
-0.12493212 -0.2321847 -0.07778156 0.009168433 -0.19792323 -0.028866528 -0.020771243 0.099423334
-0.0006406605 0.15027407 -0.04224661 0.23445678 0.21755046 0.051471174 0.18859336 -0.039239407
0.23986658 -0.08952889 0.1763339 -0.16463393 -0.071112365 -0.078356504 0.112876505 -0.19972745
0.12526098 0.039151873 0.06228905 -0.20492597 -0.17805779 0.16486166 0.08266489 -0.2585909
0.02086095 0.18451159 -0.09532118 0.13582867 -0.23281235 -0.049999945 -0.06043372 -0.24693291
-0.1392833 -0.05856203 -0.11117753 -0.11285353 0.28871518 -0.0005342852 0.20032153 0.27107942
-0.27979645 -0.32308438 -0.040063914 -0.3097932 0.17545682 -0.24673796 -0.171485 0.06913842
-0.0036048105 -0.06881485 0.023358071 -0.023293814 0.081178255 0.18568328 0.2850206 -0.0995179
0.023205545 -0.16494541 0.16281039 -0.063625455 -0.019180374 -0.050336782 -0.1974798 -0.011953863
0.20309529 0.21524608 -0.027186573 0.0155541 -0.12282729 0.15080282 0.018418312 -0.24981627
-0.24598074 -0.19694227 0.15456504 -0.12209481 -0.011962205 -0.060585767 0.21139485 -0.13717249
0.23756883 -0.17231715 0.11607319 -0.0023516715 -0.15978044 0.03838429 0.13232124 0.075793445
-0.001403898 0.11896527 0.22496924 -0.053745568 0.17207888 -0.15536964 -0.09849629 0.19105017
0.09747861 -0.15888435 -0.22685204 0.09325342 -0.049456738 -0.0021448603 0.121921726 -0.021195963
0.033937216 -0.07710559 0.03822853 -0.07162277 -0.0783406 -0.06434615 0.12043301 -0.23126169
-0.17275847 0.05421064 0.25261214 0.10903648 -0.012031471 -0.15399556 0.20490049 0.16698073
0.11128231 0.16199651 0.17175715 -0.18056674 -0.13134594 0.124186434 -0.16385058 -0.2411259
0.011935073 0.13463981 0.16673893 0.011639341 0.12430309 -0.066878475 0.03960358 0.02319489
0.13685031 0.04421134 -0.06027511 0.046767406 0.085453704 0.10092947 0.22824422 0.035607807
-0.121930785 -0.20000598 0.13237993 -0.06933502 -0.2627486 -0.1134258 0.21442458 -0.09595024
-0.013238928 -0.048925724 0.2198228 -0.039897162 -0.19144018 -0.07402784 0.05526154 0.023795893
00000000: bbb0 6ebd f8e2 84be 93a7 23be 0947 febd
00000010: c71e 4ebe e93b 203d 1183 3bbd d56f a2bb
00000020: aa26 3fbe f74c d83d 8437 033d 99a6 5c3d
00000030: 77d8 1abd 24fe f53c bb3e 2abd 0195 5ebe
00000040: ddcf 00be 7e19 dabd ed3d 40bc 64ec 1abe
00000050: ad3f 5abd 6ea3 36be b627 c4bd efad 0d3e
00000060: 84dc 963c f821 1c3e df73 953d 665e 7abd
00000070: 914f 15be f3f8 5bbe 9e2f 87be 1ffb 143e
00000080: 88b6 093d 5871 eabd cece 38be 1c1e b2bd
00000090: 4016 9f3d 0e9d 3b3e f05e bbbc 34e2 17be
000000a0: c4f1 ba3d 04d1 d3bd f869 f1bd 4024 ffbb
000000b0: 2048 e83d e88d 993d cc87 e8bd 522b 173e
000000c0: 73b1 b53d 69ba 1ebe 4854 e1bd dbb2 723e
000000d0: ab96 28be 450e 83bd 2c1e 743e 9362 213e
000000e0: 3058 183e f4ee 38be 8e88 4fbe d046 1e3e
000000f0: f3fa 603e 35e6 943e 17b5 c53d 35b3 44be
00000100: c6a0 0abe 2820 61bd 285b 6ebd 1cef e7bd
00000110: 806e 9a3d 4017 4d3c 2436 4e3e 4c17 dabd
00000120: 048b 23be fa49 633e 0ccb 2c3e 1ce1 df3d
00000130: 8c78 c93d 18e6 b13d e0f5 473e e898 31be
00000140: d1f6 bbbd 3dbd 44be 12d0 4a3e eb62 4c3e
00000150: 80a8 0fbe e5f7 a6bd 6c7a 463d 4c31 5ebe
00000160: 69dc ffbd d3c1 6dbe f04b 9fbd 3237 163c
00000170: 63ac 4abe 7f79 ecbc 7428 aabc 769e cb3d
00000180: 00f2 27ba 72e1 193e c80a 2dbd 7015 703e
00000190: 8cc5 5e3e 70d3 523d 9e1e 413e 80b9 20bd
000001a0: 969f 753e ec5a b7bd e090 343e cc95 28be
000001b0: 5ca3 91bd 6079 a0bd cc2b e73d 5a85 4cbe
000001c0: 6a44 003e b75d 203d ce22 7f3d 1dd8 51be
000001d0: c854 36be 7fd1 283e 364c a93d 0766 84be
000001e0: 95e4 aa3c 9bf0 3c3e c037 c3bd ac16 0b3e
000001f0: 5c66 6ebe becc 4cbd 5989 77bd fbdb 7cbe
00000200: 48a0 0ebe bdde 6fbd 0bb1 e3bd c01f e7bd
00000210: 7ad2 933e 460f 0cba 1621 4d3e ecca 8a3e
00000220: 7b41 8fbe 516b a5be 0f1a 24bd 379d 9ebe
00000230: f4aa 333e e0a8 7cbe c499 2fbe 7298 8d3d
00000240: af3e 6cbb cdee 8cbd 6d59 bf3c abd2 bebc
00000250: c940 a63d c223 3e3e 38ee 913e 0ad0 cbbd
00000260: 8e19 be3c 73e7 28be c4b7 263e 104e 82bd
00000270: 2920 9dbc f12d 4ebd 2538 4abe 23da 43bc
00000280: 36f8 4f3e 7869 5c3e 60b6 debc a0d6 7e3c
00000290: e08c fbbd 0e6c 1a3e 00e2 963c d6cf 7fbe
000002a0: 60e2 7bbe 3cab 49be 4c46 1e3e d80c fabd
000002b0: 20fd 43bc c828 78bd e477 583e f276 0cbe
000002c0: 3e45 733e e873 30be c8b7 ed3d 801e 1abb
000002d0: 7c9d 23be d838 1d3d 387f 073e 9839 9b3d
000002e0: 0003 b8ba 10a4 f33d 565e 663e 5024 5cbd
000002f0: 7235 303e 3819 1fbe 6cb8 c9bd a8a2 433e
00000300: dea2 c73d 94b2 22be e74b 68be a6fb be3d
00000310: 2693 4abd c990 0cbb 19b2 f93d 28a3 adbc
00000320: c001 0b3d 89e9 9dbd 8595 1c3d f5ae 92bd
00000330: 0971 a0bd eac7 83bd 95a5 f63d ddcf 6cbe
00000340: 99e7 30be fa0b 5e3d 6156 813e 854e df3d
00000350: a61f 45bc 03b1 1dbe 6fd1 513e fffc 2a3e
00000360: fbe7 e33d 6ae2 253e 1be1 2f3e 7de6 38be
00000370: 8d7f 06be 7555 fe3d 72c8 27be b5e9 76be
00000380: 538b 433c 05df 093e 9cbd 2a3e efb2 3e3c
00000390: 9e92 fe3d 95f7 88bd 5d37 223d 3603 be3c
000003a0: 7d22 0c3e f316 353d 09e3 76bd 2e8f 3f3d
000003b0: 5a02 af3d 1cb4 ce3d dab8 693e 7ed9 113d
000003c0: d9b6 f9bd 5ece 4cbe 9b8e 073e 85ff 8dbd
000003d0: fc86 86be c94b e8bd 1e92 5b3e 8f81 c4bd
000003e0: 17e8 58bc 5766 48bd 3a19 613e 356b 23bd
000003f0: e508 44be e89b 97bd ed59 623d 9bef c23c

decoder.decoder_fc1.bias f4 [64]
0.27058434 -0.013330432 -0.2247315 0.081640385 -0.20154786 -0.0066177286 -0.02624774 0.093433574
-0.27404606 0.15329204 -0.1672672 -0.23901245 0.22349885 0.20788011 0.16430883 0.188788
-0.25965202 0.25102696 0.22652659 0.14900903 0.21290736 -0.031463623 -0.23424962 -0.21011719
-0.024600415 0.16571297 -0.042867452 0.02317208 0.12189872 0.13280287 0.051075384 0.119049154
0.2113843 0.0040007257 -0.13920379 0.115284264 -0.2553531 -0.28284755 0.027858317 0.23946844
0.14352769 -0.087710805 -0.08279453 -0.030852169 0.079309374 0.037872992 -0.18437642 -0.018482799
0.18069036 -0.106724955 -0.17342074 -0.2175233 -0.070002705 0.15895729 0.21864034 0.15533324
-0.24239539 0.0036552784 -0.20983429 -0.19892018 -0.17264834 -0.07900646 -0.1477898 -0.22945386
00000000: 088a 8a3e e267 5abc 0420 66be 1333 a73d
00000010: 9062 4ebe 88d9 d8bb 8005 d7bc 1a5a bf3d
00000020: c44f 8cbe 97f8 1c3e 1848 2bbe aebf 74be
00000030: e2dc 643e 86de 543e 9340 283e a451 413e
00000040: 1cf1 84be 9b86 803e 96f6 673e d395 183e
00000050: 6304 5a3e 00e0 00bd 22df 6fbe f628 57be
00000060: cf86 c9bc a9b0 293e c895 2fbd 60d3 bd3c
00000070: 09a6 f93d 7afd 073e 6c34 513d 0bd0 f33d
00000080: 2075 583e 8518 833b 708b 0ebe 281a ec3d
00000090: a4bd 82be 65d1 90be 2037 e43c 3737 753e
000000a0: ecf8 123e b9a1 b3bd 2e90 a9bd b0bd fcbc
000000b0: f46c a23d b620 1b3d 2ccd 3cbe 3d69 97bc
000000c0: e506 393e 9d92 dabd 3595 31be 6ebe 5ebe
000000d0: 945d 8fbd b3c5 223e 41e3 5f3e ad0f 1f3e
000000e0: 7f36 78be 658d 6f3b cdde 56be bbb1 4bbe
000000f0: baca 30be 24ce a1bd 3656 17be f4f5 6abe

decoder.decoder_fc2.weight f4 [128, 64]
-0.055097364 -0.07613751 0.024927497 -0.0100228395 0.053489715 -0.09868893 -0.024531394 0.10093698
-0.11324213 0.11327865 0.0047485083 -0.12237917 0.020557633 0.09594787 -0.100792944 -0.07506215
-0.005143264 -0.1208068 0.071866296 0.087758586 0.049848277 -0.0013095587 0.091514766 0.14354216
-0.40072283 0.052926075 0.121493936 0.124239735 -0.06626473 0.025978705 0.04285361 0.011748829
0.0061430363 -0.049695253 0.011094686 -0.09714281 0.020951787 -0.28296718 -0.026990965 0.24776313
0.18971272 -0.3954842 0.04993661 0.15692452 -0.016458727 0.12005208 0.28275165 -0.0036957667
-0.14631233 0.14257506 -0.004869949 0.042243928 0.04433018 0.022081599 0.13518898 0.050572418
-0.10261937 -0.26406762 -0.20521949 -0.092892535 -0.28238314 -0.07636957 -0.083059646 -0.022787705
-0.0072352113 0.0028951664 -0.008875966 0.08694453 -0.076587126 0.018224671 -0.0038296431 0.092252195
-0.11528974 0.0031646641 -0.063429445 -0.08420488 -0.052113805 0.039356183 -0.034943454 0.01969581
0.017055769 0.12614845 0.016829582 0.059892483 0.12840758 0.11798003 -0.08231136 0.08958645
-0.0047748066 -0.0050793006 0.031214043 0.06535915 0.045740306 0.1099446 0.06336336 0.014269706
0.14785692 0.07253162 -0.0016299898 0.052252095 0.08209442 -0.21035396 0.034689903 -0.07411887
-0.14699349 0.07227747 0.06274666 0.06450892 -0.06365276 -0.049495403 -0.10754183 0.08499294
0.089127384 0.04874099 0.043823153 -0.042804748 -0.03552109 0.07680035 0.013787826 -0.0029868153
0.01065842 0.076765485 -0.05218177 -0.0741452 -0.02231507 0.12261684 -0.096517265 -0.0015056729
0.07529252 0.09039558 0.002879247 0.11501162 0.06066051 0.048088152 -0.07913034 -0.059418987
-0.0061141704 -0.0436296 0.06550883 0.03682822 -0.062948465 -0.038904108 -0.05458182 0.12883204
0.1335078 0.10354815 -0.0040603313 0.10689354 -0.08393013 0.03835477 0.0959011 -0.03943004
0.11069647 0.07333736 0.059632406 0.011436408 0.04582219 0.12667021 0.004302922 0.034073547
0.077534705 -0.10831746 -0.115822345 -0.027714733 -0.11450438 -0.322696 0.07181004 0.08326842
0.20268373 -0.070648074 -0.10882961 -0.11613676 0.082219124 -0.019711433 -0.14634514 0.04675537
0.054726362 -0.08673402 -0.045855246 -0.026290074 -0.068302125 0.05612864 0.0011666984 0.03870113
-0.006216483 -0.002848268 -0.09599704 0.010282272 -0.08756413 0.052027732 0.099595085 -0.05087675
-0.106132 0.032052517 -0.04163173 -0.10677774 -0.10160409 -0.0792387 -0.0021454543 0.04733874
0.020838812 0.030664012 -0.06548646 -0.021287069 -0.122807324 -0.04706639 -0.121187076 -0.00030183792
0.09214984 -0.12348518 -0.085724264 0.08112626 -0.044613093 -0.005097598 -0.028787494 0.010673597
-0.03543611 0.08770694 0.08077656 -0.056318015 -0.07108311 0.09220451 -0.10738386 0.07141444
-0.056693718 0.0077518225 -0.056420088 -0.059824422 0.06633295 0.09755401 -0.05964975 -0.0023923516
0.03480868 0.08791126 0.020261168 0.056701735 -0.081161544 0.0039926916 0.0041119307 -0.1072827
0.055680573 -0.039797455 -0.08508065 -0.11756551 0.09136863 0.09245193 0.0851849 0.10987675
0.11396909 -0.12073463 0.0600871 0.04278581 -0.0526751 -0.05577597 -0.0639544 0.02311191
00000000: c6ad 61bd fced 9bbd c034 cc3c d636 24bc
00000010: 0818 5b3d 6c1d cabd 10f6 c8bc 0cb8 ce3d
00000020: 7deb e7bd a3fe e73d 6099 9b3b eea1 fabd
00000030: 7b68 a83c 5180 c43d 886c cebd 2fba 99bd
00000040: d388 a8bb 8e69 f7bd a32e 933d c6ba b33d
00000050: b52d 4c3d 80a5 abba 186c bb3d b7fc 123e
00000060: 8b2b cdbe 03c9 583d d0d1 f83d 6771 fe3d
00000070: ceb5 87bd 4bd1 d43c 4487 2f3d 297e 403c
00000080: 864b c93b 408d 4bbd 7cc6 353c cff2 c6bd
00000090: 15a3 ab3c 13e1 90be 281c ddbc 9eb5 7d3e
000000a0: 0d44 423e e87c cabe 558a 4c3d d2b0 203e
000000b0: 74d4 86bc dddd f53d d3c4 903e ad34 72bb
000000c0: e6d2 15be 32ff 113e 1894 9fbb f807 2d3d
000000d0: 9093 353d 78e4 b43c fb6e 0a3e 0625 4f3d
000000e0: 1b2a d2bd df33 87be 0f25 52be 713e bebd
000000f0: 8694 90be a667 9cbd 2d1b aabd 48ad babc
00000100: 5a15 edbb d5bc 3d3b 806c 11bc f90f b23d
00000110: b6d9 9cbd e84b 953c c0fa 7abb b8ee bc3d
00000120: 071d ecbd 4166 4f3b 4ce7 81bd 9c73 acbd
00000130: 4975 55bd f333 213d de20 0fbd 1b59 a13c
00000140: 8ab8 8b3c 0f2d 013e 31de 893c d251 753d
00000150: 477d 033e 849f f13d dc92 a8bd 1a79 b73d
00000160: fb75 9cbb 4370 a6bb 98b4 ff3c 05db 853d
00000170: 305a 3b3d a22a e13d a6c4 813d 7ccb 693c
00000180: ce67 173e 758b 943d 62a5 d5ba 4b06 563d
00000190: 1f21 a83d 0767 57be 0017 0e3d a2cb 97bd
000001a0: 7685 16be 3606 943d 5281 803d 411d 843d
000001b0: 615c 82bd b1bb 4abd e43e dcbd c710 ae3d
000001c0: 6b88 b63d a2a4 473d e87f 333d 0854 2fbd
000001d0: 907e 11bd 8049 9d3d 55e6 613c 72be 43bb
000001e0: a7a0 2e3c 3937 9d3d 8dbc 55bd 70d9 97bd
000001f0: 18ce b6bc 8a1e fb3d d8aa c5bd 005a c5ba
00000200: f732 9a3d 5121 b93d c0b1 3c3b 368b eb3d
00000210: 2877 783d 15f8 443d 160f a2bd 5361 73bd
00000220: 6159 c8bb f4b4 32bd 7e29 863d 30d9 163d
00000230: 20eb 80bd ea59 1fbd 3091 5fbd 8cec 033e
00000240: 45b6 083e 0d11 d43d 870c 85bb 00eb da3d
00000250: 8fe3 abbd e419 1d3d cc67 c43d 6581 21bd
00000260: d5b4 e23d e631 963d 1c41 743d c65f 3b3c
00000270: 0cb0 3b3d d6b5 013e 87ff 8c3b b490 0b3d
00000280: 84ca 9e3d 8bd5 ddbd 4434 edbd 020a e3bc
00000290: 4681 eabd 6938 a5be 2411 933d a288 aa3d
000002a0: 538c 4f3e f0af 90bd 0fe2 debd 1cd9 edbd
000002b0: 8062 a83d df79 a1bc 80db 15be 8f82 3f3d
000002c0: c028 603d 9ba1 b1bd b6d2 3bbd 485e d7bc
000002d0: fce1 8bbd 25e7 653d e7eb 983a 1385 1e3d
000002e0: a4b3 cbbb 02aa 3abb 199a c4bd f976 283c
000002f0: d354 b3bd 081b 553d 82f8 cb3d 2464 50bd
00000300: bc5b d9bd 8049 033d 0886 2abd 4aae dabd
00000310: ce15 d0bd e647 a2bd c09a 0cbb 44e6 413d
00000320: 28b6 aa3c 1833 fb3c c41d 86bd 3862 aebc
00000330: 6882 fbbd b0c8 40bd ee30 f8bd 0040 9eb9
00000340: 0eb9 bc3d cce5 fcbd 3490 afbd 8625 a63d
00000350: 38bc 36bd c009 a7bb c0d3 ebbc 50e0 2e3c
00000360: 7425 11bd b29f b33d 2e6e a53d b8ad 66bd
00000370: 0694 91bd b8d5 bc3d 12ec dbbd bc41 923d
00000380: ac37 68bd 0003 fe3b c018 67bd 740a 75bd
00000390: 92d9 873d 66ca c73d 4c53 74bd 00c9 1cbb
000003a0: 8c93 0e3d d20a b43d c0fa a53c 1440 683d
000003b0: 0638 a6bd 20d5 823b 60bd 863b 08b7 dbbd
000003c0: 5011 643d a802 23bd c43e aebd 30c6 f0bd
000003d0: 7a1f bb3d 7057 bd3d 6c75 ae3d 1007 e13d
000003e0: a068 e93d b843 f7bd e41d 763d 2c40 2f3d
000003f0: d8c1 57bd 5875 64bd 86fa 82bd 3055 bd3c

decoder.decoder_fc2.bias f4 [128]
-0.021358375 0.15682161 0.09582693 -0.10691024 0.010128159 0.030983463 0.10606348 -0.042662773
-0.05407886 -0.049447894 -0.04903342 -0.046958707 0.09438551 0.037633672 0.05859983 -0.09589522
0.08087755 -0.005029765 -0.013175234 0.019769225 -0.043498546 0.026596703 -0.09150529 0.048286494
0.11353529 -0.0017582065 0.055873025 -0.07978395 -0.03281191 -0.018201917 0.02596273 -0.1187735
0.10530141 -0.13151212 0.05367667 0.10699331 0.1571978 -0.061496913 -0.016479604 0.12926766
0.14482315 -0.004700765 -0.11716619 0.078123495 -0.0033937416 -0.037001263 -0.07052019 0.025215834
0.10907374 -0.117989615 -0.112361565 -0.071853675 0.07917296 0.006303615 -0.046084285 -0.022257905
-0.0074785356 0.08315948 0.011966519 0.02546365 -0.073923185 0.033092894 0.08938635 0.093375154
-0.08850844 0.02479114 0.07187047 -0.11391048 -0.12890656 0.0765683 -0.08709067 0.052881096
-0.0044576903 -0.073439285 0.059830144 0.01410839 -0.11455296 0.03566041 -0.019226708 0.09406561
0.019366259 0.05123819 -0.09465493 0.013591806 0.108573794 0.15030468 -0.12351838 -0.019167459
-0.022719726 0.14368618 0.03704889 -0.084174186 -0.10164342 0.12820108 0.018961567 0.15149479
0.12474352 -0.11512062 -0.049263682 -0.012862414 0.014005631 0.04621986 -0.14707975 -0.13539845
-0.010465992 0.05999998 0.028184557 0.14197542 0.09583671 0.08796098 0.151701 -0.10440183
0.0052319714 0.038195137 0.0895878 0.065072 0.10557193 -0.15141112 0.100621946 0.114594385
-0.067001544 -0.008436054 0.13512817 -0.039702907 -0.048768975 -0.07639371 0.09729027 -0.02282165
00000000: c2f7 aebc d895 203e e940 c43d c2f3 dabd
00000010: 94f0 253c 08d1 fd3c cf37 d93d 29bf 2ebd
00000020: cb81 5dbd e089 4abd 44d7 48bd c657 40bd
00000030: 314d c13d c425 1a3d 6006 703d b764 c4bd
00000040: 21a3 a53d bad0 a4bb f0dc 57bc 12f3 a13c
00000050: 882b 32bd 54e1 d93c 2067 bbbd 0fc8 453d
00000060: 3185 e83d 9f73 e6ba 1ddb 643d c465 a3bd
00000070: c865 06bd 301c 95bc cbaf d43c 853f f3bd
00000080: 44a8 d73d 1dab 06be 11dc 5b3d 4f1f db3d
00000090: 76f8 203e 30e4 7bbd 3c00 87bc be5e 043e
000000a0: 854c 143e e008 9abb d4f4 efbd 36ff 9f3d
000000b0: 8969 5ebb a38e 17bd e46c 90bd 7091 ce3c
000000c0: 0e62 df3d 8aa4 f1bd d21d e6bd 0528 93bd
000000d0: 6f25 a23d 8e8e ce3b e0c2 3cbd 3656 b6bc
000000e0: 810e f5bb 844f aa3d 380f 443c 2599 d03c
000000f0: 0a65 97bd 6a8c 073d 3110 b73d 793b bf3d
00000100: ea43 b5bd ca16 cb3c d330 933d e649 e9bd
00000110: 1500 04be d7cf 9c3d 985c b2bd d999 583d
00000120: d111 92bb 5667 96bd 7410 753d e026 673c
00000130: be9a eabd a610 123d 5481 9dbc 78a5 c03d
00000140: fda5 9e3c 23df 513d 72da c1bd 2bb0 5e3c
00000150: f05b de3d 78e9 193e 34f7 fcbd 1305 9dbc
00000160: b81e babc 7822 133e 94c0 173d 8463 acbd
00000170: 6d2a d0bd 2547 033e 4a55 9b3c 7321 1b3e
00000180: 8879 ff3d 5cc4 ebbd b7c8 49bd e0bc 52bc
00000190: e077 653c 0951 3d3d 139c 16be e4a5 0abe
000001a0: 8d79 2bbc 8ac2 753d 4de3 e63c 0162 113e
000001b0: 0946 c43d e324 b43d 8257 1b3e a0d0 d5bd
000001c0: f570 ab3b 8172 1c3d cf79 b73d 7844 853d
000001d0: 1936 d83d 840b 1bbe e112 ce3d 76b0 ea3d
000001e0: 1b38 89bd 6037 0abc 0a5f 0a3e 849f 22bd
000001f0: fac1 47bd 4e74 9cbd 1f40 c73d 78f4 babc

decoder.decoder_fc3.weight f4 [72, 128]
0.03216641 0.1274187 -0.015515319 0.043188687 0.029277662 -0.036958527 0.06589083 -0.011095118
-0.0149297565 -0.048428267 -0.043243807 0.008288402 0.1128629 0.0798381 -0.016257199 -0.16793942
-0.023829376 0.06868932 0.046104867 -0.07771407 0.0076812105 -0.003766865 0.017425772 -0.0312023
0.010186974 -0.033156574 0.059993375 0.004169061 -0.06818364 0.0064425142 0.05910362 -0.017127378
0.028094921 0.030075401 -0.0378495 0.10252375 0.08169226 0.0376712 0.039653983 0.08282922
0.114241384 0.03150712 -0.0159551 0.1245146 0.11274945 -0.019431703 -0.049748223 -0.07308198
0.090131626 -0.061272033 -0.034350824 0.07905451 -0.023530008 -0.034618996 -0.08028633 0.052188702
-0.07788898 0.11030572 0.0017435802 0.086307034 -0.05706903 0.0031955594 0.004758676 0.068441086
-0.04650381 0.070352755 -0.02987208 0.074407056 -0.065392286 0.12671307 -0.06322057 -0.022616921
0.0142201735 0.063777536 -0.04673809 -0.05766035 0.012842334 0.03349752 0.005641443 0.07649464
-0.0028559596 0.0157458 0.007496291 0.11742782 0.0015794574 0.061837602 -0.059760667 0.13180059
-0.07265036 0.031214159 -0.036391966 0.07557758 0.040589098 0.023980595 -0.03292091 0.09824282
0.08397296 0.037397478 -0.021373842 -0.04418489 0.005513582 -0.023874212 -0.2452628 0.012459451
-0.016581116 0.1002484 0.028502222 0.0053760125 0.008192073 0.011998744 0.10218639 0.086859785
0.094814315 -0.023995087 0.08650441 0.03768643 0.019672394 0.013578375 -0.010277986 0.12616378
-0.007805906 0.018401757 0.021818878 -0.0604688 0.090144955 -0.080720656 -0.04275707 0.019903332
-0.053326823 0.061538994 0.056987785 0.08652528 -0.016879631 -0.026079794 0.06040786 -0.018478945
-0.054799322 0.052892353 0.030021375 -0.024053242 0.05982587 -0.0667949 -0.070396796 0.06400936
0.04084855 0.050575502 0.0687903 0.08407865 0.074020505 -0.014813246 -0.06814901 -0.00870168
0.13509093 0.08451757 0.051498123 -0.055992857 -0.127565 0.03294027 -0.026895352 0.015619702
0.01652903 0.066269755 -0.005735918 0.03564123 0.024802944 0.06595263 0.06449741 0.10235253
0.086356886 0.007293175 -0.07614466 0.11656618 0.03733001 0.047764476 0.05068234 -0.04769974
0.07122721 0.021156738 -0.03770001 -0.04021076 0.06566546 -0.009841837 -0.012770242 0.07219777
0.042429753 0.12025756 -0.038378518 0.08724365 0.02466652 0.11202249 0.034706026 0.08567615
0.08655273 0.08302553 0.028910078 -0.07980597 -0.033641994 -0.021793189 0.052601647 -0.056188766
-0.048312984 0.074588776 -0.030872703 0.060659774 -0.13608555 -0.0074410583 0.06292485 0.017232835
-0.0214506 0.12362577 0.032769058 0.09731847 -0.008563663 -0.0041141175 -0.00085441145 0.050116435
0.041108664 0.045283463 0.09850983 -0.046279695 0.05550969 -0.015787387 0.08281175 0.089226164
-0.04719685 0.03501283 0.015575231 0.069351286 -0.06362181 0.048395842 -0.29722777 0.05261324
-0.039694123 0.05509457 -0.06244327 -0.018265158 0.059086308 0.04990981 0.07148444 -0.04394596
-0.030996967 0.10984488 -0.050871078 0.0878951 0.04351297 0.0551498 0.049525037 0.032513905
0.05008922 -0.06848121 0.10016644 0.064952195 -0.006357635 -0.0053388253 -0.054020744 0.068993874
00000000: edc0 033d 0c7a 023e f733 7ebc 9fe6 303d
00000010: b5d7 ef3c d361 17bd c5f1 863d 4cc8 35bc
00000020: f09b 74bc b85c 46bd 6b20 31bd 14cc 073c
00000030: aa24 e73d 2882 a33d d12d 85bc 50f8 2bbe
00000040: d335 c3bc fcac 8c3d 75d8 3c3d 8e28 9fbd
00000050: aab2 fb3b 82dd 76bb 7ec0 8e3c f79b ffbc
00000060: 44e7 263c 30cf 07bd 9dbb 753d 9e9c 883b
00000070: dda3 8bbd ba1b d33b a316 723d b74e 8cbc
00000080: 5227 e63c b060 f63c 1408 1bbd f9f7 d13d
00000090: 464e a73d 1e4d 1a3d 376c 223d 5ea2 a93d
000000a0: 63f7 e93d 9c0d 013d 45b4 82bc 8301 ff3d
000000b0: 2fe9 e63d 3c2f 9fbc cbc4 4bbd 01ac 95bd
000000c0: ee96 b83d 62f8 7abd 73b3 0cbd 55e7 a13d
000000d0: 01c2 c0bc a6cc 0dbd 296d a4bd d2c3 553d
000000e0: 4284 9fbd f7e7 e13d d888 e43a bec1 b03d
000000f0: 37c1 69bd 976c 513b abee 9b3b d72a 8c3d
00000100: c77a 3ebd 1b15 903d 4bb6 f4bc ba62 983d
00000110: 64ec 85bd 12c1 013e c979 81bd 1f47 b9bc
00000120: bbfb 683c cc9d 823d 7170 3fbd 422d 6cbd
00000130: a768 523c b234 093d dbdb b83b 39a9 9c3d
00000140: 0d2b 3bbb 56fd 803c 72a3 f53b ff7d f03d
00000150: cc05 cf3a 6d49 7d3d 9ac7 74bd bcf6 063e
00000160: b6c9 94bd d6b4 ff3c be0f 15bd 6bc8 9a3d
00000170: c140 263d f472 c43c 13d8 06bd 8833 c93d
00000180: 04fa ab3d 192e 193d 3218 afbc 37fb 34bd
00000190: 47ab b43b da93 c3bc 2c26 7bbe ba22 4c3c
000001a0: 1fd5 87bc 084f cd3d 7e7d e93c 4329 b03b
000001b0: 0b38 063c 6196 443c 1947 d13d 8be3 b13d
000001c0: 022e c23d 5891 c4bc 3929 b13d 165d 1a3d
000001d0: 0028 a13c d577 5e3c ff64 28bc 1431 013e
000001e0: afc8 ffbb 48bf 963c 81bd b23c 22ae 77bd
000001f0: eb9d b83d df50 a5bd 0a22 2fbd 500c a33c
00000200: 3a6d 5abd 5010 7c3d 066c 693d 2a34 b13d
00000210: 2747 8abc 4ba5 d5bc 3b6e 773d 2861 97bc
00000220: 4175 60bd a7a5 583d 63ef f53c 4e0b c5bc
00000230: f90b 753d c4cb 88bd 322c 90bd 5717 833d
00000240: cf50 273d 4228 4f3d eee1 8c3d 6d31 ac3d
00000250: 1098 973d 42b3 72bc b591 8bbd 7e91 0ebc
00000260: 4755 0a3e 8c17 ad3d b2ef 523d c458 65bd
00000270: 66a0 02be 60ec 063d a453 dcbc c7e9 7f3c
00000280: e367 873c 70b8 873d 5ef4 bbbb 8afc 113d
00000290: 8b2f cb3c 2c12 873d 3817 843d 349e d13d
000002a0: e1db b03d 96fb ee3b bbf1 9bbd 40ba ee3d
000002b0: 5ae7 183d afa4 433d 4998 4f3d cd60 43bd
000002c0: 92df 913d e550 ad3c 536b 1abd 0ab4 24bd
000002d0: 9d7b 863d a83f 21bc 473a 51bc 6ddc 933d
000002e0: d2ca 2d3d 9849 f63d cb32 1dbd ccac b23d
000002f0: 7111 ca3c 0c6c e53d e827 0e3d fa76 af3d
00000300: 8f42 b13d 4a09 aa3d d4d4 ec3c 5071 a3bd
00000310: 30cc 09bd a187 b2bc d374 573d 3126 66bd
00000320: d6e3 45bd 00c2 983d c0e8 fcbc 6276 783d
00000330: 035a 0bbe 1fd4 f3bb bede 803d e02b 8d3c
00000340: 2bb9 afbc 822f fd3d d938 063d e84e c73d
00000350: 9b4e 0cbc b8cf 86bb 95fa 5fba e446 4d3d
00000360: 8f61 283d 277b 393d 86bf c93d c78f 3dbd
00000370: 215e 633d 8d54 81bc 3599 a93d 35bc b63d
00000380: 7c51 41bd 9d69 0f3d 412f 7f3c 0c08 8e3d
00000390: 274c 82bd b83a 463d 3d2e 98be fb80 573d
000003a0: 4e96 22bd d8aa 613d 84c4 7fbd d0a0 95bc
000003b0: 7c04 723d 3b6e 4c3d 6f66 923d ae00 34bd
000003c0: 5aed fdbc 5af6 e03d 315e 50bd 5902 b43d
000003d0: a83a 323d c2e4 613d c4da 4a3d 4d2d 053d
000003e0: 5b2a 4d3d e03f 8cbd 1024 cd3d a805 853d
000003f0: b553 d0bb 50f1 aebb db44 5dbd a94c 8d3d

decoder.decoder_fc3.bias f4 [72]
0.12163686 0.013770668 -0.0510258 -0.051185206 -0.014105768 -0.06067169 0.019364122 -0.04346231
-0.0067000557 0.01946548 0.07748319 -0.014211006 0.059738446 -0.031942118 0.10408071 0.09396021
-0.0074281725 0.09503638 0.037225973 -0.009452861 0.11087845 -0.03796781 0.054520093 -0.053867817
0.058463626 -0.04164785 0.045407835 0.095244706 -0.042927783 0.03185528 0.019265182 0.04531961
0.00032503635 0.11587022 0.05546297 -0.004569919 0.022949215 0.07844152 0.039642684 0.035956934
-0.005222386 -0.05801836 -0.028927686 -0.044969983 -0.0036576067 -0.023847494 -0.037104134 0.10066846
0.020698484 0.12073855 0.043408185 0.11089226 0.051785804 0.118876256 0.0946689 0.012177563
-0.037453093 -0.05713089 -0.02915074 0.086917154 0.07713935 0.0511989 0.028106097 0.01664132
0.05180879 0.034678128 0.069614016 0.049220808 0.048571877 0.021802107 -0.004061817 0.08454526
00000000: bf1c f93d 5e9e 613c 6e00 51bd 94a7 51bd
00000010: e11b 67bc e182 78bd 82a1 9e3c 8905 32bd
00000020: 248c dbbb 1276 9f3c 82af 9e3d 48d5 68bc
00000030: 4db0 743d bdd5 02bd 4428 d53d 366e c03d
00000040: 0768 f3bb 6fa2 c23d 437a 183d 2ce0 1abc
00000050: 3e14 e33d 2284 1bbd 7650 5f3d 80a4 5cbd
00000060: 8e77 6f3d f096 2abd 91fd 393d a80f c33d
00000070: 0bd5 2fbd af7a 023d 04d2 9d3c 0ea1 393d
00000080: a469 aa39 5e4d ed3d 242d 633d 42bf 95bb
00000090: feff bb3c f3a5 a03d 5e60 223d 9447 133d
000000a0: 8d20 abbb a9a4 6dbd c1f9 ecbc 7232 38bd
000000b0: 75b4 6fbb d25b c3bc 81fa 17bd 442b ce3d
000000c0: de8f a93c c645 f73d c8cc 313d 7b1b e33d
000000d0: 5a1d 543d 6575 f33d c5e1 c13d 6784 473c
000000e0: 6a68 19bd 1502 6abd 88cd eebc 9f01 b23d
000000f0: 3cfb 9d3d f0b5 513d c23e e63c 6153 883c
00000100: 7435 543d a70a 0e3d cb91 8e3d c29b 493d
00000110: 4ef3 463d 559a b23c fe18 85bb 1126 ad3d
