clustering/clustering/encoder_weights/bridge2_carla/lidar_encoder_autoencoder_bridge2_carla_25.pth (torch, 95596 bytes, 14 tensors)

encoder.conv2d_1.weight f4 [16, 1, 1, 3]
000000 d5 30 6f be 9b 25 52 be 6b 0e 9a be 07 bd d5 bd
       -0.23358472 -0.20522158 -0.30089125 -0.10436445
000010 3f fe 9b 3e 29 ab dc bc 54 5e 04 bf ac 00 9c be
       0.30467412 -0.026937084 -0.51706433 -0.30469263
000020 45 04 5a be 5a d3 5b be dd 1d df 3e a5 9e d1 3d
       -0.21290691 -0.21467343 0.4357747 0.10235337
000030 20 a1 13 bf 76 9c 05 3f ad 5a c8 3e d7 89 92 3d
       -0.5766773 0.52191865 0.3913168 0.07155197
000040 98 8c 3d be 9d 95 93 be 72 79 47 be f6 4d 96 be
       -0.18510664 -0.28825083 -0.19479921 -0.29356354
000050 7b c0 7b be 45 a5 00 bf c6 a3 dc be e1 30 9d bc
       -0.24585144 -0.5025218 -0.430937 -0.019188346
000060 b6 7f bb bd 27 be d5 be 75 48 bf be 9a 93 b6 be
       -0.09155218 -0.41746637 -0.37359968 -0.35659486
000070 36 41 c9 be 8e a3 51 3e 5d 13 de bc d2 59 18 3f
       -0.39307564 0.20472547 -0.027108843 0.59512055
000080 4d 49 e0 3e b9 16 23 bd a8 26 d8 bd b1 23 10 bf
       0.43805924 -0.039816592 -0.10554248 -0.5630446
000090 51 8a 81 be c5 17 e6 3e b9 fb 2a 3d b9 7e 5d 3c
       -0.2530084 0.4494001 0.041743968 0.013518983
0000a0 0f bb 2f 3d a9 36 80 be fe b0 14 3c 5a b1 5f bc
       0.042903002 -0.25041702 0.009075401 -0.013653124
0000b0 df 4b 36 3e 31 23 f2 be ed e6 cd bc 16 8b 0d bf
       0.1780238 -0.47292474 -0.025134528 -0.55290353

encoder.conv2d_1.bias f4 [16]
000000 b9 f4 18 3e 5f f0 11 3d 30 34 da be 39 35 47 3e
       0.14937104 0.035629626 -0.4261794 0.19453897
000010 a6 80 7c 3d 1d fe d4 3c 5e c3 23 3e 78 36 03 bf
       0.061646126 0.026000077 0.15992495 -0.5125499
000020 03 5f 03 bf 90 90 22 3f 48 cf 9f 3e 10 d2 93 bd
       -0.5131685 0.63501835 0.3121283 -0.072178006
000030 ce 79 d1 3e 8a 03 9e bd e7 32 06 bf 3c e7 b7 be
       0.40913242 -0.07715519 -0.5242142 -0.35918605

encoder.conv2d_2.weight f4 [32, 16, 1, 3]
000000 9b 7f 43 bb 5b 5e 73 bd 91 66 13 3e 60 6d 66 3d
       -0.0029830697 -0.059416156 0.14394595 0.056256652
000010 e9 37 2c bd 21 54 93 bd aa ae 46 3d ac 64 85 bd
       -0.042045508 -0.07193781 0.048506416 -0.06513342
000020 7e 73 86 bc 25 27 f4 3d 2a a6 dd bd 7f 2c 09 be
       -0.016412493 0.11921529 -0.10822709 -0.1339588
000030 db 01 08 be 1b 38 92 3c 9a 04 8c 3d af 80 af 3d
       -0.13281958 0.017849019 0.06836815 0.08569466
000040 ff ba 1f 3d 78 7c 2a 3d 46 8f 7c bd 4c e0 b8 3d
       0.038996693 0.04162261 -0.061660074 0.09027156
000050 75 70 a2 3d 46 dc 43 bc f1 06 28 bd 55 b3 9c 3d
       0.07931606 -0.011954373 -0.041022245 0.07651392
000060 62 64 0d 3e 7f ba c4 bd b7 1c f0 3d 15 b4 1a bd
       0.13807824 -0.09605884 0.11724227 -0.037769396
000070 dc fb 12 be f6 7d fd 3d a3 af dc bd e2 35 c0 bd
       -0.14353889 0.12377541 -0.107756875 -0.09385277
000080 9d 90 90 bd 13 b7 0d 3e d4 ad bd bc 8b f6 2e 3c
       -0.07058833 0.13839369 -0.023154177 0.010678898
000090 91 cf ca 3d 82 7e d0 bd 91 83 1a 3d df b1 8d bd
       0.099028714 -0.101803795 0.037723128 -0.06918692
0000a0 68 00 3d 3d b0 e7 09 3e d7 a7 5a bd c6 2b 1a bd
       0.046142966 0.13467288 -0.05338272 -0.0376394
0000b0 e7 ae cb 3d 1a f8 dc bd c2 2c ce 3d 85 7d 8a 3d
       0.09945469 -0.10789509 0.100671306 0.06762222
0000c0 41 0d 28 bc d6 5a c2 bd 26 88 68 3d 99 b2 54 3d
       -0.010257066 -0.09489982 0.056770466 0.051928136
0000d0 46 22 0b 3d 53 08 a2 3d 26 ce 88 3d cd 24 85 bd
       0.033968233 0.07911744 0.06679945 -0.0650116
0000e0 18 67 8b 3d 92 63 01 be f1 cc 3c 3e cb eb fa bd
       0.06806773 -0.1263564 0.18437554 -0.12252005
0000f0 61 8a a8 3d 5a 4b 17 3e 1a 9f 99 be 7b 75 bb 3d
       0.08229519 0.14774838 -0.30004197 0.09153267
000100 4e 03 02 3e 61 1f d1 bd 2a 8f cb bd ec dc fc bd
       0.12696573 -0.10211063 -0.09939416 -0.12346825
000110 24 3d b7 bd 82 9a a9 bc 82 fc 57 bd c1 53 f4 3d
       -0.089472085 -0.020703558 -0.052731045 0.11930037
000120 34 66 c0 3d 2d 56 a3 bd b1 e8 1b 3d 91 5a 6b 3e
       0.09394494 -0.07975421 0.03806371 0.22983767
000130 15 8b 5f 3d 42 00 d6 bd 8f 48 ed 3d 1a d9 08 3e
       0.054576 -0.10449268 0.11586105 0.13364068
000140 90 91 07 be 96 10 08 bd ca 02 5a 3d 40 42 f0 3d
       -0.13239121 -0.033218943 0.053225316 0.11731386
000150 cb 56 fb bc 38 73 dd 3c eb 16 48 3d 2e d2 ae 3d
       -0.030681035 0.02703248 0.04884998 0.08536182
000160 44 e4 12 3c 42 7b 0e be c6 78 4b 3d 48 da ba 3d
       0.008965556 -0.13914207 0.049675725 0.09123665
000170 75 58 02 3e de 5c 02 bd 74 65 13 be 9a 3b e4 bd
       0.12729056 -0.031826846 -0.1439417 -0.111441806
000180 ba 00 ed 3c 9b 93 9d bb 32 45 05 3d b8 af f8 bd
       0.02893101 -0.0048088557 0.032536693 -0.12142891
000190 38 21 36 3d 0c ff fe 3d 33 56 5b bb f5 9e ad bd
       0.044465274 0.1245099 -0.0033468127 -0.08477584
0001a0 56 e4 c0 bc 66 de 1f 3e 93 b5 7f 3d ce ed d4 3d
       -0.023546379 0.15612182 0.062429022 0.1039692
0001b0 a7 7c 9c bd 54 c8 a7 bd 2f 35 90 bd 47 ed 4e 3d
       -0.07640963 -0.081925064 -0.07041394 0.050519254
0001c0 7a a8 7c bd 3b 5b fc 3d ce 24 9b bb 9b 5e db ba
       -0.06168411 0.12322088 -0.004734612 -0.0016736569
0001d0 af ad 83 3d 07 cb fb 3d 38 81 be bd 4c 5a 2b 3d
       0.06429612 0.12294584 -0.0930199 0.04183416
0001e0 0b c8 23 3b d5 4f c4 bd b0 24 8c bd 24 a7 91 3d
       0.002499106 -0.09585539 -0.06842935 0.07111958
0001f0 a6 cc 07 bd 3a c4 39 be 82 28 b9 3c 74 6b e3 3d
       -0.033154152 -0.1814126 0.022602323 0.111044794
000200 97 5e a3 bd 13 ea 92 3d 7a 6b 97 3c 34 64 76 3d
       -0.07977026 0.07173552 0.018483866 0.060154155
000210 dd 0d 0a 3e bd 2f fc bd 8b 21 05 3e 47 81 88 3d
       0.13481851 -0.12313793 0.13001077 0.06665283
000220 71 fc 9c 3d 8f dc 0f 3d cd f9 21 3d 37 02 a0 3d
       0.07665337 0.03512245 0.03954487 0.078129224
000230 1a 59 0d 3e 83 e0 0f be 33 ed e2 3c 66 c2 43 3d
       0.13803521 -0.14050488 0.027700996 0.047792815
000240 3b 15 75 3d 5e 9c b9 3d 24 e9 63 bc 66 c1 e8 bc
       0.0598347 0.09063028 -0.0139105655 -0.028412532
000250 66 91 f9 3d 84 79 e7 bd f2 d8 09 bc d3 5e a8 bd
       0.12185936 -0.11302474 -0.00841354 -0.08221211
000260 d5 07 cd bd a5 be 0c bd eb 26 be 3d a7 86 cf 3d
       -0.100112595 -0.0343615 0.09284767 0.10133105
000270 a5 37 c0 3d 9e dc ec bd 78 58 f0 3c 28 ae dc 3d
       0.09385613 -0.11565517 0.02933906 0.10775405
000280 9a 7d 9a bd 31 af b5 3c 10 95 62 bd 49 a1 85 bd
       -0.07543488 0.022178264 -0.05531794 -0.06524903
000290 0a 50 05 bd 00 6b 59 bd 0d a2 29 bd a8 b8 c1 bd
       -0.032547034 -0.05308056 -0.04141431 -0.094590485
0002a0 d0 e2 85 3d 8d f8 f4 bd 7b 87 00 bd 45 ca fd 3c
       0.06537402 -0.1196147 -0.031379204 0.030980239
0002b0 f7 eb a4 bd d1 49 ac 3d 98 1a 09 be 90 50 f5 bd
       -0.08052819 0.08412517 -0.13389051 -0.11978257
0002c0 6c 3d 02 3e 62 61 8a 3c 58 b2 07 be 7c e2 fd bb
       0.12718743 0.016892139 -0.13251626 -0.0077479463
0002d0 c0 11 5d 3c 54 c8 84 3c 85 e0 cc bd 9d e7 84 bd
       0.013493001 0.016208805 -0.10003761 -0.06489489
0002e0 f2 b7 dd 3d 13 84 22 bc aa 05 c6 3d b0 d4 f9 3d
       0.108261004 -0.009919184 0.09669049 0.1219877
0002f0 d0 de f2 bc c0 be 02 be 79 d8 4c 3d 16 48 d3 bc
       -0.02964726 -0.12768078 0.050011132 -0.02579121
000300 50 fc f5 3c 95 25 8c 3d f9 85 f0 bc d0 98 87 3d
       0.030027539 0.06843106 -0.029360758 0.066209435
000310 dd c0 8c 3b 4a 17 e9 bd d0 27 a6 bd 63 ab 50 bd
       0.004295452 -0.11381395 -0.081130624 -0.050944697
000320 b2 9c 48 bd e3 f6 96 bc 90 5a 0d bd c5 6a 5d bd
       -0.04897756 -0.018428272 -0.034510195 -0.0540569
000330 f3 09 8a bd fa 57 08 3e 25 72 27 3d d3 c0 55 3c
       -0.06740179 0.1331481 0.04088034 0.013046461
000340 6b 82 11 3e 0f 07 05 3d 50 41 af bc 58 59 e3 bc
       0.14209907 0.032477435 -0.021393448 -0.027752563
000350 47 d8 88 bd b6 91 02 be 8d f4 ca 3d ec de 0e be
       -0.06681877 -0.12750897 0.099099256 -0.13952225
000360 5e 8d ed bd b5 11 3a ba fa d7 91 bd 8b 1b 42 3d
       -0.11599229 -0.00070979755 -0.071212724 0.04738955
000370 3f 2b f9 3d 15 6f d0 bd 58 be a2 bd cc 2f e8 bd
       0.12166452 -0.10177437 -0.079464614 -0.113372415
000380 0f 52 cf 3d 32 e7 e9 3d 87 5c e2 3d f6 a5 06 be
       0.10123073 0.1142105 0.110528044 -0.13149247
000390 2f 6e 4c bd 30 c5 04 be a5 13 d2 bd 19 b2 4d bd
       -0.049909767 -0.12965846 -0.10257653 -0.050218675
0003a0 c0 bb 1e bd d3 7b bc bd d5 f1 11 3e 3a fe f6 bd
       -0.03875327 -0.09203305 0.14252408 -0.120602086
0003b0 4c bb 49 3d a0 8b 45 3c db 20 ff bc be 2a e3 3d
       0.049250886 0.012057215 -0.031143596 0.11092137
0003c0 fc ea f3 3d 3c e2 51 3b 52 e3 86 ba 25 2e 01 be
       0.11910054 0.0032025715 -0.0010291135 -0.12615259
0003d0 6d b8 30 bd 7a 94 3a 3b cb ce fe 3d 62 b8 8c bd
       -0.043144632 0.0028469847 0.124417864 -0.06871106
0003e0 da c2 0a 3e 2a 4e 9e 3d df 69 a6 3d 7b 5b 03 be
       0.13550892 0.07729752 0.08125662 -0.12827866
0003f0 45 63 09 3e 0d 9b 12 3e 98 e6 d0 bd 6b bd 05 3e
       0.13416775 0.1431696 -0.10200232 0.13060538

encoder.conv2d_2.bias f4 [32]
000000 3e 6a a5 bd 97 49 0c 3e 33 71 1e 3e d0 11 86 bd
       -0.08076905 0.13699947 0.1547287 -0.06546366
000010 9c 92 2e bd ae 76 c6 bd 3b 28 15 3e f0 88 7a 3d
       -0.042620286 -0.09690605 0.14566128 0.06116575
000020 76 03 83 3c 51 64 46 3d 95 0c 47 bd cb 1b c1 3c
       0.015992861 0.048435513 -0.048595984 0.023572823
000030 bb 7a 67 bd 22 a3 e5 bc e3 84 44 bd 9b 72 d1 3d
       -0.05651353 -0.02803189 -0.047978293 0.102269374
000040 5e fc 03 3e a4 13 08 be bb 2e 40 bd 14 d5 a4 3d
       0.12889239 -0.13288742 -0.046919566 0.08048454
000050 4b 63 20 bd c2 34 04 be 2d 5f d0 3d 46 3f 18 3d
       -0.039157193 -0.1291075 0.10174403 0.037169717
000060 a1 b4 fa bd 3b 32 08 be fd 27 72 bc 6a 1c 2e 3d
       -0.122414835 -0.13300411 -0.014780042 0.042507567
000070 f1 b6 a7 bd 8a f5 9b bd 02 fb 0c bd b9 1b f9 3d
       -0.0818919 -0.07615192 -0.034419067 0.12163491

encoder.conv2d_3.weight f4 [64, 32, 1, 3]
000000 be c0 db 3c 26 7a 46 bd ea a7 0a bd 67 6a 93 3d
       0.026825305 -0.048456334 -0.03385154 0.07198029
000010 0e d0 b7 bc 83 ae 55 3e 88 93 dd 3d 0f b7 82 bd
       -0.022438075 0.20867352 0.10819155 -0.06382572
000020 3c 72 c9 3c d8 4f 30 bd 93 6c 87 3c 3e 9c 91 3d
       0.024590604 -0.043044895 0.016531264 0.07109879
000030 5c 9c a4 3d 92 ef 67 3d da e1 28 3c f4 fa f4 bc
       0.08037636 0.056624956 0.010307753 -0.02990482
000040 a2 90 8a bd f5 13 62 bd 98 f0 b9 bd 94 65 01 3d
       -0.06765868 -0.055194814 -0.09079093 0.031591013
000050 1b a2 b6 bc a3 95 af bd 1d 2e 8f bc ac 86 f6 bc
       -0.022294095 -0.08573463 -0.017478043 -0.030093513
000060 2e c2 22 3e 1b e0 75 3e 50 f0 f1 bd 60 61 3c be
       0.15894386 0.2401127 -0.11813414 -0.1839652
000070 d0 c5 87 be d9 32 22 3e e4 d8 4d bc 07 67 0b bd
       -0.26518106 0.1583971 -0.012563918 -0.0340338
000080 68 97 66 be 6f 7a db 3d 94 d6 73 3c 2d 47 01 3d
       -0.22518694 0.10716712 0.014882702 0.03156202
000090 57 28 db bc 31 ff ca 3d dd 12 59 bc 29 e9 83 be
       -0.026752634 0.09911955 -0.013249126 -0.25763825
0000a0 00 c0 1c be 34 ca c4 bd 72 5d a3 3d 4b 72 86 bb
       -0.15307617 -0.0960888 0.07976808 -0.0041029803
0000b0 df c5 96 3d 7e b3 b1 bd ba a2 06 be 5e 82 15 3d
       0.0736196 -0.086768135 -0.13148013 0.03650128
0000c0 1e 3c 02 bd eb 47 bc 3d 27 13 b1 bd d8 a7 e2 3d
       -0.031795613 0.09193405 -0.08646231 0.1106717
0000d0 40 7e b4 3d 67 bc ba 3d 7e 1b d9 bc 14 d8 00 be
       0.08813143 0.09117966 -0.026502367 -0.12582427
0000e0 76 1d 8e be 87 15 27 bd d8 8f 90 bd 75 c8 bb bd
       -0.27756852 -0.040792014 -0.07058686 -0.091690935
0000f0 e6 e1 78 bc 71 15 2c be 86 78 d0 bc e4 62 8c 3d
       -0.015190577 -0.16805054 -0.025448095 0.068547994
000100 65 3c 89 bd 86 28 a2 bb f3 b0 87 be 74 20 fe bd
       -0.067009725 -0.0049486784 -0.2650219 -0.12408534
000110 b6 e6 10 3e b7 da 30 3d 32 29 e0 3c d9 59 0c be
       0.14150509 0.043177333 0.027363393 -0.13706149
000120 c9 a6 b6 bd 2c ff cf bd 3f 3e 6e 3c ab 4f ad bd
       -0.089185305 -0.10156092 0.014541208 -0.08462461
000130 3a ca 2c 3d c7 17 ee bc 39 b0 00 3e b3 a8 00 bd
       0.042185046 -0.029064072 0.12567224 -0.031410884
000140 8d 1a 46 3e 8b f8 c6 3d 63 85 3e bd 39 ca a9 bd
       0.19346066 0.097153746 -0.046513926 -0.08290524
000150 57 d9 8a bc aa a0 c7 3d e9 ec 8b 3d 27 c6 a5 bd
       -0.016949339 0.09747441 0.068322964 -0.08094435
000160 f5 87 c5 bd b1 75 a9 3c 1b 18 ca 3d 07 21 18 3e
       -0.09645072 0.020686002 0.09867879 0.14856349
000170 dc 7e 26 be 1d 6c 66 bd a8 3e 2d be 72 1a 9d bd
       -0.1625933 -0.05625545 -0.16918433 -0.0767106
000180 0e bb d0 bd 0d 7b 68 3b 14 00 d1 3c 72 d6 32 3c
       -0.10191928 0.0035473735 0.025512733 0.010915386
000190 c3 6b 3e 3d b1 ab ba bd 62 8b bc bd fb 3b b7 3d
       0.04648949 -0.09114779 -0.09206273 0.08946987
0001a0 dc 52 ce bd 63 36 af 3d 76 ab 93 3c 4a 3f a3 3d
       -0.10074398 0.08555295 0.018026095 0.07971056
0001b0 48 fc be 3d 45 fd 36 3b ea 0e c2 3d dc e3 55 3d
       0.093254626 0.0027921956 0.09475501 0.052219257
0001c0 2c c2 82 3d 97 7d 63 bc d5 d0 9a 3d 5d 7c 22 bb
       0.063846916 -0.013884923 0.07559363 -0.0024793365
0001d0 cb 91 d3 bd 48 53 6e bb 0a 85 94 bd e6 87 16 3d
       -0.10330542 -0.0036365557 -0.07251938 0.036750697
0001e0 d8 f6 f3 bc b7 b9 29 bc db 1d 72 3d d2 39 be 3c
       -0.02978079 -0.010359219 0.059110504 0.02322093
0001f0 f9 9f ad bd cc 9e 08 bd 5d 26 ad 3d 93 cc 34 bd
       -0.08477778 -0.033354566 0.08454583 -0.04414041
000200 74 4d fa 3c 4b db 94 3d 17 7d 69 3d 52 b6 40 bd
       0.03055451 0.07268389 0.05700406 -0.047048874
000210 52 08 cd 3d a9 3a bb bd fb a2 96 3d af be 05 bd
       0.100113526 -0.09142048 0.07355305 -0.032652553
000220 32 0c 94 bd fc 1c 1c bd dd 27 75 3d 18 31 70 bd
       -0.072288886 -0.03811358 0.05985247 -0.05864057
000230 00 61 a4 3d d5 fa 26 bd 5d 87 6f bd 17 fb de bd
       0.08026314 -0.040766556 -0.0584787 -0.10887735
000240 e8 b9 cc bd 76 be cf bb af d3 92 ba 65 0e b9 bd
       -0.09996396 -0.0063398434 -0.0011202003 -0.09035949
000250 fd 31 5a 3d a5 8c 9a bc 93 ce 75 bd 6f 55 3a bd
       0.05327033 -0.018865893 -0.060011458 -0.045491632
000260 39 7b c7 3c 0b d4 bd bb 5b 97 8f bd dd f7 d0 bd
       0.02435075 -0.0057930998 -0.07011291 -0.10203526
000270 08 65 7d bc 8b 01 35 3d cd 39 5a bd e5 2e b5 bd
       -0.015465982 0.044190925 -0.05327778 -0.08846835
000280 13 61 d0 bd 9d 42 cb 3d 57 b6 4f bd 12 e5 82 bd
       -0.101747654 0.09924815 -0.050711002 -0.06391348
000290 c8 91 bd bd b4 e6 b1 3d 6a fd d0 bc e8 96 d7 bd
       -0.09256321 0.08686581 -0.025511462 -0.1052683
0002a0 d2 7b 22 3d ed 77 80 bc 3f 6b 6f 3d bf 73 99 3d
       0.039668866 -0.015682185 0.058451887 0.0749278
0002b0 21 0a 60 bd ff 25 70 3d 8b 3d 97 3d cc 66 6b bc
       -0.05469716 0.058629986 0.07384785 -0.01436777
0002c0 28 41 42 3d 9d 44 0d 3d 9b c1 9e 3c fa 12 34 3d
       0.04742542 0.034489263 0.019379428 0.04396341
0002d0 2f 37 b2 3d 54 bd 8d bd c2 f4 df 3b 58 60 93 3c
       0.08701932 -0.06920877 0.0068345973 0.017990276
0002e0 80 c3 c2 3d 3c be 1e 3d 8d 8c e2 3c 9b 61 2a bd
       0.09509945 0.03875564 0.02765491 -0.04159699
0002f0 75 3b 98 bd e1 fc c6 3b f5 11 0d bc 6f 83 56 3d
       -0.074332155 0.006072626 -0.008610238 0.05237144
000300 1e 83 c6 3d 5e 43 7d bd c1 11 a1 3d db d6 39 be
       0.09692977 -0.061831824 0.078647144 -0.18148367
000310 c7 20 2d 3c f8 3a 23 be 23 af 5d be 41 d1 96 3d
       0.010566897 -0.15940464 -0.2164884 0.07364131
000320 92 04 a9 bd b4 67 c4 bd 02 26 a8 bc cf 95 22 bd
       -0.08252825 -0.09590092 -0.020525936 -0.03969365
000330 2f 49 90 bc 69 7f a3 3d 91 4d 1b 3c 31 b4 5a bd
       -0.017613022 0.07983286 0.0094789425 -0.0533945
000340 8d 66 a0 bd 9f 32 57 3d 1e d1 0c be 13 6f 1a bd
       -0.0783206 0.05253851 -0.13751647 -0.037703585
000350 4e 18 f4 3d ee 66 a0 bd a8 43 1f 3c eb 1c ba bd
       0.11918698 -0.07832132 0.00972072 -0.09087547
000360 9f 26 0e be d7 85 64 bd 74 60 59 be ea 77 f0 bd
       -0.1388192 -0.055791702 -0.212282 -0.11741622
000370 dc 18 96 bd 17 18 2e bc cc 9f 20 be ae f9 9f be
       -0.0732896 -0.010625861 -0.15685958 -0.31245178
000380 f8 d1 5e bd a2 a9 f2 bd d7 11 26 3c 2a 53 2b 3e
       -0.05439946 -0.11848761 0.010136089 0.16730943
000390 d9 56 b7 bd bd 7d 99 bd bf 17 c0 bd c9 5a 2b be
       -0.08952112 -0.07494686 -0.09379529 -0.1673385
0003a0 2b a3 c2 3d 32 e7 4c 3e 17 28 83 be 3d 8a 86 bd
       0.09503778 0.20010069 -0.25616524 -0.065693356
0003b0 cc d6 ce 3e 1f cf 11 be ae d1 3a 3d 3a ea 8a 3d
       0.40398252 -0.14239167 0.045610122 0.067829564
0003c0 3e 71 35 be ab e6 b5 3d 02 1d e9 3d 0d 95 cb bd
       -0.1771898 0.08881887 0.11382486 -0.099405386
0003d0 0f 69 9f 3d a5 ec b9 3e 53 67 c2 bd f2 a9 9e bd
       0.0778371 0.36313358 -0.09492364 -0.07747258
0003e0 22 13 95 bd ef 9f 55 3d ec 2c a3 bd a2 da 2c bd
       -0.0727904 0.052154478 -0.079675525 -0.042200692
0003f0 9d d6 65 be e7 a5 38 3d 7d c0 8f 3d 8d 22 85 bd
       -0.2244515 0.04508009 0.07019136 -0.06500731

encoder.conv2d_3.bias f4 [64]
000000 53 75 1b 3d 51 c4 22 bc 59 3e 8a bd b6 fa 83 bd
       0.037953686 -0.009934501 -0.06750173 -0.06444304
000010 ad 11 01 be f6 f1 55 3c 2c 0e c5 3d da f7 83 bd
       -0.12604399 0.013058176 0.09621844 -0.06443758
000020 3d 03 e0 bc cb 00 84 3d 96 27 e7 3d 72 ae d1 3d
       -0.027345294 0.06445464 0.11286847 0.10238351
000030 a5 5d 1a 3e b2 0f 2a 3d 1e fd ac bd c5 3d c8 bd
       0.15074785 0.041518874 -0.08446716 -0.097774066
000040 ed e1 c6 bd 98 6a 89 3d 7d b7 25 bd c3 30 97 3d
       -0.09711061 0.06709784 -0.04045819 0.073823474
000050 c2 ec f1 bd e4 75 87 bd 98 8c 10 3c 32 a3 36 bc
       -0.11812736 -0.06614283 0.008822583 -0.011147307
000060 81 18 35 bd db fa 20 bd 18 74 e5 3d ee bc 8a bd
       -0.044212822 -0.039301734 0.11203784 -0.06774317
000070 85 99 62 bd 42 a2 88 bd 82 a2 58 3d d5 41 9e bd
       -0.05532219 -0.06671573 0.052889355 -0.077274
000080 a7 58 b7 3d fc 3e b4 bd df 31 9b 3c bd 17 ba 3d
       0.08952456 -0.08801076 0.018944679 0.09086559
000090 f2 c0 3d 3c cf 1a b5 bd fc 1f b2 3c 94 84 00 3d
       0.011581646 -0.08843004 0.021743767 0.031376436
0000a0 1b db 49 3d fc 2c 6a bd 6c 66 b5 3d e7 ed 74 3d
       0.04928122 -0.057171807 0.08857426 0.059797194
0000b0 fa 17 3b 3c bb 65 d9 3d ef 93 0c bd e8 14 2d bd
       0.011419291 0.10615107 -0.034320768 -0.042256266
0000c0 85 90 b6 3d 5c 9a ae 3c 79 db 8d bd b8 4b c9 3c
       0.08914284 0.021313839 -0.06926627 0.024572238
0000d0 ca ba d0 3d 74 f7 ba bc 08 ef fb bd 85 0e 57 3d
       0.10191877 -0.022823073 -0.12301451 0.05250408
0000e0 94 90 90 3d a6 e7 94 bd b8 3b 86 3d 8e a2 19 3c
       0.07058826 -0.07270746 0.06554359 0.009377135
0000f0 4b ea dc 3d 47 97 6c 3a 1d fb 3c 3d ea 8c bb 3d
       0.10786875 0.00090252276 0.046137918 0.091577366

encoder.fc.weight f4 [16, 64]
000000 56 a3 6a be 10 1f db 3d 6c 66 9e bd 9b f2 f9 bd
       -0.2291387 0.10699284 -0.07734379 -0.122044764
000010 5e f6 82 be ef a9 3e 3d 6b 53 86 ba 50 f7 24 3d
       -0.25578588 0.04654878 -0.0010248249 0.040274918
000020 cf 26 a3 bc 8c 79 18 3d 04 e3 40 3d 8a d2 60 3d
       -0.019915966 0.03722529 0.0470915 0.054888286
000030 fc 92 2a 3e 41 16 a2 bd f9 29 c7 bd ee aa fa 3d
       0.16657633 -0.07914401 -0.097248025 0.122396335
000040 0d bb 22 bc b6 bd 06 3d 85 4b 8f 3d a7 5f e4 3d
       -0.009932292 0.032895766 0.06996826 0.11151057
000050 f4 63 7b bd 4d 41 a4 bc 4a d7 f4 3d 9c e7 c9 bd
       -0.06137462 -0.02005067 0.11955126 -0.09858629
000060 7d f8 bc 3b 5e c3 a8 bd de 62 26 3e 64 5a 95 3d
       0.005766927 -0.08240388 0.16248652 0.07292631
000070 a2 f0 a0 3d 1d 53 d3 3d 2e 65 c9 3d 10 d5 2e bd
       0.07858397 0.10318587 0.098337516 -0.04268366
000080 83 42 0c bd 10 5d c4 bd 61 26 4c 3d 69 1f 0a 3e
       -0.034243118 -0.09588063 0.04984129 0.13488545
000090 5d f0 18 3e a6 44 01 3e a6 ac af bd 9e 70 f8 bc
       0.14935441 0.12623844 -0.08577852 -0.030327138
0000a0 74 61 dd bd 5e 28 92 bd 57 0e 52 3d 6d 40 0e bd
       -0.10809603 -0.07136606 0.051283207 -0.03472941
0000b0 02 17 ab 3d aa 92 04 3e 8a 10 b9 bb 7c e0 0a 3d
       0.08353998 0.12946573 -0.0056477236 0.03390549
0000c0 a4 54 a6 3d 86 34 a7 bd cd 49 64 bc 47 c6 42 3e
       0.08121613 -0.08164315 -0.013933611 0.1902095
0000d0 42 f9 d7 3d 1e 04 f4 3d 0f ab 76 bc 4d 8a 72 bd
       0.10545589 0.11914848 -0.015055432 -0.059213925
0000e0 ec d9 e3 bd 1f d6 f0 bd 88 a5 7c 3d 70 f6 fe 3c
       -0.1112555 -0.1175959 0.0616813 0.03112337
0000f0 fc 95 14 3d 2d 16 41 3d 1a 9e 13 3d ef 03 69 3d
       0.03627585 0.04714029 0.03603945 0.056888517
000100 8c ee 6f bd 5a 95 98 3d af 7f c2 bc 84 3a c7 bd
       -0.058577105 0.074503615 -0.023742525 -0.09727958
000110 36 db 2b be 36 a4 f7 bd 51 c1 18 3d de 5d db 3d
       -0.16782841 -0.120918676 0.037293736 0.10711263
000120 bc 2e b5 3d b8 97 5c 3a a4 b9 e2 3a 4d 6d 8e 3d
       0.088468045 0.0008414942 0.0017297757 0.06954441
000130 df 63 1d 3c a3 60 d1 bd 62 1e 52 3d 06 2c 97 3d
       0.009606331 -0.1022351 0.051298507 0.07381444
000140 b5 29 e0 3c b0 85 ee 3d f9 87 cf 3d a7 68 44 bc
       0.027363637 0.116465926 0.101333566 -0.011987842
000150 79 2d a0 bd 7c 14 b2 3d 68 e2 82 bc 3d 16 eb bd
       -0.07821173 0.08695313 -0.0159771 -0.11478851
000160 c0 c9 5a bd ee 5e d9 3d 35 98 94 bd a8 42 64 3d
       -0.05341506 0.106138095 -0.07255594 0.05572763
000170 60 84 f0 3c 19 07 90 bb a7 1c 0f 3c f6 c6 01 be
       0.029359996 -0.0043953774 0.008734859 -0.12673554
000180 56 c1 0f be df d1 f8 bd 70 c7 1b 3b bf ff bc bd
       -0.14038596 -0.12149405 0.0023769997 -0.09228467
000190 01 02 b4 bd 14 c5 75 3c 7c 69 f0 bd c1 74 88 bd
       -0.08789445 0.0150006 -0.117388695 -0.06662894
0001a0 e3 24 3f bd be 6b 5d 3d b0 d3 b6 bd f6 8b ad 3d
       -0.046666037 0.05405783 -0.08927095 0.08473961
0001b0 24 6a 79 3d 0c 08 6a be f9 5c 73 3c ec 58 10 bd
       0.06089224 -0.22854632 0.014853709 -0.035241053
0001c0 32 b7 a6 3d be 56 38 3c a5 c6 04 be 52 a9 ef 3d
       0.081404105 0.01125115 -0.12966402 0.11702217
0001d0 87 bb c4 3d 78 b7 0a be 6c 3f 13 bd 0a 4c 53 3c
       0.096060805 -0.1354655 -0.035949156 0.012896547
0001e0 ae fa c4 3c f7 da e0 bd 7c 41 ae bd ca a4 ea 3b
       0.024045315 -0.10979264 -0.08508584 0.0071607577
0001f0 f5 1b 83 3c 37 c9 5f bd a5 7b 2a bd 80 df c4 bd
       0.016004542 -0.054635253 -0.041621823 -0.09612942
000200 ab 82 4a 3e 80 98 bf 3d a2 65 34 3d c0 41 32 3d
       0.19776408 0.09355259 0.044042237 0.043519735
000210 6e bc 85 be 74 f3 01 be a5 fa fe bd d6 70 d0 bd
       -0.26120323 -0.12690526 -0.124501504 -0.10177772
000220 35 7a f0 bd d3 e2 6c bc cd d5 bb bd d3 57 c5 3c
       -0.11742059 -0.014458376 -0.09171639 0.02408973
000230 9b 9a 97 3d 11 72 7b bd a5 0d 5d bc 5c ea bb bd
       0.074025355 -0.06138808 -0.013492023 -0.0917556
000240 ff 15 02 be cc 28 27 bd c5 1c d6 bd a7 8a b7 bd
       -0.12703703 -0.04081039 -0.10454706 -0.08961993
000250 9b 06 97 be ae fa 86 3c 82 11 3b 3b 93 65 05 3c
       -0.29497227 0.016476955 0.002854437 0.008141893
000260 5f 43 2d bc f6 75 f1 3d d4 4e 28 bd 7f ef f3 3d
       -0.010575145 0.117900774 -0.0410908 0.11910915
000270 2a 55 fa bd 24 ff 96 3d 68 90 80 bd b4 83 9c bd
       -0.12223275 0.07372883 -0.06277543 -0.07642308
000280 50 16 01 be 12 88 e9 bd bd 72 7b 3d 45 96 13 bc
       -0.12606168 -0.114029065 0.06138872 -0.009007995
000290 75 82 5f bd fc 24 fd bd 0c 5c 4d bd 00 9b b0 bd
       -0.054567773 -0.1236057 -0.05013661 -0.08623314
0002a0 52 d4 15 be cd 32 07 bd ae 4e e2 bd 84 fd cd bd
       -0.14631775 -0.03300743 -0.11050163 -0.1005812
0002b0 1d ba 00 bd 2e e5 d1 3d 20 7c 0d bd 91 89 df 3c
       -0.03142749 0.10248791 -0.034542203 0.027287276
0002c0 4e c2 02 be 16 4e a2 3d 44 f2 7a 3b f1 9a d3 bb
       -0.12769434 0.0792505 0.0038291374 -0.0064576794
0002d0 54 38 06 bd 03 90 45 bd 03 f1 dd 3d ea 76 e6 bd
       -0.032768562 -0.048233043 0.10836985 -0.1125315
0002e0 06 cd a2 3d 7b ea 7d bd 04 68 15 be eb c8 d2 3d
       0.07949261 -0.061991196 -0.1459046 0.10292228
0002f0 22 bb c3 bd 48 89 48 bd 9d 94 b2 3d 6f 1b 00 bd
       -0.09557177 -0.048959047 0.08719752 -0.031276163
000300 60 20 68 3d ef 7c 02 bd 76 f5 d4 3e c4 4d 66 3c
       0.0566715 -0.031857427 0.41593522 0.014056627
000310 3b e7 93 3e 00 2a ef bd c5 ca be bd 01 e7 b6 bd
       0.28887352 -0.11677933 -0.09316019 -0.08930779
000320 e0 8f 76 bd b6 de b9 3c 84 d5 73 3d 0a 4a 24 bd
       -0.060195804 0.022689205 0.059529796 -0.04010967
000330 14 dc 62 bd 42 6f de bb df d4 73 3c 96 08 9d 3d
       -0.055385664 -0.0067881653 0.014882295 0.07667653
000340 e2 41 ed bd 35 5e fd bd e0 ce b0 bd de 4b 92 3d
       -0.11584832 -0.12371484 -0.08633208 0.07143377
000350 bb e1 15 3e 44 e1 eb bc db 68 bb bd 7a 2c 91 3d
       0.1463689 -0.028793938 -0.09150859 0.07088561
000360 da aa 88 3d 4c 67 26 3d 12 a7 4e be be 04 b0 3d
       0.06673212 0.040625855 -0.2018092 0.085946545
000370 70 b0 68 bd 94 2f 90 3c 05 b8 5c 3d fa 13 d1 bd
       -0.05680889 0.017600812 0.053886432 -0.10208888
000380 d2 2b 80 bd 55 d8 85 3b 75 f0 5e 3e 4d 81 84 bd
       -0.06258358 0.0040846267 0.21771415 -0.06469975
000390 b0 ca 22 3d 4d 3f d8 bc ba 19 08 be b7 cb ac 3d
       0.03974408 -0.026397372 -0.13291064 0.08437293
0003a0 df 7b fe 3d 16 0a a1 3c 32 b6 29 3d 8f 34 8e bd
       0.1242597 0.01965813 0.04143352 -0.069436185
0003b0 1d 54 b5 3b 53 41 df bd de f2 64 bd 56 52 8c 3d
       0.0055337087 -0.109011315 -0.05589568 0.06851642
0003c0 ab 15 64 bd bf 8d fa bc 86 12 8a bd 81 d9 3e be
       -0.055684727 -0.030585168 -0.06741814 -0.18637659
0003d0 79 7e 54 bd 11 c4 c9 3d b7 4e c3 3d 12 6d 82 bd
       -0.051878426 0.0985185 0.09536498 -0.0636846
0003e0 4f 2e 1d be 8a da 47 bd 35 b4 90 3d aa 66 f3 bc
       -0.15349697 -0.0487924 0.07065622 -0.02971204
0003f0 0a 39 a2 bd 8f 89 18 3d 76 a0 02 be 25 c9 ab 3d
       -0.079210356 0.03724056 -0.12756523 0.08387975

encoder.fc.bias f4 [16]
000000 ff f5 d9 3d 5e 35 ab bc 2d 69 b6 bc 97 d3 5e bd
       0.10642623 -0.02089947 -0.022266949 -0.054401007
000010 3c 84 e3 3a 69 06 f5 3d 91 f0 84 3d 49 47 98 bb
       0.0017358135 0.11964113 0.06491197 -0.0046471697
000020 49 53 ec bd aa ef 0e 3e 03 9c 99 3c 7b 49 09 bd
       -0.11539323 0.13958612 0.01875115 -0.033517342
000030 3e 8d 8f 3d cf 3c 4f bd 38 7d f9 3d a8 d3 66 3d
       0.07009362 -0.0505951 0.12182087 0.056354195

decoder.decoder_fc1.weight f4 [64, 16]
000000 05 33 3e be 62 5c 54 be 57 2a c3 bd 63 64 09 bd
       -0.1857415 -0.20738366 -0.0952956 -0.033543
000010 3e 2f 00 be 3f 93 88 3e 37 d2 4d 3e 18 e3 4e 3d
       -0.12518021 0.2667484 0.20099722 0.050509542
000020 5f b1 5e be ab 9d 55 3e 9b 05 ca 3c 90 e9 70 3e
       -0.21747349 0.20860927 0.024660876 0.23526597
000030 a0 3d 59 3e 8d 71 26 bd 3a 21 69 bd e2 01 a1 3d
       0.21214914 -0.040635634 -0.056916453 0.07861687
000040 60 dc 84 3c 94 85 6a be ae df 56 3e 34 c5 06 3e
       0.016218364 -0.22902519 0.20983765 0.13161165
000050 34 8b cc bd 60 98 b0 bd b8 56 46 be 16 d5 23 be
       -0.099874884 -0.08622813 -0.19369018 -0.15999255
000060 00 07 12 be 50 df cf 3d 48 33 0b bd cc 46 31 be
       -0.14260483 0.10150015 -0.033984452 -0.17312163
000070 80 8f 44 3d b0 5c 62 3e 22 8d 7b be 40 26 d6 bb
       0.047988415 0.2210567 -0.24565557 -0.0065353215
000080 40 b7 21 3e c8 1f 1f 3e 90 fa 50 3e 0c 71 a3 bd
       0.1579256 0.15539467 0.20408082 -0.07980546
000090 d8 36 47 bd 6c 85 c3 bd f8 8f d2 3d 4c 4b e5 3d
       -0.048636287 -0.095469326 0.10281366 0.11196002
0000a0 e8 55 4a 3d c0 7b 15 be 00 a8 57 3e 8c 11 27 be
       0.049398333 -0.14597988 0.2106018 -0.16315287
0000b0 28 79 0f bd cc 43 81 3d 82 24 2d 3e 16 8f 24 be
       -0.035027653 0.06311759 0.16908458 -0.16070208
0000c0 1e d5 2c bd 42 64 3c be ce 3c af bd e5 cc ec bc
       -0.042195432 -0.1839762 -0.085565194 -0.028906295
0000d0 50 be 30 3b e8 1d 0f 3e 65 ae a5 3d 32 dd 22 be
       0.0026968904 0.13976252 0.08089904 -0.15904692
0000e0 d0 ef 6f be 21 d3 f4 3d 8b c5 32 3e 03 f4 8a 3e
       -0.23431325 0.11954332 0.17458169 0.2713929
0000f0 99 45 d7 3d b7 c8 88 bc 19 c9 83 3c 32 31 4f be
       0.105113216 -0.01669727 0.016087102 -0.2023361
000100 80 90 4b 3e 51 36 32 3e 10 ad 97 bc 47 28 b3 be
       0.19879341 0.17403533 -0.01851514 -0.34991667
000110 f5 ac d8 3d f3 2b 9c 3e 16 fc 33 be 40 36 90 be
       0.10579864 0.3050228 -0.17576632 -0.2816639
000120 0f 9d ef bd 6a f9 14 3e f8 00 7b be 89 ab 8f bc
       -0.116998784 0.14548269 -0.24512088 -0.017537849
000130 c7 33 e3 3c 16 bc 64 3e de 06 3d 3e 9d 46 4d 3e
       0.02773465 0.22337374 0.18459651 0.20046468
000140 90 1b 29 3d d6 b4 68 3e c8 7c 9d bd a6 99 67 3e
       0.04128605 0.22725233 -0.07689816 0.22617206
000150 ca 4d 20 be f8 15 58 bd de 50 74 be b8 8f 15 3e
       -0.15654674 -0.052755326 -0.23858973 0.14605606
000160 a8 47 a8 3d 1a 58 05 be 36 10 7c be a6 48 04 3e
       0.08216792 -0.1302189 -0.24615559 0.12918338
000170 00 89 6a bb e4 1e af 3d a0 3b 99 3c f4 cf 99 bd
       -0.0035787225 0.08550814 0.01870519 -0.07510367
000180 32 c1 36 be 36 fa 7e 3e 28 1b 11 3e 00 d9 fb 3a
       -0.17847136 0.24900135 0.14170516 0.0019214451
000190 00 0a b6 3a 00 51 c2 bc 78 fb 8e 3d 80 8f 5f bd
       0.0013888478 -0.023720264 0.069815576 -0.05458021
0001a0 d0 c5 50 bd 38 e4 58 be 06 b7 0d be 00 e3 34 3e
       -0.0509699 -0.21180809 -0.13839349 0.17664719
0001b0 80 78 c2 bd 80 7b 59 3e 50 5f 2a 3e 68 4d 49 bd
       -0.0949564 0.21238518 0.16637921 -0.049146086
0001c0 c8 99 4e 3e 68 db cd bd e0 4b 2e 3e 4c c7 af 3d
       0.2017585 -0.10051614 0.17021132 0.08582935
0001d0 d4 f5 9e bd c0 9a 89 bc 44 de 13 be 3e 38 75 3e
       -0.07761732 -0.016797423 -0.14440256 0.23947236
0001e0 d4 1c 1a be 98 6b ca bd c4 15 36 be a8 98 e9 bd
       -0.1505006 -0.09883803 -0.1778174 -0.1140607
0001f0 fc fd 38 3e 30 d5 77 3d 18 39 de 3d 00 58 2b bd
       0.18065637 0.060506046 0.108507335 -0.04183197
000200 1d d4 8e be f4 43 b9 bd 7b 6a 29 3d 32 b3 6a bd
       -0.27896205 -0.09046164 0.041361313 -0.0572998
000210 1c c4 32 3e 29 3c 85 3e d0 9a 26 3d 43 7c 45 be
       0.17457622 0.2602246 0.040674984 -0.19285683
000220 86 ef 6c 3e be fd 2b 3e 6f 52 ca bd d1 52 24 3e
       0.23138246 0.16796014 -0.09879004 0.16047217
000230 9f a7 99 3e f7 76 94 be 90 d4 08 3d 37 1c a2 be
       0.30010697 -0.28997013 0.03340584 -0.3166215
000240 70 1c bf 3c c4 2f 3f be c0 58 6f 3d 64 b4 7f be
       0.02332899 -0.18670565 0.058434248 -0.24971157
000250 cc 11 2b 3e 3a 76 75 be e0 8b 67 bc 98 45 7c 3d
       0.16706008 -0.23970881 -0.01413247 0.061589807
000260 d4 69 ca bd f8 69 fd bd 48 8b 8c bd 58 ab ae bd
       -0.09883466 -0.123737276 -0.06862503 -0.08528775
000270 9a 40 06 3e 5c 7e a7 bd 24 5f 07 3e da f3 4b 3e
       0.13110581 -0.08178398 0.13219887 0.1991724
000280 e5 79 12 3e b5 46 2d 3e 3d 96 3b be cf a6 94 bd
       0.14304312 0.16921504 -0.1831903 -0.07258379
000290 54 30 e8 bd 1d 57 5b 3e d7 82 6e 3e 3c d3 85 bd
       -0.11337343 0.2141995 0.23292099 -0.065344304
0002a0 53 c7 f3 3d 06 da 53 be 43 7a 40 bd df c0 1c 3b
       0.119032525 -0.20688638 -0.046991598 0.002391867
0002b0 3e 17 a4 3b af 61 85 3d 67 07 f8 3d 18 15 33 3e
       0.0050076535 0.06512772 0.12110787 0.17488515
0002c0 3d 84 f0 3d 4a 7e f6 bd bc 59 71 3e 27 6f 85 3e
       0.117439725 -0.120358065 0.23569387 0.26061365
0002d0 e7 29 ac 3c 2e 11 bd bd b2 35 10 3e be 1f e0 3d
       0.021016074 -0.092317924 0.14082983 0.10943554
0002e0 c6 e2 ba bd 5c 46 8e bd 5b fb 0d be 1d 8a a0 3d
       -0.09125285 -0.06947014 -0.13865416 0.07838843
0002f0 c1 9d 2f bd ab 32 39 be 14 a5 2f 3e 52 d9 f2 bd
       -0.042875055 -0.18085735 0.17152816 -0.11857857
000300 f6 09 1a 3e 40 75 41 3d 51 37 b0 bc c6 65 44 be
       0.15042862 0.04723096 -0.021510752 -0.19179448
000310 f6 9a 23 be bb c3 a9 3d a0 52 2e 3e e1 af ab bd
       -0.15977082 0.08289286 0.17023706 -0.083831556
000320 c9 0b 1e be eb 44 29 be e4 2b 8f 3d c0 04 6c bd
       -0.15434183 -0.16530196 0.06990793 -0.057621717
000330 61 31 83 be 83 a6 44 3d e6 c7 65 3e 00 d0 d2 3d
       -0.2562361 0.04801036 0.22439536 0.10293579
000340 e4 ae 16 be da 99 eb bd c4 87 6c 3e 30 92 fb 3d
       -0.14715153 -0.11503954 0.23098665 0.122837424
000350 06 59 41 3e 72 a3 af bd e5 a8 68 3e fb 12 8a bd
       0.18881616 -0.085760966 0.22720678 -0.067419015
000360 6d ef 53 be 92 b5 dd 3d 9e 25 48 3e f7 a6 07 3e
       -0.20696802 0.108256474 0.195456 0.13247286
000370 d9 67 24 be 09 59 b8 3d 78 48 0d 3e 81 1d 10 bd
       -0.1605524 0.09001357 0.13797176 -0.035184387
000380 4f f7 dc 3d 19 c1 96 3d 90 df dc bd f9 91 40 3d
       0.10789358 0.07361049 -0.10784829 0.04701421
000390 8e db e4 bd 83 52 aa bc b8 ff 1c 3e eb c9 66 3c
       -0.11174689 -0.020791298 0.15331924 0.014086227
0003a0 d4 17 51 3e ff 57 0e be 3a 48 55 3e a4 9f 63 bc
       0.20419246 -0.13900755 0.20828333 -0.013893042
0003b0 61 f8 3b be 7d 09 0f 3e 09 6c ef 3d c1 d0 ab 3d
       -0.18356468 0.13968463 0.11690528 0.08389426
0003c0 41 44 50 be b1 9c 03 bd 4b bd 00 3e 50 f2 1e 3e
       -0.20338537 -0.032131854 0.1257221 0.15522122
0003d0 ab 11 28 be a7 81 23 be a4 78 19 be 39 eb 57 bd
       -0.1641299 -0.15967427 -0.14987427 -0.05271456
0003e0 18 76 93 3e d3 38 aa bd 34 5b 07 bd f9 f1 16 3e
       0.28801036 -0.083116196 -0.033045962 0.14740743
0003f0 83 24 1c be c9 72 8b bd ce f4 43 be 73 b3 52 3d
       -0.15248303 -0.06809003 -0.19136354 0.051440667

decoder.decoder_fc1.bias f4 [64]
000000 31 24 87 3e 60 70 32 3c 30 5d 0b bd 1d c9 5a 3e
       0.263948 0.01089105 -0.034024417 0.21365781
000010 b0 6d 29 3d d8 91 ef bd 9a 73 34 be 00 0b 0c bc
       0.04136437 -0.11697739 -0.17622223 -0.0085475445
000020 25 ea 29 be a8 a6 2a bd 1c a5 17 3e 5b 6b 61 be
       -0.16593225 -0.041662842 0.14809078 -0.22013609
000030 52 53 3f be 7f 08 4f be e0 ad 43 3e 2c 5c 19 3e
       -0.18684128 -0.20218085 0.19109297 0.14976567
000040 22 5c 28 3e a9 3b 20 bd ea 0d 1f 3e 1c f6 ad bd
       0.16441396 -0.039119396 0.15532652 -0.08494207
000050 14 88 7b 3e 06 ca 19 bd d4 11 b1 3c 1e 69 40 be
       0.24563628 -0.03754618 0.021614946 -0.18790099
000060 a9 4f 17 bd 08 59 96 3d f5 f2 5a be fc 29 98 bd
       -0.036941204 0.073412 -0.21381743 -0.07429883
000070 27 07 16 be d0 fd 24 3e 18 e3 0b 3e 94 f8 4d 3e
       -0.14651166 0.16112447 0.13660848 0.20114356
000080 f0 6c 93 bd 18 aa dd bd 92 ef ab bd c7 5b f6 bd
       -0.071985126 -0.108234584 -0.08395304 -0.12029224
000090 19 98 5a 3e 09 22 94 bd e5 a2 77 3e a9 bc c2 bd
       0.21347083 -0.07233054 0.24183233 -0.0950864
0000a0 a2 9d 3a be 8a 3a e9 bd b6 42 47 be db 9a 7b be
       -0.18224195 -0.113881186 -0.19459042 -0.24570791
0000b0 34 82 81 3e 40 a2 ac 3d 8d 3b 3d 3e 91 13 b9 ba
       0.2529465 0.08429384 0.18479748 -0.0014120211
0000c0 32 75 55 3e fe 8e 74 bd d3 8f 6a 3e 48 91 7e be
       0.20845488 -0.05970668 0.22906427 -0.24860108
0000d0 b7 45 0b 3e e0 8c 7a be 6a 96 41 be b7 58 8a 3e
       0.13600813 -0.24467802 -0.18905035 0.2702081
0000e0 bb 84 2c 3e 7d 6f 8c 3e a0 e0 1e be b8 1c 1d bd
       0.16847508 0.2742881 -0.15515375 -0.038357466
0000f0 56 80 a9 3d 94 87 4a 3e f9 34 d3 bd 95 83 e4 3d
       0.08276431 0.19778281 -0.10312838 0.1115791

decoder.decoder_fc2.weight f4 [128, 64]
000000 db 84 ce 3d 8c b7 aa bd 18 2f d2 bd 3e 11 12 3d
       0.10083934 -0.0833579 -0.10262889 0.035660975
000010 04 02 10 bd 6a 6c 9d 3d f0 88 82 bd b6 6a 97 bd
       -0.035158172 0.07686694 -0.06373775 -0.073934
000020 c8 58 f7 3c c8 ec 74 3d 14 b6 04 be e4 84 9f 3d
       0.030193701 0.059796125 -0.12960082 0.07789019
000030 dd 6a e8 bd 44 7e 22 3d 01 65 9d bd b0 4d b0 3d
       -0.113485076 0.039671198 -0.076852806 0.08608568
000040 a6 c8 a9 3d 16 13 8e 3d 20 e5 86 3d f0 64 c8 3d
       0.08290224 0.06937234 0.06586671 0.09784877
000050 ac 7a 34 bc 66 1a b4 3d 2e cf 77 3d ae d8 ff bd
       -0.011015575 0.087940976 0.060500316 -0.124925
000060 e0 82 ea bb 16 07 8d 3d 14 8c 2c 3d 90 c2 d5 3d
       -0.007156715 0.06886117 0.042125776 0.104375005
000070 e8 68 87 bc 24 96 38 bd a8 ca 0d 3d 06 b8 a6 3d
       -0.016529515 -0.04506506 0.034617096 0.081405684
000080 38 b6 17 3d 5a 0e f2 bd c0 55 4d bd 5c eb e1 bd
       0.03703901 -0.118191436 -0.050130606 -0.11031219
000090 44 e2 8d 3d 4e fd a3 bd 2e 79 b6 3d f5 bb 21 3d
       0.06927922 -0.080072984 0.08909832 0.03948589
0000a0 f4 ed 3e bd 2c 66 3d 3d 80 52 3e bd 80 ea ad bd
       -0.04661365 0.046240017 -0.046465397 -0.08491993
0000b0 b6 49 b1 bd 66 7f 05 be 4b cb 09 bd 09 58 8f 3d
       -0.08656637 -0.1303688 -0.03364114 0.06999213
0000c0 a0 3c 8f bd 18 ae d9 bd 58 12 e1 3c 34 30 70 bd
       -0.06993985 -0.10628909 0.027474567 -0.05863972
0000d0 38 90 3c 3d b0 06 54 3d 88 21 c8 3d 85 d6 3a bd
       0.046035975 0.05176419 0.097720206 -0.045614738
0000e0 45 0b 72 bb 08 9a 0b bd 7e 49 e8 bd 50 fd 95 3d
       -0.0036932987 -0.034082443 -0.113421425 0.07323706
0000f0 d6 6b f3 3d 93 64 4d bd c1 b9 0c be bc 69 93 bd
       0.118858024 -0.050144743 -0.13742734 -0.071979016
000100 6c 02 c7 bd 20 f5 9d 3b 58 09 d6 3c 8e 1c f1 3d
       -0.09717259 0.004820481 0.026127502 0.117730245
000110 b5 4a 9c 3e b2 24 b3 bd c0 88 aa bb b2 83 e9 bd
       0.30525747 -0.087472335 -0.00520429 -0.11402072
000120 f7 94 eb bd 58 01 9b 3d 88 68 b8 bd 56 74 8f bd
       -0.11503022 0.07568616 -0.09004313 -0.07004611
000130 64 56 1b 3e bb 61 9f bb e5 7b 85 bc db 77 fe bc
       0.15169674 -0.0048639453 -0.01629443 -0.03106301
000140 b3 d2 10 3e 9e 3c 13 3d 8c cc e4 3d 26 54 bd bd
       0.14142875 0.03594648 0.11171827 -0.09244566
000150 68 14 0b be 7f 71 c8 3c ec 91 fd 3d cc 04 95 be
       -0.13582003 0.024468182 0.12381348 -0.29105222
000160 f4 3d ea 3c 03 e9 4a bd 52 35 54 bc b7 69 92 be
       0.028593995 -0.049538624 -0.012952166 -0.2859628
000170 2c 42 b2 bb 2e 8b d1 3d e3 db a2 bc ce b6 bf bd
       -0.005440017 0.102316245 -0.01988024 -0.09361039
000180 30 00 79 bc 7c 2b f6 bd e6 3f a1 3d ad ef 49 3b
       -0.015197799 -0.12020013 0.07873516 0.0030813024
000190 ce 87 ca 3d 6e cd aa 3d eb 6d 42 3c 25 86 14 3e
       0.09889184 0.08339964 0.011867027 0.14504297
0001a0 bf 70 f9 3d 2d a2 ed bd 78 99 a1 bc e3 01 b8 3d
       0.12179708 -0.11603198 -0.0197265 0.08984735
0001b0 3c e1 b0 3d a7 c3 fb 3d 85 e5 19 bd f6 8b e4 3d
       0.0863671 0.12293177 -0.037572403 0.11159508
0001c0 4f 64 89 3d a0 c9 17 bc 40 ed 82 3d 3c d5 2b 3d
       0.067085855 -0.00926438 0.06392908 0.041951403
0001d0 2b 2c 8e bd ba 06 99 3d 76 cd f4 3d 92 22 5d bd
       -0.06942018 0.07471986 0.11953251 -0.053988047
0001e0 74 0e 32 3d de fb 96 ba 52 1d 75 3e 5a b7 82 bd
       0.043470815 -0.0011519154 0.23936966 -0.06382628
0001f0 36 1b a1 bd 79 03 31 3d 4c c4 7c bc 43 f1 d2 3d
       -0.07866518 0.043216202 -0.01542766 0.10299923
000200 3d 0a 0f 3e 24 bc e7 bd b6 fc e1 bd af af 87 bd
       0.1396875 -0.11315182 -0.11034529 -0.06625306
000210 97 41 a0 bc ce b8 8d bd a8 0b fd 3d 48 41 37 bd
       -0.019562526 -0.06920014 0.12355739 -0.04473999
000220 6b 0c ba 3c e8 db db 3d b8 80 d7 bd 2a 87 6f b9
       0.022711 0.10735303 -0.10522598 -0.00022843169
000230 d2 90 a4 3d d2 c9 a1 bd 5b 7d ac bd 63 fe c6 bd
       0.08035435 -0.07899822 -0.08422347 -0.09716489
000240 10 ba 0d 3e f8 f9 da bd bb c3 f3 bb 50 05 a4 bd
       0.13840508 -0.10692209 -0.0074391044 -0.08008826
000250 24 64 2f bd 09 25 9d 3d 86 24 1c 3e 2f f9 50 3e
       -0.04282011 0.076730795 0.15248308 0.20407556
000260 db 1e e7 3d f8 43 97 ba 12 4d 87 ba b6 99 21 3e
       0.11285182 -0.0011540642 -0.0010322651 0.15781292
000270 89 d8 1f ba 3a f1 df bb 52 3f 2f bd b5 04 5b 3a
       -0.0006097635 -0.0068341764 -0.042784996 0.00083548884
000280 18 f6 a6 bc 20 da b1 3c 51 57 02 3d 39 d4 e2 3d
       -0.020381019 0.021710455 0.031821553 0.110756345
000290 d4 67 c8 3d 68 5a 8c bc 96 7b a8 3d ed d5 b4 3c
       0.09785429 -0.017132953 0.08226697 0.022074664
0002a0 ea e9 aa 3c 1c ab ab bd c8 d0 c2 3d 44 61 5d bd
       0.020863492 -0.08382246 0.09512478 -0.054047838
0002b0 1f 3e ed 3d 58 ae 37 3b b2 ba d1 3d 56 49 35 bd
       0.11584114 0.00280275 0.102406874 -0.04425939
0002c0 8d 48 d4 3c 7b 21 37 3c ca e2 07 3d ea d0 ec 3d
       0.025913501 0.011177416 0.033175267 0.11563285
0002d0 c1 35 85 be 2c 89 d4 bd 90 07 c9 bc b5 b2 9d 3d
       -0.26017573 -0.10377726 -0.024539739 0.07700101
0002e0 1f 40 02 3e 07 8d d3 bd d3 80 77 3e 8e 8a 81 3d
       0.12719773 -0.10329633 0.24170236 0.06325255
0002f0 72 9f ca bd b7 1b bb 3d 7e 7d b8 3d c9 d5 f2 3d
       -0.09893693 0.091361456 0.09008311 0.118571825
000300 a0 ba 57 3c 00 e7 35 3b c0 1f d7 bc b8 9f e5 bc
       0.013167053 0.0027756095 -0.026260257 -0.028030261
000310 70 c3 e3 bd 00 98 ba ba c0 d2 39 bb 48 b5 ff 3d
       -0.11121261 -0.0014235973 -0.0028354377 0.124857485
000320 42 c6 99 3d 3a ce eb bd ee 45 e5 bd 90 65 3e bc
       0.07508518 -0.11513944 -0.11194979 -0.011620894
000330 ae 02 e4 3d 5a 98 d8 bd be 26 96 3d c0 81 78 bc
       0.111333236 -0.10575934 0.07331608 -0.015167654
000340 28 9c b5 bd 60 ca 78 bd 20 f1 dc bb f8 c6 05 bd
       -0.08867675 -0.060739875 -0.0067426115 -0.032660455
000350 70 9e ce bd 52 ca e7 bd 00 dd e9 3d b2 47 ab 3d
       -0.10088813 -0.113178864 0.114191055 0.08363284
000360 b4 3c 9e 3d 84 49 2d bd 34 e5 c2 bd 28 11 0d 3d
       0.07726422 -0.042306438 -0.09516373 0.03444019
000370 a4 c2 0b bd d6 e8 ee 3d e4 d5 b7 bd 82 13 88 3d
       -0.03412117 0.11665504 -0.08976343 0.06644346
000380 8e 6e 96 3d 10 45 b3 bd 56 80 d8 bd 3c 02 35 3d
       0.073453054 -0.08753407 -0.10571353 0.044191584
000390 8a b0 e9 bd 40 d7 7b 3d 66 3c e9 bd 90 b2 99 bd
       -0.11410625 0.061484575 -0.11388473 -0.07504761
0003a0 d4 2f be bd 44 06 e4 bd 62 b6 ba 3d 06 ce 8b 3d
       -0.09286466 -0.111340076 0.09116818 0.06826405
0003b0 88 e1 2b bd 42 50 d2 3d 00 7a 40 3b f8 3e 9b bd
       -0.04196313 0.10269214 0.0029369593 -0.0758037
0003c0 2e 60 92 3d 6a b1 d4 3d 68 56 ce bd 98 5a c1 bd
       0.07147251 0.103854015 -0.100750744 -0.094411075
0003d0 be 72 88 bd ee 84 bb 3d b8 f9 79 3d e2 43 bb bd
       -0.0666251 0.09156214 0.061029166 -0.09143807
0003e0 40 1c 86 3d 1c a8 ad 3d 0c 2e 8b 3d 74 fc 07 bd
       0.06548357 0.0847933 0.06795892 -0.033199742
0003f0 ca ec c4 bd 78 9a ce 3c c2 78 e4 3d 60 8f b1 bc
       -0.096154764 0.02522014 0.11155845 -0.021674812

decoder.decoder_fc2.bias f4 [128]
000000 73 3f d2 bd df cb 9a 3c e8 08 2b 3d 18 19 d1 bd
       -0.10266008 0.018896041 0.04175654 -0.102098644
000010 e4 6a 9c bd 59 1d b8 bc 04 ae 91 bd 61 78 18 be
       -0.07637575 -0.022474932 -0.07113269 -0.14889671
000020 c0 96 f5 bc 62 5e d7 bd dc e9 a8 3d d7 e4 6f 3d
       -0.02997911 -0.10516049 0.0824773 0.058567848
000030 27 de ee 3d 28 52 d7 bd a8 a4 85 bd 13 06 d5 bc
       0.11663466 -0.10513717 -0.06525546 -0.026003873
000040 34 7f 52 bd e8 bf 76 3d d2 17 b6 3d b3 0d 7f bc
       -0.05139084 0.06024161 0.08891262 -0.015567231
000050 cb de 13 be 48 2f bb bd 1d d9 de 3d 30 45 23 bb
       -0.14440458 -0.091398776 0.10881255 -0.0024913065
000060 0e f9 d8 bd f0 3b 93 3d ab 9c fb 3d 48 db 8a bc
       -0.105943784 0.071891665 0.122857414 -0.016950265
000070 94 ff 93 bb 37 39 74 3d e8 00 57 bd 7b 2b 8b 3c
       -0.0045165513 0.059624877 -0.0524911 0.016988507
000080 94 70 ef bc 08 fc 46 bd 21 ef 4b 3d cd be 89 bd
       -0.029228486 -0.0485802 0.049788598 -0.067258455
000090 ba 87 16 3d bf f7 f8 3c 9f 9d d6 bd b8 d9 46 bd
       0.036750533 0.030391572 -0.104792826 -0.048547477
0000a0 93 b8 3f bd fe ca 07 3e 60 6d 95 3d d0 aa 2d 3d
       -0.046806883 0.13261029 0.07296252 0.042399228
0000b0 e9 8f a4 3c 50 2d 2a bc eb 1c 04 bd e9 fb 97 bd
       0.020088153 -0.01038678 -0.03225414 -0.07421095
0000c0 d6 58 87 3d 5f 1e 14 bd f0 a5 eb 3d be 27 cd bd
       0.06608741 -0.036161777 0.115062594 -0.10017346
0000d0 1a d0 f4 bd e6 3a 0d 3e 17 e5 c4 3d 00 cb c6 3d
       -0.11953755 0.13791999 0.09614008 0.09706688
0000e0 2b 36 80 3c 75 e8 97 3d bc e4 89 bb 9b af 07 3d
       0.01565083 0.074173845 -0.0042081755 0.033126455
0000f0 09 f7 fb 3b 48 c6 63 bd 67 ed 35 3d 23 97 af 3d
       0.007689361 -0.055609018 0.044415858 0.08573749
000100 80 33 be 3b 90 c0 cf bd 8f 4c c5 3d 60 0d b5 bb
       0.005804479 -0.1014415 0.09633743 -0.005525276
000110 85 91 e9 3d b4 43 59 bc bc c1 84 bd 05 4b 5f 3d
       0.11404709 -0.013260771 -0.064822644 0.054514904
000120 da fd fd bd f0 e9 67 bd 83 d5 83 3d 09 f8 0b 3e
       -0.12401934 -0.056619585 0.064372085 0.13668837
000130 4f 12 91 bd 0f 44 0c be 83 5e 83 3d 9a e4 bb 3d
       -0.0708357 -0.13697837 0.06414511 0.09174462
000140 00 32 4e 3a dc 10 28 bd 7d 9e 00 be 4b c9 09 3d
       0.0007865727 -0.041031703 -0.12560458 0.033639234
000150 3e d6 b3 bc 05 0e 04 be 76 3b a5 3d 02 de d1 3c
       -0.021952745 -0.12895973 0.08067982 0.025618557
000160 24 70 f6 3d 36 8e 64 bd 73 49 55 bd 6b 73 b5 3d
       0.12033108 -0.055799685 -0.052072 0.08859905
000170 c4 de 5e bd 83 56 80 3c 71 a5 9b 3d c5 88 09 3e
       -0.054411665 0.015666252 0.07599915 0.1343108
000180 a8 d1 79 3d 8b ac d0 3d 4d e3 4b 3d a7 d7 d6 3d
       0.06099096 0.1018916 0.049777318 0.10490351
000190 ce 30 b2 bd c0 16 c6 bb 73 c2 18 3e bb 3c 19 3d
       -0.08700715 -0.0060451925 0.14917926 0.037411433
0001a0 83 4d 55 bc 29 ba 4c bd 1e d8 7a 3d b7 61 60 bd
       -0.0130189685 -0.049982224 0.06124126 -0.054780688
0001b0 6e ca 24 3d ac f7 f0 bd 86 48 9b bd 27 e3 31 bd
       0.040232114 -0.1176599 -0.07582192 -0.04342952
0001c0 32 f3 cb 3c 9d 43 bd 3d c2 7f f3 bd 37 9f a3 3d
       0.024896238 0.09241412 -0.11889602 0.07989352
0001d0 ea 1a 77 bd 70 d0 ef bd ce a7 b7 bd 85 4f be bd
       -0.0603284 -0.11709678 -0.08967553 -0.09292511
0001e0 07 1a aa 3d c8 fb 04 bd c7 15 e6 3d 9e bb fe 3d
       0.083057456 -0.03246668 0.112346224 0.12438129
0001f0 be 7c 7a 3d c8 d3 4b bd 65 02 9b 3d 4d cd 92 bd
       0.06115412 -0.049762517 0.07568816 -0.07168064
