clustering/clustering/encoder_weights/bridge1_carla/lidar_encoder_autoencoder_bridge1_carla.pth (torch, 95596 bytes, 14 tensors)

encoder.conv2d_1.weight f4 [16, 1, 1, 3]
0	0x3c71d39b	0.014759923
1	0xbe83b073	-0.25720558
2	0x3efb843b	0.4912432
3	0x3ed10d23	0.40830335
4	0xbefa0b03	-0.48836526
5	0xbd99c291	-0.07507814
6	0x3ea0f831	0.31439355
7	0x3ed00dc4	0.40635502
8	0xbf003197	-0.5007567
9	0x3e3837ae	0.1798999
10	0xbf1a04eb	-0.60163754
11	0x3d4fc662	0.050726302
12	0x3cf3ea95	0.029774943
13	0x3f0742e2	0.5283643
14	0xbe5cbab3	-0.21555595
15	0x3e6c0f2c	0.23052663
16	0xbdd70843	-0.10499623
17	0x3f020acb	0.5079772
18	0x3ec6163e	0.38688844
19	0xbde17ad9	-0.110097595
20	0x3ebab5d7	0.36466858
21	0xbe2c7e19	-0.16844977
22	0xbde549a4	-0.111956865
23	0xbe9301ca	-0.28712302
24	0x3dc9631b	0.09833356
25	0xbea6849a	-0.32523042
26	0x3e579f44	0.21056849
27	0xbd8aa983	-0.06770613
28	0x3ee8f2d2	0.45497757
29	0x3e36ff5d	0.17870851
30	0x3e6087aa	0.21926752
31	0xbeb8b724	-0.36077225
32	0x3e1d6ac0	0.15372753
33	0x3e5a384e	0.21310541
34	0xbe987c67	-0.2978241
35	0xbecfa9fb	-0.40559372
36	0xbf00f3b4	-0.5037186
37	0xbee9f48a	-0.4569438
38	0xbe0bbec9	-0.13646998
39	0xbeaabbca	-0.33346397
40	0x3e817ec9	0.25292042
41	0xbcaacb2b	-0.020848831
42	0x3ecae165	0.39625087
43	0x3f13b121	0.5769215
44	0x3dd212a7	0.10257464
45	0x3ebdf8bb	0.3710383
46	0x3f18de31	0.5971404
47	0x3d8187bd	0.06324718

encoder.conv2d_1.bias f4 [16]
0	0xbc1ba0fb	-0.00949883
1	0x3e39e400	0.18153381
2	0xbe321a76	-0.17392907
3	0x3ee24af3	0.44197807
4	0xbed41cd2	-0.41428238
5	0x3cdd2d94	0.026999272
6	0xbe1c3ef6	-0.15258393
7	0x3efd1d61	0.49436477
8	0xbef2fd1b	-0.4745873
9	0x3ed9c89a	0.4253586
10	0xbb55959a	-0.003259039
11	0xbe41c53b	-0.18922894
12	0x3cc9b299	0.024621295
13	0xbea913ec	-0.33023012
14	0xbeb0ff67	-0.34569857
15	0xbe2c1551	-0.16805007

encoder.conv2d_2.weight f4 [32, 16, 1, 3]
0	0xbda29e90	-0.079404
1	0xbdbe68ea	-0.092973545
2	0x3c980205	0.01855565
3	0xbdc338af	-0.09532296
4	0x3d942f9c	0.07235643
5	0xbe089d8e	-0.13341352
6	0x3c969dd5	0.018385807
7	0xbc80a0bd	-0.015701646
8	0xbe0dd20b	-0.13849656
9	0xbd8dba04	-0.06920245
10	0xbbbbb853	-0.0057287603
11	0x3de79298	0.113072574
12	0x3de33322	0.11093737
13	0xbd2764d5	-0.040867645
14	0xbdea3750	-0.11436331
15	0xbdf2f8d0	-0.118638635
16	0xbd94fcd3	-0.07274785
17	0x3c11d975	0.008901943
18	0x3d36836c	0.044558927
19	0x3dee8cd8	0.116479576
20	0xbd15c7ec	-0.036567613
21	0x3d5410b7	0.051773753
22	0x3c1eab7a	0.009684438
23	0x3c94c340	0.018159509
24	0xbe09811e	-0.1342816
25	0x3da1ae9a	0.07894631
26	0xbce5ee60	-0.028067768
27	0xbe09c927	-0.1345564
28	0xbd781516	-0.060566984
29	0xbc695415	-0.014241238
30	0x3de64315	0.11243264
31	0xbd49fc1f	-0.049312707
32	0x3dccecff	0.10006141
33	0x3de5424a	0.11194284
34	0xbdf8b2d9	-0.121434875
35	0x3dc789ee	0.09743105
36	0xbc7f7b9c	-0.015593436
37	0x3d955bb5	0.07292882
38	0x3d5c46b8	0.05377838
39	0xbc8ae831	-0.01695642
40	0xbdd4b133	-0.103853606
41	0x3e0fc9cc	0.14041823
42	0x3d25b806	0.0404587
43	0x3e121a3a	0.14267817
44	0x3d474395	0.048648436
45	0x3d235791	0.03987843
46	0xbdc028ab	-0.09382757
47	0x3d2072e6	0.039172076
48	0xbd56d063	-0.052444827
49	0x3e009692	0.12557438
50	0xbd2b243b	-0.0417826
51	0x3dc905c7	0.09815555
52	0xbd8fd397	-0.070227794
53	0xbdd5d235	-0.104404844
54	0x3c01ff52	0.007934408
55	0xbd9bc522	-0.076059595
56	0xbdc23d00	-0.09484291
57	0xbe0b1ee6	-0.13586006
58	0xbdd799e5	-0.105274
59	0x3d8df07d	0.06930635
60	0x3c1aae78	0.009441011
61	0x3db72eac	0.08944449
62	0xbdbd5556	-0.09244792
63	0x3e230c04	0.15922552
64	0x3b8a809a	0.0042267563
65	0x3e0cdd78	0.13756359
66	0x3d327736	0.04357072
67	0xbdde57da	-0.108566
68	0xbc948723	-0.018130844
69	0x3dcbd3c5	0.09952501
70	0x3ec6d0df	0.3883123
71	0xbe7c0608	-0.24611676
72	0xbc84fe74	-0.016234614
73	0x3b8effe7	0.004364002
74	0xbd485819	-0.04891214
75	0x3dfe8df7	0.124294214
76	0xbbf407af	-0.007447205
77	0x3e176d21	0.14787723
78	0x3e374c9d	0.1790032
79	0xbe5bc986	-0.21463594
80	0x3da279d6	0.079333946
81	0x3cb284e2	0.02179188
82	0xbb28fe4c	-0.0025786338
83	0x3c1cdb12	0.009573715
84	0xbdb1b170	-0.08676422
85	0x3dcfef91	0.101531155
86	0x3d17d019	0.03706369
87	0xbda0da09	-0.07854087
88	0xbe134f99	-0.14385833
89	0xbd12c88e	-0.035835795
90	0xbdb35e73	-0.08758249
91	0x3e16da74	0.14731771
92	0xbb80e16e	-0.0039331233
93	0xbd46cb3f	-0.048533674
94	0x3d95b83e	0.07310532
95	0xbc75343e	-0.014966069
96	0x3c85cb23	0.016332215
97	0x3e806b41	0.25081828
98	0x3e7dcad8	0.2478441
99	0x3e288daa	0.1646029
100	0x3d8b4af7	0.06801408
101	0x3e1ddd61	0.1541648
102	0xbe9aa4f5	-0.30203977
103	0x3cb063e5	0.021532008
104	0x3e667477	0.22505365
105	0x3e96d7ae	0.29461426
106	0x3e942b1d	0.28939143
107	0x3e239668	0.15975344
108	0xbe15e0d4	-0.14636546
109	0x3e2168e7	0.15762673
110	0xbd656661	-0.05600584
111	0xbd2bdfef	-0.041961607
112	0x3e1c2fef	0.1525266
113	0xbc5b88fb	-0.013399358
114	0xbdf06fbb	-0.11740061
115	0xbcfe6b27	-0.031056954
116	0x3d9eba6e	0.077504024
117	0x3ef0555b	0.4694012
118	0x3e26c701	0.16286851
119	0xbe4cd124	-0.20001656
120	0x3df15645	0.11784033
121	0xbbf62d89	-0.0075127524
122	0x3dc36f0b	0.09542664
123	0xbded4f37	-0.11587375
124	0x3e3acbaa	0.18241754
125	0x3df4f744	0.11961225
126	0x3e24020b	0.16016404
127	0x3e81c098	0.2534225
128	0x3e8308e3	0.25592718
129	0xbd45a724	-0.0482551
130	0x3e0302db	0.12794058
131	0x3ba2b10a	0.0049649524
132	0xbdc0eed1	-0.094205506
133	0xbd9b5fba	-0.07586618
134	0xbd6c57f6	-0.057701074
135	0x3d716716	0.0589362
136	0xbd52fe54	-0.051512077
137	0x3d7b0610	0.06128508
138	0xbe24d02e	-0.16095039
139	0xbe65042a	-0.2236487
140	0x3dd90d82	0.105982795
141	0xbd370b58	-0.044688553
142	0xbd577690	-0.052603304
143	0xbd224e6d	-0.039625574
144	0x3d2ac12c	0.04168813
145	0x3e17a000	0.14807129
146	0xbdbf49de	-0.09340261
147	0x3e3c3f89	0.18383612
148	0x3c172138	0.009224229
149	0x3e163fc4	0.14672762
150	0x3e345b57	0.17612968
151	0x3dfe0295	0.12402836
152	0x3cf9e215	0.030503312
153	0x3da2e1f6	0.07953255
154	0xbdd547a2	-0.104140535
155	0x3dd47726	0.10374288
156	0xbd8f5e0b	-0.07000359
157	0xbb09ed6f	-0.0021046062
158	0xbe26b012	-0.16278103
159	0xbd048324	-0.032351628
160	0xbdf19b7f	-0.11797237
161	0xbc74b19e	-0.014934925
162	0xbd01db29	-0.031703148
163	0x3e2875a5	0.16451128
164	0x3d97933b	0.07401129
165	0xbe8f9eb1	-0.2805076
166	0xbe293926	-0.16525707
167	0x3e055458	0.13020456
168	0xbe0e91cd	-0.13922806
169	0xbcc8d9fc	-0.024518006
170	0x3cc1d455	0.023660818
171	0x3dbe99f0	0.09306705
172	0x38e30fbf	0.000108271364
173	0x3d96b93a	0.07359548
174	0x3e8ad9b4	0.2711922
175	0x3e47fbe5	0.19529684
176	0x3e368049	0.17822374
177	0xbdd84f68	-0.105620205
178	0x3e10b956	0.141332
179	0x3d962ca7	0.073327355
180	0x3e0c3f8d	0.13696118
181	0xbcfc83da	-0.03082459
182	0xbdd6a511	-0.10480703
183	0x3d34c313	0.04413135
184	0x3e0a671c	0.13515896
185	0x3d09e63a	0.033666827
186	0x3e1bc796	0.15212855
187	0x3dd6a2e2	0.10480286
188	0xbdadf995	-0.084948696
189	0x391322ec	0.00014032022
190	0x3e418f91	0.18902422
191	0xbd3f692d	-0.046731163
192	0xbdbcb9e3	-0.092151426
193	0xbc12371f	-0.008924275
194	0xbd8788b5	-0.06617872
195	0xbe073a64	-0.13205868
196	0x3d0ac382	0.033877857
197	0xbc96f9e5	-0.018429706
198	0xbcf57bd7	-0.029966278
199	0x3deedb17	0.11662882
200	0x3d325a4a	0.043543138
201	0xbe13b828	-0.14425719
202	0xbe1506be	-0.14553353
203	0xbe20d9c6	-0.15708074
204	0xbdff7706	-0.12473874
205	0xbd771340	-0.060321093
206	0x3d8e6bb8	0.069541395
207	0xbe05565a	-0.13021222
208	0xbe09d877	-0.13461481
209	0xbdc113a1	-0.09427572
210	0x3d7dcbda	0.061961986
211	0xbd0502f1	-0.03247351
212	0xbdaf2513	-0.08551993
213	0xbdec37ca	-0.115340784
214	0xbda1e152	-0.079043046
215	0xbd69d6b6	-0.05708953
216	0x3dfbcb41	0.12294627
217	0xbd8d22c0	-0.06891394
218	0xbb387297	-0.0028144473
219	0x3da3c9b0	0.07997453
220	0x3db15ab0	0.086598754
221	0xbd8fbcc9	-0.0701843
222	0xbdb0289f	-0.08601498
223	0xbca3bf5f	-0.019988714
224	0xbdf77df1	-0.12084568
225	0x3db00c34	0.085960776
226	0xbd18b6ee	-0.03728383
227	0x3d4f52cd	0.050616074
228	0xbd84744e	-0.06467496
229	0x3d725023	0.059158456
230	0x3dff2439	0.12458081
231	0x3dc44fa7	0.09585505
232	0xbe0236d7	-0.12716232
233	0x3d34e994	0.04416807
234	0xbd9624b6	-0.07331221
235	0x3d35815a	0.044312812
236	0xbd9ec2ad	-0.07751975
237	0x3b80deb9	0.0039328006
238	0xbdfa1a08	-0.12211996
239	0xbd66b399	-0.05632362
240	0xbd0d4bff	-0.034496304
241	0xbdc6b2f9	-0.09702105
242	0x3e2812ae	0.16413376
243	0xbe51cfd1	-0.20489432
244	0xbe8c4e2f	-0.274034
245	0xbe09c123	-0.13452582
246	0x3dc1be02	0.09460069
247	0xbe358f88	-0.17730534
248	0xbe161c77	-0.14659296
249	0xbeb76ed7	-0.35826752
250	0xbe59320f	-0.21210502
251	0x3d8dcf7e	0.069243416
252	0xbdcbacbf	-0.09945058
253	0xbe0a844e	-0.13527033
254	0xbe614903	-0.22000508
255	0xbdab840a	-0.08374794

encoder.conv2d_2.bias f4 [32]
0	0xbd0061f4	-0.031343415
1	0x3c2f3e04	0.010695938
2	0x3c44a364	0.012001846
3	0x3badb1a5	0.005300718
4	0x3de20126	0.11035375
5	0xbd711f30	-0.058867633
6	0x3cdd0d2e	0.026983824
7	0xbd564f63	-0.052321803
8	0xbd97a7b1	-0.074050315
9	0x3d70d671	0.058798257
10	0xbc537d5f	-0.012908309
11	0xbb138f2a	-0.0022515752
12	0xbd6edf27	-0.058318283
13	0xbde1ceff	-0.110258095
14	0x3e0c8744	0.13723475
15	0x3a172bab	0.00057667
16	0x3ddef777	0.10887044
17	0x3c559f80	0.013038516
18	0xbd7863c8	-0.060642034
19	0x3da4bcb5	0.080438055
20	0x3e206a33	0.15665512
21	0x3dbf6a0c	0.09346399
22	0x3e27b277	0.16376673
23	0x3e58ec22	0.21183828
24	0x3c8363a2	0.01603872
25	0x3d9f699f	0.077838175
26	0x3dda4125	0.106569566
27	0x3d7afbef	0.06127542
28	0xbe12f966	-0.1435295
29	0xbe088f58	-0.13335931
30	0xbd9bf1ab	-0.07614454
31	0x3e12e885	0.14346512

encoder.conv2d_3.weight f4 [64, 32, 1, 3]
0	0x3dae56a6	0.08512621
1	0xbc02e751	-0.00798972
2	0xbdb60f3e	-0.08889626
3	0x3c0bfe46	0.00854451
4	0x3d2df052	0.042465515
5	0x3cacf5d4	0.021113314
6	0xbdb6530d	-0.089025594
7	0x3d090064	0.03344764
8	0x3d6a0a5c	0.057138786
9	0x3b0c2a73	0.0021387606
10	0xbd9770e8	-0.07394582
11	0x3b7215b6	0.003693921
12	0xbc0f9a5a	-0.008764828
13	0x3bb43e83	0.005500616
14	0x3d3fe171	0.046845857
15	0xbc263b53	-0.01014598
16	0xbd3b679b	-0.045753103
17	0x3dc9b165	0.098482884
18	0x3d9cbc19	0.07653064
19	0x3d11a813	0.03556068
20	0x3c2d759b	0.010587121
21	0x3bf861f8	0.007580038
22	0xbdb942c3	-0.09045937
23	0x3d8f6c43	0.07003071
24	0x3d8d511a	0.069002345
25	0xbd15baa0	-0.036554933
26	0xbbab3bb2	-0.005225622
27	0xbd1eeb88	-0.03879884
28	0xbd2dc7a6	-0.042426728
29	0x3d40dde5	0.047086615
30	0x3d90b5a8	0.07065898
31	0xbdc3b645	-0.095562495
32	0x3d2ce6a0	0.04221213
33	0x3c37cbe7	0.011218048
34	0xbd3a7d05	-0.045529384
35	0xbcaef6ef	-0.021357981
36	0x3d2aa1ef	0.04165834
37	0x3bf0bbd7	0.007346611
38	0xbda2cc95	-0.07949177
39	0xbd87cc92	-0.066308156
40	0xbcd8455e	-0.026400264
41	0xbca627c6	-0.020282637
42	0x3d452b8f	0.048137244
43	0xbc980ae8	-0.018559888
44	0xbd31b6f7	-0.04338738
45	0x3b6387c5	0.0034718376
46	0xbd8ddd2a	-0.06926949
47	0xbccc21ac	-0.0249184
48	0x3d8fdd59	0.070246406
49	0x3d5c70b8	0.053818434
50	0x3d9a2b0a	0.0752774
51	0xbdd02ebd	-0.101651646
52	0xbdc06ce1	-0.09395767
53	0x3c678ce3	0.014132711
54	0x3c9fc755	0.019504229
55	0x3d27a45c	0.04092823
56	0x3adacc67	0.0016692997
57	0xbd407b2f	-0.046992477
58	0x3ce8f066	0.028434943
59	0xbd258eb0	-0.04041928
60	0xbddb45b4	-0.10706654
61	0x3cccfc84	0.025022753
62	0x3b5650f6	0.0032702065
63	0xbdde7d52	-0.10863747
64	0x3cc32b99	0.0238245
65	0xbd7808ad	-0.06055515
66	0x3da70926	0.08156042
67	0x3d9d99b5	0.07695333
68	0x3cabd6f7	0.020976527
69	0xbda79fa4	-0.08184746
70	0x3cc409ae	0.023930397
71	0xbb2b2b37	-0.0026118287
72	0xbc893989	-0.016751068
73	0x3d60dcd5	0.0548981
74	0xbdabbae0	-0.08385253
75	0xbc8442cc	-0.016145132
76	0xbde302f3	-0.11084547
77	0xbd093830	-0.03350085
78	0x3a9c1c3e	0.0011910272
79	0x3cb09c1d	0.021558816
80	0xbc711f78	-0.014716975
81	0xbc459a7c	-0.012060758
82	0xbd175a67	-0.03695145
83	0xbd0e5216	-0.034746252
84	0xbce1a52c	-0.02754458
85	0x3ccc2099	0.024917888
86	0x3cc3129e	0.023812588
87	0xbd9366a3	-0.07197311
88	0x3cb6c145	0.022308955
89	0xbd4bb0e8	-0.049729258
90	0xbdd7742d	-0.10520206
91	0xbd63df63	-0.05563296
92	0xbd455fa0	-0.0481869
93	0x3ccba44b	0.024858614
94	0xbcdbc1e2	-0.026825849
95	0x3cafb791	0.021449836
96	0x3d5a116e	0.05323928
97	0xbdc9de11	-0.09856809
98	0x3c2be27b	0.010491009
99	0x3d44a7fe	0.048011772
100	0xbdaf1cf6	-0.08550446
101	0xbd937575	-0.072001375
102	0xbbd3decd	-0.006465769
103	0x3d16dfbb	0.03683446
104	0xbdcc2d20	-0.099695444
105	0xbd305107	-0.043046024
106	0xbd5885c0	-0.05286193
107	0xbdf33bf0	-0.118766665
108	0x3da0de86	0.07854943
109	0x3d132181	0.035920624
110	0xbde21e78	-0.11040968
111	0x3c1bfa4f	0.009520127
112	0xbd29118d	-0.041276503
113	0xbd0ec5f3	-0.034856748
114	0xbd378d53	-0.04481251
115	0x3d5864cc	0.052830502
116	0xbd255367	-0.04036274
117	0xbdbcda72	-0.09221353
118	0xbd93df41	-0.07220317
119	0xbdc1368b	-0.09434231
120	0xbd78eb87	-0.06077149
121	0xbdb4126b	-0.087925754
122	0xbd0fc38a	-0.03509859
123	0x3d55a120	0.052155614
124	0xbdec75ca	-0.11545904
125	0x3d9c8562	0.07642628
126	0xbdd97a23	-0.10618999
127	0x3c9ec45d	0.019380743
128	0xbce0166e	-0.027354445
129	0xbcdc5c44	-0.026899464
130	0xbb0399a5	-0.0020080593
131	0xbc9d48e3	-0.019199794
132	0x3c5c35e3	0.013440582
133	0x3d068626	0.032842778
134	0xbd47e725	-0.04880442
135	0xbd882aeb	-0.06648811
136	0xbd84118d	-0.0644866
137	0x3d5e61ae	0.054292373
138	0xbdee99cd	-0.11650429
139	0x3d81f499	0.063454814
140	0xbdc6aa10	-0.097004056
141	0xbd7c0bdd	-0.06153475
142	0x3d0212a0	0.031756043
143	0xbdbacf26	-0.09121542
144	0x3d83e1d9	0.064395614
145	0xbd021711	-0.03176028
146	0xbdbe7f9d	-0.09301684
147	0xbdbe6acb	-0.09297713
148	0xbd49ee7f	-0.049299713
149	0x3cfbc9e4	0.030735917
150	0xbdcf1e22	-0.10113169
151	0xb9839a8f	-0.00025101422
152	0xbc2ee869	-0.010675528
153	0x3d99c660	0.0750854
154	0x3d3dce6a	0.04633943
155	0x3d575612	0.052572317
156	0xbdbceb43	-0.0922456
157	0xbdc61b1a	-0.09673138
158	0xbb9ff9e6	-0.004882085
159	0x3da3aff8	0.07992548
160	0xbdc979c0	-0.09837675
161	0xbde13e6c	-0.10998234
162	0x3da0f5ac	0.07859358
163	0xbdbe2117	-0.09283655
164	0xbdaa7c5e	-0.083245024
165	0xbd89d42c	-0.06729922
166	0xbd687110	-0.05674845
167	0xbdafc987	-0.0858336
168	0x3d8343f0	0.064094424
169	0xbdc5e4ce	-0.09662782
170	0x3d920a93	0.07130923
171	0xbcd12227	-0.02552898
172	0xbde43639	-0.11143155
173	0x3d2e7c5c	0.042599067
174	0xbd95fd65	-0.07323722
175	0x3d1ffafd	0.03905772
176	0x3d871e12	0.06597532
177	0xbc83a195	-0.01606826
178	0x3d32c7a9	0.043647442
179	0xbd5db62e	-0.05412882
180	0x3dadcdb2	0.08486499
181	0xbdcc05a3	-0.099620126
182	0x3da0c299	0.078496166
183	0x3ce79bdf	0.028272567
184	0x3c9a9475	0.018869618
185	0xbcd2b24f	-0.02571979
186	0xbc1bd014	-0.009510059
187	0x3d07b3c4	0.033130422
188	0x3d7daa60	0.06193006
189	0xbd4a3e63	-0.049375903
190	0xbd7d4cc7	-0.0618408
191	0xbd9243e0	-0.071418524
192	0x3d98f7b5	0.07469121
193	0xbac684ca	-0.0015145775
194	0xbd89e3a5	-0.06732873
195	0xbd9318a8	-0.07182437
196	0x3d2701e8	0.040773302
197	0xbd1c1251	-0.038103405
198	0x3d5bdb0a	0.05367569
199	0xbdcd8b45	-0.10036329
200	0x3d9ca0ad	0.07647834
201	0x3cf19a96	0.029492658
202	0xbd203818	-0.039115995
203	0xbdbc1bc0	-0.091849804
204	0xbd97de94	-0.074155
205	0xbc874456	-0.016512077
206	0xbdadfc33	-0.08495369
207	0xbd04b216	-0.0323964
208	0x3cb0cc45	0.021581778
209	0x3d985b02	0.07439233
210	0xbd994af0	-0.07484996
211	0xbc6b20b8	-0.0143510625
212	0x3d7cf8ad	0.061760593
213	0xbd31c789	-0.043403182
214	0xbd59cf5f	-0.05317628
215	0xbd632c92	-0.055462427
216	0x3ac53dc9	0.0015048321
217	0xb92fd63d	-0.0001676911
218	0x3b137c4c	0.0022504507
219	0xbdc73e50	-0.09728682
220	0xbc870e66	-0.016486358
221	0xbd12462d	-0.035711456
222	0xbd6f4151	-0.0584119
223	0xbdb09f41	-0.08624125
224	0xbcf97cb1	-0.030454965
225	0xbca9eadb	-0.02074187
226	0x3ccc90d7	0.024971409
227	0xbda19e02	-0.07891466
228	0xbdac0764	-0.08399847
229	0xbd043153	-0.0322736
230	0xbce3df14	-0.027816333
231	0xbdc284d5	-0.09497992
232	0xbdc11d29	-0.0942939
233	0x3d4278c4	0.047478452
234	0xbc5385da	-0.012910331
235	0xbc7126bb	-0.014718707
236	0x3db46e33	0.08810081
237	0xbbba4b43	-0.0056852414
238	0x3b9cb643	0.0047824695
239	0xbd2a9509	-0.041646037
240	0xbbf0219f	-0.0073282267
241	0x3bb9abde	0.00566624
242	0xbd4845ec	-0.048894808
243	0x3dc1d53e	0.09464501
244	0xbc44a8a3	-0.012003097
245	0x3dceff69	0.10107309
246	0x3d45babf	0.048273798
247	0x3d56136a	0.05226461
248	0xbc91cd98	-0.01779823
249	0xbd4fbf49	-0.050719533
250	0xbcdba3a6	-0.026811432
251	0x3c4553b9	0.012043887
252	0xbda0f8f9	-0.07859988
253	0xbd4caa4e	-0.049967103
254	0xbdb494cb	-0.088174425
255	0xbc86c1d3	-0.016449844

encoder.conv2d_3.bias f4 [64]
0	0xbde9ff84	-0.11425689
1	0x3c5427be	0.012948928
2	0x3c82ba88	0.015958086
3	0xbdb47553	-0.0881144
4	0x3d920bff	0.07131194
5	0x3d7e2432	0.062046237
6	0x3d2a9cee	0.041653566
7	0xbda7e672	-0.08198251
8	0xbcb73351	-0.022363337
9	0xbdc4d5f1	-0.096111186
10	0x3d65c8e7	0.0560998
11	0xbd96a39e	-0.07355426
12	0x3d92fc09	0.07176978
13	0xbdbb1e4b	-0.09136637
14	0xbde39ea0	-0.1111424
15	0xbdb6cbba	-0.089255765
16	0x3da8a1ba	0.08233972
17	0xbdc78a2a	-0.097431496
18	0x3cf42f63	0.029807752
19	0xbd1314c8	-0.03590849
20	0xbdbfc6d0	-0.09364092
21	0x3c24e414	0.010064144
22	0x3c9fd0bb	0.01950871
23	0xbbe8521a	-0.0070898654
24	0xbd8c9cd3	-0.06865849
25	0xbd434c4f	-0.047680195
26	0x3d61bc11	0.055110995
27	0x3d50939c	0.05092202
28	0xbddded53	-0.108362816
29	0x3e24475c	0.16042846
30	0x3c82174e	0.015880253
31	0xbc81f72d	-0.015864933
32	0xbdced1ae	-0.10098587
33	0xbdd0daef	-0.10198008
34	0x3c1f3ec3	0.009719553
35	0x3d886252	0.06659378
36	0xbb314aeb	-0.0027052711
37	0x3da77937	0.08177417
38	0x3df3bd7b	0.11901375
39	0x3d2c7f49	0.042113576
40	0x3d819172	0.063265696
41	0xbda5f591	-0.08103479
42	0xbd9126d8	-0.07087487
43	0xbd141f04	-0.03616239
44	0xbd83774a	-0.06419237
45	0x3df08910	0.117448926
46	0xbc1042eb	-0.008805017
47	0xbd604936	-0.05475732
48	0x3ca3e775	0.020007828
49	0xbd3ce9d0	-0.04612142
50	0xbbeac506	-0.0071646003
51	0x3d3024e4	0.04300393
52	0xbc93a6cb	-0.018023869
53	0x3ccc8724	0.024966784
54	0x3dcc7763	0.09983709
55	0xbd36db96	-0.044643007
56	0x3dbd9ae8	0.09258062
57	0x3b64838f	0.0034868454
58	0x3bb8bb04	0.0056375284
59	0xba5eb5e2	-0.00084957306
60	0xbda42c2d	-0.08016238
61	0x3dcfe7de	0.10151647
62	0xbcf95fd9	-0.030441212
63	0x3c6a4189	0.014297851

encoder.fc.weight f4 [16, 64]
0	0xbd6d9b0f	-0.058009204
1	0x3e02bb20	0.12766695
2	0x3dcdabb3	0.10042515
3	0xbd8a9469	-0.06766588
4	0x3da985c4	0.08277467
5	0x3d719d11	0.05898768
6	0xbd3bbbb9	-0.045833323
7	0x3d4f6c0b	0.050640147
8	0xbdb5030b	-0.08838471
9	0x3db44b9d	0.088034846
10	0xbd78e3ee	-0.060764246
11	0x3c4c80dd	0.012481895
12	0xbc3e02a6	-0.011597311
13	0x3c1160e0	0.008873194
14	0x3d96f88a	0.07371624
15	0xbc707bfc	-0.014677998
16	0x3d9da16a	0.07696803
17	0xbdba4508	-0.09095198
18	0xbe7b29f4	-0.24527723
19	0xbbe22477	-0.0069013196
20	0x3c8c0632	0.017092798
21	0xbd1a2b63	-0.037639033
22	0x3e2ccc7e	0.16874883
23	0x3e35efef	0.17767309
24	0xbe08a032	-0.1334236
25	0x3d96a7e2	0.0735624
26	0x3db45399	0.088050075
27	0x3d1a7f6d	0.03771918
28	0x3ca4a700	0.020099163
29	0x3d993d7d	0.07482431
30	0xbdeb1850	-0.114792466
31	0x3c02ff76	0.007995477
32	0x3d8006f2	0.06251325
33	0xbcf40530	-0.02978763
34	0xbd1db22d	-0.0385
35	0xbe2e5bf9	-0.17027272
36	0xbd9979cd	-0.07493935
37	0xbddf9253	-0.10916581
38	0xbe2982d5	-0.16553815
39	0xbbadf659	-0.005308908
40	0x3e24196e	0.16025326
41	0xbcef123a	-0.029183496
42	0xbba47cc0	-0.005019754
43	0xbd1510fb	-0.036393147
44	0xbd83d85a	-0.0643775
45	0xbd809553	-0.06278481
46	0xbc9bf293	-0.019036567
47	0x3dc61d45	0.096735515
48	0xbdad2ae3	-0.084554456
49	0xbd59abf3	-0.0531425
50	0xbd2e6feb	-0.042587202
51	0xbd2f1e71	-0.04275364
52	0x3cd049d4	0.025425829
53	0xbe0b3874	-0.13595754
54	0x3d6e2210	0.058137953
55	0x3c85a00c	0.016311668
56	0x3de2fe6f	0.110836856
57	0xbecca409	-0.399689
58	0xbe0e53f8	-0.13899219
59	0x3e025194	0.12726432
60	0xbdd9fd10	-0.10643971
61	0x3e2c3a34	0.16819078
62	0xbd3244b7	-0.043522563
63	0x3d3c3199	0.045945738
64	0x3c87938a	0.016549844
65	0xbd167a23	-0.036737572
66	0xbd46ba1c	-0.04851733
67	0x3cc8e867	0.02452488
68	0xbe24ad81	-0.16081811
69	0xbdba026f	-0.090824954
70	0xbd0d3406	-0.03447344
71	0xbd559cd1	-0.052151505
72	0xbd9ebfb2	-0.07751407
73	0x3bbec257	0.005821507
74	0xbe5c8e17	-0.21538578
75	0xbde20023	-0.11035182
76	0xbd43cd9f	-0.047803517
77	0x3da9df08	0.08294493
78	0xbccc376e	-0.024928775
79	0x3c824a09	0.015904443
80	0x3dc9ef7b	0.098601304
81	0x3de6d9ba	0.11271997
82	0x3db23cab	0.08702978
83	0xbc05d986	-0.008169537
84	0xbe188115	-0.14892991
85	0xbddb6f16	-0.10714547
86	0x3e079960	0.13242102
87	0x3c16df04	0.0092084445
88	0x3cdc6979	0.026905762
89	0x3d8aa2c2	0.06769325
90	0xbd91878f	-0.07105934
91	0xbd1362dc	-0.03598295
92	0x3d34ca5d	0.0441383
93	0x3e2d40a0	0.16919184
94	0xbdecf679	-0.115704484
95	0xbbe28523	-0.006912844
96	0xbd7ec0f8	-0.062195748
97	0x3dae617a	0.08514686
98	0xbe013af7	-0.1262015
99	0xbe0d70ec	-0.13812608
100	0x3e02abc9	0.12760843
101	0xbced47f7	-0.02896498
102	0xbec1fde1	-0.37889007
103	0x3b13ceeb	0.0022553753
104	0x3e3c75be	0.1840429
105	0x3d9decfc	0.07711217
106	0xbd1eaee0	-0.038740993
107	0xbc92c278	-0.017914996
108	0x3b42014e	0.0029602828
109	0xbe2755ec	-0.1634137
110	0x3e1abd5c	0.15111297
111	0x3cddffeb	0.02709957
112	0xbe165b86	-0.14683351
113	0xbcc2aee6	-0.023765039
114	0xbe2a7993	-0.1664794
115	0xbd87231b	-0.06598493
116	0x3dcaa9df	0.098956816
117	0x3d05afe4	0.032638445
118	0xbd9c5778	-0.07633871
119	0xbdd60112	-0.10449423
120	0x3d80b2b9	0.06284089
121	0xbd7581d6	-0.059938274
122	0xbe358c26	-0.17729244
123	0x3d04db4c	0.0324357
124	0xbcb95080	-0.022621393
125	0x3b9aa71e	0.004719629
126	0x3def40a5	0.11682252
127	0x3dc73c06	0.097282454
128	0xbcdfbb66	-0.027311038
129	0x3da8a91e	0.082353815
130	0xbde6caee	-0.112691745
131	0xbe248d22	-0.16069463
132	0xbdad6f06	-0.08468442
133	0xbdd3fb6a	-0.10350688
134	0xbe8aec36	-0.2713334
135	0xbe0c38fa	-0.1369361
136	0x3e07c569	0.132589
137	0x3db914ba	0.090371564
138	0xbe4798a9	-0.19491829
139	0x3d8a1911	0.06743062
140	0x3da022c7	0.07819133
141	0xbbb72b40	-0.0055898726
142	0x3de9ffed	0.11425767
143	0xbe998058	-0.2998073
144	0xbdc03068	-0.09384233
145	0x3d1f25a1	0.038854245
146	0x3e5cc073	0.21557789
147	0x3d320cb0	0.04346913
148	0xbc2e7d45	-0.010649984
149	0x3bba229d	0.0056803958
150	0x3e28de51	0.16491057
151	0x3d99a75f	0.07502627
152	0xbd89e6f2	-0.067335024
153	0xb8c80800	-9.538233e-05
154	0xbd650937	-0.05591699
155	0xbd52cbbe	-0.051463835
156	0x3d8f6c1c	0.07003042
157	0xbd7248f7	-0.059151616
158	0xbd8977cb	-0.06712302
159	0xbde91c9f	-0.11382412
160	0x3c511cd0	0.012763217
161	0xbd788634	-0.06067486
162	0xbec4b30f	-0.3841786
163	0xbb71f236	-0.003691805
164	0xbe20688e	-0.15664884
165	0xbe26aa3e	-0.1627588
166	0xbe9afd63	-0.30271444
167	0x3e828117	0.25489113
168	0xbd80d8bb	-0.06291338
169	0xbd748a2e	-0.05970209
170	0x3d9db526	0.07700567
171	0x3d41a845	0.047279615
172	0x3d84dd7f	0.064875595
173	0xbec0dc5b	-0.37668118
174	0xbeac8e12	-0.3370214
175	0x3db0295d	0.086016394
176	0xbd6715c7	-0.056417253
177	0xbcff2d0e	-0.031149413
178	0xbe2f4507	-0.17116176
179	0x3d924b6d	0.071432926
180	0xbd27cf85	-0.04096939
181	0xbe0866af	-0.1332042
182	0xbda86d48	-0.08223969
183	0xbcb01344	-0.021493562
184	0x3de45d68	0.11150628
185	0xbdacb4fb	-0.08432957
186	0xbc4fe814	-0.012689609
187	0xbc7ffb28	-0.015623845
188	0x3dda0102	0.106447235
189	0x3e9e5a03	0.30928048
190	0x3dc071af	0.093966834
191	0x3db3fe08	0.08788687
192	0x3dde3ca6	0.108514115
193	0xbda51763	-0.08061101
194	0xbe12ec5c	-0.14347976
195	0x3c3fcdeb	0.0117068095
196	0xbdc518eb	-0.09623893
197	0xbde310a8	-0.11087161
198	0x3db6c50c	0.089243025
199	0x3d8e85e2	0.0695913
200	0xbdb39180	-0.08767986
201	0x3d25c5fa	0.04047201
202	0x3df5744d	0.11985073
203	0xbdddd377	-0.10831349
204	0xbdd201c3	-0.10254242
205	0x3df4b2e2	0.11948182
206	0xbe270eba	-0.16314211
207	0xbe63b6f2	-0.22237757
208	0x3e7cb53b	0.24678509
209	0x3e0641c9	0.13111033
210	0xbe0e4e45	-0.13897045
211	0x3de3de0a	0.11126335
212	0x3d2181bd	0.03943037
213	0x3cf66c12	0.030080829
214	0x3d75bc9e	0.059994332
215	0x3d5d6062	0.054046996
216	0x3e25923a	0.16169062
217	0x3dc74106	0.09729199
218	0x3cc600e3	0.024170345
219	0x3d69ed50	0.057111084
220	0xbd45dc74	-0.048305944
221	0x3db2f2f3	0.08737745
222	0x3d9fe501	0.07807351
223	0x3d4bbfc5	0.049743433
224	0x3d764294	0.060122088
225	0xbdeb3616	-0.114849254
226	0xbdb1e4a0	-0.08686185
227	0xbdd7fd64	-0.10546377
228	0x3df42cdb	0.11922618
229	0x3e2a353f	0.16621874
230	0xbe25011c	-0.16113704
231	0xbe2adb73	-0.16685276
232	0xbe28b794	-0.1647628
233	0x3d24d110	0.04023844
234	0x3cf22050	0.029556423
235	0x3e121e51	0.14269377
236	0x3d10b3c7	0.0353277
237	0xbe2971f4	-0.16547376
238	0xbe313997	-0.17307125
239	0x3ca496d0	0.020091444
240	0xbd739d3b	-0.05947612
241	0xbdaa8605	-0.083263434
242	0xbc1214f9	-0.008916133
243	0x3d35637d	0.044284333
244	0x3da4ffd5	0.080566086
245	0x3d4ed788	0.050498515
246	0x3e14b5db	0.14522497
247	0xbe1df8e5	-0.15426977
248	0xbc2badeb	-0.010478477
249	0xbe9977aa	-0.2997411
250	0x3dcf3f7c	0.101195306
251	0xbc886198	-0.016648099
252	0x3c75e8d0	0.01500912
253	0xbe4a30f3	-0.19745235
254	0x3cc48b84	0.023992307
255	0xbdb78a84	-0.08961967

encoder.fc.bias f4 [16]
0	0xbc95c998	-0.018284604
1	0xbd8d7bf9	-0.069084115
2	0x3e0231bf	0.12714289
3	0x3d96211b	0.07330533
4	0xbd8ea63a	-0.06965299
5	0x3d3b0203	0.045656215
6	0xbc268377	-0.01016318
7	0x3d74b025	0.059738297
8	0xbdcdd663	-0.10050657
9	0xbd578892	-0.052620478
10	0xbe06805c	-0.13134903
11	0xbde21390	-0.110388875
12	0xbdf63939	-0.12022633
13	0xbad026c7	-0.0015880697
14	0x3ddb202e	0.10699497
15	0x3be7e147	0.0070764157

decoder.decoder_fc1.weight f4 [64, 16]
0	0x3e58cd9e	0.21172187
1	0x3d9b5f22	0.075865045
2	0x3c0d6fb9	0.008632594
3	0x3e6e61a2	0.23279431
4	0xbdc69df4	-0.09698096
5	0xbdec3c22	-0.11534907
6	0xbd0edfcf	-0.03488141
7	0x3e42d7ca	0.1902763
8	0x3e3b12bc	0.18268865
9	0xbb567a8a	-0.0032726848
10	0xbe83ac4a	-0.25717384
11	0xbe18acba	-0.1490964
12	0xbdae834b	-0.08521136
13	0xbbf4b1ad	-0.0074674697
14	0x3da2a23c	0.079411
15	0xbc913abd	-0.017728204
16	0xbd4ca39f	-0.04996073
17	0xbccbc92d	-0.024876202
18	0xbea7cf14	-0.32775176
19	0xbe33e8fc	-0.17569345
20	0xbe8f9ecd	-0.28050843
21	0xbe2bc286	-0.16773424
22	0xbe4fc49f	-0.20289849
23	0xbf1030ab	-0.5632426
24	0xbe656883	-0.2240315
25	0xbe659c5e	-0.2242293
26	0xbe19d14c	-0.15021247
27	0xbde09191	-0.109652646
28	0x3e948b06	0.29012316
29	0x3e8fa899	0.28058317
30	0xbd7329f3	-0.059366178
31	0x3d1a8311	0.03772265
32	0x3e6a66af	0.22890733
33	0x3e30ac8e	0.17253324
34	0x3e50f0a7	0.20404302
35	0x3d9631e8	0.073337376
36	0x3d4c4e8b	0.049879592
37	0x3e472da8	0.1945101
38	0xbe158475	-0.1460131
39	0x3dfc5cb7	0.123223715
40	0xbdcbbdd7	-0.099483185
41	0x3b1bbe00	0.0023764372
42	0xbd73e175	-0.059541184
43	0xbe11b1f0	-0.14228034
44	0x3e714a63	0.23563533
45	0xbe3bbf54	-0.18334705
46	0x3e98f749	0.29876164
47	0xbdeb8ff3	-0.115020655
48	0xbe67e2cb	-0.22645108
49	0xbcf64450	-0.03006187
50	0xbe59e4fd	-0.21278758
51	0xbdd8cd3f	-0.105860226
52	0xbe9257c2	-0.2858258
53	0x3de78af1	0.11305798
54	0xbdd1ccff	-0.10244178
55	0xbe818ec1	-0.25304225
56	0xbe9623cc	-0.29324186
57	0xbceb953b	-0.028757682
58	0xbe196346	-0.14979276
59	0x3e7acfa6	0.24493274
60	0xbe3e3eac	-0.18578595
61	0x3e2a98d2	0.16659859
62	0x3e0a386d	0.13498087
63	0xbc75bba9	-0.014998355
64	0xbe15c245	-0.14624889
65	0xbdfbb3f6	-0.12290184
66	0x3dd11215	0.10208527
67	0xbdb6a5a1	-0.0891831
68	0x3db02bcb	0.08602103
69	0x3d5f6d42	0.054547556
70	0x3dc7f65a	0.09763785
71	0xbdec9db0	-0.11553514
72	0xbd8607dc	-0.06544468
73	0xbe4e02fa	-0.20118323
74	0x3e0a6853	0.13516359
75	0xbea00ac9	-0.31258228
76	0x3e539f3c	0.20666212
77	0xbe96cd39	-0.29453447
78	0xbd7d1852	-0.06179077
79	0xbe8415c5	-0.2579786
80	0x3e1730d3	0.14764719
81	0xbe63895b	-0.22220366
82	0x3e0aff6c	0.13573998
83	0xbd0945e1	-0.033513907
84	0xbde75290	-0.112950444
85	0xbe4e74df	-0.2016177
86	0xbe216736	-0.15762028
87	0xbe828e6a	-0.25499278
88	0xbe6f590d	-0.23373814
89	0x3c8d98de	0.017284807
90	0xbe0d15a6	-0.1377779
91	0xbe533433	-0.20625381
92	0xbe1c3f52	-0.1525853
93	0xbbcd8493	-0.0062719076
94	0xbd93819d	-0.07202456
95	0xbe7c838d	-0.24659558
96	0xbe42648c	-0.18983668
97	0x3cb71fb4	0.022353984
98	0xbe9f437f	-0.31106183
99	0xbe942e30	-0.28941488
100	0x3dc459ca	0.095874384
101	0xbe3b3e8b	-0.18285577
102	0x3cfac897	0.030613227
103	0xbda43dd9	-0.08019609
104	0xbd0ab127	-0.033860352
105	0xbd637381	-0.055530075
106	0xbe8fc27b	-0.28078064
107	0x3e8058ec	0.25067842
108	0x3e9a724f	0.30165336
109	0x3db974f8	0.09055513
110	0x3dedeb9a	0.11617203
111	0x3e589f43	0.21154504
112	0x3d79749c	0.060902223
113	0x3e83b265	0.25722042
114	0xbe74c621	-0.23903705
115	0xbe5a5f37	-0.21325384
116	0xbd4079ce	-0.046991162
117	0x3d79ed03	0.061017048
118	0xbe069492	-0.13142613
119	0x3cb3aab8	0.021931991
120	0x3d313431	0.043262664
121	0x3e10a7ae	0.14126465
122	0xbeadcca2	-0.33945185
123	0x3e17803c	0.14795011
124	0x3ab2b008	0.0013632784
125	0x3d82d938	0.063890874
126	0xbdf90901	-0.121599205
127	0x3e769fc2	0.2408438
128	0x3e799556	0.24373373
129	0x3e81a6e2	0.25322634
130	0xbd93fd5c	-0.07226059
131	0xbdb479b2	-0.08812274
132	0x3d482a7b	0.048868638
133	0xbe3936fe	-0.18087384
134	0x3e74fccc	0.2392456
135	0x3e6612d0	0.22468114
136	0x3d4b2e84	0.049604908
137	0xbe01f886	-0.1269246
138	0xbb50c6f9	-0.0031856878
139	0xbe80b88d	-0.251408
140	0xbcc8510e	-0.024452712
141	0xbce712bf	-0.028207181
142	0x3d278462	0.040897734
143	0xbe4c3f21	-0.19945957
144	0xbdd32b58	-0.103110015
145	0x3e3ed533	0.18636017
146	0x3ce85916	0.028362792
147	0x3e2a7387	0.16645633
148	0xbd8e2496	-0.06940572
149	0x3e518315	0.2046016
150	0x3de5c9a0	0.112200975
151	0x3a95afe7	0.0011420221
152	0xbe84914e	-0.2589211
153	0x3d194782	0.03742171
154	0x3c9c89c5	0.019108662
155	0x3e443ae0	0.19163084
156	0xbe507c75	-0.20359977
157	0xbe12d2d2	-0.14338234
158	0xbc77ddd8	-0.015128575
159	0xbdc170e9	-0.09445364
160	0x3d8d6deb	0.06905731
161	0x3e0ba0e8	0.136356
162	0xbd59c8a8	-0.053169876
163	0xbe3ec856	-0.1863111
164	0x3deda11c	0.11602995
165	0x3d1f768c	0.038931414
166	0x3db6efe6	0.08932476
167	0x3e6b6373	0.22987156
168	0x3e833525	0.25626484
169	0x3e4b3145	0.19843014
170	0x3e39ccd0	0.18144536
171	0xbca151a5	-0.019692251
172	0x3e0bd053	0.13653688
173	0xbe2611e8	-0.16217768
174	0xbd84d9eb	-0.06486877
175	0x3d80e6ff	0.06294059
176	0x3e19b4cd	0.15010376
177	0xbdf2a06a	-0.11847003
178	0x3d0b0897	0.03394374
179	0xbc1028b3	-0.008798766
180	0x3e9414ab	0.28922018
181	0x3e7886dd	0.24270196
182	0xbdd6be68	-0.10485536
183	0x3c9a0c33	0.018804645
184	0x3e1c1826	0.15243587
185	0xbe7e7d3d	-0.24852462
186	0x3d55dbbf	0.05221152
187	0xbe1c69d2	-0.15274742
188	0x3da909f3	0.08253851
189	0xbe4ed84f	-0.20199703
190	0x3e1e1231	0.15436627
191	0x3d869809	0.06571967
192	0x3edca8ae	0.43097442
193	0x3e5dc548	0.21657288
194	0xbe8ee667	-0.27910158
195	0xbe41a419	-0.18910255
196	0xbee463b1	-0.44607309
197	0xbe6d14f3	-0.23152523
198	0xbe1dba6e	-0.15403149
199	0xbdf6d4af	-0.12052285
200	0xbd37a578	-0.044835538
201	0xbdd05cba	-0.10173936
202	0xbf087b26	-0.5331291
203	0xbe2211ef	-0.15827154
204	0xbdabd78d	-0.083907224
205	0x3e665ed9	0.22497119
206	0xbbcc818d	-0.0062410296
207	0x3df8bd90	0.12145531
208	0x3cb3814d	0.021912241
209	0xbe3533b5	-0.17695506
210	0xbe811475	-0.2521092
211	0x3d493702	0.049124725
212	0xbe4c020f	-0.1992266
213	0xbea43145	-0.3206884
214	0x3e5146ce	0.20437166
215	0xbe3a215b	-0.18176787
216	0x3d8ed7aa	0.069747284
217	0x3e32d5bf	0.1746435
218	0x3ea97567	0.33097383
219	0x3ea4cf5b	0.3218945
220	0x3e271375	0.16316016
221	0xbe80e07f	-0.25171277
222	0x3e3bce36	0.18340382
223	0x3e27487d	0.16336246
224	0xbd744a0b	-0.059640925
225	0xbe1ceaae	-0.15323898
226	0x3d86ec45	0.065880336
227	0x3dbad522	0.09122683
228	0x3e256c8f	0.16154693
229	0xbd354eaf	-0.04426449
230	0xbe46f47b	-0.194292
231	0xbe088f25	-0.13335855
232	0x3cff9854	0.031200565
233	0x3d021e6f	0.031767305
234	0x3de05f14	0.10955635
235	0x3e5ebb45	0.21751125
236	0x3dd6dd47	0.10491424
237	0xbcdb7e2d	-0.026793564
238	0x3e51dca0	0.20494318
239	0x3c7d1ce8	0.015448786
240	0x3daf7517	0.08567255
241	0xbe269823	-0.16268973
242	0x3e40cc60	0.18827963
243	0x3e3bc7ff	0.18338011
244	0xbd6a5448	-0.057209283
245	0x3d844e9e	0.064603075
246	0x3e18f51d	0.14937253
247	0x3d56817a	0.052369572
248	0x3e7ce7d2	0.24697807
249	0x3dbb4af5	0.09145156
250	0xbea1a212	-0.31568962
251	0xbe9580ef	-0.2919993
252	0x3e5200e3	0.20508151
253	0x3d9033d5	0.07041136
254	0x3e03d5db	0.12874548
255	0x3e260e19	0.16216315

decoder.decoder_fc1.bias f4 [64]
0	0x3e2ab144	0.16669184
1	0x3ceadbb9	0.028669225
2	0x3e8d07e7	0.27545092
3	0xbe42f861	-0.19040062
4	0xbdb101a4	-0.08642891
5	0x3c539b8a	0.012915501
6	0xbd7badf9	-0.06144521
7	0x3e853923	0.26020154
8	0x3e6d7ea8	0.23192847
9	0xbe50ca16	-0.2038959
10	0xbe3944cb	-0.18092649
11	0x3cbf505c	0.023353748
12	0xbe1a60f9	-0.15076055
13	0xbe651192	-0.22369984
14	0x3e764425	0.24049433
15	0x3e81bb84	0.25338376
16	0x3e31a10a	0.17346588
17	0x3e78fb50	0.24314618
18	0xbe1c5074	-0.15265065
19	0xbdb5aa79	-0.08870406
20	0xbe742dd4	-0.23845607
21	0x3d253a8f	0.04033905
22	0x3e246c8f	0.16057037
23	0x3e2c70ee	0.16839954
24	0xbb48d7d1	-0.0030646215
25	0x3e7a8a50	0.24466825
26	0x3e6c3d7f	0.23070334
27	0x3e11740d	0.14204426
28	0x3e1e342b	0.15449588
29	0x3e4bb4e7	0.19893228
30	0xbda7ffc0	-0.08203077
31	0xbe1253ca	-0.14289775
32	0x3e2ab76f	0.16671537
33	0xbd4995c4	-0.049215093
34	0x3dd7cc72	0.10537042
35	0xbe661376	-0.22468361
36	0x3e2ae8b5	0.16690333
37	0xbd66c2d6	-0.056338154
38	0xbd881a6d	-0.06645665
39	0x3e87b1cb	0.26502833
40	0x3e3b535e	0.18293521
41	0xbe2381e6	-0.15967521
42	0xbe3da1e2	-0.18518785
43	0x3e054dfe	0.13018033
44	0x3da377ce	0.07981835
45	0xbe74b090	-0.23895478
46	0x3c8c0204	0.017090805
47	0xbb9c5bca	-0.0047716843
48	0xbdc98e5e	-0.098416075
49	0x3de5ef3f	0.11227273
50	0x3d1fe36c	0.039035246
51	0x3de5080f	0.11183178
52	0xbe4ab883	-0.19796948
53	0xbdf63643	-0.12022068
54	0xbdac0f2f	-0.084013335
55	0x3e0e4d4e	0.13896677
56	0x3dae1713	0.08500495
57	0x3de2dbf0	0.11077106
58	0xbdf12f68	-0.1177662
59	0xbde32c29	-0.11092407
60	0x3e1b53bb	0.1516866
61	0xbe5b1f00	-0.21398544
62	0xbe213111	-0.15741374
63	0xbe1f1799	-0.15536346

decoder.decoder_fc2.weight f4 [128, 64]
0	0xbe06da02	-0.13169101
1	0x3e7cb7cb	0.24679486
2	0x3e1f9ec1	0.15587904
3	0xbdbf140d	-0.09329996
4	0xbd740a15	-0.059579927
5	0x3dc806de	0.09766935
6	0xbe0315e3	-0.12801318
7	0x3d3d14b5	0.046162326
8	0x3d2d4f20	0.042311788
9	0x3da71afc	0.08159444
10	0x3c620ec7	0.0137974685
11	0xbab4fcbc	-0.0013808231
12	0xbd5d750e	-0.05406671
13	0xbe6456c5	-0.22298725
14	0xbd5acc0c	-0.05341725
15	0x3d160429	0.03662506
16	0xbd93af50	-0.072111726
17	0xbd872d8a	-0.06600483
18	0xbb9dad05	-0.0048118853
19	0x3d3d1d50	0.046170533
20	0x3e2f12a9	0.17096962
21	0x3eda2960	0.42609692
22	0xbd7dd7ef	-0.06197351
23	0x3b843929	0.0040351343
24	0xbd67da94	-0.056604937
25	0x3d99dd53	0.07512917
26	0x3d49243f	0.049106833
27	0xbcf27bbf	-0.029600022
28	0x3d2464c9	0.04013518
29	0x3d3be470	0.04587215
30	0xbc979334	-0.01850281
31	0x3d5d23e0	0.05398929
32	0xbaca9025	-0.0015454335
33	0x3e489f5c	0.19592041
34	0xbbb27ec8	-0.0054472424
35	0xbe57e269	-0.21082462
36	0xbdb1e545	-0.08686308
37	0xbe9eec36	-0.3103959
38	0xbd8def02	-0.06930353
39	0x3d0029d0	0.031289876
40	0x3d29722b	0.041368645
41	0xbd9ae1ce	-0.075626
42	0xbc416751	-0.011804418
43	0x3d9dd170	0.07705963
44	0xbe043039	-0.1290902
45	0x3dbd7d88	0.09252459
46	0xbdfc5066	-0.12320022
47	0xbe921fc3	-0.28539857
48	0x3e26e9c8	0.16300118
49	0x3d235d7f	0.039884087
50	0x3c3a0a64	0.011355016
51	0x3dda40f7	0.10656922
52	0xbd45ebf8	-0.04832074
53	0xbe4d525a	-0.20050946
54	0xbe0a5eee	-0.13512775
55	0xbdeb55b8	-0.11490959
56	0x3d6193c8	0.055072576
57	0xbe4519e2	-0.19248155
58	0x3e39c045	0.18139751
59	0xbba9cfc3	-0.005182238
60	0xbdd30231	-0.10303152
61	0x3cad7ba8	0.021177128
62	0xbd96827e	-0.07349108
63	0xbecfddd6	-0.40598935
64	0x3e7cf481	0.24702646
65	0xbdefb90e	-0.11705218
66	0x3d16cdb1	0.036817256
67	0xbea4ac33	-0.32162628
68	0xbd5be5df	-0.05368602
69	0x3d9063cc	0.07050285
70	0x3da5bde7	0.080928616
71	0x3c0762fd	0.008263347
72	0x3e786a1c	0.24259228
73	0x3db37d84	0.087641746
74	0x3df15507	0.11783796
75	0xbdae0685	-0.08497337
76	0x3e040bfd	0.12895198
77	0x3bbbbc9d	0.0057292716
78	0xbe41de12	-0.1893237
79	0x3d118f8e	0.035537295
80	0x3d7e5a76	0.06209799
81	0x3d876f89	0.066130705
82	0x3d40b010	0.047042906
83	0x3da75876	0.081711695
84	0xbe29d7e9	-0.1658627
85	0xbd85f536	-0.06540911
86	0xbe52b7a4	-0.20577866
87	0x3de60f16	0.11233346
88	0xbf07c9dd	-0.53042394
89	0xbe1062c5	-0.14100178
90	0x3e2caaaf	0.16861986
91	0x3b1aca40	0.0023619086
92	0x3d3300fb	0.043702107
93	0xbda4e2c5	-0.08051065
94	0x3d24ada8	0.040204674
95	0x3dc6ae98	0.0970127
96	0xbd04fc6e	-0.0324673
97	0xbe7ecc07	-0.24882518
98	0xbe88bf4a	-0.26708442
99	0x3e7bc2bb	0.24586003
100	0xbedee387	-0.43532965
101	0x3d938f26	0.07205038
102	0xbceb2499	-0.028703975
103	0x3d0f5e72	0.03500218
104	0x3d53c29f	0.051699277
105	0xbdc90ed6	-0.09817283
106	0x3dd57ea0	0.104245424
107	0x3d3caa65	0.04606094
108	0x3d9496d3	0.0725533
109	0xbd5e8949	-0.054330144
110	0x3da8ebdc	0.082481116
111	0xbe209f11	-0.15685679
112	0x3d20195b	0.03908668
113	0xbc5e85c9	-0.013581702
114	0x3dba09b3	0.09083881
115	0xbe59e49c	-0.21278614
116	0x3c6303b0	0.01385586
117	0xbd3c011b	-0.04589949
118	0x3e0e9de1	0.13927414
119	0x3dda1580	0.10648632
120	0x3e1fdc72	0.15611437
121	0x3e400a0d	0.18753834
122	0x3d05ff50	0.032714188
123	0xbe16b930	-0.14719081
124	0xbe1a968a	-0.15096489
125	0xbdc13c7a	-0.09435363
126	0xbe3808b3	-0.17972068
127	0x3da991d3	0.08279767
128	0x3d1d41cb	0.038392823
129	0x3d89d29c	0.06729624
130	0x3dcf38b4	0.10118237
131	0x3b8ca160	0.0042916983
132	0x3c6665d0	0.01406236
133	0x3ce82740	0.028339028
134	0x3dc5e795	0.096633114
135	0xbdb59426	-0.08866148
136	0xbdea2207	-0.114322715
137	0xbdd7e5c8	-0.10541874
138	0x3d4b28e2	0.049599536
139	0xbd043e42	-0.032285936
140	0xbcea9a88	-0.02863814
141	0x3da8cbfd	0.08242033
142	0xbd9a33a2	-0.075293794
143	0xbe01213d	-0.12610336
144	0xbe07e7fd	-0.1327209
145	0xbc4f8a06	-0.012667185
146	0x3dd8bfe2	0.10583474
147	0x3dddb05a	0.10824652
148	0x3c912950	0.017719895
149	0x3cc30130	0.023804277
150	0xbddc6cf8	-0.10762972
151	0xbd9bd03c	-0.07608077
152	0xbc4ed4b0	-0.012623951
153	0xbc668215	-0.0140691
154	0x3cb31be9	0.021863895
155	0xbd244520	-0.040104985
156	0xbda4be17	-0.08044069
157	0xbde408dc	-0.11134502
158	0xbe0a0b4d	-0.13480873
159	0x3d11d8d0	0.03560716
160	0x3dd07050	0.10177672
161	0x3d464644	0.048406854
162	0x3d4e077a	0.0503001
163	0xbd178a38	-0.03699705
164	0x3d94f22c	0.07272753
165	0xbe0d0844	-0.13772684
166	0xbdc0819c	-0.09399721
167	0x3b6e2138	0.0036335718
168	0x3d944843	0.07240345
169	0x3db85f5a	0.09002562
170	0xbdf300ff	-0.11865424
171	0xbd203b66	-0.039119147
172	0xbd432985	-0.047647018
173	0x3da37f84	0.07983306
174	0xbe0c22fd	-0.13685222
175	0x3dd15d90	0.10222924
176	0xbdcee24e	-0.10101758
177	0xbdab2296	-0.08356206
178	0x3db5f5f2	0.08884801
179	0xbdbda6c5	-0.092603244
180	0x3cf081e8	0.02935882
181	0xbcbd7f45	-0.023131976
182	0xbc72aa90	-0.014811173
183	0xbd393d2c	-0.045224354
184	0x3cda97d7	0.026683731
185	0xbdcf6ee3	-0.10128572
186	0xbd2ee120	-0.042695165
187	0x3b3ddd01	0.002897084
188	0xbd62813d	-0.055299032
189	0xbccfbe20	-0.025359213
190	0xbc824636	-0.01590262
191	0xbd88db9e	-0.06682514
192	0xb801b050	-3.09202e-05
193	0xbd062038	-0.03274557
194	0xbe17240c	-0.14759845
195	0x3ce7b838	0.028286085
196	0x3dd1965c	0.10233757
197	0x3d4e79bc	0.050409064
198	0xbdaa4efd	-0.08315847
199	0xbe0a99f4	-0.13535291
200	0x3d8bf88e	0.068345174
201	0xbc0bbca0	-0.008528858
202	0x3bfb9e63	0.0076787933
203	0xbd56becd	-0.052428056
204	0xbdadaaec	-0.084798664
205	0xbdb28283	-0.087162994
206	0xbda9d07e	-0.0829172
207	0x3dbfe404	0.093696624
208	0xbc34dcd2	-0.011038976
209	0x3b41333d	0.0029480003
210	0xbd223fe3	-0.03961171
211	0xbd8f882a	-0.07008393
212	0xbd3227fe	-0.04349517
213	0xbcba710a	-0.02275898
214	0xbdb35c7e	-0.08757876
215	0x3d9ccd92	0.07656397
216	0xbdb67a06	-0.08909993
217	0xbd4e0f04	-0.05030729
218	0x3c21d98c	0.009878527
219	0xbc4295c0	-0.0118765235
220	0xbbe1ca12	-0.0068905437
221	0xbd471f8d	-0.048614074
222	0x3dac8f6c	0.08425793
223	0x3dbdd94a	0.0926996
224	0xbbaaad07	-0.0052086147
225	0xbd372393	-0.04471166
226	0xbd9df1ba	-0.07712121
227	0xbda54bca	-0.08071096
228	0x3cd27ed8	0.02569525
229	0x3d0a6ee1	0.03379715
230	0x3d6e5b74	0.058192685
231	0xbc35b0f0	-0.0110895485
232	0xbd905da9	-0.07049114
233	0x3c090fa0	0.008365542
234	0xbd9e5103	-0.077302955
235	0x3d12e424	0.035862103
236	0xbda3e63b	-0.08002897
237	0x3d0ab628	0.033865124
238	0xbde14b95	-0.11000744
239	0x3df9be60	0.12194514
240	0x3c885b3e	0.01664507
241	0x3d9d0a08	0.07667929
242	0xbc21046b	-0.0098277135
243	0x3d17e578	0.037084073
244	0xbdf9c3fe	-0.12195586
245	0xbdf89d4e	-0.121393785
246	0xbd736700	-0.0594244
247	0x3d8828d4	0.06648412
248	0x3db09703	0.08622553
249	0xbd8a2c93	-0.06746783
250	0x3ac12bae	0.0014737749
251	0xbd644d64	-0.055737868
252	0x3d69423b	0.056947928
253	0x3de027c2	0.10945083
254	0xbdff465a	-0.1246459
255	0xbddc3bbc	-0.10753581

decoder.decoder_fc2.bias f4 [128]
0	0xbd29b9cc	-0.041436955
1	0xbc00acce	-0.0078537
2	0x3c510633	0.012757826
3	0xbe16c360	-0.14722967
4	0xbcc42430	-0.023943037
5	0xbc02d1ad	-0.007984561
6	0xbd4a6d88	-0.049420863
7	0x3dd0305d	0.101654746
8	0x3e017dc2	0.12645629
9	0xbd459995	-0.04824217
10	0x3d451bb0	0.048122108
11	0xbcbdad06	-0.023153793
12	0x3daa2923	0.083086275
13	0x3da83a9a	0.08214302
14	0x3c3d7acf	0.011564924
15	0x3e33e481	0.17567636
16	0xbdfec7ac	-0.12440428
17	0xbd0e73a8	-0.034778267
18	0xbd96101b	-0.073272906
19	0x3dd7d3c6	0.105384395
20	0x3d1bd913	0.038048815
21	0x3db93f6c	0.090453
22	0xbde18862	-0.11012341
23	0x3d312677	0.043249574
24	0x3bafeb4a	0.005368625
25	0xbc53a89c	-0.012918618
26	0xbb8a1e14	-0.0042150114
27	0x3d9b8551	0.075937875
28	0xbdef857e	-0.116953835
29	0xbda4c47d	-0.0804529
30	0xbd065004	-0.032791153
31	0x3dc56353	0.09638085
32	0x3da7eac0	0.08199072
33	0x3d8236dc	0.0635812
34	0xbdd147b2	-0.10218753
35	0x3cec2052	0.028824005
36	0x3e09c5ff	0.13454436
37	0x3d9ad1f4	0.07559577
38	0xbbbbca72	-0.0057309205
39	0x3d988891	0.07447923
40	0xbdfc058f	-0.12305748
41	0x3b7c3e00	0.0038489103
42	0xbc788fea	-0.015171031
43	0xbdd9d4dc	-0.10636303
44	0xbdd24d3f	-0.1026864
45	0xbde8477b	-0.11341759
46	0xbc122046	-0.008918827
47	0x3e1002df	0.14063595
48	0x3bef8caf	0.007310472
49	0x3e1a8d41	0.15092947
50	0x3e1be2bd	0.15223213
51	0x3dcd1707	0.10014158
52	0x3df1c7f9	0.1180572
53	0x3d0671aa	0.032823242
54	0x3dc6343e	0.09677933
55	0x3d335054	0.04377778
56	0xbcb3f653	-0.021968042
57	0xbdda2792	-0.10652079
58	0x3dae5b86	0.085135505
59	0x3de0cdc4	0.10976747
60	0xbdb28b91	-0.087180264
61	0x3e14b674	0.14522725
62	0xbdc589be	-0.09645413
63	0x3d807d68	0.06273919
64	0xbdd31bfc	-0.10308072
65	0x3e1bfefd	0.15233989
66	0xbd76d075	-0.060257394
67	0xbdbfac3a	-0.093590215
68	0xbcd1ea97	-0.025624556
69	0xbd454433	-0.048160743
70	0x3d6f387e	0.058403485
71	0x3da583d4	0.08081785
72	0xbe043f7d	-0.12914844
73	0x3dab5e57	0.08367603
74	0x3d94f783	0.072737716
75	0xbc1155aa	-0.008870522
76	0x3c5f16b2	0.013616251
77	0xbd85337b	-0.0650396
78	0x3d3289e4	0.043588534
79	0x3dbb744b	0.091530405
80	0x3e0d4449	0.1379558
81	0xbcb9a02f	-0.02265939
82	0x3dc8b2c1	0.097997196
83	0x3e0a9af1	0.13535668
84	0x3dd5e41c	0.10443899
85	0xbde41556	-0.11136882
86	0x3ca1eac8	0.019765273
87	0xbc9037e6	-0.01760478
88	0x3dfb5381	0.122717865
89	0x3d8dec56	0.06929843
90	0x3ca9b3bd	0.020715589
91	0x3d9a1e81	0.075253494
92	0x3d706ae2	0.05869568
93	0xbda4cba7	-0.08046656
94	0x3dc62479	0.09674925
95	0x3d8a459a	0.06751557
96	0x3d8fc066	0.07019119
97	0x3dff0764	0.124525815
98	0xbdc1249d	-0.094308116
99	0xbe018f1e	-0.12652251
100	0x3dfca9c9	0.123370714
101	0xbd9cd49f	-0.07657742
102	0xbd8b5923	-0.06804111
103	0x3e347aca	0.17624965
104	0x3e0f8f7d	0.1401958
105	0x3db33899	0.087510295
106	0x3dc798ed	0.09745965
107	0x3e0fdf15	0.14049943
108	0x3d4c84ae	0.04993122
109	0x3d9da20a	0.07696922
110	0xbc097bc1	-0.008391322
111	0x3caef7c8	0.021358386
112	0xbdaa3398	-0.08310622
113	0xbdfbfd0f	-0.123041265
114	0xbdacad49	-0.08431489
115	0xbda57b2c	-0.08080134
116	0x3dd1bbb2	0.10240878
117	0xbb93d26a	-0.0045111673
118	0x3e083385	0.13300903
119	0xbcdf02b3	-0.027222967
120	0xbd9ecbe4	-0.07753733
121	0x3ddde6d7	0.10835045
122	0x3d73068c	0.059332415
123	0x3d0d3404	0.034473434
124	0xbc6387cf	-0.01388736
125	0xbd7e1c60	-0.06203878
126	0xbca00ae6	-0.019536447
127	0xbd845c92	-0.06462969
