clustering/clustering/encoder_weights/bridge1_carla/lidar_encoder_autoencoder_bridge1_carla_25.pth (torch, 95596 bytes, 14 tensors)

encoder.conv2d_1.weight f4 [16, 1, 1, 3]
00000000: 2db2 0bbf 1b18 e4be b731 8a3c 90f1 60be
00000010: 3f87 cdbe 0f8e 02bf 0cbe c9be 1f50 87be
00000020: 7904 193d bcd8 143f 6468 963e 3a15 bd3e
00000030: f920 0cbe 262c 793e 5522 08bf 2b37 95be
00000040: 3e93 0b3e 0d80 7c3e 77cf 75bd 533a ccbc
00000050: 5ad6 0a3f 2b0a 163f f007 943e e99f 20be
00000060: d193 ccbd c290 663e c4f5 9f3e f6aa 3fbe
00000070: 07ed babe a018 13be c16d 5b3d 3d19 2a3c
00000080: baba c1be 8b1a ddbe 0462 42be 81d3 f93e
00000090: 0652 df3e 56bf a43e 6e73 0abf 8db8 603e
000000a0: 28f8 363e a4c5 b9bc 8ff8 4a3e 41e5 013f
000000b0: 45fd 0abf 94e9 d3be 2ce1 093f a10f 99be
-0.5456875 -0.4454964 0.016869409 -0.21967149 -0.40142247 -0.50998014 -0.39402807 -0.26428315
0.03735778 0.5814321 0.2937652 0.36930257 -0.13684453 0.24333248 -0.53177387 -0.29143652
0.13630387 0.24658222 -0.060012307 -0.024930155 0.54233325 0.58609265 0.28912306 -0.15686001
-0.09989131 0.22516158 0.31242192 -0.1871756 -0.36508963 -0.14364862 0.053571466 0.010381994
-0.37837774 -0.43184313 -0.18982702 0.48794177 0.43617266 0.32177228 -0.5408238 0.219454
0.17868102 -0.02267725 0.1982138 0.5074044 -0.5429271 -0.41389143 0.5385921 -0.29894736

encoder.conv2d_1.bias f4 [16]
00000000: ffb9 a4be 9fdb 8f3d 2866 1e3f 731b 7dbd
00000010: 1c72 463e d729 ab3d 80f0 78be c3f5 d3bd
00000020: 6569 82be 7d74 893d bd35 063f 8c0c 08bf
00000030: 5361 113f 32d9 e9be d601 983e 45ac fb3e
-0.32173154 0.07024311 0.6187463 -0.061793756 0.19379467 0.0835759 -0.24310493 -0.1034961
-0.25471035 0.067116715 0.5242575 -0.53144145 0.5678913 -0.4567352 0.296889 0.4915487

encoder.conv2d_2.weight f4 [32, 16, 1, 3]
00000000: b20e bdba aef3 003e 05db 6dbd 4836 f33d
00000010: 89e9 443c 26ca 9d3d dfc3 dd3c cf13 33bd
00000020: b344 4abe a5f8 4f3d 70c0 ebbc 1543 45bd
00000030: e23c 16be 5b3d be3d 0d5c de3b c00b 473d
00000040: 2e59 ab3d 54a3 f23d f6c3 503c 2778 f73d
00000050: 3601 91bd b5aa 103e 32cf 7a3d bebd 093d
00000060: 09af 8f3d 8573 1a3e f0f5 ae3d c976 cebd
00000070: b687 94bd 16bd 0e3e ad9c 3bbd b434 bcbd
00000080: 675c c73c cd69 4f3d d28e 033e 334a 8a3d
00000090: ba6a 573d 48aa bdbb ddd5 9d3c 389b f1bd
000000a0: d5a8 08be ace2 053e 1dda 283c 0e2b c63d
000000b0: 6358 663d cc0f fb3d 15c4 97bd bf15 81bd
000000c0: be4b 67bd b8c6 00bd 1d7d d8bc 1841 ac3d
000000d0: b03d cdbd 5f7f 99bd 1c04 163e b719 7e3e
000000e0: dd39 ce3e 87a0 36bd 06b5 27be 08a5 05be
000000f0: c9bb f53d 3e17 483e 1d69 743e 251a e73d
00000100: 0383 5a3c 18e5 3a3d 8de5 e7bd cc2d 94be
00000110: 9344 b9be 46c8 7a3d 5518 fcbd 426f 17be
00000120: 0387 09be 470b 84be 2b74 eabe f548 763d
00000130: ece7 fdbd 6603 0e3e f927 893e 42ce 5b3e
00000140: 14a8 543e 8da8 0a3e 63bc 583d 71cd 91bd
00000150: cc8c de3c f959 773e ab2c 513e 26f4 9a3c
00000160: 3cc3 95bc f5b1 6ebc 9e0b a4bc b20d b43b
00000170: 5644 0d3e 269a 07bc ca8c 223d 88ac b33d
00000180: 8f03 393d 393c f83b 67aa 75bc aa28 e03d
00000190: b3e3 a0bd 473e ab3d 633c 873e 72dc bb3b
000001a0: 1bd6 433e ff32 2fbe 9328 67bd 297f 45be
000001b0: 5c74 873e 612b 543e 9c08 8a3e dfef ec3d
000001c0: c980 883d 4bfb 43be 740e 843e d153 31be
000001d0: a7ff 1ebc efd7 a9be e79c 7abd dec3 88bd
000001e0: ac04 49be 0ab0 f4bd 8734 c3be 427f ecb8
000001f0: 76de b1ba 3ff4 8c3b 7fdc 083c 8d87 b13d
00000200: f06f a73d b85e 2c3d a861 ce3d 3fda 57bd
00000210: 25f6 40bb f60e d33d 2174 723d 6b55 3bbd
00000220: 8c4e d5bc 2ff9 6a3c 53a0 b4bd 3c5c 2c3e
00000230: 186e 343e ea7b b63d 25d4 db3d d2c4 4c3c
00000240: dcd4 c63c 2481 903b 4d30 183d 92ab 573c
00000250: 9a9b 223d b695 463b 6874 1f3e ea6f 443e
00000260: be3e 3ebd c70d bbbc 4250 853c 0652 df3d
00000270: 604e 933e b981 2c3e 9bd8 1bbe a388 bd3d
00000280: 8897 123e 5ec2 f13d a5b8 dcbd 997f b3bd
00000290: 04d2 213e 95e1 bebd 0740 1a3d a77c fbbd
000002a0: 09bf adbd 153c 143e ca29 8d3d 0715 bebd
000002b0: 2117 bebd 5573 13be d924 183e bb56 763d
000002c0: d5af eb3d b765 0ebd 5f31 0abe aa9b dd3c
000002d0: b306 743d 8da0 703d d36c 36bc 3602 a53d
000002e0: 2511 20bd 5696 26bc fe14 d6bd 1658 103d
000002f0: 6af1 083e 87fd babd 9c68 e13d d224 213e
00000300: eb85 58bd 49ab 24bd 4140 e93d e7c8 01be
00000310: 6510 9e3d cab0 0e3e 5af2 73be ef90 f5bd
00000320: 2f7b 62be 93a7 823d 524e c7bd 7f40 ff3d
00000330: 265d ff3d bb98 b03e 9e73 263c 2748 a73c
00000340: db10 c03d 3652 05bc 5a9a f3ba 5f05 e33d
00000350: 587e 60bd 7894 363e f2c8 393e fb1d e83d
00000360: 21ce f9bc bd91 153c e8e8 243d e14f a03d
00000370: 100c 093e bedd 8fbd 5216 49bc c338 6c3d
00000380: dae6 b33d ffd3 e6bd 4805 5dbd 3239 8f3d
00000390: b1c1 183d e9b7 e53d c6af 563b 00b1 b73c
000003a0: 01e0 a53c 0cbe 98bd 8bcd 94bd 4616 c53d
000003b0: c929 87bd 5037 debd 11e6 d23d 6383 cebd
000003c0: b90b cebd 8f0f 023e 5dca fe3d 9f5d 053e
000003d0: b39d 28bd 8729 cdbd 8726 90be 4a5c 06be
000003e0: 1601 10bc cae7 56bd a816 1d3e d977 a1bc
000003f0: f971 d2ba c761 f2bd 310f 2d3e 7518 39bc
-0.0014423935 0.12592956 -0.0580702 0.11875588 0.01201857 0.077045724 0.027070938 -0.043720063
-0.19752769 0.050774235 -0.028778285 -0.048159678 -0.14671662 0.092890464 0.0067858757 0.04859519
0.08366619 0.118475586 0.012742033 0.12083464 -0.07080309 0.1412762 0.061232753 0.033628218
0.07015807 0.1508313 0.085430026 -0.1008125 -0.07252447 0.13939318 -0.045803715 -0.0918974
0.024336053 0.05063801 0.1284745 0.06752434 0.052592017 -0.0057881214 0.019267017 -0.11797184
-0.13345654 0.1307475 0.0103059085 0.09676181 0.056236636 0.122588724 -0.074104466 -0.06302976
-0.056468718 -0.031439513 -0.026426846 0.08410853 -0.100215316 -0.07494997 0.14650005 0.24814497
0.4027852 -0.044586685 -0.16377649 -0.13051236 0.11998708 0.19540116 0.23868223 0.112842835
0.0133369 0.045628637 -0.1132308 -0.2894119 -0.3618513 0.061226152 -0.123093285 -0.14788535
-0.13430409 -0.25789854 -0.45791754 0.06012817 -0.12397751 0.13868484 0.2678831 0.214654
0.20767242 0.1354086 0.052914035 -0.07119263 0.027166747 0.24155416 0.20427196 0.018915247
-0.018281572 -0.014568795 -0.02002507 0.0054947967 0.137956 -0.008276498 0.03968505 0.08773142
0.04516941 0.0075755385 -0.01499424 0.10945256 -0.0785593 0.08361488 0.2641326 0.0057330662
0.19124644 -0.17109297 -0.05643518 -0.19286789 0.26455963 0.20719673 0.26959693 0.11569189
0.06665189 -0.1913883 0.25792277 -0.1731713 -0.009704507 -0.33172557 -0.06118479 -0.06677984
-0.19630688 -0.11947639 -0.38126013 -0.000112770605 -0.0013570327 0.0043015773 0.008353352 0.086684324
0.08175647 0.04208252 0.1007722 -0.05269837 -0.0029443589 0.10305588 0.05919278 -0.045735758
-0.02603843 0.014341637 -0.08819642 0.1683206 0.17620122 0.089103535 0.10733823 0.0124980975
0.024271421 0.004409926 0.03715544 0.013163464 0.039699174 0.0030301637 0.15571749 0.19183317
-0.046446554 -0.022833718 0.016273621 0.109043166 0.28770733 0.1684636 -0.15219347 0.09254577
0.14315617 0.11804651 -0.10777406 -0.08764572 0.15802771 -0.0932037 0.037658717 -0.12279635
-0.08483703 0.14476044 0.06892736 -0.092813544 -0.09281755 -0.14399464 0.14857806 0.060141306
0.11508147 -0.03476497 -0.13495396 0.027051765 0.0595767 0.058746863 -0.011134344 0.08057062
-0.03907885 -0.010167679 -0.10453223 0.035240255 0.13373342 -0.09130388 0.11006281 0.15736702
-0.05286209 -0.040202413 0.113892086 -0.12674294 0.07717971 0.13934627 -0.23822919 -0.119905345
-0.22117303 0.063796185 -0.09731735 0.124634735 0.124689385 0.34491524 0.010159401 0.020420147
0.09378215 -0.008137276 -0.0018585429 0.11085009 -0.05480799 0.17830074 0.18143061 0.11333843
-0.030493798 0.009128985 0.04026118 0.07827736 0.13383508 -0.07024716 -0.012273388 0.05767132
0.08784266 -0.11270904 -0.053960115 0.06993331 0.037294094 0.11216719 0.0032758578 0.022423267
0.020248415 -0.074581236 -0.07265767 0.09623389 -0.06599767 -0.10850394 0.10297788 -0.10083654
-0.1006083 0.12701248 0.124409415 0.13023995 -0.04116602 -0.10017686 -0.28154394 -0.13121143
-0.008789321 -0.052467145 0.15340674 -0.019710468 -0.0016055695 -0.11835056 0.16900326 -0.011297335

encoder.conv2d_2.bias f4 [32]
00000000: 5c7c 833d 906a 583e a7e6 9cbd 7aa7 8a3d
00000010: f991 c4bd 9164 143d 4e4b d93c 932c fa3d
00000020: f071 0cbe 3408 9abd 81cb 1a3d c027 fd3d
00000030: 2122 093e 6f9d 8a3d 6fe3 283e 1195 123d
00000040: 781e 0c3e 1891 49bd a9c9 eb3d 1094 8d3d
00000050: fe58 8b3c 1e9d c7bd 5bea 463d 18c8 54bd
00000060: a9bc e63c 1081 983d 79a2 1b3e 59bc 4ebd
00000070: 1274 df3d c38f 353d a4f6 6cbb ea70 b43d
0.06420204 0.211344 -0.07661181 0.06770225 -0.095981546 0.03622872 0.026525166 0.12215533
-0.13715339 -0.07521096 0.037791733 0.12361097 0.13391925 0.06768309 0.16493009 0.035786692
0.13683498 -0.049210638 0.11513073 0.06913006 0.017010208 -0.097467646 0.048563343 -0.051948637
0.028166132 0.07446492 0.15198697 -0.05047259 0.109108105 0.044326555 -0.0036157751 0.08810599

encoder.conv2d_3.weight f4 [64, 32, 1, 3]
00000000: 844f e93d beb9 24bd a304 9b3d 4915 8f3c
00000010: f038 e6bd 488a cebe 1d52 40be 7788 5abe
00000020: b922 723d 2a56 713d a451 f13d 92c9 7fbc
00000030: 419d 823d 4574 023e 3ac6 3e3d 5bf2 18bd
00000040: 2c76 f73d 768e 72bd c39a 983d 83e9 463d
00000050: 0744 673d 410c 983c 734e 413c bebb bc3d
00000060: b9ae abbd 3412 e93b d70a 8dbd 4798 7a3d
00000070: 36f9 c43d 93e2 833b 49ba 873d 24c0 403d
00000080: ba21 ac3d fdf2 6e3d 36fe b93c 486c 8bbd
00000090: b9cf c93d d8df cb3c 3037 80bd b194 0b3e
000000a0: 5d4c 1dbe 0ba8 883c 8951 fd3d 08e7 13be
000000b0: 911c 4d3d bde7 3a3e f1be 933c 5362 1e3e
000000c0: 4d3c 72bd ac3c 58bd 11f5 cf3d fcfb 143b
000000d0: d3d8 0bbc 3b02 e9bc fd77 3fbe e436 0b3e
000000e0: 18cd b9bd 2e13 68bd 835c bb3d b6e9 4ebe
000000f0: cf72 313c 6bd9 6dba 8ae2 a43d 4e94 c6bc
00000100: 5001 80bd c352 513d 20fe 99bc 67bf cfbd
00000110: d346 a7bd 877b 8a3d 0859 a1bc 398a 06be
00000120: a27f 12bd 73cc 1abc 85a9 aebd a3df 9bbb
00000130: 0c35 a6bc a6da 96bd f1b8 663a 3cdc 26be
00000140: 5171 f7bd 35e7 38bd 51d2 883d edf8 fa3c
00000150: fc2f c93d 9d2a 88bd c6ab 9ebd deca d23d
00000160: 6d95 e53d bef5 5ebd 7d1f 173c b883 5a3d
00000170: 1576 283d d633 82bd dc71 bf3d c254 9d3d
00000180: e921 e8bc 64aa 973c b2c4 f33c 9b04 553b
00000190: 8157 8bbd 6dfc 5fbe b6d4 36bf bb51 d2bd
000001a0: 3865 57be 01d1 893c 647d 9abc 38ae 9e3c
000001b0: 18df 3e3d e33a 03bd 3a25 67bd 9cb8 e2bd
000001c0: 780e 093e 8777 afbd abbe 673d e21e 52bd
000001d0: 2ff7 a73d 1086 843d dd63 713d f4fe 073d
000001e0: 8507 033d 6dae 3fbc 0427 a53d f940 d33c
000001f0: 8fac 78bd bc70 973d 06d8 31bd 0968 ea3d
00000200: c2d2 933d 4cb4 813a 7bbf 86bc face 0c3d
00000210: fc1f 953d d1f3 a2bc cad5 813d c496 b2bd
00000220: 37b0 c5bd bc2c 2fbc 2e4d 653d 2e10 0f3e
00000230: b9ea 0b3c bb9a 50bd baa7 24be 9e13 5a3e
00000240: 956a 98bd f84e 1f3d 21f5 a73d 1082 a3bd
00000250: 479f 0fbd d5b5 333d 7f1d f0be 993e 213e
00000260: 5217 bb3c 1ec9 d6bc 957f 823e 330f e0bd
00000270: 5cd2 37bd 9a45 823d 5b18 3fbd fea1 263d
00000280: 1068 bc3d 8f71 3a3d 816d 343c 0538 d83d
00000290: fa36 2dbe bdc1 48be 61a9 7d3c 0724 01ba
000002a0: d3ad fb39 f436 2abc f3c1 abbc a259 8e3d
000002b0: b99a e03d 66eb afbc 79cb 6f3e 9022 a83e
000002c0: 2054 92be 3b45 8cbd 9c99 abbd 8a2b a7bd
000002d0: b96f 86bd b0ab a0bd 31c3 b43c ce0c e73b
000002e0: ed26 d93d d3e9 bf3d 7f99 3e3d c38a b0bc
000002f0: 1c6f 833d fbf7 923c 976f fa3d 86e1 063d
00000300: 88b6 d9bc f1fb 1e3e 035a cc3d 434e df3b
00000310: 73c5 df3d 8a3e 01bd dd60 f2bc 06d7 903e
00000320: f15a bdbe 1260 95bd 1920 413d d2a8 913d
00000330: e115 86bc 03b1 f03d 72f7 5c3d 80f8 50be
00000340: 61d5 3cbe bef0 203d 316e c5bd 761c 923d
00000350: 2126 a43d 13b6 27be 356b 85bc 23c7 c03d
00000360: c2fe 72bd 3f98 5d3d 3c99 763d 31f2 053d
00000370: 9ea2 083e 9225 153d 51ff dbbd f79f e8bd
00000380: 71a7 913c 4fc9 6bbe b6b1 b2bd 07e9 bb3c
00000390: c50f 30be 8574 8a3d 7ad5 813d 2283 97bc
000003a0: 9009 a4bc 9a82 503e 1d06 febc 189b 22bd
000003b0: 3753 da3d 21a2 28be 80e8 86bd 8b81 0abe
000003c0: 8183 45be fbfb 873d a956 ecbc 7b46 96bd
000003d0: 0f8c 1a3d 4986 653d 3fa5 f23b 5118 a73e
000003e0: f51f f93e b2c0 09be 6cc5 973d 5dfd ae3d
000003f0: 4094 82bd 5ed6 ac3d 012d 14bc b011 54bd
0.113921195 -0.0402162 0.07569244 0.017466204 -0.11241329 -0.40339875 -0.18781324 -0.2134112
0.059115145 0.058920063 0.1178315 -0.015612023 0.0637765 0.12739666 0.046575762 -0.037340503
0.12083086 -0.059217893 0.074513935 0.048562538 0.05646136 0.01856053 0.011798489 0.092154965
-0.08382935 0.0071127657 -0.06886833 0.06118038 0.09617846 0.0040248125 0.06627328 0.04705824
0.0840487 0.0583372 0.022704225 -0.068077624 0.09854073 0.02488701 -0.06260526 0.1363094
-0.15361162 0.016681692 0.12369067 -0.144436 0.05007607 0.18252464 0.018035384 0.15467195
-0.05913954 -0.052792236 0.101541646 0.0022733202 -0.008535582 -0.028443446 -0.18698116 0.13595158
-0.09072322 -0.056658916 0.091485046 -0.20206341 0.010830595 -0.00090732303 0.080510214 -0.024240639
-0.0625025 0.05110432 -0.018797934 -0.10143929 -0.081678055 0.06761842 -0.019695774 -0.13138665
-0.03576625 -0.009448159 -0.08528427 -0.004756884 -0.020288967 -0.07365923 0.0008801362 -0.1629495
-0.1208216 -0.04514237 0.0668074 0.030636275 0.098236054 -0.06648753 -0.07747607 0.102926
0.11210141 -0.054433577 0.009223816 0.053348273 0.041128237 -0.06357543 0.09347889 0.07682182
-0.028336482 0.018513866 0.029756878 0.0032503966 -0.068037994 -0.21873637 -0.7141832 -0.10269495
-0.21034706 0.016823294 -0.018858619 0.019370183 0.046599478 -0.03203858 -0.056431986 -0.11070368
0.13384426 -0.0856772 0.05657832 -0.051298983 0.082014434 0.06470883 0.058933128 0.033202127
0.031989593 -0.011699301 0.08064082 0.025787817 -0.06071144 0.07394549 -0.043418907 0.114456244
0.07217933 0.0009895652 -0.016448727 0.034377076 0.07281491 -0.019891651 0.06339605 -0.087201625
-0.09652751 -0.010691818 0.055981807 0.13971016 0.008539849 -0.050928812 -0.16079608 0.21296546
-0.07442204 0.03889367 0.082010515 -0.07983792 -0.035064008 0.04387458 -0.46897504 0.15746535
0.022838268 -0.026218947 0.25487962 -0.10940399 -0.04487835 0.06360932 -0.046654087 0.04068183
0.09199536 0.045518454 0.011012436 0.1055756 -0.16915503 -0.19605155 0.015482278 -0.0004926328
0.0004800396 -0.010389078 -0.020966506 0.0695069 0.10967011 -0.021474551 0.23417462 0.3283887
-0.28579807 -0.06849142 -0.08378908 -0.08162601 -0.06564278 -0.07845247 0.02206573 0.007051087
0.10603128 0.0937077 0.046533104 -0.021550542 0.06417677 0.017940512 0.12228315 0.03292992
-0.026576295 0.15525796 0.09978106 0.0068147494 0.10926332 -0.031553783 -0.029587204 0.2828905
-0.36983445 -0.072937146 0.04714975 0.07112278 -0.016367855 0.11752512 0.05394692 -0.20407295
-0.18440773 0.03929209 -0.09640158 0.07134335 0.08015085 -0.1637805 -0.016286472 0.09412982
-0.059324987 0.05410027 0.06020473 0.032701675 0.13343284 0.036412783 -0.10742057 -0.11358636
0.017780038 -0.23026012 -0.08725302 0.022938265 -0.17193516 0.067605056 0.063395455 -0.018495146
-0.020024091 0.2036232 -0.031008774 -0.03969869 0.10660403 -0.16468097 -0.065873146 -0.13525979
-0.19288446 0.06639858 -0.028849917 -0.07337662 0.037731227 0.056036267 0.007404953 0.3263574
0.48657194 -0.13452414 0.07410702 0.08544419 -0.06375933 0.08439325 -0.009043933 -0.05177468

encoder.conv2d_3.bias f4 [64]
00000000: d1b0 a73c 3880 62bd 8390 3f3d 3e08 3b3c
00000010: 3c20 863d a60f 6c3b 3d0e 393d e051 1bbd
00000020: 775b f0bc 2b90 66bd 0270 273d bf0e 3a3c
00000030: 4853 933b df02 51bd 0bec 81bd f245 b53d
00000040: 76d4 aabd 5472 323d 977f 9f3d 3eed 8c3b
00000050: 8ddb 233d e1ca f13c 861f dbbd 5428 e73d
00000060: f7c3 4e3d bb93 823d a6e4 8e3d 08aa e03c
00000070: 8e22 9abd 32d4 813d 16a2 ee3b d07c 12bd
00000080: c3d2 6bbd 51d2 2a3d 9d7a 4b3d 11a2 853d
00000090: c361 78bd e4be 883d 7ae7 853d f098 b7bd
000000a0: de7b 14bc 0dcc 97bd a45a d2bc 6904 d5bb
000000b0: 474a 92bd bd6b b8bd 8421 953d 39be a8bd
000000c0: 3bcc 4ebd fa95 683a b69c dbbc bb84 a4bc
000000d0: 4ae0 bbbd c755 393d abbd a73d a9f2 813d
000000e0: f821 993d 2c0b cb3d 1f7a 813c 49bb 3ebd
000000f0: 66ab 523d af56 743c 0443 64bd ea9e d03d
0.020470055 -0.05529806 0.046768676 0.011415539 0.06549117 0.003602007 0.045179594 -0.03791988
-0.029340489 -0.056289833 0.040878303 0.011356055 0.004496012 -0.05102813 -0.0634385 0.08851232
-0.08341305 0.043566063 0.07788008 0.0043007424 0.0400043 0.029515686 -0.10699372 0.11286989
0.050479855 0.063758336 0.06977205 0.027424827 -0.07526122 0.06339301 0.0072825057 -0.03576356
-0.057574045 0.04170448 0.04967748 0.06525052 -0.060640108 0.066770345 0.06538291 -0.089647174
-0.009062735 -0.074119665 -0.025677986 -0.00650077 -0.071430735 -0.090049244 0.07281783 -0.08239407
-0.050487738 0.0008872446 -0.026808124 -0.020082822 -0.09173639 0.04524782 0.08190473 0.06345112
0.07477182 0.0991424 0.015805302 -0.046565328 0.05143299 0.014913245 -0.055727974 0.101865605

encoder.fc.weight f4 [16, 64]
00000000: b126 d2bc 908f 80bd bc43 b4bc 46d9 0ebe
00000010: 0ccd e43d 7038 6e3d ff32 a03c be7f 033f
00000020: 1eb0 5b3c c0f8 20be 074a 38bd c84d a73b
00000030: 728b 4c3d 44f1 29bd 2806 bc3d f0ca 1e3e
00000040: 799c f7bd 14e8 5c3d 8295 573e b9be 953d
00000050: 17a7 963c ee76 703d d348 b7bc f4b2 3ebe
00000060: f7e6 20bd 0189 30be bbed 72be 767f 22be
00000070: a171 c63d 7a4c 183c 69c6 d7bd 5d05 48bb
00000080: f696 dd3d 21f8 8dbd 1762 d23d 43f7 1e3d
00000090: 9c21 f1bd 1e3b 25bd 5c04 f4bd caec d33d
000000a0: f27d e6bd a25c eebd 6d56 aabc cec6 4f3d
000000b0: 9a10 abbd 6d7d 4a3d 832d 08be eb39 79bb
000000c0: 28e7 bb3d b9a7 9a3e c392 b23d f07d d53d
000000d0: 5992 9dbd e1ee 82bd 7bbb 05be f096 54be
000000e0: aab2 8a3d e67f 873d cdee 2bbe 43aa 9fbc
000000f0: b67d 16be a2da acbd bcee 19be 1423 2cbc
00000100: 1c5f 483d 404a 9dbd 25fe 233d 449b c4be
00000110: 204f c7be 218d 91bd 1233 85bd a5e8 8c3b
00000120: bca3 e63c dbda 8d3c 843b 083e 1caf 48bd
00000130: 73cb 6e3d 38c2 453d dfe9 bcbc 7893 963b
00000140: 9e64 7ebd 6659 9a3d 1ee3 c6bd 0301 953c
00000150: d30d 37bd aa9d cabd 0662 ddbd 5621 0cbe
00000160: e0ea 853c 2d5f 9e3d d56c cd3d 9b5b 643d
00000170: 825e 203d b9f9 a2bd 845a 19bd 9e07 a3bd
00000180: 4859 ef3c c4f1 4cbd 4c2e 8b3c f61a f83d
00000190: b766 16bb c22e 633d a243 803c 4706 013d
000001a0: 5a6a 033e 5d6d 343d 9336 f83d 0255 e53d
000001b0: 64b0 a83d a5c2 28be cece e23d 5439 0b3e
000001c0: c295 ab3d 6503 473e 13b8 1cbd 7e86 fabd
000001d0: 9ee0 fdbd f38f f5bd e9d9 87bd af24 f73c
000001e0: b914 9abd 9893 43bc 79a1 883d cca8 3c3d
000001f0: b5c2 bc3d 1875 afbd dc56 9f3d abc5 fb3d
00000200: e02a 83bc 4f50 323e 9d78 3fbe 291e 0bbe
00000210: b8af 783e ef69 8f3d 64bc 703d cf43 123e
00000220: dbdd 1d3c 1571 d4bd e800 753d 0976 3fbc
00000230: 0631 2e3c a4f5 66bd deb6 81bc 04e1 34be
00000240: 945a d63b 60e3 923b 1663 15be 140e 61bd
00000250: 1c5f c43c 2e3b da3b 3a7e 91bb e6be c33c
00000260: 39b0 9abe a70e 8a3d d318 8dbd c99b 0d3d
00000270: 5c92 b0bd 97cd 3fbd a1b3 b33b 3c06 ce3d
00000280: a8a4 e9bd c036 97bd 9880 9abd 70f1 883d
00000290: 9dfe 17bd ab24 d33d 4a31 0a3d 4c6b e8bc
000002a0: a1cb 5c3d de97 6d3d a31b 2bbd 05a3 b13d
000002b0: 1727 1cbe b34b 383e 4d47 f03d 0900 6cbd
000002c0: 10f0 3fbd 36f2 233e d903 24be 14e9 cc3d
000002d0: 9056 623c fcf0 98bd 79e9 693c 1461 66bb
000002e0: 1a35 98be cc68 03be d319 d63d fbb4 adbd
000002f0: c31f 093e a0fa 4abd 85b2 b63e 9695 99bd
00000300: dfb7 15bd 77b0 2b3e 6693 fa3d ae16 c6bd
00000310: 2a60 a23d d20b f53d 817b f63d 0ad8 c7bd
00000320: 901f 51bd 3950 f03c d390 3e3b a14b cbbd
00000330: 5eb1 c73d 5074 0d3c 5dc2 83bd 3e50 a9bd
00000340: 08d1 c43c 9778 acbd 304f 263e 6f4c 3abd
00000350: 1453 af3d 8aa3 15bd 5c84 97bd 52d3 253d
00000360: c5d8 883d 5618 c33d ce82 413d 3473 183e
00000370: 2b0a 923c 6712 103e 69e4 bc3d 48bd 01bc
00000380: 516a c93d 5f49 e0bd 9ace 983d 9cef b53d
00000390: 1b1f c13d d691 013e e121 903a 586d a4bd
000003a0: f4a3 693d 7178 193d 23dd 0e3e 4e20 b4bd
000003b0: 82c2 8b3d 49b3 9a3d 65f1 f23c 6da5 b9bd
000003c0: a908 91bd 047b 0bbe aa19 a4bd 1e86 f4bd
000003d0: 9459 afbd fcde 1dbd 0efd 0b3e e907 b3bd
000003e0: 8231 e53d ff28 ac3d 6589 7f3c 20d6 4bbd
000003f0: cda8 c0bd dc71 64bd 2722 7fbd a17d 173e
-0.025653215 -0.062773824 -0.022004955 -0.1395007 0.11171922 0.05815929 0.019555567 0.51366794
0.013408689 -0.1571989 -0.044992473 0.005105708 0.049937673 -0.041489854 0.09180862 0.15507102
-0.12090392 0.053932264 0.21053126 0.07311768 0.018390222 0.05870717 -0.022373592 -0.18622953
-0.039282765 -0.17239763 -0.237235 -0.15868935 0.09689642 0.009295577 -0.105358906 -0.0030520775
0.10819809 -0.069320925 0.102726154 0.038810026 -0.117739886 -0.04033958 -0.11914894 0.10347898
-0.11254491 -0.11638762 -0.020793164 0.050726704 -0.08352776 0.04943602 -0.13298611 -0.0038028907
0.09174949 0.30206087 0.08719399 0.10424411 -0.07693929 -0.06393219 -0.130598 -0.20760703
0.06772359 0.066161916 -0.16790314 -0.019490367 -0.14696392 -0.084401384 -0.15032476 -0.01050641
0.04891883 -0.07680178 0.040037293 -0.38399708 -0.38927555 -0.07106996 -0.065038815 0.0043001943
0.028154247 0.017316272 0.13303953 -0.048995122 0.058299493 0.048280925 -0.023060737 0.0045952164
-0.062107675 0.07536583 -0.09711288 0.018188959 -0.04469092 -0.09893353 -0.10809712 -0.13684592
0.016347349 0.07732997 0.10030524 0.055751424 0.03915263 -0.07957787 -0.037439838 -0.07960437
0.029217377 -0.050035253 0.01698985 0.121145174 -0.0022949406 0.055464514 0.01565725 0.031500127
0.12833539 0.04404961 0.12119784 0.111978546 0.08236769 -0.16480501 0.11074601 0.13596088
0.083781734 0.19434889 -0.038261484 -0.122326836 -0.12396358 -0.11990347 -0.0663336 0.03016886
-0.07523484 -0.011937045 0.066714235 0.046059415 0.09216825 -0.08567256 0.07780239 0.122935615
-0.016011655 0.17413448 -0.18698354 -0.13585724 0.24285781 0.07002627 0.058773413 0.1428368
0.009635414 -0.10373131 0.059815317 -0.011685857 0.010631805 -0.056386605 -0.015834268 -0.17663962
0.0065415595 0.0044826716 -0.1458858 -0.054945067 0.023971133 0.006659887 -0.004440096 0.023894738
-0.30212572 0.06741076 -0.068895005 0.034572396 -0.08621666 -0.046826925 0.00548406 0.10059783
-0.11408359 -0.073834896 -0.075440586 0.066866755 -0.037108053 0.10309728 0.033738412 -0.028371476
0.053905133 0.05800616 -0.041774403 0.08673672 -0.15249287 0.17997627 0.117323495 -0.05761722
-0.0468598 0.16010365 -0.16017093 0.100053936 0.013814583 -0.07467839 0.014276856 -0.0035153078
-0.29728013 -0.12832946 0.10454144 -0.08481785 0.13391022 -0.04955542 0.35683075 -0.074992344
-0.036552306 0.16766535 0.12235145 -0.096722946 0.07928498 0.11965145 0.12035275 -0.09758003
-0.05105549 0.029335128 0.0029078021 -0.099265344 0.09750627 0.008633688 -0.06433556 -0.08267258
0.024025455 -0.08421438 0.16241145 -0.04548305 0.08560768 -0.036532916 -0.073982924 0.040484734
0.066819705 0.09526126 0.047243886 0.14887697 0.017827114 0.1406952 0.09223253 -0.007918663
0.09834731 -0.109514944 0.07461281 0.088835925 0.09429761 0.12653288 0.0010996425 -0.08028668
0.057041124 0.037468378 0.13951544 -0.08795224 0.06824209 0.07553727 0.029656122 -0.090647556
-0.0708173 -0.13621145 -0.080127075 -0.11939643 -0.085620075 -0.038542733 0.13670751 -0.08741743
0.111910835 0.08406257 0.015596722 -0.049764752 -0.09407196 -0.055772647 -0.06228843 0.14794017

encoder.fc.bias f4 [16]
00000000: 0ce7 b03c c18e ebbb efac cabd 6480 c73d
00000010: a324 e4bd 6642 aebd e69c 7b3d 8f7d 563d
00000020: bf3e 7b3c 6289 86bd df16 9b3d dc9a ec3d
00000030: b2f2 1ebd 4fca fcbd 6a37 01bd 4352 13bc
0.021594547 -0.0071886485 -0.09896266 0.097412854 -0.111398004 -0.08508758 0.061428927 0.052365836
0.015334784 -0.065691724 0.07572722 0.115529746 -0.03880567 -0.12343275 -0.031546988 -0.008991781

decoder.decoder_fc1.weight f4 [64, 16]
00000000: c6c9 db3d b42d 393e 22ee f43d e793 68be
00000010: 0e05 3fbd 38c2 c03d 217d fd3d 5ef4 2bbe
00000020: d13c 7f3e 974d bbbd 5995 f6bd 00dc 313c
00000030: e8e5 60be fe1f 0abe fdf9 28be 090b 14be
00000040: e6c6 a93c e4c0 973e bb0f b63d 5676 0d3e
00000050: c339 2d3e 4f53 61be 30ab cc3d 8f75 673e
00000060: d90b 04be d276 b33c 6320 793e 5521 a73d
00000070: 6da2 653d bb1a 5abe b96d 08be 31bf 973d
00000080: 8906 523e 4d95 f83d f332 16be ce11 313e
00000090: 767f 9abb 1ea0 6b3e 9440 533d a5d6 613d
000000a0: b731 723d 0da6 5dbd 3c8b 04be 8185 ddbd
000000b0: 5fdc 7abe bdf8 cabd 3de6 373e d7f1 dd3c
000000c0: 7c1a da3d 9b6f bfbe d3af a63e fe98 dfbc
000000d0: ee80 423e bd0e d1bb 938b 24be 7185 053d
000000e0: 16af 393e abcb 4fbc 4943 aabe a36e 32bd
000000f0: 84bf 6b3e 67a6 61be 3f76 233e c05f 75bc
00000100: bec7 3c3f a3ab e43d 2660 6f3e 251c 2fbe
00000110: 645e 6a3d 82d6 48bc 427e 4c3d 7107 ce3c
00000120: c57e 013e b90b 06be 63b0 453e 5177 aabe
00000130: d0f2 f6bb 4418 aabd 86c2 573e 6320 b0bd
00000140: 9c5b 6bbe 0cae 3c3e 080d 1ebe 2c42 883e
00000150: d09b 2abe d5ad 4b3c d14d 43be 7a2f aa3d
00000160: c13b 4ebe 4b1f 9a3d 3e3e 90bc 631c e43d
00000170: 10c4 4dbe 7d83 ff3d 8557 15be ed50 cbbd
00000180: c589 18be b29a 01be 545d 49be 7f62 76be
00000190: 0586 fbbd 155b a43c f586 81be 6918 9abd
000001a0: bdf2 b13d 7947 52be 68de 1b3e f4b4 4f3e
000001b0: 5cce cfbd 29f3 a0bd 3dd1 d63d b1ac 06be
000001c0: d69e 963d 0c5b a7bd 449c 843e ae2d 7cbd
000001d0: ccb8 8a3d cf6a bdbd bf2e f93c 522f ae3e
000001e0: 46bb 72bd 3acf ce3d 3cc5 75bd 9006 3c3d
000001f0: fe5f f53d 6a7a 07be 7fa3 8c3e 13a4 eabe
00000200: 3e84 223e 1cef 9a3d a8f1 7cbd fc67 343e
00000210: 34e8 963d b4ea f1bd 2ae2 2abe 6caa 29be
00000220: 4af5 343e d6c3 38be 3c70 3d3e a4c2 db3d
00000230: d8f2 72be 8021 7d3b 4af1 013e 6449 43be
00000240: ce29 693e b230 39be fe52 963e f347 fb3d
00000250: e57c c7be 334c 223e 46ef c03c 2e95 dabd
00000260: 814b 83be 73e5 353e 7027 693e 150f 08bf
00000270: 8d68 d93d ead0 cabc d31f 8dbe 7742 96be
00000280: 027f 443e aa38 59be 2154 3c3b ca42 17bd
00000290: 4303 ee3d f54c a0bc 540b e4bd 21b9 8bbc
000002a0: d4e3 aa3c 2321 6ebe 1353 603e 8771 1c3b
000002b0: 0e8a 2e3d e3c8 c2bd f1f9 23be 4ee1 0d3d
000002c0: 3347 bc3d acf1 543e 49b0 613e fda2 68bd
000002d0: 7adf 833e 8ecf 053c e1a6 2abc ca06 69be
000002e0: cb7d 38bc 6313 89bd 7375 703d f475 903d
000002f0: db60 92bd b2b3 f2bd b939 983c fd54 5abe
00000300: f398 643e ec9b cdbd dfe5 d9bc 390c 683e
00000310: c4ee 4d3d 741c 1e3e 48a4 11bc 8dc5 f4bd
00000320: 9b7f 90be 735a b3bd d48c 62be 81de ff3c
00000330: b047 ce3b 17f1 68bd b17b babd 0027 5fbe
00000340: c6a6 e3be 6bc8 6ebe e1f0 b53e 6215 7f3e
00000350: 2e18 6abb 77d8 7e3e 7e62 9fbe d9de b8be
00000360: 70f6 45be 0819 24be d169 16be 68a9 9bbe
00000370: 8ef3 7fbd 5ac8 9a3e 6c7e 67bd 19d3 ad3d
00000380: cd68 723e 3016 cc3e 3b24 683e a743 60be
00000390: be48 8c3e dd8b 96be 6551 4dbe 8f69 92be
000003a0: 248b c5be 71b9 08be de5a 173d 0f70 8b3e
000003b0: 6b3c 74be cd50 7ebd 952f 693e d384 3e3e
000003c0: 2c97 d3bd 1f7e 373e 839e 51bd 1733 793e
000003d0: 05fb d03d c217 b63b 32aa fa3d a907 483e
000003e0: 0cc8 92bd 76e2 193e 9869 c63d 7c54 29be
000003f0: 7234 94bd 2df5 31be d02d 563e e0d1 6cbd
0.107318446 0.1808384 0.11959483 -0.2271267 -0.04663568 0.09412044 0.12377382 -0.16792437
0.24925543 -0.091456585 -0.120402046 0.010855675 -0.21962702 -0.13488767 -0.16501613 -0.14457335
0.020724725 0.2963935 0.08889719 0.13814673 0.16916566 -0.22004436 0.09993589 0.22603439
-0.12895145 0.021907244 0.24328761 0.081606545 0.056063104 -0.2129926 -0.13323106 0.07409514
0.20510305 0.12137852 -0.14667873 0.17291948 -0.0047149016 0.23010299 0.05157526 0.05513634
0.059129443 -0.054113436 -0.12943739 -0.108164795 -0.24498127 -0.09910724 0.17958923 0.027092857
0.10649583 -0.37389836 0.32556018 -0.027294632 0.18994495 -0.006379931 -0.16068868 0.032597963
0.18133196 -0.012682836 -0.3325446 -0.043562543 0.23022276 -0.22036134 0.15963076 -0.014976442
0.7374228 0.111655496 0.23376521 -0.1710058 0.057218924 -0.012258174 0.049925096 0.025150033
0.12646015 -0.1309041 0.19305567 -0.33294156 -0.0075362697 -0.083054096 0.21070299 -0.08599927
-0.22984165 0.18425769 -0.15434659 0.26612985 -0.16661 0.0124315815 -0.19072653 0.08309837
-0.20139982 0.075255 -0.017607804 0.11138227 -0.20094323 0.12476251 -0.14584167 -0.09927545
-0.14896305 -0.12656668 -0.19664508 -0.24061011 -0.122814216 0.020062963 -0.25298277 -0.07524187
0.08688877 -0.20535077 0.1522156 0.20283872 -0.10146782 -0.07858879 0.10489128 -0.13151814
0.07354514 -0.08171663 0.2590047 -0.061567 0.067735285 -0.09248888 0.030417798 0.34020478
-0.05926063 0.10098119 -0.06000255 0.045904696 0.119812 -0.13230291 0.27468488 -0.45828304
0.15870759 0.07565138 -0.0617539 0.17617792 0.07368508 -0.11812344 -0.16687837 -0.16568917
0.17671695 -0.18043455 0.18499845 0.10730484 -0.2372545 0.0038624704 0.126897 -0.19070965
0.22769853 -0.18084982 0.29360193 0.122695826 -0.38962474 0.1584938 0.023551594 -0.10672985
-0.25643542 0.17763309 0.2276895 -0.53148013 0.106156446 -0.024757821 -0.27563342 -0.29347584
0.19189075 -0.21213022 0.0028736668 -0.03692893 0.11621716 -0.019567946 -0.11134973 -0.01705605
0.02086059 -0.23254828 0.2190669 0.0023871379 0.042612128 -0.09510972 -0.16013314 0.034638695
0.09193268 0.20795316 0.22039904 -0.056796063 0.25756437 0.008167161 -0.010415764 -0.22756496
-0.01126046 -0.06693151 0.05870576 0.07053748 -0.0714738 -0.118506804 0.018582212 -0.21321483
0.2232397 -0.10039505 -0.026598869 0.22660913 0.050276533 0.15440542 -0.008889265 -0.11951742
-0.28222355 -0.08757486 -0.22124034 0.031234028 0.006295167 -0.056870546 -0.091056235 -0.21792221
-0.44463176 -0.23318641 0.3553534 0.249105 -0.0035719979 0.24887262 -0.3112983 -0.3610752
-0.1933229 -0.16025174 -0.14688803 -0.30402684 -0.06248813 0.3023098 -0.05651705 0.08487529
0.23672791 0.39860678 0.22670071 -0.21900807 0.27399248 -0.29403582 -0.20050581 -0.2859616
-0.38582718 -0.1335199 0.036951892 0.2723393 -0.23851173 -0.062088776 0.22772057 0.18605356
-0.10331568 0.17919205 -0.05117656 0.24335895 0.10204128 0.0055570314 0.122394934 0.19534172
-0.07167062 0.15027794 0.09688109 -0.16536134 -0.07236566 -0.17378683 0.20915914 -0.05781734

decoder.decoder_fc1.bias f4 [64]
00000000: 9474 1a3e 625f c8bd 3e72 253e d547 44bd
00000010: b6e8 af3c 0edb 313e 1105 81bd 789f 7fbe
00000020: 7e25 1dbe 939b 2f3e 0a49 b4ba 597e 453e
00000030: 191e 19be 00a7 19be 078c cabd d57e 643d
00000040: a57f 59be 0a78 f43b b654 863e 2e44 1cbe
00000050: b7c2 0a3d cc0b d8bd eca7 4dbd 5195 54be
00000060: 4e7e e83d 1243 75bd ae68 083e bc60 abbd
00000070: 92e8 603e 4fc8 0d3e 633f 923e d2ff 803e
00000080: bab3 efbd 873e 67be c7f2 293e 2780 653e
00000090: 1aa0 343e b848 17bd efad 22bd ae2b 483e
000000a0: 93e9 513e 05fa 893e f5e5 2d3e d0a2 c6bd
000000b0: e2ad cabd 5633 be3d f9b7 3bbe ead0 69be
000000c0: c4c0 62be 3240 0dbd 0018 8ebb fc26 41be
000000d0: c8c8 29be bd68 18bc b392 1abd 69c8 b63c
000000e0: 42f8 59bd 30d0 843d d1cd 22bd 22ee 373e
000000f0: dbed f3bc 6ca5 3d3e 9966 ceba a647 01bd
0.15083534 -0.09783818 0.16156861 -0.047920067 0.02147327 0.17368719 -0.062997945 -0.24963176
-0.15346333 0.1714919 -0.0013754677 0.19286479 -0.14952888 -0.15005112 -0.09889989 0.05578502
-0.21240099 0.007460599 0.26236504 -0.15260383 0.0338771 -0.10549125 -0.05020897 -0.20760085
0.11352216 -0.059878416 0.13321182 -0.0836806 0.21963719 0.13845943 0.28563985 0.25195175
-0.11704202 -0.22582446 0.16596518 0.22412167 0.17639199 -0.036934584 -0.039716657 0.19547912
0.20499258 0.26948562 0.16982253 -0.09699023 -0.09896447 0.09287135 -0.18331899 -0.228336
-0.22143847 -0.03448505 -0.004336357 -0.18862528 -0.16580498 -0.009302315 -0.03773756 0.02231236
-0.053215273 0.06485021 -0.039747063 0.17961934 -0.029776504 0.18520135 -0.0015747129 -0.03156247

decoder.decoder_fc2.weight f4 [128, 64]
00000000: 9342 88bd 8bd6 b83d e593 733d d282 61be
00000010: bf18 9dbd b33d 0a3e bcf5 053e 54dd f4bd
00000020: 9ea3 e33d df7c 403e 0994 c03d e623 913d
00000030: 3e80 febd e538 753e f864 aabc 7f81 f23d
00000040: 530e 853d 0ce0 bd3d 3767 503d 0c5f f1bc
00000050: ca02 45bd 982e 883d e3b3 ce3d d265 b33d
00000060: 2618 3f3e e3f7 96bd 031e a33d a941 6e3d
00000070: 4b1b e8bd bf57 ec3c a3d0 b8bd 083f ce3d
00000080: e97c 0abf 1a65 5a3e 801c b03d 624e fbbc
00000090: eb4d f23d 7cf3 263d f9cc 163d 9f32 85bd
000000a0: e75a cabc 0393 bf3d 7a91 2bbd b359 f93d
000000b0: 508a 833c 3a88 66bd 53f1 013e 4122 263d
000000c0: f036 14bc a6c2 df3e 55a5 be3d 8316 203d
000000d0: 141b ab3d bced 813d bc90 f2bd 8498 c9bb
000000e0: e1d5 0bbe 0700 ac3c ea94 7b3d ff40 893d
000000f0: 01a3 ea3d b57b 9c3d c9b4 b4bc b831 8f3d
00000100: 953b 7bbd bf43 e7bd 21ce 68bc ba75 2abd
00000110: e444 edbd 571d 14bd 971b 9e3d ae2c 14be
00000120: d6f2 e0bd ed2b 74be c54e dbbd 5e76 d8bd
00000130: 0469 93bd 0d30 b43d 8dca 6a3d fbc4 dabc
00000140: 448f e23d 5edf 003e a08b ebbd f1b9 103d
00000150: 0a55 9d3d e30e 093e 75cf 403d 2956 2fbe
00000160: 238c 02be 4ffa a43d 027f 8abb 3f99 f3bd
00000170: 5231 acbc 9729 633c 22ed 113e 0ec3 8f3b
00000180: c2d6 00bf 36ef d43c 8454 f83d 74c5 fa3d
00000190: 1913 fa3c 48c1 a13d 97a4 803d 8608 ab3d
000001a0: d9d9 993d da7d fe3c 9f95 b13d e425 d93c
000001b0: 8e5b 21bd cfde babd 6fd6 02bd 0e55 8dbd
000001c0: 669f 6bbe d4af fbbd 2877 493c 606b d3bc
000001d0: e060 bd3d 3fce 3f3d a711 fbbd 91d1 903d
000001e0: 1fde 853d b6c2 53bd 043a 47bc 9e6d 35bd
000001f0: acb3 15be 94b9 e93d fe76 a0bd c381 b13d
00000200: 3605 9c3d c077 ffbd c25c 9bbd deb0 e7bd
00000210: eeae 993d f2c8 c83d 2c3d 893d 1001 0c3c
00000220: f09f e03d 4c0f 523d 54a9 4a3d 9a33 9a3d
00000230: 0216 e6bd 40a1 0bbc 6a67 d7bd 9a57 913d
00000240: dc01 08bd 10d6 b63c cc5b 7b3d 4c62 f7bd
00000250: daa9 80bd 3e14 e9bd d0b5 ca3c a44a 4c3d
00000260: 3476 623d 26b3 a2bd 0088 f0bc 7c3a 96bd
00000270: e6fb 9fbd 56e2 8dbd 3e5d e7bd e4ad 8abd
00000280: c401 b93d c88d 92bc b85a a63c 4092 75bb
00000290: 5858 de3d 2c3d cabd 82bb c33d 00cb 7f3a
000002a0: f0cd 643c d45f 223d d051 003d 886d 02bd
000002b0: 7ce9 bcbd 806e 583d 2abc 8e3d 6202 ed3d
000002c0: c0b2 afbb 905b 7cbd ec5e e23d f216 993d
000002d0: 5284 a7bd f0ac 34bc ca31 8cbd e46e 9d3d
000002e0: 484e 203d 38df adbc 540a 743d 90ee ffbc
000002f0: 0016 743c 780d edbd 38b0 d1bc 802b c33c
00000300: 0d78 193e 8a9c 323e bf79 adbd 9bc2 f0bd
00000310: 6b81 a63d edde 1a3d 6889 79bd 5b26 3abd
00000320: b461 32bd 58d6 663e c6a1 9dbc ab88 173e
00000330: 0567 25bd b1a7 b03e 8096 343e 7f76 293e
00000340: 4342 e1bc 010f 95bd 0b53 a43d d4a4 f8bc
00000350: 20fd 4abd 2778 5e3e c9d1 19bd 7c4a a9bd
00000360: 113c 003d a0e5 203e 92c7 4fbd cff9 f7bc
00000370: a0ea c3bd 0b76 87b9 2961 123e 630e 2cbc
00000380: 902d 233c 4d61 c83e 40a8 0bbe 702c d6bd
00000390: d3cb cf3d 06d2 91bd 0771 4f3d 5aaa 80bd
000003a0: ed14 493c a30d 083d 56cb b43c 829b 2ebe
000003b0: a23b e7bd 9e0d 17be d40d 09bf e0ba 303c
000003c0: 5f89 f53d 9f1e bbbe 9cef 0d3e d660 c73c
000003d0: 858a b2bd bd7e 153e ce1a 063d fd7f a8bd
000003e0: 1698 17bd 2ee5 233c d581 7dbd 42e0 63bd
000003f0: 96ab 823d a2c7 90bd 2fa7 873d d286 68bd
-0.06653323 0.09025296 0.059467215 -0.2202256 -0.076707356 0.13500099 0.13082021 -0.119562775
0.11115192 0.18797635 0.094032355 0.07086925 -0.12426804 0.23947485 -0.020800099 0.11841106
0.06496873 0.09271249 0.050879683 -0.029464267 -0.048098363 0.06649512 0.100929044 0.08759655
0.18661556 -0.073714994 0.07964709 0.058168087 -0.11333331 0.028850434 -0.09024169 0.10070616
-0.5409685 0.2132763 0.08599186 -0.030677024 0.11831268 0.04075955 0.03681657 -0.06503796
-0.024701549 0.09354212 -0.041886784 0.12175312 0.016057163 -0.05628226 0.12689714 0.04056001
-0.009046301 0.43703192 0.09308878 0.03908397 0.08354774 0.06344172 -0.11844012 -0.0061522145
-0.13655807 0.020996107 0.061421312 0.0670185 0.11456872 0.07640783 -0.022058861 0.06991905
-0.06133612 -0.112922184 -0.014209301 -0.04161618 -0.115854055 -0.036160793 0.07720106 -0.14470169
-0.10983817 -0.23844881 -0.107083835 -0.10569452 -0.071977645 0.087982275 0.057322074 -0.026705256
0.11062482 0.12585208 -0.11501241 0.035333578 0.076822355 0.13384585 0.047072846 -0.17122711
-0.1274877 0.08055555 -0.0042265663 -0.11894464 -0.021019612 0.013864896 0.14250615 0.004387266
-0.50327694 0.02599297 0.12125495 0.122446924 0.030526685 0.078981936 0.06281393 0.08351235
0.07512254 0.03106587 0.08671116 0.026507325 -0.039393954 -0.091245286 -0.03194278 -0.069009885
-0.23010024 -0.12289396 0.0122964755 -0.025808036 0.09246993 0.04682755 -0.12259226 0.070712216
0.06536507 -0.051699363 -0.012159828 -0.044293992 -0.1461932 0.11412349 -0.07835196 0.08667328
0.076181814 -0.124740124 -0.075860515 -0.113130316 0.07504068 0.09803952 0.06701121 0.008545175
0.10968006 0.05128412 0.04947789 0.075293735 -0.112346664 -0.008522332 -0.105177715 0.07096787
-0.0332049 0.02231887 0.06136684 -0.120792955 -0.062823966 -0.11380814 0.024744898 0.04987587
0.05528851 -0.07944326 -0.029361725 -0.07335374 -0.07811718 -0.06927936 -0.112970814 -0.06771448
0.0903354 -0.017889872 0.02030693 -0.0037471205 0.10856694 -0.09874949 0.09557249 0.00097577274
0.013965115 0.03964217 0.031328022 -0.03184274 -0.09224221 0.052839756 0.06969483 0.1157272
-0.005361885 -0.06161076 0.11053261 0.074750796 -0.08179535 -0.01102756 -0.06845434 0.07687166
0.039137155 -0.021224603 0.059580162 -0.031241685 0.014897823 -0.115748346 -0.025596723 0.023824453
0.14987202 0.17442527 -0.08470487 -0.11755868 0.08130153 0.037810255 -0.060922056 -0.045446735
-0.04355021 0.22542703 -0.019242179 0.14798228 -0.04038145 0.34502938 0.17635536 0.16549109
-0.027497416 -0.072782524 0.08023652 -0.030352034 -0.049557805 0.21725522 -0.037553582 -0.0826616
0.031307284 0.15712595 -0.050727434 -0.030270485 -0.095662355 -0.00025837155 0.14294876 -0.010501477
0.009959593 0.39136735 -0.13638401 -0.104576945 0.10146298 -0.07120137 0.0506449 -0.06282492
0.0122730555 0.03321613 0.022069614 -0.17051509 -0.11290671 -0.14751288 -0.53536725 0.010786742
0.11989092 -0.365468 0.13860935 0.024338167 -0.08717827 0.14599128 0.032740407 -0.08227537
-0.037010275 0.010003371 -0.061891396 -0.05563379 0.06380384 -0.07069327 0.066236846 -0.0567692

decoder.decoder_fc2.bias f4 [128]
00000000: 979b 303d 2a8c a43d 58ae c2bc c621 973d
00000010: edd3 643c 5f70 793d e75f e1bc 1e2d 16bd
00000020: c31b 593d c056 863b 1942 02bb 77d3 1c3e
00000030: b148 7b3c ff29 79bd e30c c6bd 78da 453d
00000040: 0ef0 333d 1586 693d 1872 8ebd ce3d 9d3d
00000050: 5849 163d ed9b 13bd da56 97bd 0f0f f83d
00000060: 030f ed3b d970 44bb 6794 0e3e 9f85 6abd
00000070: 1aa5 47bd deb1 9f3d dfd7 e43d f0cc 94bd
00000080: 6f0a 653c 8618 6e3d b577 4bbd 6d5c 0cbe
00000090: 5a91 a43d 1004 403d 1e8e 9a3d 3171 ee3d
000000a0: 881c 9ebd b941 013d e4ee 8f3d c919 293c
000000b0: 6421 6ebc d543 dcbd 20ca 713d d2e6 043e
000000c0: c98e 373d 9095 dd3d 3756 c63d b8f4 92bd
000000d0: e822 443d c427 fcbd c1a4 843d f8c2 f6bd
000000e0: ae2b 3f3d 58e5 dfbc d5c0 efbc 4fb0 1dbc
000000f0: 4877 ec3d 7640 95bd fb26 53bd 2f53 6c3d
00000100: b940 a8bb 9875 853b 205f 9d3d 0101 c63d
00000110: f4cc e73d b039 48bd 46d7 a0bd 9309 10bd
00000120: 56e7 9bbd 8a13 5fbd 407e 88bd c923 e43c
00000130: b2d0 9bbc a490 073e e44f 1a3e a4e2 eabd
00000140: 508b a8bd 0d9c 00bd 4303 aaba 7c62 92bd
00000150: bcb3 a3bd bca6 abbd bea4 be3d c087 d9bb
00000160: 0d9d fd3d 1afd 093e c1a1 6cbd 9148 89bc
00000170: 8976 233d f727 5f3d d769 bdbd 018d 89bd
00000180: 7b79 8f3d c714 bebd 7e3f d43d 3e36 c13d
00000190: b008 3bbd 18dc f3bc 0e84 713d 1fa7 56bc
000001a0: a11d f3bd 7479 193d f697 4bbd e730 f3ba
000001b0: 9482 3cbd aed2 ce3d 749b 17bd 0283 c9bd
000001c0: 0e06 893d 2980 9a3d f0de 16bd ef1f 91bc
000001d0: f7ab 833c 3200 a8bd 93f0 02be e7d3 b43c
000001e0: 0ae6 0b3d 6f23 043e 846b 02bd 8c89 66bd
000001f0: 5908 82bd 89cb 963c a1cb b23d 8121 f83a
0.043117132 0.08034547 -0.023764774 0.07379489 0.013966543 0.06089818 -0.02751155 -0.03666412
0.05300499 0.004099697 -0.0019875823 0.15315042 0.015337155 -0.060831066 -0.09670427 0.04830405
0.043930106 0.057012636 -0.069553554 0.07677804 0.03669104 -0.036037374 -0.073896125 0.12112247
0.0072344556 -0.002997449 0.13923799 -0.057256337 -0.048741437 0.07797597 0.11173987 -0.07265651
0.013979538 0.058128856 -0.04967471 -0.13707133 0.08035536 0.046878874 0.07546638 0.11642683
-0.07720286 0.03155682 0.07027987 0.010321089 -0.014534328 -0.107551254 0.059030652 0.12978676
0.044813905 0.108195424 0.09684413 -0.07175583 0.04788485 -0.12312272 0.06476737 -0.12048906
0.046672516 -0.02733104 -0.029266754 -0.009624555 0.115461886 -0.072876856 -0.051550847 0.057696518
-0.0051346687 0.004072856 0.07684159 0.0966816 0.113183886 -0.04888314 -0.0785356 -0.03516538
-0.07612483 -0.054461993 -0.06664705 0.027849095 -0.019020412 0.1323877 0.15069538 -0.114690095
-0.08229697 -0.03139882 -0.0012970943 -0.07147691 -0.07993266 -0.083814114 0.09308766 -0.006638497
0.12383471 0.13475457 -0.057771448 -0.016758235 0.039907966 0.054481473 -0.09248703 -0.067163475
0.070055924 -0.09281307 0.10363673 0.09434174 -0.045662582 -0.029768035 0.058963828 -0.013101368
-0.11870886 0.037469342 -0.049705468 -0.0018554003 -0.046022967 0.10098778 -0.037013486 -0.09839441
0.06690608 0.07543976 -0.036833704 -0.017715422 0.01607321 -0.08203162 -0.12787084 0.0220737
0.03415493 0.12904142 -0.031840816 -0.05628352 -0.063492484 0.0184076 0.087302454 0.0018930883

decoder.decoder_fc3.weight f4 [32, 128]
00000000: e57d bb3d 5553 793d 1d8c 4bbb 6bc2 8d3d
00000010: f3c1 f2bc 67dd 4ebd 00b0 11bd 3edd 4dbd
00000020: e8e7 373d 6bcf 96bd d5e8 563b cd7f 033c
00000030: f597 3bbd 333e 20bd fd6f a13d fc4d 6f3d
00000040: adf8 b53c 626a 9f3c 83b6 3f3d 884d 233c
00000050: ae63 f13d bb96 793d 6d47 7fbd 9021 dd3d
00000060: 8802 8fbb 1cd3 243c 835b dd3d 38de a63d
00000070: 21c2 01bd 3472 5bbc 4390 0bbd 1651 10bd
00000080: cfa7 803d db45 a23d 43ec 933d 2c0d 163d
00000090: e717 f2bc 01af 0a3d d97d 7cbd 3130 a83d
000000a0: 27b0 56bd 5046 323d 1fc4 c03d f09a 983d
000000b0: d8fc b6bc aa19 073c 7526 893d db2f 713d
000000c0: 9b1c 93bd 7912 2abc 1dce 2c3d 305c 4cbd
000000d0: 4eaf ab3d e2d1 20bd f688 8dbc 6f88 1b3b
000000e0: 4a2c 533d ec25 48bd a616 77bc e237 c2bc
000000f0: 7267 073d 9765 98bd 8bbd ed3d f573 9d3c
00000100: 59f6 cf3d 9001 b33d f2cc d33d 3811 b03d
00000110: e9ed 6dbc 1c5f 85bc 60a6 8fbc 9af6 55bd
00000120: 6249 af3d 2a6d 3c3d d502 ecbc a247 a53c
00000130: e1b9 9bbc f355 99bb 92c4 c73d 0e92 f1bc
00000140: b240 473c 7bd1 85bd 3ba9 96bd 5262 01be
00000150: 8e43 87bd 0434 25bd 5c08 f73c 4df2 8ebd
00000160: 2618 dd3d a7b1 b4bc 4283 47bd 05f5 b83d
00000170: 9b1b 393d e754 29bd d22d 223d 57b3 833d
00000180: 1047 693d 331c 2a3d e05f 69bd e2ab 933d
00000190: 4a62 e2bb 2c3c 433d 2f50 eabc a783 2e3d
000001a0: ce69 0c3d 0e8e a03d c631 ab3d 324d 403d
000001b0: de7b 67bd 7db3 3a3d 9f59 aabb 1e4b cf3c
000001c0: cd6e 663d a5d6 41bd 471a 6cbd 6cf9 1c3d
000001d0: 20e0 05bd a6a0 a93d 73be 8abd 803b a03d
000001e0: 6637 a73d d325 733d 4200 0fbd 7881 8fbb
000001f0: 2b81 13bd 29cc 953c 129b acbc 68d0 04bd
00000200: 683c a3bd f855 7d3d 4472 97bd 2301 c63c
00000210: 70d7 1abd 4b98 383c f4ce dabc 28ca 1c3d
00000220: 605e 56bd 5c44 3f3c aec1 8dbd 2dce 883d
00000230: cb65 0dbc 6ca2 2fbe a78c cd3d ab39 9d3c
00000240: 5b9d 193e 3c25 0f3d aca2 6d3d e445 9cbd
00000250: 4ba7 aebc c8a2 05be b3db acbd f1fe f53d
00000260: 143f 39bc 5f72 d43c c88c 69bd d27b d5bd
00000270: a7bd a0bd 1bd3 933d 56fe 023e 6e43 943d
00000280: 27bf e6bc b8f8 953d 49a3 ab3c 43d3 313c
00000290: 00ab dd3d a122 69bd 5788 ebbc 6a79 063e
000002a0: 2de0 273c bac4 3ebd bf5a cd3c da69 b03d
000002b0: 1486 673d 3afb 673d fe8a b83c a9c6 37bd
000002c0: 3408 2cbd 1a18 043d fe54 053e f1ca ef3d
000002d0: 9fc6 113d d84b 00bd 1e02 fc3d a91a 71bd
000002e0: 2ecb 82bd cbd0 9b3c d06f c7bd edb3 5d3d
000002f0: 70fb 543d a673 99bd 0795 b8be 52b6 aa3d
00000300: 2af8 91bc 9511 df3d accd 5b3d 6900 2f3e
00000310: de29 c6be ebaa da3c fe6a c7bc 1204 babc
00000320: 10fe b73c e769 28bd 36b9 453e 561b b9bc
00000330: 551d c83c d34c a53d 60eb 4a3d 83ea 7d3c
00000340: f330 9b3c 7d3b 783d a9ee 67bd 66f3 c43c
00000350: 5915 86bd 48f4 f3bc bd87 903d 92c6 5cbd
00000360: 538a 81bd 31a6 113d 4a6e 37be e98e 1b3e
00000370: 2292 953d 1428 85bc 9c5f 83bd b9a1 fa3c
00000380: a00f 20bc 7adb 803e 2757 21bd d181 363d
00000390: 8c6d c8bc a84d 38bd e395 24bc 85ec 5b3d
000003a0: d1e8 073c 1fbc 4a3e 107b a03d bc9a af3d
000003b0: a43b 8fbb 8002 b8bc b6d7 65bd 4bff 223d
000003c0: c7b0 5fbd 7bd3 643c b684 5d3e a4e7 a5bd
000003d0: 5702 c1bc 0d69 4cbd e93e d13d 2940 a93d
000003e0: c491 033a 3558 a03d a412 203d 073b 3cbd
000003f0: ae99 993c c20f a9bd 005b 8d3d 93c6 833a
0.09154872 0.060870487 -0.0031058856 0.06921848 -0.029633498 -0.050504114 -0.035568237 -0.05025982
0.044898897 -0.073637806 0.0032792587 0.008026076 -0.045799214 -0.039121818 0.07882688 0.05842398
0.022213304 0.019459907 0.046804916 0.009967215 0.117865905 0.060934763 -0.062323976 0.10797417
-0.0043643154 0.010060098 0.1080847 0.081478536 -0.031679276 -0.013393927 -0.034073126 -0.03523358
0.06282007 0.0792348 0.07222798 0.036633655 -0.029552413 0.033858303 -0.061643455 0.08212317
-0.052414086 0.043524086 0.09412407 0.07451427 -0.022337362 0.008245865 0.06696788 0.05888353
-0.071831904 -0.010380381 0.042188752 -0.049892604 0.08383046 -0.03926266 -0.017277222 0.0023732444
0.05155591 -0.04886429 -0.015081083 -0.023708288 0.033057638 -0.07441252 0.11608418 0.019220332
0.10154409 0.087405324 0.103418246 0.08597034 -0.014522054 -0.016280703 -0.017535388 -0.05223713
0.085589185 0.046002544 -0.028809944 0.020175759 -0.019009532 -0.0046794354 0.0975429 -0.02948859
0.012161421 -0.06534096 -0.07356497 -0.12635162 -0.06604682 -0.04033281 0.030155353 -0.06979809
0.107956216 -0.022057367 -0.04870916 0.09031109 0.045192342 -0.041340735 0.03959448 0.06430691
0.056952536 0.0415308 -0.0569762 0.072105184 -0.0069086896 0.047664806 -0.028602688 0.042606022
0.03428059 0.07839595 0.08359103 0.04694862 -0.056514613 0.04558133 -0.005198672 0.025304373
0.05625801 -0.04732384 -0.057642248 0.038323805 -0.032684445 0.082825944 -0.067746066 0.07823849
0.08164863 0.059362244 -0.034912355 -0.0043794475 -0.036011856 0.018285828 -0.021070037 -0.032425314
-0.07970506 0.061849564 -0.07394841 0.024170464 -0.037803113 0.011266778 -0.026710011 0.03827873
-0.052336097 0.011674013 -0.06921707 0.0667995 -0.008630226 -0.17151803 0.10036593 0.019192537
0.15001433 0.03494762 0.058016464 -0.07630518 -0.021320006 -0.13050377 -0.08440342 0.12011517
-0.011306543 0.025933443 -0.057019025 -0.104240075 -0.07848673 0.072179995 0.12792334 0.07239424
-0.02816732 0.0732283 0.020951884 0.010853591 0.10823631 -0.05691779 -0.028751535 0.13132253
0.010246319 -0.04657433 0.025067685 0.086139396 0.05652435 0.056636073 0.022527214 -0.04486719
-0.04200001 0.032249548 0.13020703 0.1170863 0.03558981 -0.03132233 0.12305091 -0.058863316
-0.0638641 0.019020459 -0.097381234 0.05412667 0.051997602 -0.07492761 -0.360512 0.08335556
-0.01781853 0.108920254 0.05366294 0.1709 -0.38703817 0.026692828 -0.02434301 -0.022707019
0.022460014 -0.04111662 0.19308934 -0.022596043 0.02442805 0.08071294 0.049540877 0.0154978065
0.01894424 0.060603607 -0.05662409 0.024041843 -0.065470405 -0.029779568 0.0705714 -0.05390031
-0.063252114 0.035558883 -0.17913166 0.15191235 0.07303263 -0.016254462 -0.064147204 0.030594693
-0.00976935 0.25167447 -0.039389756 0.044557396 -0.024466299 -0.044995934 -0.010045501 0.05369236
0.008295254 0.19798325 0.07835972 0.08574435 -0.0043711234 -0.02246213 -0.05611392 0.039794248
-0.054611947 0.0139664365 0.21632656 -0.081008226 -0.023560686 -0.04990487 0.10217077 0.08264191
0.0005018974 0.07829324 0.039080277 -0.04595473 0.018750038 -0.08254959 0.069021225 0.0010053687

decoder.decoder_fc3.bias f4 [32]
00000000: 7fef f43c e4cb 95bb 9be8 fc3d 28a9 703d
00000010: 10b4 1d3d 7230 48bc bca5 a43d 4aa7 39bd
00000020: f055 1e3d c0b3 963d 53ef 233d 79b9 043d
00000030: c716 583d b91d 21bd e30a 9835 cc95 0bbc
00000040: 7bbc 903d c27f 123d 15b1 a43d 9937 9b3d
00000050: 4e85 03bd 3fed 2cbd dad6 bf3d d2a7 5abc
00000060: 85d6 b5bc ba6f efba 7073 d83d ef53 d33d
00000070: 533a ce3d 38ba a93b 181c c63d 2c48 ccbc
0.029899357 -0.004571425 0.123490535 0.05875507 0.0385018 -0.0122185815 0.08039424 -0.045325555
0.038656175 0.07358503 0.04002316 0.032403443 0.052756097 -0.039334986 1.1328051e-06 -0.008519601
0.070672 0.03576637 0.08041588 0.07578964 -0.03210955 -0.042218443 0.093671516 -0.013345676
-0.022197017 -0.001826755 0.10568893 0.103187434 0.10069718 0.0051796697 0.09673327 -0.024936758
