clustering/clustering/encoder_weights/og_vae_ground_lidar/lidar_encoder_autoencoder_ground_lidar.pth (torch, 116186 bytes, 14 tensors)

encoder.conv2d_1.weight f4 [16, 1, 1, 3]
-0.42081428 0.3926919 0.13688858 -0.04747646 0.41000688 -0.113081284 -0.17513695 0.44769987
0.60989904 0.007122821 0.036434162 -0.35217547 -0.52160805 0.16061072 0.38010865 -0.36356783
0.0064202505 0.113129325 0.37793446 0.2157179 -0.053328298 -0.23333466 -0.43821365 -0.15972742
-0.13610111 0.07697199 0.26973712 -0.4936069 0.233192 -0.56467724 -0.3781525 0.0038745324
0.12317709 0.024384374 -0.16479903 0.52090377 -0.44341743 0.5505266 -0.41959715 -0.08355495
-0.4192828 0.5212439 0.06664178 0.19679026 0.109653875 0.5962013 -0.5293977 0.105918735
00000000: f874 d7be ea0e c93e 852c 0c3e ad76 42bd
00000010: 6cec d13e 2997 e7bd 1a57 33be eb38 e53e
00000020: 5822 1c3f 8e66 e93b fd3b 153d 5850 b4be
00000030: 1b88 05bf 2377 243e 9a9d c23e 9025 babe
00000040: f760 d23b 59b0 e73d a080 c13e 27e5 5c3e
00000050: c66e 5abd 48ef 6ebe 8a5d e0be 968f 23be
00000060: 175e 0bbe 7ea3 9d3d fc1a 8a3e 0bba fcbe
00000070: e2c9 6e3e b08e 10bf 349d c1be deeb 7d3b
00000080: 4544 fc3d bdc1 c73c 14c1 28be f359 053f
00000090: 9c07 e3be 50ef 0c3f 70d5 d6be dc1e abbd
000000a0: 3cac d6be 3d70 053f 7c7b 883d 6383 493e
000000b0: 3692 e03d a6a0 183f 9c86 07bf eceb d83d

encoder.conv2d_1.bias f4 [16]
-0.5462714 -0.44612533 -0.0069580125 -0.38126224 0.31679794 -0.4590628 -0.4155657 -0.07136586
-0.18914507 -0.5169993 -0.38775483 0.36700585 0.25055566 0.31744462 -0.41669467 -0.071581334
00000000: 71d8 0bbf 8a6a e4be 0a00 e4bb ce34 c3be
00000010: 5733 a23e 480a ebbe 07c5 d4be 4428 92bd
00000020: 3faf 41be 115a 04bf cd87 c6be 31e8 bb3e
00000030: d548 803e 1a88 a23e 0159 d5be 3c99 92bd

encoder.conv2d_2.weight f4 [32, 16, 1, 3]
-0.052058604 0.13517937 -0.00541335 0.13634911 0.14140457 -0.004930333 0.031873506 -0.11852336
0.00523296 -0.007523644 -0.10423721 -0.08072039 -0.084318444 -0.1345744 0.111632966 0.13459292
0.13222262 0.08042488 0.12605175 0.006705933 -0.28638664 0.09521389 -0.09145397 -0.09067333
-0.44111755 0.23752369 -0.102321126 -0.13324936 0.026555 0.008924484 0.053166676 -0.07544123
-0.06936366 0.09613416 0.06114753 0.08402284 -0.054454416 0.0337965 -0.2442139 -0.17998022
-0.12343595 0.19918154 -0.10675302 0.14245218 0.09468013 0.4355738 0.15766142 0.29516548
-0.07939728 -0.044475418 0.12406033 0.1434465 0.08225188 0.14361972 0.17155728 -0.11292204
0.117913716 -0.07451327 0.11706243 -0.033500597 0.21289113 -0.05303477 -0.02873596 -0.0740467
0.02295577 -0.102549106 0.09463341 0.13680875 -0.03392862 0.090334415 0.10792894 -0.09168782
0.20401388 -0.0958824 0.13783003 -0.067083165 0.10834683 0.005229311 -0.0016601918 -0.14163993
-0.07717814 -0.09364031 0.098256916 -0.04320152 0.34802353 0.05918218 -0.54686505 -0.06375353
-0.089552864 0.13848627 0.025773523 0.070872 0.00906797 0.024386385 0.11679699 0.06313497
-0.07871734 0.101518594 0.051802643 0.107481465 0.13066629 0.023025077 0.08891818 -0.040152382
-0.014103222 -0.07413826 -0.08800882 -0.055520594 0.15989594 -0.12647972 0.023260174 -0.006772379
0.016887631 -0.055525225 0.108740866 0.16608244 0.02282103 0.13951005 0.118746795 0.023199946
0.2334842 -0.1757466 -0.09326047 0.10078093 -0.08333727 0.10257874 -0.037406407 -0.037020057
-0.10456576 -0.0014483917 0.032907724 0.014442567 0.24198563 0.2699648 -0.155356 -0.13371642
-0.079937644 -0.056624018 0.032266323 -0.060203787 -0.023357928 -0.27852136 0.14752011 -0.1221943
-0.031159341 0.0410008 -0.06099408 0.10720807 0.11423452 0.13667767 -0.14349061 0.0013382781
0.1921229 -0.090425506 -0.017142285 0.0021879287 -0.046606597 0.14636348 0.12776656 -0.11084421
-0.034546416 0.051222563 -0.33668056 -0.11118602 -0.11277661 0.108683884 -0.031975836 0.11300675
0.18488173 -0.071947485 -0.021311818 -0.061164666 -0.057121977 0.030602267 -0.08275033 0.1306722
0.13521801 -0.07411808 0.15549296 0.10280572 0.21218075 0.2155832 -0.3099577 0.041133147
0.0934244 0.17348494 0.021403452 0.043082826 -0.09747583 0.21698022 0.16157241 -0.40047565
0.10004869 -0.050620113 0.055022936 0.09095275 0.008805571 -0.10755007 -0.08717251 -0.14087869
0.049290977 0.14117123 -0.0807798 -0.120844595 0.031146666 0.12835784 0.16455424 0.09317616
-0.13116667 -0.020607838 -0.068553776 -0.1362219 0.031417307 -0.10215133 -0.10649566 0.1416889
0.15311104 -0.04774313 0.030297406 0.1344579 0.016613103 0.13802609 0.10875061 -0.11338052
-0.14221744 -0.04585216 -0.034657508 0.09285587 -0.014011118 0.25491667 -0.29765633 0.11534165
0.1471738 0.15295562 -0.08285372 -0.04575382 -0.106758006 -0.21545735 0.08500206 -0.05248905
-0.09038404 -0.07085781 -0.06857857 -0.04864682 0.057350166 0.01816825 0.084325 -0.11396538
0.09338394 0.12109089 0.0112292785 -0.008713723 -0.05724868 -0.047295272 0.18315488 -0.027794823
00000000: 673b 55bd 766c 0a3e 7962 b1bb 1a9f 0b3e
00000010: 5ccc 103e a18e a1bb cb8d 023d 60bc f2bd
00000020: 4079 ab3b e688 f6bb 517a d5bd bb50 a5bd
00000030: 26af acbd dfcd 09be d39f e43d bad2 093e
00000040: 5e65 073e cdb5 a43d b613 013e 71bd db3b
00000050: 45a1 92be 80ff c23d 384c bbbd f0b2 b9bd
00000060: 29da e1be 6939 733e bd8d d1bd 8572 08be
00000070: df89 d93c 0038 123c 4dc5 593d ee80 9abd
00000080: 890e 8ebd fde1 c43d d575 7a3d 2b14 ac3d
00000090: 980b 5fbd 336e 0a3d 3513 7abe bc4c 38be
000000a0: fdcb fcbd 3ff6 4b3e 54a1 dabd fcde 113e
000000b0: a8e7 c13d 8703 df3e ff71 213e ee1f 973e
000000c0: 0b9b a2bd db2b 36bd 5813 fe3d a4e3 123e
000000d0: ac73 a83d 0c11 133e b6ac 2f3e ac43 e7bd
000000e0: bf7c f13d 6a9a 98bd 6dbe ef3d ec37 09bd
000000f0: 2200 5a3e fd3a 59bd ad67 ebbc cca5 97bd
00000100: bd0d bc3c 4405 d2bd 29cf c13d 9817 0c3e
00000110: bdf8 0abd 4001 b93d d909 dd3d d3c6 bbbd
00000120: 04e9 503e fe5d c4bd 5123 0d3e e662 89bd
00000130: f1e4 dd3d a45a ab3b cb9a d9ba 0f0a 11be
00000140: 930f 9ebd 7ec6 bfbd ec3a c93d 14f4 30bd
00000150: 2430 b23e 0369 723d 59ff 0bbf 3691 82bd
00000160: 7e67 b7bd 58cf 0d3e ff22 d33c 5725 913d
00000170: d391 143c f5c5 c73c 4333 ef3d e84c 813d
00000180: 8f36 a1bd fbe8 cf3d 022f 543d 3e1f dc3d
00000190: 62cd 053e 169f bc3c bc1a b63d d376 24bd
000001a0: 3311 67bc cdd5 97bd f83d b4bd 9069 63bd
000001b0: c3bb 233e e683 01be 1f8c be3c d5ea ddbb
000001c0: ee57 8a3c 6b6e 63bd 88b3 de3d 8411 2a3e
000001d0: 2bf3 ba3c b9db 0e3e 8531 f33d d00d be3c
000001e0: 7b16 6f3e ebf6 33be 58ff bebd 3b66 ce3d
000001f0: bbac aabd cd14 d23d 7637 19bd 58a2 17bd
00000200: 9326 d6bd f6d7 bdba 40ca 063d 84a0 6c3c
00000210: 15cb 773e d438 8a3e a515 1fbe f5ec 08be
00000220: 59b6 a3bd 96ee 67bd b129 043d 3f98 76bd
00000230: 2059 bfbc 5a9a 8ebe 830f 173e 0141 fabd
00000240: e041 ffbc 74f0 273d eed4 79bd e88f db3d
00000250: caf3 e93d 3bf5 0b3e 34ef 12be 2969 af3a
00000260: debb 443e 0231 b9bd fa6d 8cbc 5a63 0f3b
00000270: 8fe6 3ebd 4fe0 153e 3dd5 023e 4a02 e3bd
00000280: 8b80 0dbd c0ce 513d 6561 acbe 7fb5 e3bd
00000290: 6cf7 e6bd a895 de3d 18f9 02bd 1570 e73d
000002a0: a351 3d3e 3459 93bd 1f96 aebc cd87 7abd
000002b0: bcf8 69bd 9bb1 fa3c 0179 a9bd efce 053e
000002c0: 9776 0a3e 38cb 97bd 8c39 1f3e ce8b d23d
000002d0: e945 593e d8c1 5c3e c7b2 9ebe 3b7b 283d
000002e0: 4b55 bf3d 09a6 313e 4b56 af3c 9e77 303d
000002f0: 68a1 c7bd 1030 5e3e 3d73 253e 250b cdbe
00000300: 54e6 cc3d 0957 4fbd bb5f 613d 6f45 ba3d
00000310: 3e45 103c 3643 dcbd 8087 b2bd 8142 10be
00000320: 56e5 493d 318f 103e e16f a5bd 5f7d f7bd
00000330: 4b27 ff3c 3d70 033e e880 283e 24d3 be3d
00000340: 8e50 06be c5d1 a8bc ec65 8cbd c17d 0bbe
00000350: 6faf 003d b734 d1bd 661a dabd e516 113e
00000360: 24c9 1c3e 4d8e 43bd 4432 f83c 55af 093e
00000370: 3418 883c b656 0d3e a4b8 de3d 0c34 e8bd
00000380: 73a1 11be 79cf 3bbd 08f5 0dbd 382b be3d
00000390: e38e 65bc 7084 823e 6966 98be 3e38 ec3d
000003a0: bbb4 163e 66a0 1c3e 36af a9bd 5c68 3bbd
000003b0: f1a3 dabd daa0 5cbe 8f15 ae3d c2fe 56bd
000003c0: 441b b9bd e61d 91bd ec72 8cbd e341 47bd
000003d0: 02e8 6a3d 95d5 943c 96b2 ac3d ae66 e9bd
000003e0: 1440 bf3d 80fe f73d 02fb 373c 01c4 0ebc
000003f0: 987d 6abd b0b8 41bd f48c 3b3e f8b1 e3bc

encoder.conv2d_2.bias f4 [32]
-0.0040912833 0.12535633 0.02504934 -0.06008158 0.12096897 -0.030247815 0.1412156 -0.03286499
0.052273307 -0.1349047 0.13125937 0.053186353 0.11308869 0.018968841 -0.09208229 -0.09829417
0.04637892 0.088810414 -0.13346 0.12407607 -0.097404905 0.1531076 0.101623535 -0.10681054
-0.109203584 0.1083041 -0.00032875687 0.016627682 0.056512903 0.20460361 0.19790658 0.100070596
00000000: 2c10 86bb 695d 003e 4634 cd3c 1a18 76bd
00000010: 94be f73d 44ca f7bc d29a 103e 719d 06bd
00000020: 891c 563d 7524 0abe db68 063e efd9 593d
00000030: 0b9b e73d 8b64 9b3c a495 bcbd 744e c9bd
00000040: d3f7 3d3d 3ce2 b53d bda9 08be 981b fe3d
00000050: 397c c7bd 3dc8 1c3e 0020 d03d 7cbf dabd
00000060: 21a6 dfbd 8ace dd3d 005d acb9 c736 883c
00000070: 137a 673d 9c83 513e 06a8 4a3e d0f1 cc3d

encoder.conv2d_3.weight f4 [64, 32, 1, 3]
-0.018046116 -0.011077252 -0.090258285 -0.12716432 -0.10932395 -0.03251381 0.07456409 -0.0096206395
-0.005991682 0.005477615 -0.09638104 -0.08460363 -0.025889551 -0.056338456 -0.01508303 0.04198169
-0.053259086 0.05824292 -0.028158916 0.08243281 -0.06460127 -0.087799594 0.06611969 0.065966405
0.047010146 0.04011549 -0.06636578 0.074438654 0.07974979 -0.03223226 0.041605204 -0.028456127
-0.07043117 -0.088958025 0.023182716 -0.030749507 0.0071318713 -0.040266715 -0.08651795 0.030842865
0.04991813 -0.080859035 -0.07786804 0.08650329 0.09934106 0.040104695 0.03189059 -0.026237767
-0.051720172 0.00812987 0.06255504 0.07318833 0.006542377 -0.019138472 -0.052745346 -0.034193806
-0.085504726 -0.07844323 -0.10016518 -0.11964262 -0.022316357 -0.054473728 -0.011917889 -0.094141655
-0.05134494 -0.098037995 0.022219954 -0.031142747 -0.06890798 0.07790304 -0.04247976 0.0034250855
-0.015139632 -0.02452646 0.021588836 -0.09396364 0.022276053 -0.03695333 -0.098247334 0.027451456
-0.068527326 0.011353034 -0.047493886 -0.012420451 -0.082301654 -0.060707174 0.0051824227 -0.11833509
0.059723917 -0.07730174 -0.113903806 -0.08316596 0.014837871 -0.07234766 -0.09819866 -0.114862554
0.06920683 0.0017951793 0.034200102 0.054816388 0.00900314 -0.047270533 0.014452361 -0.019477582
-0.09199068 0.0019131647 0.0111827 0.06771608 -0.0021476396 -0.033105668 -0.061162878 0.06769364
-0.06697261 0.01999654 -0.052501384 -0.09183842 0.06619288 -0.084563784 0.056164846 -0.07147841
0.046453483 0.005882439 -0.09560068 -0.08267042 0.069116935 0.050103787 -0.06976766 0.022953905
-0.020930732 0.018929936 -0.061680038 0.05276542 -0.1200139 -0.12057711 -0.0919032 0.038816836
0.029638102 0.048886027 -0.0024717844 -0.032012526 -0.00044250462 0.023315966 -0.037020236 -0.0006593526
-0.07673596 0.072417 -0.09180907 0.028334219 -0.034136936 -0.006746052 0.02651351 0.0775789
0.025345111 0.006893215 -0.060277406 -0.037658688 0.04839539 -0.06331465 0.10173451 -0.07927859
-0.04387969 -0.03410781 -0.044056408 -0.09034365 -0.019713499 0.044693537 0.020493584 0.0362011
-0.09144996 0.06386273 -0.041216172 0.047445774 0.078579046 -0.06146479 -0.0530073 -0.02057304
-0.0944269 -0.10967652 0.023398593 0.0062093013 -0.04075842 0.07018616 -0.0050749215 -0.08177537
-0.045135718 -0.084285505 -0.02052548 0.0816238 -0.08872566 -0.07404985 -0.0936551 -0.10217867
0.04024799 -0.026006358 -0.04192633 0.024124289 -0.030954868 -0.1125598 -0.10028615 -0.05346167
-0.010278834 0.060960714 -0.086093366 -0.08728691 0.016630076 -0.11682019 -0.0014960276 0.07642857
0.04098669 0.031191552 0.052156802 0.07454113 -0.08973632 0.026318658 0.05602438 -0.050775647
-0.03628008 0.07860284 0.060211584 -0.057981778 0.08377345 0.0519293 0.045634557 0.042197295
0.06624949 -0.027201163 -0.10148836 -0.077673286 -0.068966694 -0.059913136 0.012435945 -0.050430235
-0.017288687 0.0041586566 0.04312944 -0.031285524 0.028003387 -0.07340727 0.054760143 0.02911219
-0.043742053 0.08619886 0.024049738 0.080457464 0.0037074808 0.07902091 0.097500175 0.048654106
-0.088793546 -0.040302105 0.020590015 -0.04984468 0.039569974 0.07123553 0.049987048 -0.09937944
00000000: 73d5 93bc 5d7d 35bc 56d9 b8bd 5d37 02be
00000010: 3ce5 dfbd 332d 05bd 0fb5 983d e39f 1dbc
00000020: df55 c4bb 917d b33b 6c63 c5bd ab44 adbd
00000030: 5316 d4bc 27c3 66bd d01e 77bc fef4 2b3d
00000040: 3326 5abd 2190 6e3d 87ad e6bc 88d2 a83d
00000050: ac4d 84bd 46d0 b3bd c369 873d 6519 873d
00000060: b68d 403d 2450 243d c8ea 87bd 4b73 983d
00000070: dc53 a33d f905 04bd 386a 2a3d d31c e9bc
00000080: 383e 90bd a02f b6bd aee9 bd3c 64e6 fbbc
00000090: 79b2 e93b b6ee 24bd 5330 b1bd 2daa fc3c
000000a0: f476 4c3d 6c99 a5bd 4779 9fbd a328 b13d
000000b0: 5373 cb3d d244 243d b59f 023d 96f0 d6bc
000000c0: 88d8 53bd 2533 053c db1c 803d c3e3 953d
000000d0: 7061 d63b 49c8 9cbc 810b 58bd ce0e 0cbd
000000e0: 1a1d afbd d8a6 a0bd 6723 cdbd 3107 f5bd
000000f0: cbd0 b6bc d81f 5fbd 4043 43bc 57cd c0bd
00000100: 124f 52bd 25c8 c8bd 9f06 b63c 131f ffbc
00000110: a11f 8dbd a18b 9f3d 42ff 2dbd 6677 603b
00000120: 380c 78bc b7eb c8bc 12db b03c 0270 c0bd
00000130: 457c b63c 605c 17bd e635 c9bd e0e1 e03c
00000140: 0e58 8cbd 1302 3a3c f388 42bd 267f 4bbc
00000150: c58d a8bd 16a8 78bd 50d1 a93b ab59 f2bd
00000160: 11a1 743d 6050 9ebd 6646 e9bd ea52 aabd
00000170: 8b1a 733c 032b 94bd 611c c9bd 0f3d ebbd
00000180: 4fbc 8d3d 394c eb3a 6815 0c3d 2687 603d
00000190: e881 133c bf9e 41bd 98c9 6c3c 738f 9fbc
000001a0: 9c65 bcbd 28c3 fa3a a537 373c baae 8a3d
000001b0: 6abf 0cbb cf99 07bd ed85 7abd f7a2 8a3d
000001c0: f028 89bd c9cf a33c b10b 57bd c815 bcbd
000001d0: 2290 873d c72f adbd 1c0d 663d 4663 92bd
000001e0: 0246 3e3d 7ac1 c03b 4aca c3bd 1c4f a9bd
000001f0: 2e8d 8d3d a139 4d3d 59e2 8ebd d409 bc3c
00000200: ed76 abbc f412 9b3c 35a4 7cbd 8e20 583d
00000210: d9c9 f5bd 22f1 f6bd bf37 bcbd 67fe 1e3d
00000220: 9bcb f23c b73c 483d a9fd 21bb 911f 03bd
00000230: f7ff e7b9 2001 bf3c 88a2 17bd 67d8 2cba
00000240: be27 9dbd 5d4f 943d 6506 bcbd 2a1d e83c
00000250: 2cd3 0bbd fc0d ddbb dc32 d93c b0e1 9e3d
00000260: 8da0 cf3c 7ae0 e13b 71e5 76bd ff3f 1abd
00000270: 3f3a 463d 1cab 81bd 2f5a d03d d05c a2bd
00000280: 31bb 33bd a2b4 0bbd 7e74 34bd 1706 b9bd
00000290: 347e a1bc 9210 373d 29e2 a73c 9b47 143d
000002a0: 1e4a bbbd 77ca 823d 4ad2 28bd 8056 423d
000002b0: 0dee a03d 81c2 7bbd 2f1e 59bd cb88 a8bc
000002c0: e462 c1bd 159e e0bd 68ae bf3c 6577 cb3b
000002d0: 4df2 26bd c3bd 8f3d 874b a6bb d879 a7bd
000002e0: 3be0 38bd e19d acbd 0d25 a8bc 612a a73d
000002f0: cdb5 b5bd 73a7 97bd 3fce bfbd 0d43 d1bd
00000300: 14db 243d 490b d5bc f2ba 2bbd 4da0 c53c
00000310: 1095 fdbc c185 e6bd d362 cdbd a0fa 5abd
00000320: 8e68 28bc f1b1 793d b851 b0bd 7bc3 b2bd
00000330: cc3b 883c 6c3f efbd 5b16 c4ba 9586 9c3d
00000340: a9e1 273d 6d85 ff3c 5fa2 553d 05a9 983d
00000350: adc7 b7bd 3a9a d73c d279 653d 20fa 4fbd
00000360: 6c9a 14bd 87fa a03d 6ca0 763d 4d7e 6dbd
00000370: 6a91 ab3d d1b3 543d 4deb 3a3d 12d7 2c3d
00000380: d0ad 873d f9d4 debc 21d9 cfbd 2c13 9fbd
00000390: 693e 8dbd 7a67 75bd 22c0 4b3c ef8f 4ebd
000003a0: 01a1 8dbc 5745 883b 7fa8 303d 4025 00bd
000003b0: 5c67 e53c 8d56 96bd 2c4c 603d b07c ee3c
000003c0: de2a 33bd 0789 b03d f503 c53c e2c6 a43d
000003d0: 35f9 723b b7d5 a13d 2cae c73d 8749 473d
000003e0: 64d9 b5bd d213 25bd 64ac a83c ef29 4cbd
000003f0: 2014 223d efe3 913d 38bf 4c3d 7387 cbbd

encoder.conv2d_3.bias f4 [64]
-0.10582133 -0.04681413 -0.007227888 -0.021208083 -0.08766372 -0.035084523 -0.055278547 -0.059977774
-0.03008412 0.07958489 -0.10548009 -0.08602381 0.032569863 -5.7769204e-05 0.006824732 -0.090107664
0.070136905 0.013893102 -0.1037311 0.009969688 0.040111236 0.019795729 -0.022533305 0.01833885
-0.035856664 0.03818548 -0.0138342865 0.06938324 -0.058347758 -0.00776705 0.017438805 0.0028978204
0.038639545 -0.08735477 -0.052349538 0.04159999 -0.083174296 -0.106412746 0.018077768 -0.035157025
-0.015246895 -0.009959003 0.032814976 0.061401114 -0.048477877 0.0044134087 -0.05961017 0.041289795
0.037608027 -0.029860895 -0.06306065 -0.04875466 0.011534082 0.024364434 -0.07516573 -0.061189793
0.023569347 0.08979515 -0.048727177 0.117293574 0.06066228 0.11333214 0.056118205 -0.0968891
00000000: dab8 d8bd 2cc0 3fbd ebd7 ecbb 93bc adbc
00000010: 0989 b3bd cab4 0fbd c26b 62bd 41ab 75bd
00000020: f972 f6bc 67fd a23d f205 d8bd 402d b0bd
00000030: fa67 053d 364d 72b8 00a2 df3b 5e8a b8bd
00000040: f0a3 8f3d e59f 633c f970 d4bd e757 233c
00000050: ae4b 243d a72a a23c c497 b8bc 5b3b 963c
00000060: 70de 12bd 6168 1c3d 34a9 62bc cd18 8e3d
00000070: 0ffe 6ebd bd82 febb d3db 8e3c 5ce9 3d3b
00000080: 8044 1e3d 0fe7 b2bd 786c 56bd c064 2a3d
00000090: 4957 aabd edee d9bd d417 943c d000 10bd
000000a0: 1dce 79bc 162b 23bc ff68 063d bc7f 7b3d
000000b0: bd90 46bd 5b9e 903b cb29 74bd 7d1f 293d
000000c0: e00a 1a3d d69e f4bc f125 81bd f7b2 47bd
000000d0: 72f9 3c3c ec97 c73c 7ef0 99bd 26a2 7abd
000000e0: 8114 c13c 85e6 b73d 2696 47bd 9d37 f03d
000000f0: 0379 783d ae1a e83d 34dc 653d cb6d c6bd

encoder.fc.weight f4 [16, 64]
0.044465978 0.08211431 -0.058982924 -0.041432004 0.09692544 0.09147257 0.055316716 -0.18616295
-0.06739721 0.043709468 -0.077775955 0.11583309 -0.093267284 0.048703793 -0.055499 0.09592238
-0.12610982 -0.09140988 0.02359585 -0.0089397635 -0.059082136 0.030866703 0.06101948 0.11032539
-0.12780116 -0.105101645 -0.08626043 -0.10951662 -0.014213597 -0.11973053 0.041083246 -0.09782392
0.06046115 -0.12899311 -0.03790264 0.041844666 0.059760645 -0.023513697 0.038500722 -0.09165889
-0.18381196 -0.06119283 0.12283723 0.041291837 0.07547828 0.028308509 0.052586205 -0.05576568
0.23954363 0.07673726 -0.3325304 -0.08446451 0.10904397 0.050257996 -0.042903423 -0.04394794
0.068026945 -0.18731774 0.11354535 0.6509128 -0.30576524 0.11275601 -0.035780333 -0.12917855
-0.05509574 0.033108767 -0.05716251 -0.10305551 0.10665643 -0.095614105 0.0064650625 -0.042309985
-0.093242794 -0.06587295 -0.08207483 -0.00090257823 -0.0074539115 0.026607515 -0.056687355 0.009393051
0.019193232 -0.13076913 0.028828142 -0.092190854 -0.09997019 -0.07543782 -0.0014421113 -0.1497658
-0.044597637 0.03947219 -0.01614434 0.052991755 0.055990264 0.07794763 -0.011859322 0.071014166
0.07017016 -0.09357893 -0.1173847 -0.0336984 -0.00539726 -0.011895789 -0.10627371 0.08896847
-0.17199895 -0.090046674 0.023079855 0.033951636 0.10001723 -0.090207405 0.009189206 0.03992074
0.008917741 -0.10368791 -0.13482267 0.026906539 -0.16632849 -0.07787314 -0.03439412 0.09939237
-0.07796839 0.056914076 -0.058567468 -0.19483638 -0.04987579 0.16056804 0.06656289 -0.021594416
0.041855603 0.018379688 0.046872027 -0.061528854 -0.12027022 0.09742168 0.11854768 -0.14072476
0.11743878 -0.03915955 0.005955928 0.059464023 -0.09951901 -0.077801056 -0.019492833 -0.0031303465
0.11227838 0.08432512 0.0062705465 -0.06532343 -0.07488408 -0.10543061 -0.051719688 0.14327747
0.016892184 -0.10609034 0.10567834 -0.017380739 -0.101936266 -0.036136724 0.08911701 0.012723142
-0.094731756 -0.002936367 0.10231747 0.008835238 -0.105751924 0.06412682 -0.035260577 0.0652185
0.05424306 -0.117468916 -0.049568657 -0.08866058 0.008414042 -0.10339725 -0.075471096 -0.09995666
-0.15108545 0.011083421 -0.043009307 -0.05324322 0.066266656 -0.093807735 -0.08131647 0.07289943
0.038209412 -0.07202271 0.029019147 0.22005963 -0.0027348765 0.025936328 0.10413015 -0.13250272
0.074190564 0.039556235 0.0754133 0.08344837 0.12049447 -0.00035871286 0.042113066 -0.06658086
0.052850187 0.08404813 0.033769026 -0.105472684 -0.08330793 -0.06124957 0.06135644 -0.027415082
0.055989955 -0.054840453 -0.11413906 0.017424861 -0.057029232 0.053307004 -0.07989052 -0.23110713
0.048478894 -0.27086288 0.06665499 -0.09991281 -0.11618942 -0.04584169 0.076214895 -0.034469437
-0.033003077 0.087328255 -0.010842487 0.0890756 0.038192887 -0.085686386 -0.11797412 -0.050423708
0.040528752 0.2635176 -0.035237025 -0.055313896 0.0826901 -0.121673934 -0.036712147 0.11509281
-0.15276368 -0.08971242 -0.19960243 -0.058223512 -0.017229503 -0.09115216 -0.17034005 0.05031135
-0.0714762 0.050499868 -0.002413039 -0.20304726 0.23838507 0.19488776 0.062492397 -0.09078036
00000000: f521 363d 8c2b a83d 1498 71bd 9bb4 29bd
00000010: d880 c63d f955 bb3d c893 623d 80a1 3ebe
00000020: 8c07 8abd b308 333d 0049 9fbd e639 ed3d
00000030: eb02 bfbd a17d 473d eb52 63bd f472 c43d
00000040: ef22 01be 1a35 bbbd 164c c13c 1678 12bc
00000050: 1c00 72bd 2bdc fc3c 90ef 793d 47f2 e13d
00000060: 4fde 02be 883f d7bd 4fa9 b0bd 404a e0bd
00000070: 26e0 68bc 4835 f5bd e846 283d e857 c8bd
00000080: 1ca6 773d c516 04be cc3f 1bbd 5065 2b3d
00000090: 94c7 743d cc9f c0bc efb2 1d3d a8b7 bbbd
000000a0: 3439 3cbe 55a5 7abd 1692 fb3d a121 293d
000000b0: 5b94 9a3d 3fe7 e73c a264 573d 8e6a 64bd
000000c0: ed4a 753e 6d28 9d3d 6d41 aabe bbfb acbd
000000d0: 7252 df3d 54db 4d3d 80bb 2fbd c102 34bd
000000e0: b651 8b3d 39d0 3fbe 778a e83d 39a2 263f
000000f0: 438d 9cbe 9fec e63d 668e 12bd 6247 04be
00000100: 12ac 61bd 0f9d 073d 3c23 6abd c40e d3bd
00000110: b06e da3d 54d1 c3bd e0d8 d33b 3c4d 2dbd
00000120: 14f6 bebd 66e8 86bd d916 a8bd 009b 6cba
00000130: f13f f4bb 01f8 d93c 0031 68bd 50e5 193c
00000140: 203b 9d3c 58e8 05be ff28 ec3c 8fce bcbd
00000150: 2cbd ccbd 257f 9abd 3a05 bdba 355c 19be
00000160: 03ac 36bd 97ad 213d 2341 84bc e20d 593d
00000170: 0c56 653d 02a3 9f3d 9a4d 42bc e06f 913d
00000180: 5fb5 8f3d 4fa6 bfbd 6467 f0bd 5507 0abd
00000190: 80db b0bb 8ee6 42bc 08a6 d9bd 1a35 b63d
000001a0: 7e20 30be 646a b8bd f711 bd3c df10 0b3d
000001b0: d5d5 cc3d a9be b8bd 538e 163c ee83 233d
000001c0: b71b 123c 545a d4bd f40e 0abe 1a6b dc3c
000001d0: 0452 2abe f47b 9fbd d9e0 0cbd 3a8e cb3d
000001e0: e4ad 9fbd bc1e 693d 71e4 6fbd 3083 47be
000001f0: 8e4a 4cbd f36b 243e 2052 883d c6e6 b0bc
00000200: c870 2b3d 0091 963c e2fc 3f3d ae05 7cbd
00000210: 3c50 f6bd 0585 c73d 20c9 f23d 271a 10be
00000220: be83 f03d c465 20bd f229 c33b 8c90 733d
00000230: 9fd0 cbbd 2956 9fbd 6faf 9fbc 8026 4dbb
00000240: 35f2 e53d a6b2 ac3d 2879 cd3b 4ac8 85bd
00000250: d35c 99bd 01ec d7bd 06d8 53bd 54b7 123e
00000260: 7a61 8a3c e445 d9bd e36d d83d 0d62 8ebc
00000270: f6c3 d0bd 1a04 14bd fb82 b63d ba74 503c
00000280: b902 c2bd 1070 40bb d28b d13d adc1 103c
00000290: 7794 d8bd ec54 833d 656d 10bd 4791 853d
000002a0: f92d 5e3d 8b93 f0bd 8108 4bbd ae93 b5bd
000002b0: 0ddb 093c f0c1 d3bd 9790 9abd 14b6 ccbd
000002c0: 25b6 1abe 3d97 353c 872a 30bd 9015 5abd
000002d0: d0b6 873d 451e c0bd 4089 a6bd 4c4c 953d
000002e0: 7981 1c3d a580 93bd 90b9 ed3c 5057 613e
000002f0: 9d3b 33bb 6c78 d43c 3042 d53d cbae 07be
00000300: 39f1 973d b805 223d 4a72 9a3d fbe6 aa3d
00000310: cec5 f63d a011 bcb9 c07e 2c3d 8c5b 88bd
00000320: 7079 583d 6d21 ac3d 6451 0a3d 1002 d8bd
00000330: 599d aabd d4e0 7abd e450 7b3d 9895 e0bc
00000340: b955 653d 62a0 60bd bdc1 e9bd 95be 8e3c
00000350: 7c97 69bd 7258 5a3d a49d a3bd 59a7 6cbe
00000360: ce91 463d 8aae 8abe 6982 883d 169f ccbd
00000370: b8f4 edbd 7fc4 3bbd 8e16 9c3d d32f 0dbd
00000380: 3c2e 07bd 28d9 b23d b0a4 31bc 456d b63d
00000390: 2570 1c3d 587c afbd 6a9c f1bd 1789 4ebd
000003a0: 7a01 263d c7eb 863e b354 10bd d390 62bd
000003b0: 6d59 a93d 2f30 f9bd 7a5f 16bd c7b5 eb3d
000003c0: 156e 1cbe 25bb b7bd 9464 4cbe c77b 6ebd
000003d0: e324 8dbc fcad babd 9f6d 2ebe 4613 4e3d
000003e0: 1d62 92bd f3d8 4e3d 1424 1ebb 9feb 4fbe
000003f0: 371b 743e a890 473e 07f8 7f3d 0eeb b9bd

encoder.fc.bias f4 [16]
0.025332656 -0.019189013 -0.11851414 0.069718696 -0.054966096 -0.061420728 -0.021400495 -0.12894583
-0.09446275 0.034050766 -0.094449036 -0.060530636 0.07579984 0.112403706 -0.13563073 -0.01463682
00000000: 6e86 cf3c 4732 9dbc 8bb7 f2bd adc8 8e3d
00000010: 2124 61bd 4d94 7bbd 1750 afbc 600a 04be
00000020: b075 c1bd d178 0b3d 7f6e c1bd f9ee 77bd
00000030: f23c 9b3d ea33 e63d c8e2 0abe 46cf 6fbc

decoder.decoder_fc1.weight f4 [64, 16]
-0.15583737 -0.1958935 -0.21129166 0.122178234 -0.07561825 0.1786582 0.028747993 0.18902375
-0.21998578 0.14111498 0.063675456 0.1925688 -0.2486093 0.0061666584 0.23064479 0.2134248
0.05979935 0.17171572 -0.0025329818 0.25660196 0.07559791 0.15682413 0.22823702 -0.26418725
-0.14852262 -0.36159706 -0.19454263 -0.07123938 -0.34390622 -0.14807957 -0.1710915 -0.12240727
0.20146611 -0.16055608 0.23126549 -0.06441188 0.20667574 -0.12382519 0.10764715 0.1682843
0.004446417 0.087248504 0.07867041 -0.14802977 0.13563791 -0.02721712 0.19543585 -0.14901152
0.009684732 -0.06749111 -0.092462204 0.25741687 -0.090025745 -0.2658461 0.021181347 -0.24862453
-0.19618534 0.015409142 -0.11859985 0.06620978 0.19700691 -0.0715048 -0.18398426 -0.1763968
-0.13138597 -0.15635158 -0.18015526 -0.13859631 0.2255534 -0.01163357 0.12902103 -0.29741183
0.074769855 0.019093413 0.2583314 -0.05237601 0.18738076 -0.04498095 -0.06420828 -0.1305642
0.009180681 0.21659504 -0.06745667 0.16169398 -0.1533055 0.088993974 -0.24130912 -0.078946605
-0.13753147 -0.15582454 0.1523346 -0.14390123 -0.21007879 0.20747657 0.12310358 -0.10950194
-0.38135585 -0.19173644 0.08928401 -0.500326 0.04790866 0.28961974 -0.25803524 -0.09224274
0.3435519 0.44659203 -0.066228814 -0.22458282 -0.33642364 -0.20448312 0.15953012 -0.3167119
-0.28744775 -0.14689052 -0.15245976 0.103515565 -0.18721016 -0.01643371 -0.22288138 -0.06376096
0.12894398 0.27697143 -0.23981711 0.20579547 -0.36251727 0.22148883 -0.043960404 -0.15288386
-0.20371164 0.25371143 -0.19007817 -0.098119274 0.07708401 -0.16026574 -0.033699226 0.13937762
-0.20490867 0.09889897 0.13028553 -0.19819105 -0.25401706 -0.1351775 -0.15828677 0.24124552
0.36404702 0.16373949 0.21108022 0.058366537 -0.25426275 0.014477341 -0.056805838 -0.010737945
-0.46414578 -0.36578423 0.015184527 0.2527523 0.16285262 0.10492325 -0.033303823 0.14256448
0.019889683 -0.039652646 0.11029157 0.036808163 -0.23372215 -0.173661 0.11390138 0.11168149
-0.03839624 0.23586392 -0.0032908916 0.13072103 -0.09508291 0.08277595 0.15404618 -0.16197515
0.3093964 -0.23503134 0.1575322 -0.025751004 -0.14861858 -0.168955 0.0074673514 -0.07856619
-0.20868148 0.13456346 0.06983326 0.017697334 0.1469698 0.20457552 -0.3069958 0.20962878
-0.21551245 -0.14431642 -0.23832956 -0.39849988 0.015796283 0.12693429 -0.042042412 -0.14140232
0.4146694 0.23666482 0.014471558 -0.09664127 0.11425581 -0.016748488 0.10552954 -0.32094178
-0.22217329 -0.1159948 -0.20517951 -0.10911872 0.009217976 -0.059062637 -0.24413449 -0.17956851
0.13154712 0.073428355 -0.12510097 0.021357559 -0.21655928 -0.15471214 0.12215788 0.1350797
0.24610639 0.07201925 0.17005137 -0.08841188 -0.10447914 -0.09338466 -0.18360795 0.21260934
-0.30536032 0.13626185 0.2458293 -0.14253104 0.265831 0.16743392 -0.18065779 0.2562496
0.22258754 -0.10198997 -0.13397962 0.106326446 -0.06357654 0.09433113 0.04888974 -0.2065766
0.07527118 -0.17276083 0.0043531377 -0.0562263 0.33518505 -0.046434693 -0.045906328 -0.06734074
00000000: d593 1fbe 4e98 48be d75c 58be 9538 fa3d
00000010: bedd 9abd 2df2 363e e980 eb3c 718f 413e
00000020: f443 61be 7280 103e 4768 823d c130 453e
00000030: 7093 7ebe ae11 ca3b 262e 6c3e 088c 5a3e
00000040: 2af0 743d 3fd6 2f3e 6200 26bb 5561 833e
00000050: 14d3 9a3d 8196 203e f7b6 693e 8d43 87be
00000060: 5016 18be 4023 b9be 2f36 47be f4e5 91bd
00000070: 7a14 b0be 2ca2 17be 9c32 2fbe aab0 fabd
00000080: 224d 4e3e d068 24be dcd0 6c3e 60ea 83bd
00000090: cea2 533e 1098 fdbd 1c76 dc3d b852 2c3e
000000a0: 40b3 913b 58af b23d f41d a13d 1e95 17be
000000b0: aae4 0a3e 70f6 debc 5620 483e 7a96 18be
000000c0: b6ac 1e3c c738 8abd d35c bdbd 25cc 833e
000000d0: 6b5f b8bd fb1c 88be 8184 ad3c 6e97 7ebe
000000e0: cfe4 48be a076 7c3c 7ae4 f2bd fe98 873d
000000f0: 2ebc 493e 1c71 92bd 5f66 3cbe 5da1 34be
00000100: 0b8a 06be a11a 20be 9f7a 38be 31ec 0dbe
00000110: 78f7 663e bb9a 3ebc 171e 043e 5d46 98be
00000120: f020 993d ca69 9c3c 0344 843e 3a88 56bd
00000130: bee0 3f3e f23d 38bd a17f 83bd 9fb2 05be
00000140: 916a 163c 17cb 5d3e b926 8abd 1b93 253e
00000150: 1efc 1cbe 7942 b63d bd19 77be c2ae a1bd
00000160: 0dd5 0cbe 7890 1fbe 9afd 1b3e d85a 13be
00000170: e51e 57be bd74 543e bb1d fc3d 8e42 e0bd
00000180: 1341 c3be 8f56 44be 89da b63d 5d15 00bf
00000190: df3b 443d 0a49 943e 321d 84be c3e9 bcbd
000001a0: 09e6 af3e b6a7 e43e f9a2 87bd 0af9 65be
000001b0: b83f acbe 0664 51be dd5b 233e 1028 a2be
000001c0: 5a2c 93be 786a 16be 691e 1cbe f8ff d33d
000001d0: 05b4 3fbe fd9f 86bc 043b 64be 1b95 82bd
000001e0: e409 043e 33cf 8d3e 9e92 75be 0cbc 523e
000001f0: dd9b b9be f8cd 623e d30f 34bd 968d 1cbe
00000200: c999 50be 77e6 813e daa3 42be c2f2 c8bd
00000210: 39de 9d3d b41c 24be 3308 0abd 02b9 0e3e
00000220: 94d3 51be 8b8b ca3d 9269 053e 98f2 4abe
00000230: 860e 82be f86b 0abe ed15 22be 1109 773e
00000240: 5f64 ba3e 53ab 273e 6a25 583e c011 6f3d
00000250: ba2e 82be 5f32 6d3c 3dad 68bd 35ee 2fbc
00000260: 84a4 edbe 1248 bbbe 86c8 783c c068 813e
00000270: d6c2 263e 00e2 d63d 9769 08bd 6cfc 113e
00000280: b0ef a23c d06a 22bd 8ce0 e13d 28c4 163d
00000290: dc54 6fbe 30d4 31be 2045 e93d 44b9 e43d
000002a0: 6045 1dbd 5086 713e 00ac 57bb bcdb 053e
000002b0: d4ba c2bd 7086 a93d 48be 1d3e d0dc 25be
000002c0: 3469 9e3e 0eac 70be 1f50 213e c5f3 d2bc
000002d0: 782f 18be 8a02 2dbe afb0 f43b 50e7 a0bd
000002e0: 99b0 55be 01cb 093e bd04 8f3d 00fa 903c
000002f0: 407f 163e 3f7c 513e 8e2e 9dbe eda8 563e
00000300: 4caf 5cbe afc7 13be aa0c 74be 2d08 ccbe
00000310: 3567 813c 10fb 013e aa34 2cbd c5cb 10be
00000320: 8c4f d43e 4358 723e 1d1a 6d3c dceb c5bd
00000330: f3fe e93d 2034 89bc df1f d83d 7b52 a4be
00000340: 6581 63be af8e edbd 941a 52be a379 dfbd
00000350: fe06 173c aaeb 71bd 64fe 79be cfe0 37be
00000360: 4ab4 063e 9b61 963d 781a 00be 0cf6 ae3c
00000370: b7c1 5dbe dc6c 1ebe e92d fa3d 5552 0a3e
00000380: 5003 7c3e d47e 933d f221 2e3e 4a11 b5bd
00000390: 29f9 d5bd 7540 bfbd b903 3cbe 43b6 593e
000003a0: 3058 9cbe 3a88 0b3e adba 7b3e a8f3 11be
000003b0: 001b 883e cc73 2b3e 5bfe 38be 2633 833e
000003c0: fded 633e 1ee0 d0bd f431 09be aec1 d93d
000003d0: 6b34 82bd ae30 c13d 9c40 483d d188 53be
000003e0: c727 9a3d 37e8 30be c4a4 8e3b 8c4d 66bd
000003f0: 609d ab3e 4e32 3ebd 4608 3cbd f1e9 89bd

decoder.decoder_fc1.bias f4 [64]
-0.16702244 0.09222195 -0.047261953 0.16070935 0.12111849 -0.1263816 -0.096655495 0.21279968
-0.25269228 0.2627172 -0.22580275 0.13670237 -0.17827553 0.13114461 0.13034411 0.047381677
-0.017647933 -0.14301059 0.09211761 -0.17825449 -0.12179637 -0.04783064 0.13497207 -0.046173085
-0.03925046 0.073858544 0.1976593 0.14377221 0.14879602 0.019090101 -0.21937555 0.080617696
0.21025892 -0.21552786 0.18901089 0.20493175 0.13134149 -0.0013801164 0.30615985 0.16887946
0.26825178 0.18056609 -0.10532662 0.10527187 0.06701553 0.071620874 -0.24603754 0.27452576
-0.14642763 0.2030474 -0.016683416 -0.043117717 0.016399978 0.039805897 0.2796325 -0.061024893
-0.32352418 0.19769575 -0.2152136 0.16664182 0.1169331 0.2531378 -0.19133982 0.22514525
00000000: ee07 2bbe ddde bc3d c095 41bd fe90 243e
00000010: f90c f83d 2e6a 01be 51f3 c5bd 29e8 593e
00000020: e260 81be de82 863e d638 67be b5fb 0b3e
00000030: dc8d 36be c64a 063e ed78 053e 4a13 423d
00000040: 6692 90bc 5e71 12be 28a8 bc3d 5888 36be
00000050: 6070 f9bd 10ea 43bd 1e36 0a3e fd1f 3dbd
00000060: 17c5 20bd 2643 973d 3367 4a3e 0639 133e
00000070: fc5d 183e d862 9c3c fca3 60be e41a a53d
00000080: 1d4e 573e 56b3 5cbe 128c 413e a1d9 513e
00000090: 627e 063e 06e5 b4ba fcc0 9c3e bdee 2c3e
000000a0: 4c58 893e 51e6 383e 7cb5 d7bd c798 d73d
000000b0: 703f 893d f7ad 923d 44f1 7bbe a48e 8c3e
000000c0: 20f1 15be a8eb 4f3e a9ab 88bc 349c 30bd
000000d0: 3f59 863c 820b 233d fe2b 8f3e 3df5 79bd
000000e0: f6a4 a5be c170 4a3e f460 5cbe 27a4 2a3e
000000f0: 9f7a ef3d 479b 813e 96ee 43be 7a8c 663e

decoder.decoder_fc2.weight f4 [128, 64]
-0.10691325 -0.05823514 -0.041732103 0.041447774 -0.0072801113 -0.040383488 0.02119501 0.002557069
-0.12080328 -0.11113095 0.06700766 -0.0033389628 -0.1172196 -0.1176516 0.041994095 -0.03703341
0.078558505 -0.09105657 -0.014859781 0.07464391 -0.03804247 0.1097756 -0.07307771 -0.12401608
0.033124074 -0.119018406 0.052511618 -0.036016226 -0.034989133 0.09860869 -0.046951294 -0.025736853
0.058760345 -0.0022665858 0.07090758 -0.041473955 -0.099420756 -0.10559863 -0.05476421 0.07234119
0.06248635 0.04516375 -0.006240174 0.1157085 -0.0057247877 0.058175355 -0.070051104 -0.051000655
-0.04147719 -0.0895876 -0.033155322 -0.011985347 0.11306341 -0.081775606 -0.045048222 0.117747545
0.10265061 -0.0073875934 0.12204191 -0.0776854 -0.09733206 -0.03221646 -0.026220039 0.097513616
0.124086484 0.099453084 0.050057575 0.045881093 0.06009686 -0.120326385 -0.023600683 -0.04832903
0.08554132 -0.110801816 0.07028161 0.077461824 -0.0410058 -0.05376107 0.02329642 -0.09043035
-0.017620932 0.080511004 0.015722174 0.008051097 -0.01472345 -0.059826583 -0.06020545 0.12135664
-0.022755893 -0.046935067 0.018991692 0.062383775 -0.06578819 -0.092777535 -0.058596104 -0.011036106
0.015073215 0.012737617 0.045947608 0.06028674 -0.0089896275 -0.111151695 0.09641807 0.0825714
-0.03554135 -0.1172572 -0.01552922 -0.12847851 0.06073481 -0.041007496 0.08704829 0.044192344
0.05517572 0.0724006 -0.06612186 -0.06388572 -0.13578264 0.03114904 0.016390465 0.12286861
0.119313836 -0.06621712 -0.066581205 -0.012562925 -0.03573305 -0.002363809 0.012339473 0.013430077
-0.0087607205 -0.09994249 0.008894801 -0.059449404 -0.056078285 0.115352705 0.10219318 -0.07839884
0.029806644 -0.011566237 -0.061297297 0.06390068 -0.08593649 -0.05314268 -0.09735808 0.03452322
0.08914913 0.116347164 0.026286587 -0.071361765 0.11888595 -0.118681535 0.109029114 -0.10535313
-0.11163089 -0.052487314 0.0024923831 0.100181386 0.03322588 -0.111206666 0.076647684 -0.018672839
-0.11633696 0.059873357 -0.106856614 -0.0933515 0.06425533 0.07904932 0.040336132 -0.012026802
0.04508303 0.05609618 0.11619523 -0.10149287 0.109522745 0.030803442 -0.10620138 -0.053340927
0.12054464 0.051541716 0.09438492 -0.12399176 -0.051319227 0.0013489276 0.0168567 0.029060692
0.038004503 -0.11686224 -0.07788837 0.043704614 -0.0009409487 -0.118345305 0.09489238 0.026361793
0.064166605 0.068342276 0.050115705 0.014069561 -0.1336165 -0.066606455 -0.020470433 -0.06794974
0.05278127 -0.097615056 0.045786127 0.06514623 -0.0850477 -0.10738547 0.02418504 0.007874118
-0.0045090658 0.056807682 0.055795763 0.091600046 0.007901505 0.032614157 -0.11021041 -0.023097262
-0.0045335935 0.09121563 0.09211932 0.09757821 -0.009430044 0.10081802 -0.15222573 -0.12426981
0.04735966 -0.1184154 0.058752313 0.012181312 0.007275838 -0.025206693 -0.03686264 -0.108965725
-0.032982852 -0.071579605 -0.010690668 0.07301184 -0.097667165 0.079781584 0.10519187 0.004062114
-0.008275655 -0.09878163 0.010212014 -0.053563014 -0.13302526 -0.137901 0.018050823 -0.115774795
-0.09992747 0.09694185 -0.048908055 0.0071056723 -0.006358669 -0.12318633 -0.09791744 -0.06048037
00000000: 56f5 dabd f887 6ebd 48ef 2abd 24c5 293d
00000010: 008e eebb 2869 25bd 28a1 ad3c 8094 273b
00000020: b667 f7bd a098 e3bd 503b 893d 80d2 5abb
00000030: d410 f0bd 52f3 f0bd 0002 2c3d 58b0 17bd
00000040: 48e3 a03d de7b babd 7076 73bc e8de 983d
00000050: 6cd2 1bbd 08d2 e03d c4a9 95bd 24fc fdbd
00000060: 1cad 073d ecbf f3bd 6c16 573d c085 13bd
00000070: c450 0fbd 5af3 c93d 0050 40bd 18d6 d2bc
00000080: b0ae 703d 008b 14bb fe37 913d 98e0 29bd
00000090: 1c9d cbbd 1844 d8bd 7050 60bd 9e27 943d
000000a0: b0f1 7f3d a0fd 383d 607a ccbb 94f8 ec3d
000000b0: 0097 bbbb 4849 6e3d f476 8fbd 10e6 50bd
000000c0: fce3 29bd b479 b7bd e0cd 07bd 305e 44bc
000000d0: ca8d e73d f879 a7bd 7c84 38bd a025 f13d
000000e0: 7c3a d23d a013 f2bb 1cf1 f93d 8619 9fbd
000000f0: 0856 c7bd 68f5 03bd 68cb d6bc 38b5 c73d
00000100: 0e21 fe3d 0fae cb3d 2c09 4d3d d0ed 3b3d
00000110: 2028 763d ae6d f6bd 3856 c1bc a9f4 45bd
00000120: 4a30 af3d 10ec e2bd ceef 8f3d 4ea4 9e3d
00000130: b3f5 27bd 9134 5cbd 22d8 be3c 8c33 b9bd
00000140: c659 90bc f4e2 a43d cacb 803c c0e8 033c
00000150: a03a 71bc b80c 75bd fd99 76bd d489 f83d
00000160: 916a babc fc3e 40bd 7794 9b3c 2186 7f3d
00000170: f5bb 86bd 2602 bebd 7802 70bd c9d0 34bc
00000180: a5f5 763c 70b1 503c 8f33 3c3d 3bef 763d
00000190: 3b49 13bc 80a3 e3bd d676 c53d 321b a93d
000001a0: ce93 11bd 8b24 f0bd 456e 7ebc df8f 03be
000001b0: 10c5 783d 7af7 27bd 6046 b23d 0803 353d
000001c0: f0ff 613d c446 943d e66a 87bd 84d6 82bd
000001d0: 9b0a 0bbe 462c ff3c 4c45 863c 8aa2 fb3d
000001e0: d05a f43d d79c 87bd ba5b 88bd bad4 4dbc
000001f0: d25c 12bd 22ea 1abb 802b 4a3c d309 5c3c
00000200: 2089 0fbc a6ae ccbd 80bb 113c 3881 73bd
00000210: 58b2 65bd 0a3e ec3d a84a d13d 928f a0bd
00000220: 102d f43c 5080 3dbc e012 7bbd 5cde 823d
00000230: 78ff afbd 24ac 59bd ac63 c7bd 3868 0d3d
00000240: d293 b63d 6c47 ee3d f856 d73c 1e26 92bd
00000250: 7a7a f33d 4e0f f3bd a84a df3d 62c3 d7bd
00000260: bc9e e4bd f0fc 56bd 4057 233b e62b cd3d
00000270: dc17 083d 52c0 e3bd 76f9 9c3d c8f7 98bc
00000280: 1242 eebd c43d 753d a4d7 dabd 122f bfbd
00000290: 4c98 833d 9ce4 a13d 8037 253d 100c 45bc
000002a0: fca8 383d 1cc5 653d c4f7 ed3d 7edb cfbd
000002b0: 764d e03d 8057 fc3c 1c80 d9bd 047c 5abd
000002c0: 1ce0 f63d 681d 533d e24c c13d 64ef fdbd
000002d0: 1c34 52bd 80ce b03a 1017 8a3c b010 ee3c
000002e0: 9caa 1b3d 7855 efbd f083 9fbd 9c03 333d
000002f0: 00aa 76ba 065f f2bd f056 c23d b0f4 d73c
00000300: c869 833d 09f7 8b3d 2046 4d3d 0484 663c
00000310: c4d2 08be f768 88bd 9cb1 a7bc 3c29 8bbd
00000320: 2c31 583d 67ea c7bd 3c8a 3b3d 636b 853d
00000330: 7d2d aebd eaec dbbd b41f c63c 7202 013c
00000340: c9c0 93bb 2caf 683d 198a 643d ce98 bb3d
00000350: 5075 013c 6c96 053d ffb5 e1bd 7836 bdbc
00000360: 8a8e 94bb 43cf ba3d 0ea9 bc3d 16d7 c73d
00000370: 7980 1abc ae79 ce3d 10e1 1bbe 2c81 febd
00000380: 34fc 413d c683 f2bd 44a6 703d 2094 473c
00000390: 276a ee3b 447e cebc 48fd 16bd 6c29 dfbd
000003a0: 0719 07bd 5498 92bd e927 2fbc 3b87 953d
000003b0: b905 c8bd 8764 a33d d66e d73d 7b1b 853b
000003c0: 9d96 07bc 064e cabd 4b50 273c e464 5bbd
000003d0: c637 08be eb35 0dbe 52df 933c 561b edbd
000003e0: c6a6 ccbd 7389 c63d d053 48bd b3d6 e83b
000003f0: 625c d0bb 1d49 fcbd f088 c8bd 44ba 77bd

decoder.decoder_fc2.bias f4 [128]
0.029387102 0.008920502 -0.08152525 -0.05778566 -0.03480892 -0.012856963 0.11512264 0.023991656
0.030595465 0.14715324 -0.11913648 -0.033286426 -0.11606121 -0.045684293 -0.08025989 -0.05087673
0.07956749 -0.13751423 0.068307005 0.118166424 0.12429474 -0.0018055312 0.0031296413 0.122033834
0.07292553 -0.00061167177 0.12273429 0.09866308 -0.028023183 0.08700583 -0.07474485 -0.15309225
-0.1175856 0.13947275 0.015536597 0.13378055 -0.048355147 0.15742555 0.09742205 0.051206615
-0.081679374 0.044041414 0.15102158 0.065387055 0.12740143 0.018419169 -0.08024612 -0.074709475
-0.08991864 -0.007803519 0.14490639 -0.16000178 -0.0042122183 -0.06420479 -0.1273291 -0.0680303
-0.013739872 -0.07208082 0.072187275 -0.03063023 -0.07015081 -0.017989209 0.16050033 0.09925125
0.08228819 -0.10475976 0.045622967 0.08192395 0.077362254 -0.10772984 -0.041483138 0.02568579
0.008640261 -0.004704084 0.0016650045 -0.1520397 -0.10016252 -0.11348504 0.037873995 -0.13004565
-0.12014063 -0.042104233 0.1056322 -0.10693268 0.12724343 0.07371925 0.12987944 -0.010247279
-0.11843966 -0.11760026 -0.0070622037 -0.10352349 0.08188861 0.002539107 0.049080297 0.14618695
-0.071307234 0.09127962 -0.13991901 -0.06955707 0.10998324 -0.057151888 -0.0737195 0.104854465
0.13803592 -0.14499159 0.058707245 -0.12097174 -0.036186386 -0.14623666 -0.010558595 -0.052302014
-0.09209003 0.10179269 -0.03965263 0.119451195 -0.13395056 0.03291285 0.11933802 -0.09924629
0.07980966 0.110416345 -0.11026982 -0.09193702 0.12913945 0.02314386 -0.04160961 0.046734452
00000000: 38bd f03c 4c27 123c b6f6 a6bd a8b0 6cbd
00000010: cc93 0ebd 03a6 52bc 6bc5 eb3d 268a c43c
00000020: 57a3 fa3c 57af 163e d4fd f3bd 5957 08bd
00000030: 80b1 edbd 741f 3bbd 4c5f a4bd 1e64 50bd
00000040: 48f4 a23d 88d0 0cbe 8be4 8b3d 3d01 f23d
00000050: 3e8e fe3d 93a7 ecba ab1a 4d3b e0ec f93d
00000060: fb59 953d 9958 20ba 1e5c fb3d de0f ca3d
00000070: e090 e5bc 1d30 b23d d413 99bd 37c4 1cbe
00000080: b8d0 f0bd f2d1 0e3e 368d 7e3c c5fd 083e
00000090: 0c10 46bd 2a34 213e 3685 c73d 07be 513d
000000a0: 8447 a7bd c564 343d 67a5 1a3e a6e9 853d
000000b0: 8575 023e cce3 963c 1458 a4bd 4801 99bd
000000c0: 4427 b8bd a9b4 ffbb 5762 143e 82d7 23be
000000d0: a606 8abb cd7d 83bd 8f62 02be 7853 8bbd
000000e0: 331d 61bc 1c9f 93bd ecd6 933d 40ec fabc
000000f0: 3aab 8fbd 1b5e 93bc 335a 243e 3d44 cb3d
00000100: b686 a83d 498c d6bd 26df 3a3d bec7 a73d
00000110: 1a70 9e3d 76a1 dcbd 39ea 29bd 026b d23c
00000120: e28f 0d3c b724 9abb 483c da3a 4cb0 1bbe
00000130: 0222 cdbd d86a e8bd c321 1b3d b02a 05be
00000140: 4a0c f6bd 7d75 2cbd b255 d83d 85ff dabd
00000150: 1a4c 023e 1efa 963d 1eff 043e 34e4 27bc
00000160: 7e90 f2bd 68d8 f0bd 0f6a e7bb 2004 d4bd
00000170: 37b5 a73d 2667 263b 6c08 493d 08b2 153e
00000180: 8709 92bd cff0 ba3d ee46 0fbe f073 8ebd
00000190: e53e e13d 1918 6abd 40fa 96bd f0bd d63d
000001a0: 4a59 0d3e ad78 14be 0277 703d 08c0 f7bd
000001b0: 2d38 14bd 10bf 15be f5fd 2cbc a33a 56bd
000001c0: b399 bcbd b078 d03d cc6a 22bd d4a2 f43d
000001d0: 562a 09be a0cf 063d 7e67 f43d a441 cbbd
000001e0: 3f73 a33d f721 e23d 25d5 e1bd 7a49 bcbd
000001f0: 223d 043e 3198 bd3c d76e 2abd a06c 3f3d

decoder.decoder_fc3.weight f4 [72, 128]
-0.062690936 0.05701071 -0.03770727 0.10621122 0.06843646 -0.005093465 0.031259328 0.117972255
-0.029285196 0.021547802 -0.0572209 0.024151016 0.048127063 0.0399006 0.009621156 -0.024596361
0.119855605 0.09024665 -0.06882778 0.01988185 0.10127395 -0.016693754 -0.060539078 -0.023784168
0.014811988 -0.15555006 -0.0053837155 0.07258021 -0.00919031 0.10733272 -0.05526911 0.08155512
0.04956515 0.120411985 0.075381346 0.03407998 0.009151123 0.10391824 0.122116104 -0.008858881
-0.07267814 0.05325288 0.023757603 0.047692027 0.014397305 0.058819972 -0.00022815142 -0.017868698
-0.021016525 0.06297307 0.052602492 -0.015033459 0.031762682 -0.002807379 0.029561011 0.10327949
0.006346069 0.05264238 -0.01939795 0.025522562 -0.06856185 -0.03292422 0.06830187 0.025175884
0.03962033 -0.016187418 0.034187794 0.06268701 0.1281269 0.06802148 -0.0027898953 0.04705218
0.042475183 0.06048745 0.07767767 0.031677544 0.040612057 -0.08428188 0.05770983 -0.019330118
0.0055530895 0.01955322 -0.0018261652 -0.012648198 -0.025832722 0.09965562 0.022615349 0.12291504
-0.017511478 -0.011254165 0.060292732 0.039769668 -0.063290946 -0.07089893 -0.07489663 0.005672455
0.019330865 0.012395349 0.08614913 -0.04761381 0.067748554 -0.010217525 -0.051047273 0.022884281
0.13430457 -0.10766209 0.013280253 -0.025972446 -0.046193328 -0.03237882 0.09868994 0.0602772
-0.04675142 0.109462015 -0.032896016 0.04407898 -0.0050870366 0.02608007 0.119355194 -0.037545707
-0.062334828 -0.024610592 0.016394436 0.075973585 0.020063987 0.036298007 0.056473445 -0.031089928
-0.052119646 0.002694295 -0.07716065 0.031011378 -0.03342363 0.07313748 0.08542084 0.05396465
0.05522931 0.13254404 0.010881863 0.089753084 0.056997605 0.04504182 0.0124663105 0.027060468
0.011550633 -0.011271388 -0.034728646 -0.020059267 0.10515795 -0.018725893 -0.005877266 -0.0440293
-0.0048354957 -0.07194923 0.10614204 0.053030312 -0.06922775 -0.025877554 -0.05935878 0.05516836
0.054905396 -0.003057259 0.039144102 0.029429631 0.071687356 0.071315095 -0.003656676 0.059068024
-0.04192958 0.11387505 0.008689617 0.04061996 0.058606762 0.049637794 -0.074015416 0.05356584
-0.05208204 0.052455798 0.08872498 -0.004543178 0.040377 -0.04911864 0.011895313 0.11934023
0.027780397 0.0046912413 -0.06610861 -0.049160715 -0.040888026 -0.0527046 0.13161466 -0.053472422
0.098739795 -0.052475408 -0.023814011 0.004926684 0.060543537 0.075663835 0.060238555 0.0816253
0.007903186 0.006259661 0.11278808 0.103253335 -0.07147777 -0.050355747 -0.07384884 0.00014399666
0.07448526 -0.050984457 0.11084727 -0.035761442 0.08204091 -0.07655762 0.03714671 0.07801261
-0.048557825 0.081693575 0.05505317 -0.061339296 0.04679501 0.01583288 -0.08705769 0.035939995
-0.027883194 0.106721655 0.05467054 0.010671846 0.11363481 -0.022787206 0.08114809 0.03280597
-0.014978705 -0.1447161 -0.0120436605 0.05327238 -0.05873824 0.075998396 0.0006390394 -0.037023082
0.01966397 0.035964575 -0.007369587 0.10914701 -0.070422076 -0.032723315 0.11328562 0.022509113
0.022252126 0.10425786 -0.044508222 0.008638392 0.1333831 0.03693343 0.034977224 0.04422435
00000000: 1b64 80bd 1084 693d f072 1abd 4585 d93d
00000010: 6a28 8c3d 15e7 a6bb c809 003d 709b f13d
00000020: 82e7 efbc 0485 b03c 7660 6abd 5ad8 c53c
00000030: e220 453d d06e 233d 0ea2 1d3c 4f7e c9bc
00000040: db76 f53d 3cd3 b83d 94f5 8cbd 43df a23c
00000050: b768 cf3d 57c1 88bc d3f7 77bd 04d7 c2bc
00000060: fbad 723c 8448 1fbe e169 b0bb efa4 943d
00000070: f492 16bc 42d1 db3d dd61 62bd 5f06 a73d
00000080: d404 4b3d 8f9a f63d 8961 9a3d 7397 0b3d
00000090: 98ee 153c 16d3 d43d 0218 fa3d d724 11bc
000000a0: 47d8 94bd b11f 5a3d 4e9f c23c b758 433d
000000b0: ade2 6b3c 36ed 703d ee3b 6fb9 6061 92bc
000000c0: d92a acbc 06f8 803d b675 573d e64e 76bc
000000d0: 9619 023d 01fc 37bb ef29 f23c 3284 d33d
000000e0: aff2 cf3b 899f 573d 73e8 9ebc b114 d13c
000000f0: 286a 8cbd 8cdb 06bd dae1 8b3d a83d ce3c
00000100: ed48 223d 7a9b 84bc 8008 0c3d 0c62 803d
00000110: b333 033e d94e 8b3d add6 36bb c9b9 403d
00000120: 75fa 2d3d b0c1 773d 7815 9f3d 50c0 013d
00000130: d458 263d fa9b acbd 2561 6c3d 325a 9ebc
00000140: b1f6 b53b 132e a03c f05b efba 633a 4fbc
00000150: 259f d3bc 3f18 cc3d d343 b93c e1ba fb3d
00000160: 3b74 8fbc 6463 38bc 83f5 763d 85e5 223d
00000170: af9e 81bd 7533 91bd 6863 99bd 00e0 b93b
00000180: c35b 9e3c dd15 4b3c f46e b03d b306 43bd
00000190: c1bf 8a3d 6867 27bc f216 51bd d177 bb3c
000001a0: 2387 093e f17d dcbd 6b95 593c 2bc4 d4bc
000001b0: 3735 3dbd a79f 04bd f41d ca3d 3ae5 763d
000001c0: 6b7e 3fbd 9f2d e03d f9bd 06bd 298c 343d
000001d0: 28b1 a6bb dfa5 d53c 7f70 f43d 87c9 19bd
000001e0: ce52 7fbd 279c c9bc a04d 863c 0a98 9b3d
000001f0: 3b5d a43c 38ad 143d b350 673d 4eb0 febc
00000200: 697b 55bd c592 303b 6706 9ebd 930b fe3c
00000210: 37e7 08bd 1ac9 953d 1ff1 ae3d 090a 5d3d
00000220: 2138 623d a0b9 073e d749 323c 77d0 b73d
00000230: 5276 693d c57d 383d 7f3f 4c3c eaad dd3c
00000240: de3e 3d3c a1ab 38bc a03f 0ebd 5553 a4bc
00000250: 0d5d d73d 0b67 99bc 1596 c0bb 1158 34bd
00000260: 1473 9ebb 1e5a 93bd ff60 d93d 5036 593d
00000270: 47c7 8dbd 2afd d3bc 3122 73bd 38f8 613d
00000280: 7be4 603d 4b5c 48bb 9155 203d 6916 f13c
00000290: d2d0 923d a60d 923d d8a4 6fbb 50f1 713d
000002a0: 5abe 2bbd 5237 e93d e55e 0e3c 1d61 263d
000002b0: a50d 703d 0051 4b3d 6595 97bd db67 5b3d
000002c0: fa53 55bd e4db 563d 71b5 b53d f0de 94bb
000002d0: 5a62 253d a130 49bd 8fe4 423c a768 f43d
000002e0: b793 e33c fcb8 993b f363 87bd bf5c 49bd
000002f0: 347a 27bd c7e0 57bd fec5 063e e605 5bbd
00000300: 1738 ca3d 74f0 56bd 9a15 c3bc 0570 a13b
00000310: 80fc 773d a4f5 9a3d b4bc 763d 2a2b a73d
00000320: 5d7c 013c d81d cd3b 70fd e63d 7c76 d33d
00000330: f062 92bd d441 4ebd 103e 97bd cffd 1639
00000340: ba8b 983d 14d5 50bd e503 e33d 977a 12bd
00000350: 1105 a83d 3eca 9cbd 2627 183d 13c5 9f3d
00000360: 92e4 46bd f64e a73d 6f7f 613d ea3e 7bbd
00000370: 20ac 3f3d f5b3 813c 4d4b b2bd d135 133d
00000380: 4c6b e4bc e290 da3d 37ee 5f3d f7d8 2e3c
00000390: 5eb9 e83d 3cac babc f830 a63d 8e5f 063d
000003a0: 3e69 75bc 7530 14be c652 45bc 2434 5a3d
000003b0: 8297 70bd 0ca5 9b3d 3585 273a 84a5 17bd
000003c0: 5616 a13c 974f 133d 947c f1bb 7888 df3d
000003d0: 7339 90bd e208 06bd 4b02 e83d 0865 b83c
000003e0: 174a b63c 2585 d53d 414e 36bd 0b88 0d3c
000003f0: 9495 083e 8247 173d 4744 0f3d 9824 353d

decoder.decoder_fc3.bias f4 [72]
0.053565066 0.054032512 0.08884951 0.121347085 0.041649755 0.086506955 0.05335982 0.088119484
0.056478713 0.07287743 -0.060959846 -0.015092257 -0.04529052 0.08389309 -0.022589138 0.049039923
0.03341072 0.06436468 0.04856549 -0.047271192 -0.049080573 0.0643911 -0.043194976 0.02655586
0.09960328 0.06753689 0.11234246 0.07881045 0.12764862 0.1346577 0.13166386 -0.019852938
-0.033321485 -0.019847492 0.11245696 0.03669799 -0.02479587 0.10981239 -0.049635448 -0.039254513
0.045493398 0.017112656 0.08887402 0.08683951 -0.058258347 0.033913482 -0.059890967 0.068639
-0.0008562987 0.070413925 -0.038141757 -0.025673322 -0.014323118 0.0752945 0.07733312 0.032618873
-0.029914487 0.02311203 0.04466068 -0.04289093 -0.014274652 0.06818831 0.029981274 0.011364076
0.06457754 -0.040179096 -0.008372016 -0.037897408 -0.022033028 0.102815636 0.06176436 0.01171193
00000000: 0b67 5b3d 3251 5d3d bbf6 b53d d284 f83d
00000010: ef98 2a3d 8f2a b13d d48f 5a3d fd77 b43d
00000020: 3956 673d c340 953d 08b1 79bd 8445 77bc
00000030: 8d82 39bd 24d0 ab3d db0c b9bc 16de 483d
00000040: aed9 083d a1d1 833d 9bec 463d 709f 41bd
00000050: b608 49bd 7bdf 833d 37ed 30bd ad8b d93c
00000060: cefc cb3d c850 8a3d ce13 e63d 6067 a13d
00000070: 52b6 023e b5e3 093e e4d2 063e a1a2 a2bc
00000080: 1c7c 08bd 3597 a2bc d64f e63d a250 163d
00000090: b520 cbbc 51e5 e03d 8a4e 4bbd 57c9 20bd
000000a0: 4957 3a3d d72f 8c3c 9503 b63d ead8 b13d
000000b0: 4ea0 6ebd dde8 0a3d 3b50 75bd 9b92 8c3d
000000c0: 3c79 60ba 2d35 903d 883a 1cbd dc50 d2bc
000000d0: 83ab 6abc 0134 9a3d d460 9e3d 5e9b 053d
000000e0: 3a0f f5bc 7155 bd3c 1eee 363d 66ae 2fbd
000000f0: 3be0 69bc 50a6 8b3d 4a9b f53c 6430 3a3c
00000100: 3b41 843d d692 24bd c82a 09bc 503a 1bbd
00000110: 9c7e b4bc 0191 d23d a0fc 7c3d 65e3 3f3c
