clustering/clustering/encoder_weights/floor6/lidar_encoder_autoencoder_floor6.pth (torch, 95470 bytes, 14 tensors)

encoder.conv2d_1.weight f4 [16, 1, 1, 3]
00000000: 0b39 8e3d d0b3 343e 96b5 81be f3c2 c5be
00000010: 74fe 4ebe cfd6 96bd 3975 c93e d141 6dbb
00000020: 9897 9f3c 76c9 003f fd9e 42bf e8c8 abbe
00000030: 0fa8 963e a36f 5abd 4ba5 0fbf 923c 1ebe
00000040: 5750 5fbe afcd e5be 8fa0 05be 00cd 07bd
00000050: 9a38 173f 6566 38be 0246 643e bb21 9bbd
00000060: 5d57 0abd a882 9f3e 74e0 0c3f f5db abbe
00000070: f7d8 c1be b72d 633f 9da0 12bf b730 023f
00000080: 8a85 86be 061d d8bc 269f c73d 6b50 84be
00000090: c9ad 4c3d 0943 0abb 0095 213e 0b79 1dbf
000000a0: ff59 df3e b4fe 3f3e 3eb9 893e 1217 d6bd
000000b0: 0eb3 c23e 5bca 833e ca58 6c3e 3b5b c13d
0.06944474 0.17646718 -0.25333852 -0.38625297 -0.20214254 -0.0736519 0.39347246 -0.003620256
0.019481465 0.50307405 -0.76023847 -0.33551717 0.29425094 -0.05332912 -0.5611159 -0.15452793
-0.21807991 -0.44883487 -0.1304953 -0.033154488 0.5907074 -0.1800781 0.22292331 -0.07574793
-0.033774722 0.3115437 0.5502999 -0.3356625 -0.37860844 0.8874163 -0.57276326 0.5085558
-0.26273757 -0.026381027 0.09747152 -0.25842604 0.049970422 -0.0021097085 0.15779495 -0.6151282
0.4362335 0.18749505 0.2689914 -0.10453619 0.38027233 0.25740322 0.23080745 0.09441229

encoder.conv2d_1.bias f4 [16]
00000000: ea31 06bf e937 5fbe 74ee dabd 2a16 953e
00000010: 1667 873e dad1 cdbd d26e 07be 5754 da3e
00000020: 013e f33e 0674 e63d b511 ae3e 8a66 aabe
00000030: deec bdbe b545 b03d 5c6c c0be d8ae 113f
-0.5241991 -0.21798672 -0.106900126 0.29118472 0.26445836 -0.10049792 -0.13225868 0.4264247
0.47508243 0.112525985 0.33997884 -0.33281356 -0.37094778 0.086070456 -0.37582672 0.56907415

encoder.conv2d_2.weight f4 [32, 16, 1, 3]
00000000: 2c79 d9bd 3cc7 0cbe da4d 063e 79e3 12bd
00000010: 8166 d1bc ccb8 0dbd 6cea 5bbd 6054 563d
00000020: 9f6b 493d e8fc 033e 6716 913d fba0 f4bd
00000030: 3d25 963d 9cee 193d f554 063e 7cfd a53c
00000040: cce2 093d 24f8 00be d9eb d6bd e3c1 07be
00000050: 2837 c1bd bf6d a6bd c04f 033d 7373 37bd
00000060: 1017 bcbd 8f36 50bd f7b5 05bd 32fc 4abd
00000070: 8be4 f3bd 0049 c2bd 8ce6 013e 1bc7 db3c
00000080: beef b3bd 68e4 b3bd 7bdd a93c f985 08be
00000090: 2758 f93d de4a 083e 5c84 e4bd 54fd b03c
000000a0: 779d 8cbd 30fd f1bd c8f2 123e 6f4d e93d
000000b0: 44d6 45bd f226 513c dc42 803c 5c39 bcbd
000000c0: 76f5 d53d 53c9 fdbd 9ae3 623d db6b 613d
000000d0: 41a6 293d cdb1 5abd bdfa 6c3c 0265 fbbd
000000e0: a3c5 1abd 8dee b3bc 7fda 88bd 0b9d 5fbd
000000f0: aea4 083e 37bb 9bbd 15c7 4fbd c294 013d
00000100: ebff 3d3d 0c18 a2bd 9d52 d73d 69d3 e2bd
00000110: 9f70 003e d46d e23c ca1e e8bc 4f71 f1bd
00000120: 6e53 6cbd 82bb a1bc 9853 00be bb5c b13d
00000130: db52 cebc 1bbe f03d af92 423d 03c1 f4bd
00000140: 2c2e 3abd 49d9 f4bd 4b12 033e 0536 66bd
00000150: b065 90bd 73e1 263d 31b9 09be 7551 eabc
00000160: 165b 9a3d 60f7 7e3c 6b6c cebd 43ce 813c
00000170: f2dd 0f3e f517 66bd eaba 6c3d c772 f33d
00000180: 2c51 04be 9ce1 e2bd 9efa 723d 43cd df3d
00000190: 98c0 0f3b e013 0e3e 68cb b1bd 8cbf be3d
000001a0: 2246 0c3d 5c3d 613c dd97 35bf 032e 23be
000001b0: 83b1 86bd 7322 84be 42eb edbe 8d81 54bd
000001c0: 24b0 423d 8fb3 cd3d 3337 063d 1eaa 2a3e
000001d0: c520 033e 6a03 a0bd 41b2 dc3d f948 243e
000001e0: 054a 023e dbef c63d dc96 383c ca63 9cbd
000001f0: a7e6 ab3e 702b 183e 0a13 60bd 9bfb b13d
00000200: 6b7f d4bd 0287 c73d 3b00 f9bc f168 0abe
00000210: 7433 123d ffdd d03d bcf6 56bd 6afa 21be
00000220: d0c0 523e 146f e63d 1986 c43d 9d4c c8bc
00000230: 3449 d5bc 8abc a03d 1c95 9d3d 7d3c 233c
00000240: fb4c 77bd 1335 ddbd b770 10be 4c68 c53d
00000250: f8d9 013d f294 efbd 8c33 ca3c c12e d83c
00000260: e34f f9bd ecf9 8cbd 14e2 f33b 7c00 463d
00000270: 6aad ecbd a6d3 babd 44ca 0dbd 28f5 973d
00000280: 423a c9bc 78a9 2ebb bc96 e8bd c73f a7bd
00000290: 7c39 ce3d ecfc 583c f892 05bd 700d e23d
000002a0: e177 0ebe aaae 793c dce7 d93d cf38 043e
000002b0: c501 a9bd bebc 6a3d 8225 c9bd 81ee 193b
000002c0: c2fe 293d 7541 4cbd 6413 103e 014b 35bd
000002d0: cfe7 d03c 13d9 be3d 056e 14bb e5c6 0dbe
000002e0: 254c 093e b2c1 863d b772 e9bd d6d4 12be
000002f0: 9304 e2bd 8860 8b3d 564b 17be 6f0b f2bd
00000300: ef40 a33d c9e1 a03c 67e2 263c 0a16 f33d
00000310: d482 933d 1166 353d 64f4 99be 8402 e2bd
00000320: deb8 41be 8382 b93d daa8 713e 0df0 973d
00000330: 7603 523e eab9 103e 9cfa 743e fd3a f03c
00000340: 9a11 9b3d 802a 74bd 4e02 1fbe de50 96bd
00000350: d6b0 873d ffd2 593d 6b8f 40bc 865d 733d
00000360: 2c94 10be 6154 693d 44e1 d13d 0273 8b3c
00000370: 5312 a23e d3c9 2bbd 28f8 bf3e 8f2f f93b
00000380: 2b0f 963e 49c2 933d 3d15 68bd e487 94bc
00000390: 8357 11be 4c52 ad3d 4787 78bc c751 b73e
000003a0: 580d 073d 584b c53e 0a1e 63be ca58 f1bd
000003b0: 07ef 85be 3e8c 09be 151d e33d 5cbf 2fbc
000003c0: 918c 313d d36c 0dbe ecee 003e 351d ec3d
000003d0: 1b46 b73d b99a d83d 5eff 693c 6577 abbc
000003e0: da86 443d ecac d3be d4f0 ca3d 8849 f3bc
000003f0: de4e 0bbe 4395 15bd 5190 92be 3140 9ebd
-0.10618815 -0.13747877 0.13115636 -0.035861466 -0.025561573 -0.034600064 -0.05369036 0.05232656
0.0491749 0.12889445 0.07084351 -0.11944767 0.073313214 0.03758107 0.13118346 0.020262472
0.033663556 -0.12594658 -0.10494203 -0.13257556 -0.09434348 -0.08126401 0.032058477 -0.044787835
-0.09184086 -0.05083328 -0.03264424 -0.04955692 -0.119088255 -0.0948658 0.12685603 0.02682834
-0.087859616 -0.087837994 0.020735493 -0.13332357 0.12175017 0.1330981 -0.11158058 0.021605171
-0.068659715 -0.1181587 0.14350426 0.113917224 -0.048300043 0.012765633 0.015656881 -0.09190628
0.104472086 -0.12391915 0.05539284 0.0550345 0.041418318 -0.05339222 0.014464078 -0.12275125
-0.037786137 -0.021964336 -0.066823 -0.054593127 0.1334407 -0.07604068 -0.05072697 0.031636007
0.04638664 -0.07914743 0.10513804 -0.110754795 0.12542962 0.02764026 -0.028334994 -0.1178919
-0.057696752 -0.019742731 -0.12531888 0.08660265 -0.025185993 0.1175501 0.04750317 -0.119508766
-0.04545419 -0.11955506 0.12799947 -0.05620386 -0.07050645 0.04074235 -0.13449551 -0.028603295
0.075369045 0.0155619085 -0.10079273 0.015845424 0.14049509 -0.05617519 0.057795443 0.118871264
-0.1292159 -0.11078188 0.05932104 0.109278224 0.0021934863 0.13874769 -0.08681375 0.093138784
0.03424657 0.013747539 -0.7093485 -0.15935521 -0.065768264 -0.25807533 -0.4646855 -0.05188136
0.047531262 0.10044014 0.032767486 0.16666457 0.1280547 -0.07813151 0.10776187 0.16043462
0.12723549 0.097137176 0.011266436 -0.07636221 0.3357441 0.1486032 -0.054705657 0.08690568
-0.103758655 0.097425476 -0.030395618 -0.13516594 0.0356936 0.101985924 -0.052481398 -0.15818182
0.20581365 0.11251655 0.095958896 -0.024450595 -0.026035883 0.07848461 0.07694456 0.009963152
-0.06037615 -0.10801139 -0.14105497 0.09639034 0.03170201 -0.11698331 0.024682783 0.026389481
-0.1217344 -0.06883606 0.007442722 0.048340306 -0.115565136 -0.091224 -0.034616724 0.07419807
-0.024563912 -0.0026651304 -0.11356875 -0.081664614 0.10069558 0.013243895 -0.032610863 0.11037719
-0.13912918 0.015239397 0.10639927 0.12912296 -0.08252291 0.057308905 -0.09821607 0.0023488107
0.04150272 -0.049867112 0.14069897 -0.044260982 0.02550116 0.09318747 -0.0022648585 -0.13845403
0.13407953 0.06579913 -0.11398833 -0.14339003 -0.11036029 0.06805521 -0.14774832 -0.11818587
0.079713695 0.019638913 0.010185814 0.11869438 0.07202688 0.04428679 -0.30069268 -0.11035636
-0.18918177 0.09058096 0.23599568 0.07418833 0.20509133 0.1413342 0.23923725 0.029325003
0.075717166 -0.059610844 -0.15528223 -0.07339643 0.06625526 0.053179737 -0.0117529435 0.059415363
-0.14119023 0.056965236 0.10248044 0.017022613 0.31654605 -0.04194052 0.37494016 0.0076045464
0.29308447 0.07214791 -0.05666088 -0.018131204 -0.1419354 0.084629625 -0.015168971 0.3580458
0.03297171 0.38534045 -0.22179428 -0.11784513 -0.26158926 -0.13432404 0.11089531 -0.010726776
0.043346945 -0.13811044 0.12591141 0.11529008 0.089489184 0.10576386 0.014282076 -0.020930955
0.047980167 -0.41342866 0.099092156 -0.029698148 -0.13604304 -0.0365193 -0.2862573 -0.07727087

encoder.conv2d_2.bias f4 [32]
00000000: f936 47bc b0b1 05be c9b1 c73c 9575 08bd
00000010: f44a ab3d 2c92 fcbc 736d 793b 9ad3 b73d
00000020: c823 113a 5a80 01bd ca15 033e 0577 113e
00000030: b95c 5f3d 3510 c3bd 8bad 7cbc c0fb cb3c
00000040: 6f06 ab3c 4b4f a93b 9de2 153e 5ac7 113e
00000050: b576 bc3b 7fea e5bd 62a4 e23c 064f 9fbc
00000060: 4210 003e 2981 9b3d 8c6b 323e 6144 ecbd
00000070: 07cc c9bd c4d3 8e3d b516 f3bb cad1 a7bb
-0.012159103 -0.13056064 0.024376767 -0.03331526 0.083639055 -0.030831419 0.0038059622 0.08975907
0.0005536643 -0.031616546 0.1280128 0.14205559 0.054531787 -0.095245756 -0.015422235 0.024900317
0.020877091 0.005166923 0.14637227 0.14236203 0.0057514557 -0.11226367 0.027666274 -0.019446861
0.12506202 0.07592995 0.17423838 -0.1153648 -0.09853368 0.06973985 -0.0074184784 -0.0051214444

encoder.conv2d_3.weight f4 [64, 32, 1, 3]
00000000: b2ef 363d e38c 9f3d 3d9a 37bc f71d 6f3b
00000010: bd39 efbb 4f11 61bb 507d de3c c44c ec3c
00000020: dd50 3a3d 6d43 42bd 7c43 efbc 9521 70bd
00000030: c094 c33d 4c95 a2bd 766b 3dbe 5fd8 84bd
00000040: 7369 653d 1875 2cbd 7cc8 e1bd c71e b93c
00000050: ca7e 52bd 0647 3b3d 7164 56bc 3150 9fbd
00000060: dbfc aa3d 6786 893d aaba f9bb e3f6 ae3d
00000070: 1799 eb3d dd77 a3bd d58f 8f3c e7a9 ce3d
00000080: 326b 503d 60d8 773d 31e3 85bd 31b6 7d3d
00000090: f07e 8a3b 20dc 28bd ccdf b4bd c950 95bd
000000a0: b751 7abc cc93 a9bc cdd0 32be 721e 09bd
000000b0: 4e98 bc3c 1c41 06be 5e32 cebd 9b42 303d
000000c0: df04 763c d166 c6bc bc8c 283d fdda 9abd
000000d0: aa21 77bd 3428 513d afe3 c5bc e493 d03d
000000e0: 06bb e5bc 5d1d 79bd d39a fdbd 6480 64bc
000000f0: 0d2c 33bd 9e80 47bd e3db a63c e5de 39bd
00000100: f0a1 873d 5863 323d 895c 8c3d cd3a 7bbd
00000110: d182 d33c b4df aa3c 058c 81bd 69f3 873d
00000120: 78c1 75bd 61cb 333d 5754 913d 0177 36be
00000130: 3747 f5bd 350a c0bc f955 e83c 4956 7b3d
00000140: 22a4 a73c 5173 0fbd c008 b13d 7bdd 2f3d
00000150: 877c ccbd 4ba5 b83d 5ede a8bb 967c efbd
00000160: 31af b53c 7106 ecbc c7a1 263d ef3d bbbd
00000170: 92cc 603d 9062 ba3d 371f cf3c dc29 c23d
00000180: fc81 73bd 7ad8 43bd 7824 a23d 83df 4abb
00000190: 3e70 2d3d c123 473d 9346 87bc 80d1 dbbc
000001a0: b3e2 7bbc c657 c83d 4b00 1bbd 1f2b 80bd
000001b0: ca04 e2bb d8b1 63bd 6e15 dcbc 2d75 c7bd
000001c0: deed 65bd 3293 dbbc 18bb b0bd 1c1c 0cbd
000001d0: 70ef abbd 973e d2bc 2a8f 333d a18f 9a3d
000001e0: 9c6f feba 09d9 36bd 3031 063d c8a8 793d
000001f0: 225f f3bc 518a 623d cfc3 8cbd 30ff b4bc
00000200: 189e edbc d2e2 cabd 4e48 97bc c7dc 6a3d
00000210: b135 06bd b400 8dbd e309 c4bc 1d81 e3bb
00000220: d242 5dba ec4b 0dbd 523d 763c c7ce 00bc
00000230: fe92 f1bd 022c aa3c 50f3 93bd af49 47bd
00000240: f616 313c d187 593d 2aef 303d a875 99bd
00000250: d5ce 96bd 57f7 de3b eea2 263d e8c6 e6bd
00000260: 72a5 933d bf63 aa3d 2184 a4bc 687d 19bd
00000270: fa62 e33c f372 e4bc e86b bfbd 5bf3 3abc
00000280: bcea fabc 75d7 a7bd 1104 9c3d c906 6e3d
00000290: 84a6 9fbd 0041 83bd 22ac 633d 3338 38bc
000002a0: 470d a03c a606 a53d 046b b1bd 9020 a7bc
000002b0: 48a4 0f3c 2073 d0bd 8574 523c 12b3 063d
000002c0: d0de 113d 03ae babd 96cb aa3d c638 5fbd
000002d0: ccbb b4bd d7b7 a3bd 2fa2 96bc a344 563d
000002e0: 0a3f 95bc 6ab9 9e3c 638e 413d 6adb cdbd
000002f0: 55a1 b03d 37be a63d d162 6fbd 3a84 703d
00000300: a7c9 873d 1192 03bc 0977 97bd b528 e13c
00000310: 5ce6 8e3d 5d05 753c 717b b3bd bfec b2bc
00000320: 76ea a73d 41b0 803d 1ade a1bd e1d4 b1bd
00000330: dea0 423b 4237 59bd 1c59 cabd 0a50 8139
00000340: 0d24 83bd 6d18 afbd 533b 68bd f8ce 163d
00000350: 3e77 333c 3afc a9bd dc6f ffbc d8ac a1bd
00000360: ca6e 12bd ecde 423c f610 1e3c 97c7 34bc
00000370: 1b42 ca3c bde2 61bb 9802 bc3d 5471 8bbd
00000380: 7ccd 7dbc 71e3 bcbd 4c44 d53c 6012 87bc
00000390: 1c6d c7bc c71c 9f3d 397c 82bd 4071 94bd
000003a0: 634e 9e3d 9dca 0bbd 9231 42bd 0fb4 c1bc
000003b0: 0e61 cbbd d502 893c 6585 043d eebc 693d
000003c0: 6f80 3fbd 5e50 263d ef9f d1bb 466a 92bc
000003d0: ccde 58bd d318 ca3c 4795 4dbd 8c72 6fbd
000003e0: 5b17 933d ebd1 ac3c 28fd 873d 12b2 53bd
000003f0: 2014 c2bc 5acf 0d3d 85d7 3fbd 22cd fb3c
0.044662185 0.07790544 -0.011206207 0.0036486366 -0.007300584 -0.0034342592 0.027159363 0.028845198
0.045487273 -0.047427583 -0.029206984 -0.058625776 0.09549856 -0.07938632 -0.18498024 -0.06486582
0.056008767 -0.042103857 -0.110245675 0.022597684 -0.051390447 0.04572203 -0.013085471 -0.07778967
0.083490096 0.06715088 -0.007621129 0.08543184 0.11503809 -0.079818465 0.01752464 0.10091
0.05088348 0.060509086 -0.06537474 0.06194133 0.004226558 -0.041225553 -0.08831748 -0.07290799
-0.015278271 -0.020700358 -0.17462464 -0.0334763 0.023021843 -0.13110775 -0.100682005 0.04303227
0.01501581 -0.024218949 0.04114984 -0.075613 -0.06033484 0.05106373 -0.02415642 0.10184458
-0.028043281 -0.06081902 -0.12383046 -0.013946626 -0.043743182 -0.048706643 0.020368522 -0.045378584
0.06622684 0.043551773 0.06853587 -0.061335374 0.025819214 0.020858623 -0.06325535 0.06638224
-0.05999896 0.04389513 0.07096165 -0.17818834 -0.11976474 -0.023442367 0.028361307 0.061361585
0.020464007 -0.035022084 0.08644247 0.04293583 -0.09984689 0.09015902 -0.0051534614 -0.11693685
0.022178264 -0.028811665 0.040681627 -0.09142672 0.054882593 0.091008306 0.02528344 0.0948064
-0.059450135 -0.04781387 0.07917112 -0.0030955977 0.04234337 0.048618082 -0.016513145 -0.026833296
-0.0153738735 0.097823665 -0.037842076 -0.06258225 -0.0068975436 -0.055589527 -0.026865687 -0.097391464
-0.05613505 -0.026803587 -0.08629435 -0.034206495 -0.083952785 -0.02566461 0.043837704 0.07546926
-0.0019411924 -0.044640575 0.032761753 0.060951978 -0.029708449 0.05530769 -0.06873285 -0.02209434
-0.029006049 -0.09906544 -0.018467095 0.057339456 -0.032766048 -0.068849 -0.023930496 -0.0069428817
-0.0008440438 -0.034496233 0.015029268 -0.0078618 -0.11795615 0.020772938 -0.072241426 -0.048654255
0.010808697 0.05310804 0.043196835 -0.07493144 -0.07363669 0.0068043876 0.040682726 -0.11268407
0.072092906 0.08319806 -0.020082535 -0.037473112 0.027757157 -0.027886843 -0.09346753 -0.0114105595
-0.030629508 -0.08195392 0.07617963 0.05811194 -0.07795432 -0.06408882 0.05558408 -0.011243868
0.019537581 0.08057909 -0.0866299 -0.02040127 0.008767195 -0.10178208 0.012845163 0.03288562
0.03561288 -0.09115221 0.08339612 -0.054497503 -0.08824882 -0.07994049 -0.018387882 0.05231155
-0.018218536 0.019375522 0.04725493 -0.100516155 0.08624522 0.08141749 -0.058443848 0.05871985
0.06630259 -0.00803043 -0.07395751 0.027485231 0.06977531 0.014954892 -0.08763779 -0.021841405
0.08199017 0.06283618 -0.07903691 -0.086831816 0.0029697935 -0.053031214 -0.098802775 0.0002466443
-0.064033605 -0.08549581 -0.0566972 0.036818475 0.0109537225 -0.083000615 -0.031181268 -0.078942955
-0.035750188 0.011893969 0.0096475985 -0.011033914 0.024689725 -0.0034467422 0.09180182 -0.06808725
-0.015490886 -0.092230685 0.026033543 -0.016488254 -0.02434402 0.07769161 -0.0637135 -0.07248163
0.07729795 -0.034128774 -0.047410555 -0.023645429 -0.09930621 0.016724983 0.032353777 0.057064943
-0.046753343 0.040603988 -0.0063972394 -0.01787294 -0.05294685 0.02467004 -0.05019119 -0.05845885
0.07182189 0.02109619 0.066400826 -0.051683493 -0.023691237 0.034621574 -0.046836395 0.030737463

encoder.conv2d_3.bias f4 [64]
00000000: bd23 d9bd 7639 8dbc ed7e 17bc c581 51bd
00000010: 378c 96bd 9b42 2b3d 2f2a 503d 3ee2 b0bd
00000020: 586e adbd 3a59 a5ba a2b6 fb3d 5c2d 4abd
00000030: a89f 6c3d 57a1 cabd f26d 743c 4e1d 963c
00000040: bd9c b3bc d50a a33c 6b7c 483d a978 f13b
00000050: 809a b23d 8f4f 5b3d 2025 4cbd b4cc d5bd
00000060: c90c 7ebd 05df bbbd 8a0b 19bc 6ae4 e53c
00000070: 32df 913d 82bc fcbd cc12 633d ad95 813d
00000080: 059d 76bc 4d17 983d 64bf abbd cea5 d73d
00000090: 50f2 993d 2985 283c e1a1 49bd 03a7 78bd
000000a0: 938f ac3d 9942 803d 315e 95bd c8b1 18bc
000000b0: 4551 a53b ea09 ea3d 6ff3 353d 626f 58bd
000000c0: 13d9 223d 86c5 6e3c 0b55 a43d fb6a cebd
000000d0: 618b f73b 3b5b fdbd 5958 60bd 8bed 95bd
000000e0: bfd7 483d 5d9f 9a3c 4f0e c33d d5c0 b93d
000000f0: 1644 8e3d 16dd d6bd b29c debd 0a3f db3d
-0.1060252 -0.017239314 -0.00924657 -0.05114915 -0.073509626 0.041811567 0.05082148 -0.08636902
-0.08468312 -0.0012615093 0.12290694 -0.049359664 0.057769448 -0.098940544 0.014918791 0.01832452
-0.021925325 0.019902626 0.04894678 0.00736912 0.08720875 0.05354267 -0.049840093 -0.10439435
-0.06202391 -0.09173397 -0.00934113 0.028063018 0.07122649 -0.123406425 0.055437848 0.063273765
-0.015052085 0.07426319 -0.08386114 0.105296716 0.075169206 0.010285654 -0.049226645 -0.06070615
0.08425822 0.062627025 -0.07293356 -0.00931973 0.0050450885 0.11427672 0.04442161 -0.052840598
0.0397578 0.01457346 0.08024033 -0.10078999 0.007554457 -0.123709165 -0.054771755 -0.07320698
0.049033877 0.018874818 0.095242135 0.09069983 0.0694658 -0.104913875 -0.10869731 0.10705383

encoder.fc.weight f4 [16, 64]
00000000: a300 4a3d feb4 b33d f0fb 423c f86c 3abe
00000010: 4243 4cbe 2d9b 41bd 8e79 733e 2568 7dbd
00000020: 6c24 3ebe 02f9 9e3d 914c a9bd 4c89 8a3e
00000030: 8d8f eebc 7aaa 95bd 9c06 4a3d deb8 25bd
00000040: 231e a43c 77a2 43bd 5adc cdbd 545d e2bd
00000050: c6db a03d 0d01 3abd a4cd 2d3d 5de8 8ebc
00000060: c40e 4a3e f127 713d c6fa 8abd 10cb 0c3c
00000070: 92f0 81bd 73a3 75bd ee29 883b ae80 6abb
00000080: 5f0d 80bd 77d6 003e d247 d3bd ebf9 12bb
00000090: f4c3 6f3d 153f fbbd d40c d93c 4c1d 6a3d
000000a0: de73 d83b 70e1 8b3b e61c 433e d891 b03d
000000b0: 4e38 01bc e605 00bd f903 bfbc 49cc 573d
000000c0: 4ca1 fc3c e313 91bd a197 32bd 7958 e1bd
000000d0: ff73 cdbd ca0d 633c 52ac e1bc c85f 76bd
000000e0: 494d f43b 000e 943e db31 4a3d 88d5 583c
000000f0: c7f9 26bd 954a c63c b8cc 4bbd 9605 b9bd
00000100: 883f 8d3d 6d97 963d f4e9 e63d 623c cfbd
00000110: cc72 78bd 7fda 8bbb d0a0 a8be f3dd 16bd
00000120: 61a6 4e3d 2834 ec3c 757d f53d 9d17 f43d
00000130: 50fc 34bd 29b9 48bd 7128 793d 5c03 853d
00000140: d18e 1abd 41fd 863d 5219 51bd 80f1 423d
00000150: 1b4b 9e3d b8db f83d c5c3 923c 6471 42bd
00000160: 150c 37be c119 64bd d505 a63d 6ef6 b73d
00000170: a3a6 733d 088d 843d 5fdc 603d 620d f83d
00000180: 684c 72bc 7399 a7bd 463b f33d 2be3 bc3d
00000190: 75c0 f93d 9e93 debd 8eb3 193c 896e 77bd
000001a0: d6b0 c23d ff4d 5bbd 49e1 e73d 0835 ac3c
000001b0: ba3d 9bbc d82f 263e 0c9b b3bc 3d12 8f3c
000001c0: a510 cf3d 74ec 6f3d af32 b7bd 3b7b ccbc
000001d0: 895e dabb 2852 02bd c54a acbd fe5f 433d
000001e0: dbfd ccbd 0454 3bbe 5f71 ef3d b0b5 053d
000001f0: ca88 843a 1fdd 71bd edc8 33be e351 263c
00000200: edcf e9bc 9bf1 093c ecc1 9cbd 3026 c93b
00000210: 1338 b63c bbe4 ae3d eca5 1d3e 06bd 5b3e
00000220: 140b 8f3e 084f 6dbd 06fc 08be 7c59 aebb
00000230: cb05 efbd 772e c9bd 6b4b b13d 3694 dbbd
00000240: 1cf2 a03d d315 fabd b1d1 16bd 90a2 7d3b
00000250: 1a15 04be 341e bf3d 658c dfbd 788c 9e3d
00000260: c5ba 58bc 2b40 e0bc 6800 d2bc 70c5 b9bd
00000270: 9ab9 4d3d 7b95 2bbd b1f9 e7bd 78f1 b03d
00000280: 71f0 08be e311 e4bd d4fe 5a3d d815 7dbb
00000290: 2af7 9a3d 8e6f b9bd 3bea 453d 12dd ae3d
000002a0: 0dd0 18bd 9719 683d 3305 a6bd b851 00bb
000002b0: 9053 fdbc 6a2c 68bd 70b9 0c3d dce3 debc
000002c0: 1e66 9abd 26be 13bd 4c7f 893d 4cc2 48bd
000002d0: 8c99 273d 5d4e c5bd 51f0 f8bd f6f5 033e
000002e0: 6b96 f43c 4435 87be 478e f8bd dd64 b73d
000002f0: 5e1d ccbd bae0 8d3c d0d6 983d c9b8 39bd
00000300: 71fa 0dbe f23c 7fbd 60d3 453c e46c 5c3e
00000310: 9a69 01bd 348e bc3d e457 13be 82f3 37be
00000320: bedd dabd 502e 8f3d 214a 8c3d b8bf d6be
00000330: 2804 003e cb6d b73d ae91 c3bc d31e 2abc
00000340: 635c 713d 9897 0b3d 63aa 80bd 02e2 f23d
00000350: 4f0d acbd dc6a e83c 4f51 92bc 45c7 85b9
00000360: eecd a6bd 4892 93bd 05d4 053d 30b7 e93c
00000370: 668c 0dbd 8e23 c1bc 1a4b 65bd 3ff5 33bd
00000380: 10aa c7bd 2100 1e3d 782d 9bbc 584e fa3c
00000390: 9dcb babd e2a0 27bd 7e51 1cbd 4d3e 02bc
000003a0: d0a0 093e 49b5 f3bd 49ed 7fbe 2f0b d63c
000003b0: f07c f0bd 2d48 02bd 886d 813c 0261 5ebd
000003c0: cfba 833d 14b3 a9bd 7d64 983d 61be b9bd
000003d0: 44a0 50bd 856c a3bd 4f9e 153d 5376 823d
000003e0: eb7a 113d d0b9 6a3d 3f9f 1a3d 1f19 f03d
000003f0: 381a 2ebc aaf0 9a3d 994b a5bb 64ba fcbc
0.049317013 0.08774756 0.011900887 -0.18205631 -0.19947532 -0.047267128 0.23776838 -0.061866898
-0.18568581 0.07762338 -0.08266557 0.27057874 -0.029121185 -0.073079064 0.04932271 -0.040459506
0.020033902 -0.04776236 -0.10051794 -0.11052957 0.078544185 -0.04541116 0.042432442 -0.017444784
0.19732195 0.05887598 -0.067861125 0.008593336 -0.06344713 -0.05997033 0.004155389 -0.0035782265
-0.0625255 0.12581812 -0.10316433 -0.0022426795 0.058536485 -0.12267891 0.026495375 0.057156846
0.0066056093 0.0042688176 0.19053993 0.086215675 -0.007886959 -0.031255625 -0.023317324 0.052685056
0.030838631 -0.07083871 -0.043601636 -0.11003203 -0.1003189 0.013858268 -0.027547989 -0.060149938
0.007455502 0.2891693 0.049363952 0.013234504 -0.04076555 0.024205485 -0.049755782 -0.090342686
0.06896883 0.07353101 0.11275092 -0.10118939 -0.060656354 -0.00426799 -0.3293519 -0.03683276
0.05045164 0.028833464 0.1198682 0.119185664 -0.044185936 -0.049004707 0.060829584 0.064947814
-0.037733857 0.06591273 -0.051049538 0.047593594 0.07729169 0.12151283 0.017915616 -0.04747142
-0.17875703 -0.055688623 0.08106581 0.089825496 0.05948509 0.06472212 0.054897662 0.121119276
-0.0147887245 -0.08183565 0.1187654 0.09223016 0.121949114 -0.108679995 0.009381188 -0.06040815
0.09506385 -0.05354118 0.113222666 0.021021381 -0.018950332 0.16229188 -0.021924518 0.017464751
0.101105966 0.05857511 -0.08945214 -0.024961105 -0.0066641015 -0.03181663 -0.08412699 0.047698967
-0.100093566 -0.18293768 0.11691546 0.032643974 0.0010111567 -0.059048768 -0.17557116 0.010151359
-0.02854153 0.00841942 -0.07654175 0.0061385855 0.022243535 0.085397206 0.15395325 0.21458825
0.2793814 -0.0579367 -0.1337739 -0.005320726 -0.11671027 -0.098233156 0.08656963 -0.10721628
0.07858679 -0.12211194 -0.03682107 0.003870163 -0.12898675 0.09331933 -0.1091545 0.07741636
-0.013228123 -0.027374348 -0.02563496 -0.09070861 0.05022583 -0.041890603 -0.11326922 0.086398065
-0.13372971 -0.11136224 0.05346568 -0.0038617756 0.07566674 -0.090544805 0.048319083 0.085382596
-0.037307788 0.05666503 -0.081064604 -0.0019579958 -0.030923635 -0.05668298 0.034356534 -0.027208261
-0.075390086 -0.03607001 0.06713733 -0.04901342 0.040917918 -0.09634087 -0.12155212 0.12886795
0.029856881 -0.26407826 -0.12136512 0.08954785 -0.09966539 0.017319072 0.07462847 -0.04534224
-0.13865067 -0.06231398 0.0120743215 0.21525913 -0.03159485 0.092068106 -0.14388996 -0.17963985
-0.10686825 0.06991255 0.068500765 -0.41943145 0.12501585 0.08956488 -0.023873176 -0.010383326
0.058925997 0.034080118 -0.06282499 0.11859514 -0.08400976 0.028371267 -0.017861037 -0.00025516204
-0.08144747 -0.07205635 0.0326729 0.028529733 -0.034557723 -0.023576524 -0.055979826 -0.043935057
-0.09749234 0.03857434 -0.01894258 0.030554935 -0.091208674 -0.040924914 -0.038163655 -0.007949424
0.13440251 -0.11899812 -0.24992861 0.02612838 -0.1174258 -0.031807113 0.015799299 -0.054291733
0.06432115 -0.082861096 0.074410416 -0.09069515 -0.05093409 -0.07979683 0.036527928 0.06370225
0.035517614 0.05730611 0.037749525 0.117235415 -0.010626368 0.07565434 -0.0050444123 -0.030850597

encoder.fc.bias f4 [16]
00000000: bc2c cf3d 0a37 0b3e 1d9e 933a 561c cc3d
00000010: 1045 f0bb 91b8 16be 4aab 3a3d 90b2 a8bd
00000020: fa55 82bb ffa4 143d 10e9 553c 0d8f 65bc
00000030: 4883 71bd 4628 073e 4ac7 a93d 58ca 5ebd
0.10115954 0.13595214 0.0011262331 0.09966342 -0.0073324516 -0.14718844 0.04557351 -0.08237183
-0.0039775344 0.036290165 0.013056055 -0.014011157 -0.05896309 0.13198957 0.082899645 -0.05439219

decoder.decoder_fc1.weight f4 [64, 16]
00000000: c54f 143d 8301 90be b2cf 9c3e 46f4 66be
00000010: 5d92 173d 196c 8c3e b738 e4bc cb5e 883c
00000020: b453 01be 03d3 233e 26d0 0c3e ec2b e8be
00000030: 7f17 19be 9faa c53d b3c1 b33e ebd6 e7bd
00000040: 6fae 05be 2e9e 513e ad3d d43d 7997 5c3e
00000050: f960 45bd ae1a 3cbe 75d1 3ebe 4003 16be
00000060: 520a 353e f239 123e 183e 133e e55c 2c3e
00000070: c7cf 72be fae5 253e 294d 353e c464 1d3d
00000080: 4b64 c13e f73c 403e 15bd afbd e36e 8abe
00000090: 7c63 ef3b 0c80 753d 210f 54bd b6d2 1b3e
000000a0: 2dd9 ad3d 20ed 663e fcb1 073e c3e1 77be
000000b0: ea2c 3ebe 28e0 0f3e 4473 3abd 17f5 45bd
000000c0: 267f 173e d436 36be 6631 81be 6d43 2d3e
000000d0: 2fbf e0bd 75b0 c43b 44d0 88bd 7a6c 5c3d
000000e0: 629d 4a3e 6be8 0d3e 645c 5dbe c994 473d
000000f0: f3b1 283e 5fb8 4abe 6d0f 2fbe 365c 77be
00000100: dccf 3fbe 3834 453e ca22 97bd 75a7 073e
00000110: 0efd 4dbe 7981 993d f47d 82be ef5e 873e
00000120: 5a15 d83d a0cf d13c 3aaf 2cbe f035 2cbc
00000130: f456 823e be09 723e 2a03 2abe 58a8 883e
00000140: 1578 d13d 27fe 693e 087d fabd f6c7 9bbd
00000150: c99b 903b fac6 e0bd ca62 45be c9e8 be3d
00000160: 06d8 813c 0a4e f73c 3cc1 84be 4af0 95bd
00000170: 4627 9dbd cad3 583e b61f 11bd 8203 cb3d
00000180: b8af 9f3d 0fea f33c 90af 1bbe 516d 25bd
00000190: 797e 7f3e ccc8 133d 17aa b93c cfbc 163e
000001a0: de4e 1c3e 0ead 28be 4a78 cd3d e5cb 85be
000001b0: e806 18bb 8d6e 663d 518a 683e 2c49 4abe
000001c0: e15d 04be 6373 953d b519 043e ea9b 173e
000001d0: 59a1 523e deef 89bd b864 d3bd 3e9e 2f3d
000001e0: 7c19 6e3e eb43 be3d 1d6e 713e 1522 c2bd
000001f0: f3a4 f13d 6e8b 373e c8e1 12be 8565 4bbe
00000200: 2849 7c3d 603f 503e 9cd1 12be 68eb 693e
00000210: c64a 6dbe 80ca 783d a2d5 313e 52a8 03be
00000220: 7ca2 213e a6c0 7ebe 1880 693e c447 ee3d
00000230: e8aa 10bd 6047 d6bd 505a a23d 126f 743e
00000240: 102c 823e 3b40 723e ee43 1a3d 7bfb e5bd
00000250: 5c0f e13c fa83 28be 2cc8 063d bc32 90ba
00000260: bdba 8c3d 7d3d 403e d30e 563e aed5 8e3c
00000270: eeb1 18be 311c 3d3e 85f1 1c3e 0d13 153e
00000280: b6b9 0d3e 481c 33bd b42d 0cbe 188b 113d
00000290: 4a23 263e a866 233e 2a05 653e 0435 a13d
000002a0: f680 05be dcda cbbd 5019 1d3d ec49 3fbe
000002b0: f0ac 85bc 60a2 c1bd 509d 37be b0dc 363e
000002c0: ddeb cb3d 8126 323e 9e1c 25be 9b8f 0bbd
000002d0: 3f9a 943c 5289 8d3e 03e6 c23b 97f7 a33d
000002e0: cc22 fb3d a43d 4dbe 3164 3d3e 239e cebd
000002f0: 7ff2 6a3e 1a84 803d 2a88 10bc 8bfb aebd
00000300: 5411 5b3e cec3 573e 2233 433e 2ad4 07be
00000310: 8cd4 d0bd 32af 503e 0251 5e3e 4e8f 6ebe
00000320: 7c27 873d 0026 673e e2b6 383e 7422 7b3e
00000330: 0038 df3c cc16 a23d c064 62be 94a4 1f3e
00000340: 9c52 be3d 50c9 503d 402a 313e 0095 c23d
00000350: 3822 8cbd fcbd f83d 9cb6 71be 10c0 d2bc
00000360: 54a7 c43d 7678 28be 7e47 163e 70ad 543e
00000370: 068e 22be 6067 4fbc 200c cebd 306d 2d3e
00000380: 5956 a23d a4dc 2f3e 3737 f73d f5f8 cabd
00000390: 58e7 90bd f583 013d 31de 373e 33e3 77bd
000003a0: 71d9 db3d 7d69 5fbd 1195 a3bd 18ae 3f3e
000003b0: 8aa6 583e c7ad 133c 4b91 633d a508 483e
000003c0: 83df a0be df41 483e 8f2d 383d cc2a f03e
000003d0: 9e04 e2bd 8a59 443e 0228 0a3d 249b 443e
000003e0: 2419 ef3d 81d5 373e 49a1 8c3e 26e7 b33d
000003f0: 1556 5e3c 3b24 b03e 918e e6be d403 b0bd
0.036208887 -0.28126153 0.3062721 -0.2255412 0.037004817 0.27426222 -0.027859075 0.016646763
-0.12629586 0.15998463 0.13751277 -0.4534601 -0.1495037 0.09651684 0.35108718 -0.11320289
-0.13054822 0.20470497 0.10363326 0.21542157 -0.048188183 -0.18369552 -0.18634589 -0.14649677
0.17679718 0.14279917 0.14379156 0.16832311 -0.23712073 0.1620101 0.17705216 0.038426176
0.3777183 0.18773256 -0.085809864 -0.27037725 0.0073055606 0.05993657 -0.05177224 0.15217099
0.084886886 0.22551394 0.1325149 -0.24207215 -0.18571821 0.14050353 -0.045520082 -0.04832944
0.14794597 -0.17794353 -0.25233 0.16920252 -0.109739654 0.0060024806 -0.066803485 0.05381439
0.197866 0.13858192 -0.21617275 0.048725877 0.16474132 -0.19796894 -0.17095728 -0.2415627
-0.18731636 0.19258201 -0.07379682 0.13247474 -0.20116064 0.07495398 -0.2548672 0.26439616
0.105509475 0.025611699 -0.16863719 -0.010510907 0.25456965 0.23636529 -0.1660277 0.26690936
0.10227982 0.22850858 -0.12230879 -0.07606499 0.0044131023 -0.10975452 -0.19275966 0.09321744
0.015850078 0.03018858 -0.25928676 -0.07321222 -0.076735064 0.21174541 -0.035430633 0.099127784
0.077971876 0.029774694 -0.1520369 -0.040387455 0.24950589 0.036080167 0.022664113 0.14720462
0.1526446 -0.16472265 0.10032709 -0.26132122 -0.0023197476 0.056257773 0.22709014 -0.19754475
-0.12926437 0.07297399 0.12900431 0.1480557 0.20569362 -0.06735204 -0.10321945 0.04287552
0.23251909 0.09290298 0.23577161 -0.09479157 0.1179904 0.17924282 -0.14343941 -0.19862945
0.061593205 0.20336676 -0.14337772 0.22843707 -0.23173055 0.060739994 0.1736665 -0.12857178
0.15784639 -0.24878177 0.2280277 0.11634782 -0.03531924 -0.104628325 0.07927382 0.23870495
0.25424242 0.23657314 0.03766244 -0.11229607 0.027473144 -0.16456595 0.032905743 -0.0011001448
0.06871555 0.18773456 0.20904092 0.017435875 -0.14911625 0.18467785 0.15326507 0.14558049
0.13840374 -0.043728143 -0.1368931 0.03553304 0.16224399 0.15957129 0.22365251 0.0787144
-0.13037476 -0.099538535 0.038354218 -0.18680543 -0.016317815 -0.09454799 -0.17931104 0.17857623
0.09957097 0.173975 -0.16124198 -0.0340725 0.018139957 0.2764383 0.0059478297 0.080062084
0.12262496 -0.20043045 0.18495251 -0.10088756 0.22944067 0.062751964 -0.008821527 -0.08544072
0.21393329 0.21070787 0.19062474 -0.13264528 -0.1019679 0.20379332 0.2171059 -0.23296854
0.06599328 0.2257309 0.18038514 0.24524862 0.027248383 0.079145044 -0.22108746 0.15590125
0.092931 0.050973237 0.17301273 0.09501076 -0.06842464 0.12145612 -0.23604816 -0.025726348
0.09602228 -0.16452202 0.1467571 0.20769286 -0.1587449 -0.012658924 -0.100609064 0.16936183
0.07926626 0.17174011 0.12071078 -0.09910766 -0.07075375 0.031619985 0.17955853 -0.06051941
0.10734833 -0.05454396 -0.079874165 0.18718755 0.2115728 0.0090136 0.055558484 0.19534548
-0.31420526 0.19556378 0.044965323 0.4690765 -0.11036037 0.19174781 0.03372956 0.19199806
0.11674717 0.17952539 0.274668 0.087843224 0.013570328 0.34402642 -0.45030645 -0.0859448

decoder.decoder_fc1.bias f4 [64]
00000000: 476e 1ebd 27a5 983d b0f9 09be 997e ff3d
00000010: a66c 0a3e b42d 1a3e 4145 babc 2e30 67be
00000020: 643a 47be ec61 503e f6ce 64be 497e 6ebd
00000030: 9658 64be b0fe e1bc e040 98bc 3675 85bb
00000040: d6fa 4ebe ba71 6b3d 35f6 05be d900 783d
00000050: 7a6a 69be b49f 313e 46d8 86be 3ed8 033e
00000060: 2b69 42be 9cf8 a13d 8c67 37be bfc9 5bbd
00000070: bf9c 8c3d 8771 a43d 23d0 393e 7272 7cbe
00000080: 2c49 1abe 5ce3 3dbe 2b99 723e 5d8f 773e
00000090: 1847 d2bd e054 41bd 3194 8c3d f095 cbbd
000000a0: c86b 9ebd 9916 123e 9160 1f3c 1d27 b33d
000000b0: c327 263e 6db4 03be 3aa1 2a3d 33cf fb3d
000000c0: 843b d9bc ac2f 45be a646 ccbd 3689 263d
000000d0: 4caf 0abe b213 5bbe 8482 56be 90f8 91bc
000000e0: dc72 6cbd d67a 88be 7e1d 333e 734d 153d
000000f0: e532 e9bd ed17 3a3e c341 183e 3424 71be
-0.038679387 0.07453375 -0.13474154 0.124753185 0.13518009 0.15056497 -0.022738101 -0.22576973
-0.19455868 0.20349854 -0.22344574 -0.058225904 -0.22299418 -0.027587265 -0.018585622 -0.0040728105
-0.20212874 0.057481505 -0.13082202 0.060547683 -0.22794524 0.17346078 -0.2633688 0.12875459
-0.18985431 0.079087466 -0.17910594 -0.053659197 0.068658344 0.08029466 0.18145804 -0.24653032
-0.15066975 -0.18543762 0.23691241 0.24175783 -0.10267466 -0.047200084 0.06864203 -0.09940708
-0.077354014 0.14266433 0.009727613 0.08747695 0.16226105 -0.12861796 0.041657664 0.122953795
-0.026517637 -0.19256467 -0.099744126 0.0406582 -0.13543433 -0.21394232 -0.20948225 -0.01781872
-0.057726726 -0.26656216 0.17491719 0.036450814 -0.113866605 0.1817319 0.14868836 -0.23548967

decoder.decoder_fc2.weight f4 [128, 64]
00000000: d724 38be 2c62 b03d c8d0 32be ac5a c8bc
00000010: 0536 9ebd 9a1e a63b c281 06bd 2d0b 81be
00000020: 6624 a1bd a634 f63d 20b9 81bc 3afa 7cbc
00000030: 9c1a 89bd 4214 fc3d bd8e 80bc bfc5 633e
00000040: f049 2cbc b177 bb3d 814d d4bd 1504 c03d
00000050: e088 6c3d a0f4 1e3e d346 b63c 55f5 273e
00000060: 3d6b 76bd 9306 883d 60e3 993b 8e66 7ebc
00000070: 9ce6 403e 2f30 bcbd ce14 a93d ea96 fc3d
00000080: ffc5 92bd 6800 be3d b075 e33d 3b77 7e3d
00000090: 2c2d 7cbe ad0c 913c 2d0d 0cbd 85c3 a03c
000000a0: 6097 ddbb d9ac 9f3d b17d 4f3d cc11 5fbc
000000b0: 3250 1a3e c219 883c 814d c4bd 7fd8 e43d
000000c0: 1ff2 1d3d b4a4 533d cc28 17bc 1bfd d83d
000000d0: 881f d83d ba7e ae3d d47e ecbd 1096 51bd
000000e0: 0385 e33b 93d0 96bd e1fa 9ebd 4f8b 373d
000000f0: 5b27 05be c188 0bbd c318 b6bc d8da a53d
00000100: 1055 4d3c ae1b bfbd c817 2abd 408e 8fbc
00000110: 20bb cf3b 1890 be3c c0be 5b3c d624 9d3d
00000120: 3080 063d 20a7 09bd a227 e0bd c261 b9bd
00000130: 9a28 e9bd 78de dabc 2897 c23d 884b 303d
00000140: 147a dabd b0b1 f4bc 8a78 e7bd 9cf9 36bd
00000150: e81e 1a3d 9c19 033d 50d5 76bd 98ee 4abd
00000160: a053 26bd 6437 72bd 3af3 9b3d 886e abbc
00000170: 108a f9bd ec55 42bd 60f6 dfbd f0a8 bebc
00000180: be70 a13d 90ff 553d dae6 b8bd 9627 88bd
00000190: 4400 6cbd 204c 1a3d f069 953c daa7 e03d
000001a0: dcfa fc3d 588c cfbc 7ec4 9d3d 3c2a b53d
000001b0: d0b5 733d 30a9 b4bc 08ef 15bd f091 813d
000001c0: 084b 6bbd 54a8 66bd 02ee 92bd 4863 bf3d
000001d0: aeb7 ddbd 1050 07bc 78bf bfbd c80e 753d
000001e0: 4899 c0bd 16ef ccbd a4d8 a03d 5032 993c
000001f0: a49e 43bd c0a4 ae3c 2ca4 d8bd 00e9 c63b
00000200: 0072 deba 84e8 b7bd f872 bcbd 5675 913d
00000210: 362e 88bd f9bc 01be 28d6 ccbd 209c 40bc
00000220: 60e8 37bc a496 093d 389e d73d d6d9 abbd
00000230: 9c9f 863d d0b1 7a3c c01d 93bc cac5 9dbd
00000240: ccb0 8b3d b822 8dbd e2d9 d1bd 8dce c33d
00000250: 240e 39bd 1353 28bd 2eac e53d 2a9b fbba
00000260: 29cf 0ebd cd9f 02be 8061 b8ba 9c5a c9bd
00000270: f657 c1bc 2249 943d 121c 57bc 48fd 913c
00000280: dae8 a03d bacd f03d 7824 a03d 9e01 4a3d
00000290: fe89 a93d 64b4 89bd 2179 c9bd 0c2e dfbd
000002a0: 0ebe a83d 9c62 823d ac88 a43d e84f b7bd
000002b0: 4448 8a3d fcdb 10bd 067c 48bd c081 303c
000002c0: 52d3 a73d e094 dd3c a4fb cc3d 78ae 003d
000002d0: ec65 393d 9845 ea3c 0e79 dcbd 6a42 ca3d
000002e0: 80e1 ec3d 3ce2 683d fa39 a93c 8fdb 743d
000002f0: fa2a 893d dedb dabd fb5a 5cbd c855 d8bc
00000300: a2f9 a9bd 482b debd 72d0 efbd 74ad fbbd
00000310: 0ba3 563d 486d 143c c6fd ac3d d002 a5bc
00000320: 5688 d83d ebc4 793d e60e a53d 847b 7dbd
00000330: bae8 913d f4da 853d e92a d73d 547a 55bd
00000340: 1cdf 303d 913c 1dbc 7265 f33d 4874 36bd
00000350: fc22 243d 5e2c 86bd 709f 013c fe2e 9ebd
00000360: 7a5a 833d 2eaa b33d 3e7a d53d 108b d7bd
00000370: 7061 e3bd ce31 d13c 4c47 0abd 104b 453c
00000380: 243f 3cbd 68fe 48bd 9d43 a33d 5d7f 08be
00000390: 5c84 dcbd 1caf ba3d 4d1d f9bd a8a1 9ebd
000003a0: d009 19bc 32f1 693d 0e59 b93d 2c0f 453d
000003b0: 8a8b acbc 204e 5c3c 871f 9d3d bc2c 4c3c
000003c0: 48fd bcbc d095 79bc 40ee 283c 91d5 07be
000003d0: 3c50 bebd 0084 e53d f270 debd 90f5 5cbc
000003e0: 6980 babc 7643 d73d a833 13bd 1f02 b8bd
000003f0: 6691 82bd fcaf 233d 69d1 46bd 3035 e8bd
-0.17982803 0.08612475 -0.17462456 -0.024457298 -0.07725147 0.005069566 -0.03283859 -0.2520384
-0.078682706 0.12021761 -0.015835345 -0.015440518 -0.066945285 0.12308551 -0.015693063 0.22243403
-0.010515675 0.09153689 -0.10366345 0.093757786 0.05774772 0.15523005 0.022250568 0.1640218
-0.060160864 0.06641879 0.0046962947 -0.015527381 0.1883797 -0.09188878 0.08255921 0.12333472
-0.07166671 0.09277421 0.111064315 0.062125426 -0.24626607 0.01770624 -0.034192253 0.019624481
-0.00676243 0.0779664 0.050656978 -0.013615083 0.15069655 0.016613845 -0.09585095 0.11174106
0.038560983 0.051670745 -0.009226035 0.10595151 0.10552889 0.08520265 -0.11547628 -0.0511685
0.0069433465 -0.07364001 -0.07762695 0.04481059 -0.13003294 -0.034065966 -0.022228604 0.08098382
0.0125324875 -0.09331451 -0.041526586 -0.017523885 0.0063394457 0.023262069 0.013412178 0.076730415
0.032837093 -0.03360665 -0.10945059 -0.09051849 -0.11384697 -0.02671741 0.09501487 0.043040782
-0.10667816 -0.029869884 -0.11302288 -0.04467164 0.03762713 0.032006845 -0.060262024 -0.049543947
-0.040607095 -0.059134856 0.07614751 -0.020926729 -0.121845365 -0.047445223 -0.10935664 -0.023273915
0.07882832 0.052245677 -0.090284064 -0.066481754 -0.05761744 0.037670255 0.018238991 0.10969515
0.12352535 -0.025335476 0.077034935 0.08845946 0.05949956 -0.022053331 -0.03660491 0.063266635
-0.057444602 -0.056312874 -0.07174303 0.09345108 -0.1082605 -0.0082588345 -0.09362692 0.05982855
-0.09404236 -0.100065395 0.07853821 0.018700749 -0.047758713 0.021318793 -0.10578188 0.0060702562
-0.001697123 -0.08979896 -0.09201616 0.07102458 -0.06649439 -0.12669744 -0.100017846 -0.011755973
-0.011224836 0.033590928 0.10528225 -0.08391158 0.06573412 0.015301183 -0.017958522 -0.07703741
0.06820831 -0.06891388 -0.10246636 0.09560881 -0.0451795 -0.04109485 0.11214481 -0.0019196023
-0.034865532 -0.12756272 -0.0014067143 -0.098317355 -0.023601513 0.072405115 -0.013129251 0.01782097
0.07856913 0.11757989 0.07819456 0.04931795 0.08278273 -0.0672386 -0.09837557 -0.108974546
0.08239375 0.063664645 0.080338806 -0.08950788 0.06752065 -0.035366043 -0.048946403 0.010773122
0.08194603 0.027048528 0.10008934 0.031416386 0.045263216 0.028597638 -0.10765277 0.09875949
0.11566448 0.05685638 0.020657528 0.0597797 0.0669765 -0.106864676 -0.053797703 -0.026408091
-0.08299567 -0.10848099 -0.1170968 -0.12288943 0.052401584 0.009059258 0.08446841 -0.020142943
0.10572879 0.06097881 0.08059482 -0.06188537 0.07124467 0.065359026 0.10506231 -0.052118614
0.043181524 -0.00959696 0.118845835 -0.04454449 0.040072426 -0.06551431 0.007911548 -0.07723807
0.064137414 0.087726936 0.104237065 -0.10524571 -0.11102569 0.025536444 -0.0337594 0.012041822
-0.045958653 -0.049070746 0.079718806 -0.13329835 -0.10767433 0.09115431 -0.12163792 -0.07745677
-0.009340718 0.057114787 0.09050189 0.048110172 -0.021062631 0.013446361 0.07672029 0.012461837
-0.023069993 -0.015233472 0.0103107095 -0.13265063 -0.09292647 0.112068176 -0.10861386 -0.013486281
-0.022766309 0.10510914 -0.035937935 -0.089847796 -0.06375389 0.039962754 -0.048539553 -0.1133827

decoder.decoder_fc2.bias f4 [128]
00000000: d5b6 f53d 00a0 a9ba cfb1 0dbe 76d5 b23b
00000010: 0080 4e3a 08bf bd3c a61c e0bd 8867 b6bd
00000020: b98a bd3d 107d 1f3c 1051 8dbd 9417 eb3d
00000030: 6a36 4cbd 80ba f13d 5198 46bd b6d2 2ebc
00000040: 1c3d dabd f6d9 eabd 6adc 00be 527f b43d
00000050: ec87 633d 7f86 a8bd e45b 4bbd 0014 a8bd
00000060: d693 d2bd e4db 1b3e e9a1 78bd 7144 9f3d
00000070: f0ae 1dbc 0343 143e 231d 1fbd 9718 e53c
00000080: 0a58 9fbd 094d 24bd b0d9 c4bc 09ee d83d
00000090: 43f7 c33d 0bae 233d cafa c7bd 5cf0 db3d
000000a0: 5115 e53d d445 1a3e ca42 babd 7adc a4bc
000000b0: 6f46 ec3d 7831 8e3d 4306 4f3c cc4a 2fbd
000000c0: ed6b f2ba 2423 103e 4d95 b83d c7de cebb
000000d0: 990d 0cbe 7918 b63d b0e7 1fbd 8e54 a93d
000000e0: db94 fdbc 573a 9e3c c0ea 9d3d fbd6 44bc
000000f0: ef78 bd3d 4bb0 ba3d 3be6 9ebc 0c54 d8bb
00000100: d02a 863c 33c9 bd3d effb e0bd 80c0 51bc
00000110: d1e3 d3bb 7042 293d e087 83bd 6f29 233e
00000120: dc2b 1c3e adcb be3c a952 103e f754 6fbd
00000130: 2cd5 093d 33cf c43d 4aba d5bd 51b4 ad3d
00000140: b0eb 993c beac b0bc fa54 f2bb f842 b33d
00000150: 0e0e e1bd 2248 f438 4fc5 703d c7e1 5e3d
00000160: 929a c83c 6f60 aa3d 1de2 0d3e 9c6a dcbd
00000170: 43e7 693d 4f70 14be d7dd b73c 150d 863c
00000180: b971 aabd fa12 a23d 474f f53d 67c8 06be
00000190: c0d4 afbd 0c85 d1bd ac26 9cbd af40 00bd
000001a0: 2778 593d e99d c9bd b318 f4bd 77fd 223e
000001b0: f9c1 07bd 0418 f83d f6be d2bd 194c 87bd
000001c0: 8918 d13a 645f 81bd d3b9 a5bd 8572 f6bd
000001d0: d39b 09bd d155 d83d 40af c2bd b726 393d
000001e0: 80a9 fdbd 4813 a53d ba3a d93d bae2 68bd
000001f0: 488c b3bd 7de5 dabd e1e8 8a3d e950 583b
0.11997763 -0.001294136 -0.1383736 0.0054575754 0.000787735 0.02316238 -0.10942964 -0.08906466
0.09254975 0.009734407 -0.06900227 0.114791065 -0.04985658 0.1180315 -0.048485104 -0.010670355
-0.10656187 -0.11467354 -0.12584081 0.08813347 0.055549547 -0.08228778 -0.04964818 -0.0820694
-0.10282104 0.152206 -0.060701285 0.07776726 -0.009624228 0.14478688 -0.038846146 0.027965827
-0.07780464 -0.04011253 -0.024029583 0.105922766 0.09568646 0.039960902 -0.09764631 0.10739204
0.111857064 0.150657 -0.0909477 -0.020124663 0.11536872 0.06943029 0.01263577 -0.04279594
-0.0018495299 0.14075905 0.09012852 -0.006313178 -0.13677062 0.088913865 -0.039039314 0.08268081
-0.030954769 0.019314928 0.07710791 -0.012014146 0.09251582 0.091156565 -0.019396892 -0.006601816
0.016377836 0.09266891 -0.109855525 -0.012802243 -0.006466367 0.041323125 -0.064224005 0.15933774
0.15251106 0.02329048 0.14094032 -0.05843064 0.033650562 0.096098326 -0.104359224 0.08481658
0.018789142 -0.021566745 -0.007395384 0.08753008 -0.10989009 0.000116482624 0.05878192 0.054414537
0.024487767 0.083191745 0.13855787 -0.107625216 0.057105314 -0.14495967 0.022444649 0.01636366
-0.08322472 0.07913776 0.119780116 -0.13162385 -0.08585501 -0.10230455 -0.076245636 -0.031311687
0.0530931 -0.09844572 -0.119187735 0.15917002 -0.03314397 0.121139556 -0.10290329 -0.06606311
0.0015952747 -0.063170224 -0.08092084 -0.120335616 -0.03359587 0.10563243 -0.095060825 0.045202937
-0.12385845 0.08060318 0.10606904 -0.05685685 -0.08766991 -0.10688303 0.067826994 0.003300721

decoder.decoder_fc3.weight f4 [32, 128]
00000000: 10ed 823d a682 1abd afe6 5a3b 4d44 31bc
00000010: f00f 343c 131a 2cbc ed42 8bbd 8194 af3d
00000020: ff1c 4ebd fe58 7dbd fcab 943d e1e8 71bd
00000030: 9351 1cbc e23e 0cbd 994d 8fbc 8cb7 723d
00000040: a1c5 883a d77b 723d 7b5d b3ba 98dc cabc
00000050: 7116 1fbd 5482 5f3c e098 ccbc a86f 96bd
00000060: c7cf 98bc d199 173d 7ba4 b9bb 0450 f3bc
00000070: 345f 7dbc fad2 99bd 7a2c 5cbb 8658 aabd
00000080: f9f7 913d dbd0 5bbd abe4 68bd a866 423d
00000090: db8c 293d 99d7 fabc acca ec3b 21d7 553d
000000a0: ffea ab3d 6ad4 5ebc d2f7 883d aaa1 863c
000000b0: 706c c4bc 8c00 a1bd 578d ae3d 8e00 6dbd
000000c0: 19e1 42bc afc3 d13c 2b48 393d 2554 013c
000000d0: 8082 96bd 7a5e 0b3d 8407 ef3c 4482 6a3d
000000e0: 6f5c 1e3d be65 b63b 03d9 c23d 1b6e 00b9
000000f0: 296c e1bb 1729 733d aa5e ad3c 838e f03b
00000100: 11c3 5ebd e633 86bd 2f8e 813d 3a46 933d
00000110: 9a25 8bbb d4f3 6c3d 70ad 7bbd 90a5 2e3d
00000120: 644c e5bc 1e9b bf3c 9119 49bd 67ab 6b3c
00000130: 2ba1 abbd 9b8c 8e3c c1bf adbb 63d7 4e3d
00000140: 2908 0cbd 96e7 e3bb 2dfa 8a3d d2fd 6f3d
00000150: 7793 15bc b400 6dbd b0e3 dabc 32cf 443c
00000160: 7a59 ddbc ba60 233d 701d 29bd a02b 96bb
00000170: 6510 853c 1096 92bd 7e7c 53bc b42e a6ba
00000180: 0633 3ebb 5ede 75bd 76a5 ffbc 9c96 8fbd
00000190: e637 523d 3561 a5bd 7e73 c6bc 07e3 85bd
000001a0: e100 593c 9f6f 06bd d863 3c3c 7aa3 98bd
000001b0: ee9b a13c a6b3 a8bc 969d 203d cc24 3f3a
000001c0: d536 d1bc 3307 18bd 82e8 58bd ebb9 2ebd
000001d0: 4ee0 223d a394 9abc 52c6 b43d a4e2 353d
000001e0: b6a9 8b3d 1a23 193d 9a2e c4bc cd60 923d
000001f0: 8bf7 8b3d cf0a 4abc 786f af3c a7d9 423d
00000200: eb2b b1bc 3936 16bd 2d64 7dbd 122f b33c
00000210: 8a64 1ebd e00f bc3d 1478 a73d 2f81 2cbd
00000220: 8776 4bbd ba12 76b8 ec4f aabd 16c0 243d
00000230: e338 f1bc 2328 9ebc 5cc5 3f3d 6336 babc
00000240: 3adc ccbc 156e c0bc 19c6 86bd 44c9 98bc
00000250: fd9e b33d e18e 69bc 65c5 b33d db2a a6bd
00000260: a586 123c 104d 37bc 468e fa3c 504c 703d
00000270: 7d2c 923c 1eb7 a53d 1eb7 5c3d 063c a4bd
00000280: da5e 07bd 9afe 4d3d 275c 873d 5290 193d
00000290: 074f dc3c 7653 10bb 5037 8e3d 5101 c43b
000002a0: 19da b4bd e757 77bd f45c 0e3c fad0 343d
000002b0: e3a8 8d3d ceaf b63d 5215 9e3d 981b b7bd
000002c0: b8a9 453d b651 68bc fef5 8b3d cda0 463d
000002d0: b670 acbc 7d10 223d 3154 df3c 7bf9 aa3d
000002e0: 71c5 bdbd f4cf 593d b2a7 a43d e916 83bc
000002f0: cbc6 4f3a e55a bbbc 7d66 b73d 8007 b6bc
00000300: 0733 9dbd b9c5 aa3d c863 823d 7c2a 9b3d
00000310: 1d73 d03c aceb 1cbd 5224 6f3d f3e5 333d
00000320: a109 9b3c 4c97 0b3d c7da fabc 6a8b c93c
00000330: 6e3b 9e3c 3e1d 8b3c ccb1 0e3c 3ff0 d23c
00000340: b4e3 2e3c e8f9 8d3c 3433 273d 8338 3f3c
00000350: 42ae 8b3c e493 bc3d ba0a 1a3d f037 043c
00000360: aeb0 fe3c 8c20 2b3c a837 0abd 6fdc 08bd
00000370: d7f7 9b3c 2487 ffbc 5cb6 afbc d6a6 c83c
00000380: ac4f af3b ff9f c63d cea9 013d 1d82 1dbd
00000390: fe96 e03c 6b81 0cbd 6838 68bd aac2 96bc
000003a0: a7a1 32bc 5bff 09bd 4fb2 90bc 254b ebbc
000003b0: 0388 e73c 31fa c0bc cae0 23bd d7fc 82bc
000003c0: 8b13 b93b 7463 80bc eb4d 9cbd 80b4 84bd
000003d0: 7ce4 46bd 8ee7 363d 2f27 51bc c60e aa3d
000003e0: 5741 c6bc d13d 053c c5cd ab3d 2642 8fbc
000003f0: 8bde 41bd fa58 9a3d 50e9 483d 572e bf3d
0.06392872 -0.037722252 0.0033401658 -0.010819507 0.010990128 -0.010504263 -0.067998745 0.08573247
-0.05032062 -0.061852448 0.07259366 -0.05905998 -0.009540933 -0.034239657 -0.017493056 0.059257075
0.0010434875 0.059200134 -0.0013684476 -0.02476339 -0.03883976 0.0136419125 -0.02497524 -0.073455155
-0.018653763 0.037011925 -0.0056653596 -0.02970124 -0.015464593 -0.07510944 -0.0033595846 -0.08317666
0.07127375 -0.053665977 -0.0568587 0.047461182 0.041394096 -0.030620383 0.007226309 0.052207116
0.08394431 -0.013600448 0.06687893 0.01643451 -0.023977488 -0.078614324 0.08523052 -0.057861857
-0.011894488 0.025606005 0.04523484 0.007893597 -0.0734911 0.034025647 0.029178388 0.057253137
0.03866237 0.005566328 0.09514048 -0.00012248049 -0.006879349 0.05936536 0.021163303 0.0073412075
-0.05438525 -0.065528676 0.063259475 0.07191129 -0.004246426 0.05784972 -0.0614447 0.04263836
-0.027990527 0.023389395 -0.049096648 0.014384127 -0.0838035 0.01740103 -0.0053024 0.050498378
-0.03418747 -0.0069550974 0.067859985 0.05859167 -0.009129397 -0.057862 -0.026719898 0.01201229
-0.027020205 0.039887168 -0.04128784 -0.004582837 0.01624317 -0.071575284 -0.012908099 -0.0012678714
-0.0029022112 -0.06002652 -0.031206828 -0.07011148 0.05132284 -0.080751814 -0.024224993 -0.06537443
0.013244838 -0.032821294 0.011498414 -0.07453056 0.019727673 -0.020593476 0.039212786 0.0007291555
-0.025538841 -0.03711624 -0.05295611 -0.042657774 0.039764695 -0.018869704 0.08826889 0.044405594
0.06819479 0.03738699 -0.023948003 0.071473695 0.068343244 -0.0123316785 0.021415457 0.04757085
-0.021627387 -0.036672805 -0.061863113 0.02187303 -0.0386701 0.091827154 0.081772 -0.042115387
-0.049673583 -5.866841e-05 -0.08316025 0.04022225 -0.029446071 -0.019306248 0.046819076 -0.022731012
-0.025007356 -0.023489991 -0.06580753 -0.018650658 0.08770559 -0.014255256 0.087778844 -0.08113643
0.008943235 -0.011187807 0.03058542 0.058666527 0.01784348 0.080915675 0.05388557 -0.08019261
-0.033049442 0.050291635 0.066093735 0.03749115 0.026893152 -0.0022022403 0.06944144 0.0059816022
-0.08830661 -0.060386565 0.008689154 0.044144608 0.06916978 0.08920251 0.0771891 -0.0894081
0.04825756 -0.014179638 0.06834029 0.048493195 -0.021049839 0.039566506 0.027261825 0.08348366
-0.092661746 0.053176835 0.08039798 -0.016002135 0.0007926046 -0.02287049 0.08955095 -0.022220373
-0.07675748 0.08338494 0.06366688 0.075764626 0.025445515 -0.03831069 0.058384247 0.04392047
0.01892549 0.034079835 -0.0306219 0.02460261 0.019315448 0.016981717 0.008709382 0.025749324
0.010674406 0.017331079 0.040820315 0.011671188 0.017050866 0.092078954 0.037607886 0.008069977
0.031090107 0.0104447715 -0.033744484 -0.033413347 0.019039078 -0.03119237 -0.02144926 0.024493616
0.005350074 0.096984856 0.03165608 -0.038454164 0.027415749 -0.03430311 -0.05669442 -0.01840337
-0.010902799 -0.03369079 -0.01766315 -0.028722355 0.028263098 -0.0235568 -0.040009297 -0.015989704
0.0056480817 -0.015672423 -0.07632049 -0.0647974 -0.048557743 0.04465442 -0.01276569 0.08303599
-0.024201078 0.008132414 0.08388857 -0.017487597 -0.047331374 0.07536502 0.04905063 0.093350105

decoder.decoder_fc3.bias f4 [32]
00000000: 2405 33bb 2d89 53bd ae7e f43c ec6e 173c
00000010: c789 c13d 153b e2ba a2e1 113c a454 c33d
00000020: 5200 19bd d578 093b 0246 2b3d 05fa 29bd
00000030: 0cd2 01bd 097d 1a3d 649d c4bc 783d 203d
00000040: 5ae9 a3bc 93c8 013d 8c89 413b 6875 2cbd
00000050: c718 fc3d 0f41 593d 2252 f93c 1167 51bd
00000060: b55f 573d 9de3 5abd f57f 2e3c 3363 8ebd
00000070: 497c 663d 27fa 1abd d0cc 98bc e012 363c
-0.0027316296 -0.051644493 0.029845562 0.009242754 0.09450107 -0.001726004 0.008903893 0.09537628
-0.03735382 0.0020976563 0.04181481 -0.041498203 -0.031694457 0.0377169 -0.024000831 0.03912112
-0.020008732 0.031685423 0.0029531447 -0.042104155 0.123094134 0.05304056 0.030434672 -0.051123682
0.052581508 -0.053439725 0.0106506245 -0.069525145 0.05627087 -0.03783622 -0.01865235 0.011112899
