clustering/clustering/encoder_weights/ros2_bigbag_old/lidar_encoder_autoencoder_ros2_bigbag.pth (torch, 95560 bytes, 14 tensors)

encoder.conv2d_1.weight f4 [16, 1, 1, 3]
000000 69 4e 96 bd 4d af f7 be c2 fe 0f bf 81 4b 77 3e
       -0.07339174 -0.4837593 -0.56248105 0.24149896
000010 60 f5 a9 3d a6 3e b8 3e 05 aa db be 68 d3 4e 3e
       0.08298755 0.35985297 -0.42903152 0.20197833
000020 a1 6e 0b 3e 10 0e 3b 3e 30 23 d2 bc 0d 28 06 bf
       0.1361642 0.18267083 -0.025651544 -0.5240486
000030 29 db b4 bd b6 3c 7e be e9 66 7a 3e e2 51 17 3e
       -0.08830864 -0.24827847 0.2445332 0.1477733
000040 65 79 eb 3e 55 8f 71 3e 27 85 a6 3e d9 f7 16 3e
       0.45991054 0.23589833 0.32523462 0.14742984
000050 0f a7 dd 3e 16 eb 2d be b0 8f 17 be 75 0c 55 be
       0.43291518 -0.1698421 -0.14800906 -0.20805533
000060 ca 5f ba 3e 7e b2 ab 3e 30 9e 01 bf d3 53 37 3d
       0.36401206 0.33534616 -0.50632 0.044757675
000070 fe 2c 02 bf f6 fd 21 3e 61 d2 1c 3f 3a 44 16 3e
       -0.508499 0.15819535 0.6125851 0.14674464
000080 78 09 c1 be 12 7d cb be 12 48 1b 3f b7 90 e5 3e
       -0.37702537 -0.3974386 0.60656846 0.4483697
000090 c7 d9 fc be 1d e2 54 bd c3 39 59 be 07 38 cc 3e
       -0.493849 -0.05197345 -0.2121344 0.39886495
0000a0 ca b7 bd 3e 9f c8 fa be 65 73 9d be 6f 65 ca be
       0.37054282 -0.48981187 -0.30752102 -0.39530513
0000b0 8e 20 6d 3d a5 a6 87 be 0d 64 94 3e 21 3e 99 be
       0.057892375 -0.26494327 0.28982583 -0.29930213

encoder.conv2d_1.bias f4 [16]
000000 18 83 31 be 90 0b e2 3e 51 48 c8 3d 1e ed f9 be
       -0.17335165 0.44149446 0.09779418 -0.4881372
000010 37 e8 dc be 44 24 50 3e 2b d1 cf be 67 86 52 be
       -0.43145916 0.20326334 -0.4058927 -0.20559083
000020 5d 24 b1 bd 21 51 0d 3f 9d 71 43 3e 13 36 d1 be
       -0.08649514 0.5520192 0.19086309 -0.40861568
000030 59 6c d2 be 5f 05 cf bd d2 e7 5f be 76 cb f0 be
       -0.41098288 -0.10108446 -0.21865776 -0.47030228

encoder.conv2d_2.weight f4 [32, 16, 1, 3]
000000 47 c3 d5 bc f7 5f bc bd 01 c6 0b bc 6f 1a 81 bc
       -0.026094092 -0.09197991 -0.0085310945 -0.015759675
000010 4e 72 1e 3e 3b ef d7 3d 6f 98 4a 3e e9 78 fb bc
       0.15473291 0.105436765 0.19784711 -0.030697303
000020 ef 9c 7f be e3 da 61 bc 1d ee fd 3d 2d 0f 33 3d
       -0.24962209 -0.013785097 0.12398932 0.043715645
000030 96 82 ae 3d cf a5 b3 3c 5e b9 81 3d db 1b 22 bc
       0.08521001 0.02192965 0.06334184 -0.009894337
000040 7f 31 37 bd 7d 3c 5d 3c d3 1b e5 3d 9e 0c 42 bd
       -0.044724938 0.013503191 0.11186948 -0.047375314
000050 17 2f 18 bc d2 d2 de 3c 96 ad b3 bd 7f 7c 94 bd
       -0.009288571 0.027200136 -0.08773343 -0.07250308
000060 f7 2b a4 bd a3 fe 22 be ab 0b 31 bd d3 d8 ef 3d
       -0.08016198 -0.15917449 -0.043224018 0.11711278
000070 4e 04 fb bd e2 5f a7 3c f8 82 3c 3d 02 75 e3 3d
       -0.122566804 0.020431463 0.04602334 0.11106302
000080 96 28 e3 3d 6b aa 20 3e 89 75 57 bc d4 de 1c be
       0.110917255 0.1569001 -0.013150581 -0.15319377
000090 8f 57 17 3d 26 75 80 bb 3d 08 cd 3d 8f 8c c6 bd
       0.036948737 -0.003920215 0.10011337 -0.09694778
0000a0 25 ed 96 bd 70 49 0c 3e 0b 0e ac bd 86 cf 33 3d
       -0.073694505 0.13699889 -0.08401116 0.04389908
0000b0 aa 8b 18 3d dc a6 de 3d ec 45 03 be 8d b4 4d bc
       0.03724257 0.1087167 -0.12819642 -0.012555254
0000c0 76 ec e5 bc b0 b3 ea bd 20 42 31 bd dc d0 c7 3d
       -0.028066855 -0.11460054 -0.043275952 0.09756634
0000d0 22 11 5b bd 89 15 30 3d da 52 22 be f7 9c f2 bc
       -0.053483136 0.042989288 -0.15851918 -0.029615862
0000e0 9e 7f 31 3e e2 41 a9 3d b3 61 02 3d 5c de fb 3d
       0.17333838 0.08264519 0.031831454 0.12298271
0000f0 13 a2 04 be 39 ca 39 3d ed 36 50 bd 6f dd ac 3c
       -0.12952451 0.04535887 -0.05083363 0.021101682
000100 95 52 21 3d 1b ac 2c 3e 8e 31 54 3d 6f f5 64 bd
       0.039385397 0.16862528 0.05180507 -0.055898126
000110 ea 5d 1c 3e ae cd ad bc d6 b4 01 3e 5a ee f7 3d
       0.152702 -0.02121624 0.1266664 0.12106009
000120 08 7b 28 be b9 06 46 bd 40 d5 d0 be 2d df db 3d
       -0.16453183 -0.048346255 -0.40787697 0.10735927
000130 17 0c 02 3e 2e 09 a0 3d 5e 6b b4 b9 ea 7e 96 3d
       0.12699924 0.07814251 -0.0003441227 0.07348426
000140 53 96 52 be 9f 48 18 be 74 c1 ef 3d 3d f0 1f 3d
       -0.20565157 -0.14871453 0.1170682 0.03904747
000150 4e 81 0e be a0 46 11 3e 58 5b f7 3c e1 6a 69 bd
       -0.13916513 0.14187098 0.030194923 -0.056986693
000160 13 8c b6 bd 19 f1 53 be 1f be e3 bd 70 9b 11 3e
       -0.08913436 -0.2069744 -0.11120247 0.14219451
000170 4a 05 bf bd 5a 4d d3 3c 6d e7 f9 bc 9b 06 a5 bd
       -0.09327181 0.02579372 -0.03050586 -0.080579005
000180 e0 77 1a 3c ff 70 ed 3d ff ae 9f bb 83 cb f9 3d
       0.0094279945 0.11593818 -0.004873156 0.1219702
000190 c9 9f ab 3d 4b 79 ac 3d 9d 2d 13 be 54 23 53 3d
       0.08380086 0.08421572 -0.14372869 0.051547363
0001a0 e3 cf 84 3c a0 a6 54 bd 19 4d 36 3d 2c 7a 6e 3d
       0.01621241 -0.05191672 0.04450712 0.05822198
0001b0 f4 ee dc 3d ec 8b f8 3d 6d 36 0e be 87 76 0d 3e
       0.10787764 0.12136063 -0.1388795 0.13814746
0001c0 8f d8 15 3e 6f d2 7d bd 90 2c dd 3d ef 47 c7 3d
       0.14633392 -0.061968263 0.10799515 0.09730517
0001d0 10 bb 5e be f1 3d 0e 3e 29 b8 84 bc f9 5f ec 3d
       -0.21751046 0.13890816 -0.016201096 0.11541743
0001e0 53 df 74 3e 64 02 b7 bd 12 0b 27 bc 37 39 eb 3d
       0.23913316 -0.08936003 -0.01019551 0.11485522
0001f0 72 00 c3 3d 59 dd 83 bd 65 fe 2e 3e ee 0b 0e 3d
       0.09521569 -0.06438703 0.17089231 0.034679346
000200 ff f3 0e 3e 97 a4 46 be 66 0f 1d be fc bc a9 3d
       0.13960265 -0.19398724 -0.15337905 0.08287999
000210 a2 25 f6 3d ee eb 56 3d 83 56 c8 bd 83 3b a1 3c
       0.12018897 0.052471094 -0.09782126 0.019681698
000220 55 70 03 be 39 1b 24 3e 4b 06 0c be f7 17 4f bd
       -0.1283582 0.1602601 -0.13674276 -0.050559964
000230 c6 77 71 bd 6f b5 65 3d 6a 88 ee bd 0b 03 01 be
       -0.058952115 0.05608123 -0.11647113 -0.12598817
000240 a6 42 81 3c 28 08 4c bc 40 80 02 3e 3e a7 e6 3d
       0.01577885 -0.0124531165 0.12744236 0.11262368
000250 b9 58 ac 3d 92 12 0a 3e 5a e8 be ba e5 3e 56 be
       0.0841536 0.13483647 -0.0014565096 -0.2092243
000260 45 7b ed bd 5f 98 ec 3d 09 76 e7 3a b0 20 dc 3d
       -0.115957774 0.115525 0.0017659079 0.10748422
000270 f9 7b b7 bd 9e 6c b7 3b d9 0c 67 bd 33 32 97 3d
       -0.08959193 0.005597665 -0.056408737 0.073826216
000280 5d 13 de 3d 5f 5a 55 bd 62 27 e8 3c 36 26 1f 3d
       0.10843537 -0.052088138 0.028339092 0.0388548
000290 69 6b c9 3b 23 d7 1c 3d 53 5a 13 3e 63 77 0b 3e
       0.0061468375 0.038291108 0.14389925 0.13619761
0002a0 39 cc bb bd 56 2a 8c be 21 3a 8b be 02 d9 b1 bd
       -0.09169812 -0.2737605 -0.27192786 -0.08683969
0002b0 69 81 c6 bd a4 5e 5c 3c 06 3b 6b bb c1 22 ec 3c
       -0.09692652 0.013450298 -0.0035893335 0.028825166
0002c0 9e ba a4 3c 46 93 51 be 4d 05 e4 3d a8 b4 4d be
       0.020108517 -0.20466337 0.111338235 -0.20088446
0002d0 2e 3f 42 3d db e6 09 3d 58 49 da 3d a5 33 31 bd
       0.047423534 0.033667427 0.106585205 -0.043262143
0002e0 4b 09 ff bd c9 c2 69 be 55 d8 f7 3d ff 87 12 bd
       -0.12452944 -0.22828211 0.12101809 -0.035774227
0002f0 58 29 99 3d 3c cd e9 3d ea 53 66 3d 93 c8 19 bd
       0.07478589 0.114160985 0.05623237 -0.037544798
000300 0d 39 da 3d 5b 6f fa 3c 5d 66 c0 3c 8a 3e 07 3e
       0.10655413 0.030570677 0.02348631 0.1320745
000310 1b 22 ef 3b 63 ad 89 3b f2 3b 6d bc 0d 27 46 be
       0.007297767 0.0042015775 -0.014479624 -0.19350834
000320 2d e1 1b 3e b5 33 2f 3d 72 0d 9c bd 42 66 db bd
       0.15222616 0.04277392 -0.07619752 -0.107128635
000330 b7 3c 00 bc a3 39 3f 3d 4c 49 08 3e 02 82 10 3e
       -0.007826976 0.046685826 0.1330921 0.14112094
000340 5b 0e 06 3e 37 bd b7 bd ef ea cc 3c 3c 69 29 3d
       0.13091414 -0.08971637 0.025014369 0.041360125
000350 72 8a 04 3e 9e e6 31 3c 68 07 0d 3e a1 2c 5b 3b
       0.12943438 0.010858206 0.13772357 0.003344335
000360 3e a5 58 3b ed 2b 64 bd af 98 ad bd e3 82 29 bd
       0.0033057476 -0.055705953 -0.08476388 -0.04138459
000370 68 61 22 3c f8 c6 38 3e 35 fd 9f 3d 0e aa ea bd
       0.009910919 0.1804465 0.07811967 -0.114582166
000380 26 b1 b0 3d f6 5f 12 3e 4c aa a0 be af c2 e0 3d
       0.086275384 0.14294419 -0.31379926 0.10974633
000390 37 16 c7 3d 4b 38 e7 3c 35 0b f3 3d 5b 6d 14 3e
       0.09721034 0.028225085 0.11867372 0.14494841
0003a0 bd f8 a2 bc 0a 2b 10 be 12 f0 a3 3d a3 3f dc 3d
       -0.019893998 -0.14078918 0.08004774 0.10754325
0003b0 21 47 6e 3d a5 93 94 3d d9 38 92 3d a0 39 79 bd
       0.058173303 0.072547235 0.07139749 -0.06084597
0003c0 bc 6f ee 3d 51 82 0f be c0 63 c1 bc e3 a5 14 bd
       0.116424054 -0.14014556 -0.023607135 -0.036291014
0003d0 86 38 9e bd ba 90 d9 bd d6 03 1e 3e 8a 4a a3 3e
       -0.07725625 -0.106233075 0.15431151 0.31892806
0003e0 9e 7b cd 3c ed f0 3f 3d 55 51 0e be ab 56 9b 3d
       0.02508336 0.046860624 -0.13898213 0.0758489
0003f0 e5 50 9d bd 25 85 e7 bd e7 4b 2e 3d fb 4c 0a 3e
       -0.07681445 -0.11304692 0.042552855 0.13505928

encoder.conv2d_2.bias f4 [32]
000000 2e 83 1d bc a9 fa 50 3d d6 22 89 bc 02 8c 7d bd
       -0.009613795 0.0510203 -0.016740244 -0.0619011
000010 3b 62 8b 3d 99 be 8b 3d 6a 8a c0 bd 3c 8b fe bd
       0.06805845 0.06823463 -0.094014004 -0.124289006
000020 7c 21 d7 3d ee 7a 8a bd 17 68 33 3d 3f 36 c7 bd
       0.105044335 -0.06761728 0.04380044 -0.097271435
000030 b0 33 b1 3d 14 16 d0 3d b8 3e 99 3d 9e 04 51 bd
       0.08652437 0.10160461 0.07482666 -0.051029794
000040 c8 fa 03 3e da 97 59 bd 2a cf 9f bd a9 11 5b bd
       0.12888634 -0.053123333 -0.07803185 -0.05348364
000050 6c cc 9b 3d ca e0 78 bd 59 77 c7 bc d2 39 2a 3e
       0.0760735 -0.06076125 -0.024348902 0.16623619
000060 92 75 0a be 95 5b cc bd c5 cc d4 3d dd f8 00 be
       -0.13521412 -0.099784054 0.10390619 -0.12594934
000070 a6 4c fb bd 80 48 fb 3c 39 39 5b bd 70 d6 49 3c
       -0.12270479 0.03067422 -0.05352137 0.012319192

encoder.conv2d_3.weight f4 [64, 32, 1, 3]
000000 3d 8d 17 bb 9e 88 81 bd a8 98 b7 bc 72 1f 98 3c
       -0.0023124956 -0.06324886 -0.02241166 0.018569682
000010 c8 6f 2e bd 54 f4 90 3d 5a fe bd 3d b5 0b 4b 3d
       -0.04258707 0.07077852 0.09277029 0.04957171
000020 90 7a 88 bc 27 34 ff bd cc a8 be 3c 39 da 06 3e
       -0.016660005 -0.12461119 0.023273848 0.13169183
000030 ad 14 62 3d 10 0e 7a 3d ce f5 c1 3d 2e 15 7f 3e
       0.0551955 0.061048567 0.09470712 0.24910423
000040 fb 1d 55 3d a5 28 e2 be c8 19 95 bd 6e 78 4a 3d
       0.052030545 -0.44171634 -0.07280308 0.049431257
000050 c2 f1 2a 3d b8 6b 85 bd 40 1e 90 bd f3 08 61 3d
       0.041734464 -0.06514686 -0.0703702 0.054940175
000060 44 d7 0c 3e 9f e0 3a bd d2 bd 93 3c f5 d9 d0 bc
       0.13753992 -0.04562437 0.01803485 -0.025494555
000070 51 8c c7 3b a3 7a c1 bd 3e 66 83 bd 75 01 9c 3d
       0.006089725 -0.09447219 -0.064159855 0.076174654
000080 07 ad b9 3d 09 c1 f3 bc 15 31 bd bd 54 e5 be 3c
       0.090662055 -0.029755132 -0.09237877 0.023302712
000090 84 a2 22 3c 06 72 5a bd 1a 83 d9 bd ec a7 6b bd
       0.009926442 -0.053331397 -0.10620709 -0.05753319
0000a0 ee 83 b3 3d 07 36 f2 bc f5 20 84 3d cd f4 2a 3d
       0.08765398 -0.029566778 0.064515986 0.041737366
0000b0 e0 43 17 be 44 56 e7 3d a3 4c a2 3d be e2 5c bd
       -0.14771986 0.11295751 0.079247735 -0.053927176
0000c0 7c 7b 55 3d 26 69 00 3e af 24 0e bd a0 1d 52 3d
       0.052119717 0.12540111 -0.034702953 0.051297784
0000d0 71 cb bd bd 5b bc d6 bc ac b2 8f bd 68 b5 aa 3c
       -0.09267319 -0.026212862 -0.07016501 0.020838454
0000e0 7b f9 54 3d 76 6b 43 3d 80 1f ad 3d f7 81 0e bc
       0.051995736 0.047709905 0.08453274 -0.008697978
0000f0 16 58 86 bb 9d 40 1e bd 26 d0 51 3e dd a0 a4 bc
       -0.004099856 -0.03863584 0.20489559 -0.020096237
000100 e9 be 68 bd 72 ec a5 3c 5b 96 00 3e 0c 08 85 3d
       -0.05682269 0.020254347 0.12557356 0.064956754
000110 1b 67 c5 bc 78 f1 6c 3d ae bb 22 bd 6a 03 8c bb
       -0.024097016 0.05784747 -0.039729767 -0.004272868
000120 f7 91 86 bd 61 d9 99 3d 19 fd 57 bd 96 49 a4 3d
       -0.06570809 0.07512165 -0.052731607 0.08021848
000130 d2 20 e1 bc 51 b7 bd 3d fb c8 8a 3d 0e fc f6 3d
       -0.02748147 0.092634805 0.06776615 0.12059794
000140 49 c1 10 bf 20 cd b4 bd e3 0b cf bd 55 ff bc bd
       -0.5654493 -0.08828187 -0.10109689 -0.09228388
000150 93 bf 8c b8 1a e9 37 ba c2 ae 99 bd 37 71 c7 bc
       -6.711404e-05 -0.0007015631 -0.075040355 -0.024345977
000160 c0 66 c3 3c e1 46 d3 3c af ed a0 bd 99 10 b2 ba
       0.023852706 0.025790634 -0.078578345 -0.0013585269
000170 73 5b 5b 3d d6 95 ca 3c 50 9a ed bc 58 52 3a bd
       0.05355401 0.02472965 -0.029004246 -0.045488685
000180 0b c4 40 bd f3 c5 dc 3c fe 7b 66 3d 62 b3 a0 bd
       -0.04706196 0.026949858 0.056270592 -0.078467146
000190 d4 b7 74 bd ae 82 d6 bd 82 26 00 3e cc fa e6 bc
       -0.059745625 -0.10474144 0.1251469 -0.028195761
0001a0 e6 78 34 3d 6d d0 20 3d 7a 69 d2 3c 5f 5a 11 3d
       0.04406061 0.03926127 0.02568506 0.035486575
0001b0 ce e5 d1 bc 6d c7 a0 bd a0 e6 33 3d 64 24 07 bf
       -0.025622275 -0.078505374 0.043921113 -0.527899
0001c0 3e 82 04 bd df e5 84 bd a1 c3 92 3c 3d 5b 1d bc
       -0.03235077 -0.06489157 0.017915549 -0.009604272
0001d0 3c 32 38 3d 5b 3b c5 3d c9 98 ea 3c 6a c6 e8 bc
       0.044969782 0.09630462 0.028637307 -0.028414924
0001e0 dc 73 89 3c 8a 96 ba 3d ab 8e 8e 3b 30 50 b7 3d
       0.016778879 0.09110744 0.0043505034 0.089508414
0001f0 79 80 a3 3c 0d da d3 3c 1d 32 8f bd aa b7 a4 bd
       0.019958721 0.02586081 -0.0699198 -0.08042844
000200 b5 ef 37 3d 0c 36 43 3e 0c 8d 46 3c d6 21 bc 3d
       0.044906337 0.19063586 0.012118589 0.09186141
000210 cd 03 05 3e 0f 3b 62 bd 0f 64 df 3c 6c 90 75 3d
       0.12989731 -0.055232104 0.027269391 0.059952185
000220 5c e3 c7 3d 63 14 09 3d 5a d7 db be ea f1 89 be
       0.09760162 0.033466708 -0.42937738 -0.26942378
000230 ff 80 b2 bd b9 7b 4b 3d 6a ff bc bd 11 81 ae 3d
       -0.0871601 0.049678538 -0.09228404 0.08520711
000240 95 a8 b4 bc e1 70 f3 3d ba 67 ff bc 9f f0 c6 3d
       -0.022053042 0.11886764 -0.03117739 0.097138636
000250 9c fd 72 bc 7c 84 e3 3d d5 76 e3 3c 11 fb 87 bd
       -0.014830973 0.11109254 0.027766624 -0.06639684
000260 d0 19 b6 bc 45 3f de bc 6b 78 a2 3d 59 ac 47 bd
       -0.022229105 -0.027129779 0.07933124 -0.048748348
000270 ad 53 b3 be 91 9d 0f be fe 2c ae bd 2e 22 39 3d
       -0.35024777 -0.1402495 -0.08504675 0.045198612
000280 30 50 ac bd c5 f5 9d 3c e9 f1 ec 3c bc c6 cf 3d
       -0.08413732 0.019282231 0.028923946 0.101453274
000290 04 f0 34 3d 67 01 1d 3e 84 99 8d 3d 76 5d 05 bd
       0.04417421 0.15332566 0.069140464 -0.032559834
0002a0 69 87 40 bb 6b 69 8f bd c8 e1 54 3d 84 68 1e 3d
       -0.0029377586 -0.07002529 0.051973134 0.038673893
0002b0 5b e0 f7 3c 9a 61 50 bb df 32 2a 3d 81 b4 09 be
       0.030258348 -0.0031796456 0.04155242 -0.13447763
0002c0 f6 8c b9 bd db 72 8f 3d 9f fb 84 3d e2 22 bf bd
       -0.09060089 0.07004329 0.064933054 -0.09332825
0002d0 7c fe 57 bd f4 c4 0c bd b8 80 a6 3d 0d 51 22 3e
       -0.05273293 -0.034367517 0.0813002 0.15851231
0002e0 b6 f4 90 3c c6 a9 41 3d 4a 6b b1 bd 14 e6 55 bd
       0.017694812 0.04728105 -0.08663042 -0.052221373
0002f0 23 d3 6a 3d d1 cc 49 3c 2d e3 a2 bd c8 13 a1 3d
       0.057330262 0.012316898 -0.079534866 0.07865101
000300 58 19 6b 3d 7a c4 a6 3c f8 06 87 3d 4d d9 ec bc
       0.057397217 0.02035736 0.06593126 -0.02891221
000310 0d 1d 6c bd e8 78 d1 bc 99 41 aa 3c 83 d5 9d bc
       -0.057644892 -0.025570348 0.020783233 -0.01926685
000320 a6 82 b1 3c 93 fc e1 bc 35 60 df 3c dd 9a 99 bc
       0.021668743 -0.027586257 0.027267555 -0.018750602
000330 6f b1 11 3d af 08 df 3c ea 59 98 3c 95 26 c3 bd
       0.035569604 0.02722582 0.018597562 -0.09528843
000340 3d 61 8d 3d 54 2f 93 bc a5 39 8b bd 39 30 83 bd
       0.06903312 -0.017966904 -0.06798104 -0.06405682
000350 a7 3a f0 3c cb 1e c7 bd 63 a6 28 bd 08 4e a3 bc
       0.029324843 -0.0972267 -0.041174304 -0.01993467
000360 12 54 a4 bd 87 ce 6d 3d 0c 04 93 3d 6c 32 96 3d
       -0.08023848 0.058058288 0.07178506 0.07333836
000370 d4 06 55 3c d9 d9 f7 3c dd f9 87 3d 17 1f 13 3c
       0.013002116 0.030255245 0.066394545 0.00897958
000380 01 18 2b 3a ec 22 51 bd 23 c5 96 bd d7 6e bc bd
       0.0006526709 -0.051058695 -0.073618196 -0.092008285
000390 79 eb d0 bd 8b 40 c9 bd e7 b3 8f 3d 34 01 9a bd
       -0.10201163 -0.09826764 0.070167355 -0.07519761
0003a0 30 d1 b2 bb 39 bc 94 bc bd 8a 61 3d 17 98 93 bd
       -0.005457066 -0.018156158 0.05506395 -0.07206743
0003b0 f4 31 32 3b a0 b7 7c 3d 58 57 dc 3c 3c 84 89 bb
       0.002719042 0.061698556 0.026897117 -0.004196672
0003c0 ac 46 2f 3d 37 31 e5 3c b0 ea e1 bd 88 1a c7 bc
       0.042792007 0.027977569 -0.11031091 -0.024304643
0003d0 d6 c3 30 3d ff d9 59 bc 54 86 99 bc 5d e2 40 bd
       0.043155514 -0.013296603 -0.01874081 -0.047090877
0003e0 c4 25 ce bd 28 3e b9 3d 9b f8 fd bc 97 63 fe 3c
       -0.10065797 0.090450585 -0.031002333 0.031053348
0003f0 4d e4 29 bd 1a 92 56 bd 25 57 83 3d bd 62 b4 bd
       -0.04147749 -0.052385427 0.06413106 -0.08807895

encoder.conv2d_3.bias f4 [64]
000000 72 2e d4 3b 63 7f 6c 3c 16 c0 cf bd 36 3e 14 bd
       0.0064752633 0.014434668 -0.10144059 -0.03619214
000010 2f ce 9d bd 45 f4 83 3d 91 fc ee bc 48 a2 95 3d
       -0.07705342 0.06443075 -0.029173167 0.07306343
000020 74 29 e5 bd 09 ff ef 3d b1 94 c8 3d 57 75 7c 3c
       -0.11189547 0.11718566 0.09793986 0.015408835
000030 cc f6 17 3d d3 ea b7 3d 91 4f 54 bc 90 89 a8 3c
       0.0371006 0.08980336 -0.012958423 0.020573407
000040 87 6a c6 3d ed 72 b9 bd 97 80 fa 3c 40 e6 ae bd
       0.09688287 -0.090551235 0.030578895 -0.085400105
000050 30 9f e3 3d 25 5e 4e bd 2c a5 a7 3d 17 81 af bd
       0.11114347 -0.050382752 0.08185801 -0.08569544
000060 98 e6 47 3d 27 a0 d5 3d 15 a8 9b bd e1 84 c5 3c
       0.048803896 0.10430937 -0.076004185 0.024111213
000070 7d 05 2d 3c d5 48 b1 bb 56 4a 60 3d 48 d3 d4 3c
       0.010560391 -0.0054102936 0.054758392 0.025979653
000080 05 81 c0 bd f0 ad 3a bd 17 b9 4d bd bb 17 54 3d
       -0.093996085 -0.045576036 -0.050225344 0.051780444
000090 3a 42 8e 3d f3 13 10 3d 41 c2 30 bc 08 80 19 bd
       0.069462255 0.035175275 -0.010788501 -0.037475616
0000a0 be af 40 3d ac 20 84 bc 8f 33 1e 3d 90 a9 59 3a
       0.0470426 -0.01612886 0.03862339 0.000830316
0000b0 69 57 6a 3d 7a 22 7b bd 1b 1e 4f 3d 41 07 98 3d
       0.057212267 -0.061312176 0.05056582 0.074232586
0000c0 6f 49 a4 bc 1e 48 9a bd 7d 22 4c bd cb 94 b1 3c
       -0.020054547 -0.075332865 -0.049837578 0.021677395
0000d0 50 af 6f 3d 4d 34 b6 bd 3c bd 88 3d 1a 87 ba bd
       0.0585168 -0.08896694 0.066767186 -0.091078
0000e0 6e be 81 bd 76 8c a5 bd 48 d7 ca bb 8f d2 39 3d
       -0.0633515 -0.080834314 -0.0061902143 0.04536682
0000f0 7a bd 40 3d 0d d0 85 3d f7 fd 99 3d 4e 47 59 3d
       0.0470557 0.06533823 0.07519143 0.053046517

encoder.fc.weight f4 [16, 64]
000000 ca 5f f8 3d 32 fa 5f be a8 7e c8 bb e0 b2 80 3c
       0.12127645 -0.21872786 -0.006118614 0.015710294
000010 b4 6d ac 3d 4f e4 4f be c8 f1 9a be ad 3f 7a 3d
       0.08419362 -0.20301937 -0.3026259 0.061095882
000020 ac 5c 28 bd 6a 08 b9 3d 9b be 81 be 90 37 02 3a
       -0.041104004 0.09034808 -0.25340733 0.0004967386
000030 57 06 6c be 73 c1 dc 3a d8 51 6f 3d ce 9c 86 3d
       -0.23049293 0.001684232 0.05842766 0.06572877
000040 d4 13 b6 bd 3e fc c8 3d 94 42 c6 bc 80 78 83 3a
       -0.08890501 0.098137364 -0.024201669 0.0010030419
000050 5f 9d e6 bd 37 cf 8f 3d 2d 53 4d be c0 96 81 bd
       -0.11260485 0.07021945 -0.2005126 -0.063275814
000060 71 f3 a1 3d 6b d2 ef 3d 10 2c 83 3d df e2 24 bf
       0.07907761 0.11710056 0.06404889 -0.6440868
000070 fc 78 92 bd c3 79 d5 bd ef 30 0f be 7a 9d 36 3d
       -0.07151982 -0.10423615 -0.1398351 0.044583775
000080 08 26 4f 3c 59 00 ce bd bc f6 5f bd 02 1f 9d bd
       0.012643345 -0.1005866 -0.054678664 -0.0767193
000090 29 b9 eb bd 32 73 3e 3d 54 f7 86 bc 00 09 d3 3d
       -0.11509926 0.046496578 -0.016475357 0.10304451
0000a0 a6 de e8 3d 54 84 d0 bc 6e 50 90 bd 79 c6 b4 bd
       0.11370592 -0.025453724 -0.07046591 -0.08826918
0000b0 80 fa 12 bc 9d 10 01 be e8 55 13 bc 21 99 f9 bd
       -0.008970857 -0.12603994 -0.00899265 -0.1218741
0000c0 fe 61 9a 3c 65 69 04 be 00 94 ad 3d b8 04 b8 3d
       0.018845554 -0.1293083 0.084754944 0.08985275
0000d0 93 db a7 bd 95 f4 5a be 9f 19 1b be 80 06 71 3b
       -0.08196177 -0.21382363 -0.15146492 0.0036777556
0000e0 b6 9f 10 bb 24 ff 33 bd 1b 42 f9 bd d9 5e cf 3d
       -0.0022067851 -0.043944493 -0.12170812 0.10125513
0000f0 5a 4c f4 bd e7 b6 65 be 97 23 7b 3d 60 cf e1 3d
       -0.119286254 -0.22433053 0.061313238 0.11025882
000100 e7 60 02 bd 21 e2 f0 3d 27 fa da bc d6 1e d4 3d
       -0.031830695 0.11761881 -0.02673061 0.10357444
000110 df b1 b8 bd ad d7 66 3d 6b e3 1b 3e d3 bf 4c 3d
       -0.09018301 0.05635803 0.15223472 0.049987625
000120 a6 e4 2a 3d f5 e8 f0 3d f5 ab 86 be 86 0c a7 bd
       0.041721962 0.11763183 -0.26303068 -0.081566855
000130 b4 69 0e 3e 37 a0 eb 3d 23 c5 98 bc 73 ed 62 bd
       0.1390751 0.11505168 -0.01864869 -0.05540223
000140 6a ba ef 3d 96 e1 e1 bd 30 4a 7b bd d0 46 4f 3c
       0.117054775 -0.11029355 -0.061350048 0.01265116
000150 d7 d4 00 3e 11 cd b5 bd 3a dd 23 3d 52 01 cb 3d
       0.12581192 -0.08877004 0.0400059 0.09912361
000160 df e6 2a 3d ea d9 05 3d b8 4e 95 bc db 69 61 be
       0.041724082 0.032678522 -0.018226013 -0.22013037
000170 0e 1d 93 3d ce 59 18 bd de 24 f8 3c fa 0b 20 3d
       0.07183276 -0.03719502 0.030291017 0.03907392
000180 73 31 33 3d 47 e7 df 3d 16 2b 06 bc 32 94 ae 3c
       0.04374833 0.109327845 -0.008188983 0.0213109
000190 42 49 02 3e 27 03 07 3e 8b 8e 53 bb ea ba 55 bd
       0.12723258 0.13184796 -0.0032281007 -0.05218021
0001a0 10 56 8c 3c ae ac 05 3d 84 35 90 3d 1d 34 52 bd
       0.017130882 0.032635383 0.07041457 -0.05131923
0001b0 27 76 ba ba 94 6b cd bd 1e f9 9d bd 11 50 f5 3d
       -0.0014225886 -0.100302845 -0.07713531 0.11978162
0001c0 b8 8f 7b bd b4 00 64 3d 00 73 a5 3c 5c 42 1c ba
       -0.061416358 0.055664733 0.020196438 -0.0005960816
0001d0 79 7f f0 3c 44 20 8d 3d 36 23 71 bc 5c 4b d2 bd
       0.029357659 0.0689092 -0.014717868 -0.1026828
0001e0 d3 bb d4 bc 00 4c 5f b9 ee a1 32 bd 49 fa 82 bc
       -0.025968468 -0.0002129525 -0.04361146 -0.015988486
0001f0 af 91 08 3e 9f 5c 35 be f6 54 31 bd ab e0 8a bc
       0.13336824 -0.17711113 -0.043293916 -0.016952833
000200 6e 86 12 be 2c 00 93 3b ae 69 8a 3d 1a be 1b bd
       -0.14309093 0.0044861045 0.06758438 -0.03802309
000210 bd e6 9d bc 7f b2 02 3e af d5 96 be 3f 20 95 bd
       -0.019275064 0.12763403 -0.29459903 -0.07281541
000220 a0 8a db 3a 13 03 07 be 69 c5 67 3d fb 92 bb 3d
       0.0016749687 -0.13184766 0.05658475 0.09158894
000230 82 a6 eb bd 58 f7 50 bc 67 b8 44 3d d7 63 8d bd
       -0.11506368 -0.012754284 0.048027422 -0.069038086
000240 b3 e2 11 be 0c 49 db bd 43 7c c9 bd 34 9f 09 bd
       -0.14246635 -0.10707292 -0.09838154 -0.033599094
000250 05 96 92 bc 2a 94 e0 bd 1b 3d 04 3d 2f 88 43 3d
       -0.0178938 -0.1096576 0.032284837 0.047737297
000260 92 d9 a7 bd 13 78 16 be 84 82 76 3d 44 31 b2 3d
       -0.08195795 -0.14694242 0.060183063 0.08700803
000270 b6 1f 31 bc 7a 52 be bd 48 8d 46 bc aa d4 49 bc
       -0.010810783 -0.09293075 -0.012118645 -0.0123187695
000280 ba 3b 61 3d 8c 67 96 bd c6 4e 80 bc 47 f9 11 3e
       0.0549886 -0.07343969 -0.015662562 0.14255248
000290 72 ff d2 3d c0 b7 b4 3d 01 82 15 bd 5f 8d c2 3d
       0.103026286 0.0882411 -0.036500935 0.09499621
0002a0 29 cd f5 bd 8c 5f d2 bd c0 db 0d 3d f4 90 4e bd
       -0.12002022 -0.1027213 0.034633398 -0.050431207
0002b0 28 f4 6a 3d 24 cf e3 bd 3d 37 95 3d f5 97 42 3d
       0.05736175 -0.11123493 0.072859265 0.0475082
0002c0 1b 8a 6e bd d4 a9 a9 3d 86 81 d3 bd 95 cb cc 3c
       -0.058237176 0.08284345 -0.10327439 0.02499942
0002d0 25 6d 3f 3b 90 44 d3 3d 44 4d 5b 3d d0 cb f1 bd
       0.0029209342 0.10315812 0.053540483 -0.11806452
0002e0 2d bb 25 be 48 03 4b bd ac de 69 bc f6 04 33 be
       -0.16184683 -0.049563676 -0.0142742805 -0.17482361
0002f0 68 01 51 3d 92 a7 0a 3e 4f a6 3a bd 9e 34 2f bd
       0.05102673 0.13540486 -0.04556876 -0.04277479
000300 8c 15 d2 3d 16 f6 01 3e b5 44 0c 3c 89 39 58 3e
       0.10258016 0.1269153 0.008561303 0.21115698
000310 3f ac 5b 3d ea ee 30 3e f7 50 6e bd d5 9f fb bd
       0.053631064 0.17278638 -0.058182683 -0.12286345
000320 1d 29 a0 bd ed 44 22 3d cc 84 da 3d 20 5f 75 3d
       -0.07820342 0.039616514 0.1066986 0.05990517
000330 af 22 6c 3d 4c c3 9c bd 26 99 af 3d dc e9 bb 3d
       0.057650264 -0.076544374 0.085741326 0.091754645
000340 02 24 9f 3d 4c b4 84 bd 50 20 c6 bc 9c c5 7c 3d
       0.0777054 -0.064797014 -0.02418533 0.061711892
000350 31 7b c7 3b cc e6 8e 3d a0 b3 39 3d 67 8c c3 3b
       0.0060876836 0.06977615 0.04533732 0.005967665
000360 91 bb f3 3d e6 3b 39 bd be 1f e3 3d 60 a0 99 3e
       0.1190101 -0.04522314 0.11090039 0.3000517
000370 ac b5 9c 3c a0 70 b5 bd c7 a0 3e be 9e 6c 62 bd
       0.019129597 -0.08859372 -0.18616019 -0.055279367
000380 5f 45 09 bd 3b 1a 00 bd be 96 90 bd c2 a1 9d 3c
       -0.033513423 -0.031275015 -0.07060002 0.019242171
000390 60 b4 cd bd c4 e1 e1 3a 24 8b 44 bc ee e5 98 3d
       -0.100441694 0.0017233421 -0.011996064 0.074657306
0003a0 88 6a 03 be 82 3c ac bc 97 41 16 bd 31 11 00 bd
       -0.12833607 -0.021024946 -0.036683645 -0.031266395
0003b0 b8 1d d4 3d 8c d4 b3 bd 66 2e 1f bd 9a 1f 0a be
       0.10357231 -0.087807745 -0.03886261 -0.13488618
0003c0 52 ea b0 bb 50 bc ae ba 10 82 44 3d 73 97 ac 3d
       -0.005399027 -0.0013331268 0.0479756 0.08427324
0003d0 64 1d d8 3c 81 6c 13 3e 1d 56 83 3d 10 33 bc bd
       0.026381202 0.1439686 0.06412909 -0.09189427
0003e0 15 c0 05 3e 20 17 3b 3c 92 a6 16 3e b7 5d 27 be
       0.13061555 0.011419088 0.14711979 -0.16344343
0003f0 d9 67 fc bb b1 8d 57 be bf d4 85 3d 28 b5 52 be
       -0.0077028093 -0.21050145 0.06534719 -0.20576918

encoder.fc.bias f4 [16]
000000 9f 82 9d bd 41 b2 79 bb 22 b7 b8 bd 11 7a 42 3d
       -0.076909296 -0.0038100632 -0.09019305 0.047479693
000010 9c c9 09 3d 97 16 a7 3b 34 7e b7 bd 6c 73 ee 3c
       0.033639535 0.0050991285 -0.08959618 0.029107772
000020 40 ef c5 3d 00 ba ad 3d 5a b2 93 bd e2 d3 0b be
       0.09664774 0.08482742 -0.07211752 -0.13655046
000030 d4 d3 eb 3d d0 c2 df 3c 0a d3 cd bd 3f 2c 81 bd
       0.115150124 0.027314574 -0.10050018 -0.063072674

decoder.decoder_fc1.weight f4 [64, 16]
000000 b0 54 27 be 54 91 27 3e d0 97 28 be 4f 88 9f 3d
       -0.163409 0.16364032 -0.16464162 0.07789671
000010 7d 27 6d 3e 3f e6 5e bd fe 2c 0f 3e 47 af f1 bd
       0.23159595 -0.0544188 0.13982007 -0.118010096
000020 f9 00 c2 3d e8 1a 8b be 09 49 4e be a1 03 80 3e
       0.09472842 -0.27168965 -0.20145048 0.2500277
000030 43 9b e1 3d 89 d5 64 3d 63 a6 2d be 2b a6 bf bc
       0.11015942 0.055867705 -0.16958003 -0.023394665
000040 48 30 07 be 24 20 38 3e 9e 39 48 3e f1 ea 5a 3e
       -0.13202012 0.1798101 0.19553229 0.21378686
000050 d2 8a 21 be 49 3e 4e be 62 63 b0 3b ad 2c 95 3d
       -0.15775612 -0.20140947 0.005382941 0.07283912
000060 09 37 96 bd 15 dd 31 3d 95 b5 4b be 8a fd 0c 3e
       -0.07334716 0.04342373 -0.19893487 0.13768592
000070 73 35 a5 bd da ea 1f be d3 db 4c be 7a ad 1c 3e
       -0.08066835 -0.15616933 -0.20005731 0.15300551
000080 59 15 2c be 52 1d 56 bd 4e 60 3d be bb 55 42 be
       -0.16805018 -0.052274056 -0.18493769 -0.18978016
000090 8b d3 4f be c8 54 d5 bd 2f f3 f8 3d 68 bd 5b be
       -0.20295541 -0.10416561 0.121557586 -0.21458972
0000a0 6a 76 91 3c 72 4b 2d 3e ee 29 ac bd ff 73 8b 3e
       0.01775666 0.16923311 -0.08406435 0.27236935
0000b0 0d 52 0d 3e fe eb 9d 3d 43 74 38 be a7 3b 05 3e
       0.13800831 0.077110276 -0.180131 0.13011037
0000c0 00 84 53 3d 0b be 01 3e 78 cc 3e bc 21 f0 0b be
       0.051639557 0.12670152 -0.011645429 -0.1366582
0000d0 d8 85 54 3e 3f 33 1b be af f6 5c 3e ed 6e b8 bc
       0.20754182 -0.15156268 0.21578477 -0.022513831
0000e0 59 53 e2 3d 06 7e c1 bd 0f d9 19 3e 67 4f 34 be
       0.110510536 -0.09447865 0.15024208 -0.17608415
0000f0 33 3c 47 be f3 cd 93 3d 87 9c 65 be cb d1 00 3e
       -0.19456558 0.07217016 -0.22422992 0.1258003
000100 66 dc 1c 3e 00 dc b0 ba c0 11 5f bd 60 59 a2 3d
       0.1531845 -0.00134933 -0.054460287 0.07927203
000110 12 69 45 be 9a 61 48 be 28 71 da 3d c0 02 3e 3e
       -0.19278362 -0.19568482 0.10666114 0.18555737
000120 5c 09 95 bd d0 0e 90 3d 9c b7 3b be 94 c2 74 3e
       -0.07277176 0.07034075 -0.1833176 0.2390235
000130 c0 aa ca bc a0 ed 1a bc da 42 56 3e 72 d4 23 be
       -0.024739623 -0.009456068 0.2092394 -0.1599901
000140 5e 8b 83 bd 25 22 89 3e 2d e6 85 3d 78 b8 27 be
       -0.064230666 0.26783863 0.06538043 -0.16378963
000150 25 7f 50 3e 9e 11 12 be d4 27 e5 bd ab df a7 bd
       0.20361002 -0.14264533 -0.11189237 -0.08196958
000160 8e 03 4b be 2e 11 5a 3d 6c ca 95 bd ce 48 48 3e
       -0.19825575 0.05323904 -0.073139995 0.19559023
000170 70 4f bf bd e0 8f 39 3d 91 9d 50 be eb 63 7a bd
       -0.093413234 0.045303226 -0.20372607 -0.061130445
000180 43 fb 69 be 05 29 61 be 9a 84 5b be 66 8a 60 3d
       -0.22849755 -0.21988304 -0.21437302 0.054819487
000190 cc 8d 27 3e 7a 03 3a be e7 bc 32 bd c5 f2 b7 bc
       0.16362685 -0.18165389 -0.043637183 -0.022454629
0001a0 77 d9 05 3e 03 53 72 bd 44 a9 29 be 08 04 68 be
       0.13071238 -0.059161197 -0.16568476 -0.22657788
0001b0 2e e4 89 3c 5f 5c f3 3d 0f 2d 6d be c9 db 47 3e
       0.016832437 0.11882853 -0.2316172 0.19517435
0001c0 e4 28 1d 3e 44 f8 6a 3e 1c ab cc bd 3e ee 0f 3e
       0.1534763 0.22946268 -0.09993574 0.14055726
0001d0 b4 df c2 3d 2c 51 68 3e 98 89 d5 3d fc 2d 3c be
       0.09515324 0.22687215 0.104266346 -0.18376917
0001e0 62 23 28 be 54 87 13 3e a0 bd c1 bc 38 81 f6 3d
       -0.16419747 0.14407092 -0.02364999 0.12036365
0001f0 1e 4b 11 be 78 a3 b3 bd 50 72 6f 3e c0 cd c4 bb
       -0.14188811 -0.087714136 0.2338345 -0.0060059726
000200 72 25 14 3e 04 01 7c be e4 0f 39 3e b0 c0 a6 bd
       0.14467409 -0.24609762 0.18072468 -0.08142221
000210 80 30 6a bc 0e 0a 53 3e 94 de 9b 3d 8a d6 2d 3e
       -0.01429379 0.20609304 0.07610813 0.16976371
000220 34 82 8c 3d 88 6b 6d bd f8 70 d5 3d 40 00 5e bc
       0.06860772 -0.057963878 0.10421938 -0.013549864
000230 ce ce 32 3e 50 14 f6 3d d8 52 3d be e0 52 6d bc
       0.17461702 0.12015593 -0.18488634 -0.014485091
000240 cd d7 f0 bd 37 07 4a 3e df c7 27 be 06 03 be ba
       -0.11759911 0.19729315 -0.16384839 -0.0014496751
000250 c6 c7 11 bd 39 0a 80 be e2 87 2d be df b7 75 bc
       -0.03559091 -0.250078 -0.16946366 -0.014997452
000260 c7 c6 aa 3d be a6 67 3e 71 b3 2d 3c a5 b4 55 be
       0.08338695 0.22622201 0.010601864 -0.20869692
000270 f4 82 fc bd 97 6f 79 3d d0 12 73 be 26 ff 18 3e
       -0.12329665 0.060897436 -0.23737645 0.14941081
000280 c6 5e cb bd 98 45 fa 3c 4f 5e 1e 3e 54 5a 44 3e
       -0.09930186 0.030550763 0.15465663 0.19175082
000290 5f 68 f2 3d b5 20 7e bd ff da 8b bc 45 3c bd bd
       0.118363135 -0.06204291 -0.017072199 -0.09240011
0002a0 b4 ed 53 bd 83 f3 37 39 d1 e8 63 3e b5 ac ea bd
       -0.051740363 0.00017542955 0.22256781 -0.114587225
0002b0 b8 ed 32 3d 93 6b 20 be fd 82 39 be 00 3b e2 bd
       0.043683738 -0.15666036 -0.18116374 -0.110464096
0002c0 cb 0e 35 be 3f 37 54 be d2 71 46 be 88 42 33 3e
       -0.17681424 -0.207242 -0.19379357 0.17505848
0002d0 b7 a3 d6 bd 74 ba 1d 3d fe 40 96 be 3b 15 17 bd
       -0.10480445 0.038507894 -0.2934646 -0.03688548
0002e0 39 d3 31 bd e9 b0 0a 3e 08 ff 3d be 1a c0 a4 3d
       -0.04341433 0.13544048 -0.18554318 0.08044453
0002f0 1b 08 c0 be c4 99 8c be 9b e8 00 be 29 46 a5 be
       -0.37506184 -0.27461064 -0.12588732 -0.3228009
000300 87 dc c3 bd 58 f8 fe bd 51 30 76 be 3b 19 e9 bd
       -0.09563547 -0.124497116 -0.24041869 -0.113817655
000310 80 39 43 3e ba 48 31 be 44 6e 89 3d 75 bc 53 3e
       0.19064903 -0.17312899 0.067104846 0.2067736
000320 9e f9 72 3e 70 24 87 be a5 50 36 3e e2 da 12 3e
       0.23728034 -0.26394987 0.17804201 0.1434131
000330 06 b8 90 3e ce 3b 35 be 8d f3 07 3d 98 b5 0a bd
       0.282654 -0.17698595 0.033191252 -0.033864588
000340 40 41 55 3e c0 67 b6 bc b6 b7 7c 3e 80 46 51 bd
       0.20825672 -0.022266269 0.24679455 -0.051092625
000350 18 69 cb 3d de 11 39 be cc 7d 8f bd 6a b1 72 be
       0.099321544 -0.18073222 -0.07006416 -0.2370049
000360 0c 0a 30 be d8 af c6 bd c0 d6 19 be b0 0d 60 bd
       -0.17191333 -0.09701508 -0.15023327 -0.054700553
000370 38 e2 a9 bd 00 31 6c bd c0 d3 34 3d 90 d5 0f 3d
       -0.08295101 -0.057663918 0.044147253 0.03511578
000380 b1 29 55 3e bf d2 73 3e 84 b8 46 be 70 0b 18 be
       0.20816685 0.23810862 -0.19406325 -0.14848113
000390 c5 ad 78 3d 06 9a 67 be 47 1c 97 3d 17 ca ee 3d
       0.060712595 -0.22617349 0.0737844 0.11659639
0003a0 44 e6 96 bd 9d ea b5 3d e9 8d 28 be fc d0 8d be
       -0.073681384 0.088826396 -0.16460384 -0.27698505
0003b0 a0 8b 18 be b5 f6 39 be b3 da 50 3e 54 d8 d5 3d
       -0.14897013 -0.18160518 0.20395927 0.10441652
0003c0 46 17 b0 bd 4d 26 87 be fa a3 2d be ac 07 4d bc
       -0.08598189 -0.2639641 -0.16957083 -0.012514036
0003d0 6d d8 60 be 7f fd 0d be e7 f0 94 3e 0b dd 73 3e
       -0.2195756 -0.13866232 0.29090044 0.2381479
0003e0 14 2c 56 3e 8d d8 94 3d ac 27 74 3e 97 2c 22 be
       0.20915252 0.07267866 0.23843259 -0.15837322
0003f0 fc 6b ce be 3e d5 12 bd 3e 82 0e 3e 53 6d 71 be
       -0.4031676 -0.035847895 0.13916871 -0.2357686

decoder.decoder_fc1.bias f4 [64]
000000 a8 36 29 bd d0 21 ee 3d 2b f3 91 bd d0 e2 15 3e
       -0.04131189 0.11627543 -0.07126459 0.14637303
000010 60 5c 69 bc c9 fd 0d 3e 2f 2f 0c 3b 2e 57 40 be
       -0.014243215 0.13866343 0.0021390428 -0.18783256
000020 bc fb 65 be 3c 86 22 be 24 d1 4f 3e 24 e3 28 3d
       -0.2245931 -0.15871519 0.20294625 0.041232243
000030 25 f3 4b 3e 3c a7 2a be 58 2b 85 3e 08 6c c1 bd
       0.19916971 -0.16665357 0.2600963 -0.094444335
000040 08 b0 09 3e 22 e8 3e be ce 68 34 be 2a cb 50 bd
       0.13446057 -0.18643239 -0.17618105 -0.050975002
000050 11 35 6a be 43 a8 ab bd a1 ea 11 be 59 fb c6 3d
       -0.22871806 -0.08381703 -0.1424966 0.097159095
000060 ae 8f 7e 3e a8 f1 7c bd 30 ff 26 3e b8 ea d7 bd
       0.24859497 -0.0617539 0.16308284 -0.10542816
000070 0f e6 6e 3e 96 95 35 3e 8b b2 f1 bd 2f 47 b9 3d
       0.23329948 0.17732844 -0.118016325 0.0904678
000080 bb 7a be 3d fa 50 38 be fa 81 9c 3c 59 08 08 3e
       0.09300753 -0.1799964 0.019104946 0.13284434
000090 b1 3d ed 3d 60 de 74 3e 11 90 32 3e 22 77 4d be
       0.11584032 0.23912954 0.1743777 -0.20064977
0000a0 f6 f9 69 3e 2d 73 28 be 90 66 1b be fb 76 59 be
       0.22849259 -0.16450186 -0.15175843 -0.21236794
0000b0 6c 59 75 be 1e a2 5c be e2 37 42 bd a6 f6 0d 3e
       -0.23959893 -0.21546218 -0.047416575 0.1386362
0000c0 e0 61 83 3d 59 9b 13 3e aa 94 1f be 27 0b ce 3c
       0.064151525 0.14414729 -0.15584055 0.025151802
0000d0 7b 18 98 bd bc 93 65 3e cc cb 5a be ec fb a2 3c
       -0.07426544 0.22419637 -0.21366805 0.019895516
0000e0 ec 62 2c be e8 07 34 bd 81 cd 39 bd 05 24 3a be
       -0.1683461 -0.043952852 -0.045362 -0.18177803
0000f0 92 db 7f 3e a7 ad e5 3d 72 fd db 3d d4 6b 74 be
       0.24986103 0.11214762 0.107417 -0.23869258

decoder.decoder_fc2.weight f4 [128, 64]
000000 0b 81 58 bd 71 1d 94 3d bd e1 6a 3e 65 5a 6a 3d
       -0.05285744 0.07232178 0.22937675 0.057215113
000010 44 3d cc bd dc 74 27 3b 2f 0b 8b 3d d8 28 d5 3c
       -0.09972623 0.0025551831 0.067892425 0.026020452
000020 60 9a ed bc b6 5f 05 3e 5e 0e 0d 3e 9c a6 1b be
       -0.029004276 0.13024792 0.13775012 -0.15200275
000030 c6 b0 f1 3d 68 75 e4 bd 20 32 71 3b 9b 5a f1 3c
       0.11801295 -0.11155206 0.0036803558 0.02946215
000040 c7 5e b5 3c b2 6c 25 3c a7 ab 95 bd 34 5a cf 3d
       0.02213992 0.010096716 -0.07308131 0.10124627
000050 16 f8 a5 3d 92 5f 05 bd 9c 9d a3 3d 62 53 3a 3d
       0.08103959 -0.032561846 0.07989046 0.045489676
000060 cf 49 8c 3d fc b9 db bd fe 79 c4 3c fa 7a b4 bd
       0.06850015 -0.10728833 0.023983952 -0.088125184
000070 23 92 dc bd e7 14 56 3d 76 31 44 bd 21 e1 8c 3e
       -0.10770061 0.052266028 -0.047898732 0.2751551
000080 28 52 0b 3e 03 83 05 3d 2b 60 e9 3d ca 5e d0 3d
       0.13605559 0.032595646 0.11395296 0.101743296
000090 ec 7d 9c bd ea 6a c6 bd 5d 11 9e 3d 9c 6c ee 3d
       -0.07641205 -0.09688361 0.077181555 0.11641809
0000a0 99 fa a9 3d 96 8d 56 3a c6 35 c0 bd b3 fb 32 3d
       0.08299751 0.000818455 -0.093852565 0.04369707
0000b0 64 e7 27 3d bc a4 2f 3d f1 d9 35 bd cc 3e ea 3d
       0.040992156 0.042881712 -0.0443973 0.11437759
0000c0 1a 48 fb bc 4d 4f a8 3d 02 5f 83 bc be f6 04 3e
       -0.03067403 0.082182504 -0.016036514 0.1298475
0000d0 7b 75 ac bd 41 88 5e bb 44 a1 8b 3e ed 12 d1 3d
       -0.08420845 -0.0033955725 0.27271473 0.10208688
0000e0 90 12 7a bc 4c ef 90 3d 99 dc b1 bd 56 cd 8a be
       -0.015263215 0.07076892 -0.08684654 -0.27109784
0000f0 06 c8 f1 3d ec 81 b3 bd f5 3c c9 3c c8 77 79 bd
       0.118057296 -0.08765015 0.0245652 -0.060905248
000100 74 e3 92 3d 9b 46 bc bc b8 28 7a 3d da 5f 66 bd
       0.071722895 -0.022982886 0.06107399 -0.056243755
000110 f0 b2 eb bc b2 83 38 3d 5b 7d c2 bd e0 77 f2 bc
       -0.028771847 0.04504747 -0.09496566 -0.029598176
000120 0c d1 8f bd 1b 97 0e be b7 c3 51 3d c6 e6 11 bd
       -0.070222944 -0.1392483 0.05121204 -0.035620473
000130 0c 99 1a bd 9e 3e c6 bd 8c 99 0c 3d e0 17 d9 bd
       -0.037743613 -0.09679912 0.03432612 -0.10600257
000140 58 cc 0e be f2 97 97 bd 5c de 26 3d d8 88 a5 bd
       -0.13945138 -0.07402028 0.040739402 -0.080827415
000150 05 c7 ab bc ba ed cd bd d3 a0 a9 3d 83 af df bc
       -0.020968923 -0.10055108 0.08282628 -0.02730537
000160 72 5d e6 bd 4c cb a5 3d 9c b5 a4 3b 70 0b 24 3d
       -0.11248292 0.080954164 0.0050265323 0.04004997
000170 02 5d 2b bc fa af 09 be c6 0d a1 3c 51 97 90 bd
       -0.0104591865 -0.13446036 0.019659888 -0.07060111
000180 ae a0 93 3d df 24 fd bd be 11 05 be 99 f6 77 bd
       0.072083816 -0.12360548 -0.1299505 -0.06053791
000190 72 b5 db 3c 10 ae b1 bd d4 f6 ec bd 56 5a d3 bd
       0.026819918 -0.08675778 -0.11570516 -0.103199646
0001a0 a4 3b 3e bc 16 95 51 3d 08 ef d3 bd 70 a7 0a 3d
       -0.011610899 0.05116757 -0.10348326 0.033851087
0001b0 c6 1b c6 3d 10 d3 09 3c a8 18 e5 3d 9d 24 d8 3d
       0.09673266 0.008412138 0.111863434 0.105538584
0001c0 8f ca 5a 3d 47 1e b0 bd 62 a7 c4 3d cd 27 17 be
       0.05341583 -0.08599525 0.09602238 -0.14761277
0001d0 38 f2 5d 3d 17 59 90 3d 54 4f a1 3d 23 13 ee 3c
       0.054186076 0.070482425 0.07876459 0.02906186
0001e0 1a 52 c0 3d 80 18 06 3b b6 4a 21 ba c5 2e eb 3d
       0.0939066 0.002046138 -0.00061527954 0.1148353
0001f0 6a 43 d3 bd e6 42 cc 3c a4 92 07 bc 78 f1 83 3c
       -0.103155926 0.024934243 -0.008274708 0.016106352
000200 ee 64 d6 bd 4f 67 94 3d 3d 94 8a bd f5 5e 51 bd
       -0.104684696 0.07246267 -0.067665555 -0.05111595
000210 aa 90 95 bd 89 7d ae 3d 3a b8 01 3e c0 cd d5 bb
       -0.07302983 0.08520038 0.12667933 -0.0065247715
000220 f6 91 f8 3d f3 28 98 bd 85 37 a3 3d eb 61 c2 3c
       0.12137215 -0.074296854 0.07969574 0.023728332
000230 3f 89 1a be a4 9a f3 3d cd ba 89 bd 6e 47 09 3e
       -0.15091418 0.1189473 -0.067250825 0.13406155
000240 15 e8 86 3d 4d 51 fa 3d cf cb d5 3d cf 1e bd bd
       0.06587235 0.12222538 0.10439264 -0.09234392
000250 01 14 a4 3d c3 ea 17 3c 8a 50 c7 3d a3 5a 15 bd
       0.08011628 0.00927228 0.097321585 -0.03646339
000260 dc 0a ab 3d e0 e6 90 3d cf f3 1f 3e f0 f3 9f bd
       0.08351681 0.07075286 0.1562035 -0.07810199
000270 af 85 ad 3d 78 18 b9 bc 7b fb 0c bd 8e d9 26 3d
       0.08472764 -0.022594675 -0.034419518 0.04073482
000280 ab ff 0f 3e 1e 9f cf 3d 91 76 80 bd 2a 17 e5 3c
       0.14062373 0.10137771 -0.06272615 0.027965147
000290 89 55 e4 3c a8 5c 18 3e 43 af 0c 3d 28 46 10 3d
       0.027872818 0.14879096 0.03434683 0.035223156
0002a0 5a 5c 03 3e 47 fa 0b 3d f2 dd 85 bd 27 ce 3f bd
       0.12828198 0.03417423 -0.06536473 -0.04682746
0002b0 64 5d a4 3d d0 ac 04 3d a4 74 9e 3c 45 64 ae be
       0.08025625 0.03239137 0.019342728 -0.34060875
0002c0 ba c7 80 3e c6 50 12 bd 6d 18 6c bd 6b 5e 31 3e
       0.2515238 -0.035721563 -0.05764048 0.17321174
0002d0 36 dc bc bd bb 13 6d bc 24 f2 9f 3b 63 f4 d5 bd
       -0.092216894 -0.014470036 0.0048811603 -0.10447004
0002e0 2c b0 2c 3d 12 1f 9c 3d aa b1 6d 3d 49 15 c6 3c
       0.042160198 0.07623114 0.05803076 0.024180071
0002f0 2f db b1 bd 0e c4 8c bb 43 2c 02 3e 00 94 95 3a
       -0.08684384 -0.0042958325 0.12712197 0.0011411905
000300 0e 83 ac bd 68 4e e4 bd 1c 83 cf bd 20 4d c2 3d
       -0.08423434 -0.11147767 -0.10132429 0.09487367
000310 78 19 88 bd 2c 68 b7 bd 00 b6 56 bc 74 14 b9 bd
       -0.06645483 -0.08955416 -0.013104916 -0.09037104
000320 26 0d bc bd 96 94 db bd 8c 5d 63 3d b8 3d 00 bd
       -0.09182195 -0.107217 0.055509135 -0.03130886
000330 08 35 c0 bc 3e 8b d2 3d 84 9e b3 3d 30 71 1d bc
       -0.023462787 0.102804646 0.08770469 -0.0096095055
000340 5e eb bf bd 28 b4 bf 3d 80 3c da 3c c2 65 80 3d
       -0.093710646 0.09360534 0.026640177 0.06269409
000350 78 f9 ac bd 60 c3 17 bc d0 0f 98 3c 40 bd df bb
       -0.0844602 -0.00926289 0.018562227 -0.0068279803
000360 68 2f d4 3c 90 ba 6a 3c e8 1d 2a bd 3e 89 e8 bd
       0.025901511 0.0143267065 -0.041532427 -0.11354302
000370 28 7b ae 3d c0 b8 cc bd 10 9f c2 3d 72 32 c8 3d
       0.08519584 -0.09996176 0.09502995 0.09775247
000380 b6 2f be bd 28 95 0d 3d 80 fc 99 3d 90 8e 78 bc
       -0.09286444 0.034566075 0.07518864 -0.015170708
000390 98 f0 e4 bc 3c 84 37 bd 86 6a a9 3d d8 12 83 3d
       -0.027946755 -0.044803843 0.08272271 0.064000785
0003a0 1c 74 21 bd 64 c5 c3 3d 3c ea 97 3d a2 30 fd bd
       -0.03941737 0.09559134 0.074177235 -0.123627916
0003b0 2a 2f d1 3d a4 0a 10 bd fc 45 53 bd 24 9c ec 3d
       0.10214074 -0.035166398 -0.051580414 0.11553219
0003c0 88 e2 df 3c 7a f1 f1 bd 1c 82 c8 bd 02 12 9e bd
       0.027329698 -0.11813636 -0.097904414 -0.077182785
0003d0 9c 12 9d 3d bc 4f c2 bd cc ad cd bd 90 10 95 bc
       0.07669565 -0.094878644 -0.10042915 -0.018196374
0003e0 10 bf e1 3d f0 f4 6a bd f4 df 30 3d 78 4e 6c bd
       0.110227704 -0.057362497 0.04318233 -0.05769202
0003f0 e0 c4 df 3d b4 6e 9d bd d4 2a 0e bd f0 ae a3 3d
       0.10926223 -0.076871306 -0.034708813 0.07992351

decoder.decoder_fc2.bias f4 [128]
000000 80 7a 8e 3d eb 8f 9f bd c2 82 06 3c 18 36 c6 bd
       0.06956959 -0.07791122 0.008209886 -0.09678286
000010 a0 38 a6 bc 63 59 07 3e 98 37 9a bd 7d 94 c3 3d
       -0.020290673 0.13217692 -0.07530135 0.09549806
000020 bf 14 a1 bd d7 78 d6 3c 5f 61 d0 bd 74 6b ff bd
       -0.07865285 0.026180668 -0.10174822 -0.12471667
000030 65 58 ca 3d 6d 2d d9 3c 75 47 17 3d 7b 58 cc 3d
       0.09880141 0.026510919 0.03693338 0.09977814
000040 2a fb 5b bc 8f c8 68 3d 62 c7 ed 3d 4c 6e b5 3d
       -0.013426581 0.056831893 0.11610295 0.08858928
000050 e1 78 6a 3c 59 0b 56 3d e9 77 79 bc ba 4d 96 bd
       0.014311046 0.052256916 -0.015226343 -0.07339044
000060 9c a3 e3 3d d8 5b ec 3d f2 fe d7 3c 60 db 0f 3c
       0.111151904 0.11540955 0.026366685 0.00878033
000070 03 2f eb 3a 0d 2d 32 3c 18 e2 bd 3c d6 de fc 3d
       0.0017943088 0.010874999 0.023179099 0.1234719
000080 20 a1 a0 3b 75 ff a3 3d 3f db 8d bd 48 d1 25 3d
       0.00490202 0.08007709 -0.069265835 0.04048279
000090 5a 72 2f 3d 1f d8 51 3d 9c c6 00 3e fa 6d 86 3d
       0.042833664 0.0512315 0.12575763 0.06563945
0000a0 e3 ed af 3d b7 bd db bd 70 b7 1b bd 30 10 7d bc
       0.08590295 -0.107295446 -0.038016737 -0.015445754
0000b0 9c dc b3 bd 0e d2 8c 3d 20 ab 08 3d 82 a1 4c 3d
       -0.08782312 0.06876002 0.033366323 0.049958713
0000c0 a1 15 10 be 0c 1a 9f 3d 38 95 b1 3b b4 92 2a 3d
       -0.14070751 0.0776864 0.0054193996 0.041643813
0000d0 aa 2f b9 bb 8c 62 06 3e 20 5f 89 3b 8f b7 a7 bd
       -0.005651434 0.1312353 0.004192248 -0.08189308
0000e0 c0 01 fc 3d 08 5a f7 3d 7f 14 ed bc 1f 64 b4 bc
       0.12305021 0.12077719 -0.028940437 -0.022020398
0000f0 d4 bf 23 bd 1b a3 e8 bc 28 ba e5 bd 46 92 0b 3d
       -0.039977863 -0.028398087 -0.11217147 0.034075044
000100 f7 d0 05 3e 1d af 2d 3d 80 84 05 bd 6e f0 35 bd
       0.13067995 0.04240333 -0.032597065 -0.044418745
000110 2a 51 f5 bc e6 5d 10 be c6 2b 4e 3d fb 0d bf 3d
       -0.029945929 -0.1409832 0.050334714 0.093288384
000120 d6 04 df bd 84 71 60 bd 6b 4d e5 3c 6e 58 b3 bd
       -0.10889594 -0.054795757 0.027991017 -0.08757101
000130 13 40 9c bd 1a cc 90 3d c0 a1 0f be 66 e0 fa 3d
       -0.07629409 0.07070179 -0.14026546 0.12249832
000140 1d c0 5a bc 8f 62 34 bd 5b 4b e2 bc 4e 8d a1 bc
       -0.013351467 -0.044039305 -0.027623823 -0.0197207
000150 95 a4 f8 3d 34 38 5b bc d1 17 81 bb 9e 6e 98 3d
       0.121407665 -0.013380099 -0.0039396067 0.074429736
000160 a3 8e 58 bd 9e 58 89 3d 7f f5 0d 3d 05 00 d3 3d
       -0.052870404 0.067063555 0.03465795 0.10302738
000170 be b7 5b 3d dd 79 f0 3d 38 9c f6 bd 22 90 83 3c
       0.053642027 0.117419936 -0.12041515 0.016059939
000180 6f 53 61 bd c8 04 d3 bd cf 34 9c bb b4 a3 0a 3b
       -0.05501121 -0.10303646 -0.0047670375 0.0021154704
000190 73 3b 74 3d 2d 69 92 bc 8c d8 39 3d 6e 12 99 bc
       0.059627008 -0.017872417 0.04537253 -0.018685546
0001a0 3c e2 88 bd d7 23 de bd c2 c5 fb bd 67 92 d4 3c
       -0.06683776 -0.1084668 -0.12293579 0.025948716
0001b0 02 73 c5 bc cd 02 8c 3d ba e9 a3 bd 48 fd 50 3d
       -0.024102692 0.06836472 -0.08003564 0.051022798
0001c0 aa 8c 12 3e 27 93 c5 3d 7a b3 fe bd aa 28 be 3d
       0.14311472 0.09647208 -0.12436576 0.092851
0001d0 91 36 bd 3c 19 78 e0 b9 5b 18 c8 bc 7d 0d 0b 3e
       0.023097308 -0.0004281409 -0.024425676 0.13579364
0001e0 13 4c a7 3d f3 72 d2 bd 5c 80 7b 3d 41 ab 26 3d
       0.08168807 -0.10275831 0.06140171 0.040690664
0001f0 7b e3 88 3c 7e d0 70 3d 3f d5 7d 3d 97 bb c0 bb
       0.016710034 0.058792584 0.061970945 -0.0058817375
