clustering/clustering/encoder_weights/livox1/lidar_encoder_autoencoder_livox1.pth (torch, 116078 bytes, 14 tensors)

encoder.conv2d_1.weight f4 [16, 1, 1, 3]
0.54358 0.2647486 0.48056147 0.6025654 0.4220118 0.258131 -0.5122177 -0.27957776
-0.28260845 0.12533684 0.22348142 0.210721 0.46547619 -0.6831123 0.6025347 -0.33696422
-0.5432602 0.171467 0.668748 -0.3088431 -0.47001508 0.19680029 0.40239432 0.17753823
-0.46955353 0.633268 0.49943942 -0.54060894 0.051178772 0.57346225 0.21275018 0.64774597
-0.7023367 0.6393963 0.16313778 -0.6439024 0.067682296 0.22538155 -0.44253588 0.004651779
0.3310614 -0.3801364 -0.18024944 -0.42840162 0.2537245 -0.6235767 0.44344148 0.77524245
00000000: 0f28 0b3f 218d 873e 270c f63e ba41 1a3f
00000010: ee11 d83e bf29 843e b320 03bf d124 8fbe
00000020: 0eb2 90be 4d58 003e 50d8 643e 3fc7 573e
00000030: e552 ee3e 73e0 2ebf b73f 1a3f 9386 acbe
00000040: 1a13 0bbf 0c95 2f3e 1233 2b3f af20 9ebe
00000050: d1a5 f0be 0486 493e a106 ce3e 95cc 353e
00000060: 5269 f0be da1d 223f 86b6 ff3e 5965 0abf
00000070: d5a0 513d 6cce 123f 2fdb 593e aed2 253f
00000080: 57cc 33bf 7aaf 233f 970d 273e cad6 24bf
00000090: 049d 8a3d 6cca 663e 1094 e2be f36d 983b
000000a0: e180 a93e 3da1 c2be 4f93 38be 7557 dbbe
000000b0: 2de8 813e b9a2 1fbf c30a e33e 4a76 463f

encoder.conv2d_1.bias f4 [16]
0.12271971 0.34868205 -0.3244273 -0.1413245 0.27691755 -0.36616 0.2318287 0.011284816
-0.101072855 0.5184912 0.14834186 -0.0046041734 0.41645256 -0.5014805 0.42139235 0.47744927
00000000: 7954 fb3d 7486 b23e 561b a6be 5fb7 10be
00000010: 23c8 8d3e 5379 bbbe 8164 6d3e f3e3 383c
00000020: 49ff cebd d7bb 043f eee6 173e 9bde 96bb
00000030: 4539 d53e 0761 00bf bdc0 d73e 3b74 f43e

encoder.conv2d_2.weight f4 [32, 16, 1, 3]
0.021646844 -0.10983268 0.020953564 0.12713008 0.1606553 -0.04948066 -0.07370017 -0.09233961
-0.08873868 0.13779601 0.020243987 -0.20141101 0.12041175 -0.2093465 0.11756279 0.05655563
0.11840093 -0.03227466 0.01126984 0.03516815 0.54778 -0.038934547 0.067527786 -0.18757556
0.008912812 -0.03356543 -0.19340564 0.009376352 0.038275313 -0.10507455 0.10402569 0.53988343
-0.023903066 -0.054444756 0.20117229 0.21615502 0.06185494 0.29316318 0.15627891 -0.06930236
-0.0076663364 0.106136926 0.04600589 -0.23031738 0.14718367 0.113262616 -0.041011438 -0.16428071
0.16998921 0.05044011 -0.088918686 0.018034307 0.080561765 0.13249508 0.041229855 -0.05280433
-0.046293467 -0.08172921 0.042493474 -0.09047735 0.115231246 0.083782606 0.0032017443 0.032107912
-0.033990305 -0.14415945 -0.071917005 -0.0953062 -0.04147089 -0.046922714 0.091460705 0.084012456
-0.080089726 0.154092 -0.07859826 0.060451534 -0.09331139 0.01476182 0.12144027 0.08696388
0.07262556 -0.14428516 -0.11791652 -0.015088464 -0.13003293 0.013370761 0.02117946 -0.045009874
-0.13035049 -0.04708092 -0.2219496 -0.27391422 -0.07955482 -0.08417469 -0.019726086 0.060043454
0.10660701 0.100320354 0.011285186 0.0114401085 -0.009609829 0.15087003 -0.06393199 0.10222738
-0.06066501 0.012610829 -0.039515983 0.023687186 -0.075776376 -0.05348526 0.20060211 0.09963773
0.10907423 -0.1310035 -0.043119412 -0.13082199 0.011823016 -0.005408577 0.15110992 0.036878865
0.105822146 -0.15581962 -0.06626254 0.1761801 -0.13908182 0.023921818 0.03468484 -0.026803605
-0.2543831 -0.30658528 -0.052594204 -0.05443629 0.12082446 -0.027493883 -0.015587159 -0.11968124
0.13524581 -0.01497361 -0.20285174 -0.2546885 -0.10829807 0.079917856 -0.044674195 0.16022472
-0.1278244 0.078557625 -0.13955538 0.07083357 0.08886456 -0.054089233 -0.0053951805 -0.13340795
-0.023098083 0.023754347 -0.11213919 0.2110149 -0.21182866 0.3032746 -0.33799684 -0.09273622
-0.13799872 0.07625552 -0.00986099 0.22984387 -0.13654958 -0.026084868 0.059919428 0.09842142
-0.20668475 0.15754388 0.3341091 -0.07132322 0.16318345 0.115347944 0.16836102 -0.51184314
0.16024521 0.28388745 0.0805506 0.15616333 0.03581305 -0.29862317 -0.059315633 -0.030452194
-0.119797036 0.06774096 -0.14518215 0.21493827 0.19593444 -0.20246664 0.076202564 0.12983327
-0.04704582 -0.008217319 -0.007781946 -0.10767592 0.050240338 -0.10430696 -0.06415359 0.041575618
-0.09221279 0.016233152 0.040313855 -0.028484471 0.13021359 -0.06473153 -0.13020346 0.07643686
0.14225389 -0.074151866 0.10373602 -0.10163252 0.014313814 -0.113084175 0.040026907 -0.015956663
-0.047101926 0.09331755 0.08158093 -0.004337384 0.07046506 0.06602144 -0.08022316 0.042671733
-0.11396151 -0.096950576 -0.058573645 0.118927374 -0.09128751 -0.026329027 0.12911059 -0.036344536
-0.07941093 -0.0999183 -0.08648113 0.1391253 -0.124172 0.033742793 -0.12942536 -0.053474896
0.13373429 0.085571125 -0.08548901 -0.08880959 -0.011781087 -0.07810017 -0.09185864 0.07290451
-0.12982675 0.1437153 -0.08579858 -0.097429775 0.088418834 0.06198629 -0.017668748 -0.020381352
00000000: b954 b13c f5ef e0bd cfa6 ab3c 632e 023e
00000010: d382 243e 3cac 4abd 1df0 96bd 8d1c bdbd
00000020: a0bc b5bd 661a 0d3e b8d6 a53c b03e 4ebe
00000030: 709a f63d ee5e 56be c3c4 f03d e0a6 673d
00000040: 307c f23d 6f32 04bd 23a5 383c 7a0c 103d
00000050: 4f3b 0c3f d579 1fbd 024c 8a3d cf13 40be
00000060: 0b07 123c e87b 09bd 210c 46be 459f 193c
00000070: 93c6 1c3d 5331 d7bd 6c0b d53d cd35 0a3f
00000080: 5dd0 c3bc 7701 5fbd 1c00 4e3e be57 5d3e
00000090: 9b5b 7d3d 7c19 963e 9407 203e 65ee 8dbd
000000a0: e435 fbbb 515e d93d ac70 3c3d 52d8 6bbe
000000b0: 51b7 163e 3bf6 e73d 9cfb 27bd 3439 28be
000000c0: a711 2e3e 4a9a 4e3d 001b b6bd afbc 933c
000000d0: 91fd a43d caac 073e a3e0 283d 5a49 58bd
000000e0: 389e 3dbd a561 a7bd a30d 2e3d 304c b9bd
000000f0: 5cfe eb3d 3796 ab3d 5bd4 513b 9683 033d
00000100: 6b39 0bbd 899e 13be 3949 93bd e62f c3bd
00000110: 61dd 29bd 0832 40bd c04f bb3d b90e ac3d
00000120: 1506 a4bd 4bca 1d3e 20f8 a0bd 079c 773d
00000130: 0b1a bfbd 90db 713c adb5 f83d 1e1a b23d
00000140: b6bc 943d 7dbf 13be 377e f1bd 9b35 77bc
00000150: 5a27 05be 0911 5b3c 8c80 ad3c 465c 38bd
00000160: 997a 05be ecd7 40bd c246 63be 7c3e 8cbe
00000170: a3ed a2bd c863 acbd 9a98 a1bc 20f0 753d
00000180: c754 da3d c274 cd3d 80e5 383c 4b6f 3b3c
00000190: 8b72 1dbc ac7d 1a3e c6ee 82bd 975c d13d
000001a0: e07b 78bd a79d 4e3c 83db 21bd a10b c23c
000001b0: a530 9bbd 5c13 5bbd a46a 4d3e de0e cc3d
000001c0: 4f62 df3d c825 06be fb9d 30bd 33f6 05be
000001d0: 53b5 413c 6f3a b1bb 8fbc 1a3e 4b0e 173d
000001e0: 48b9 d83d 2e8f 1fbe a8b4 87bd 8e68 343e
000001f0: 776b 0ebe b0f7 c33c b111 0e3d 3c93 dbbc
00000200: 803e 82be bff8 9cbe 056d 57bd 96f8 5ebd
00000210: d172 f73d da3a e1bc 4961 7fbc 701b f5bd
00000220: e17d 0a3e df53 75bc 5eb8 4fbe 8866 82be
00000230: 61cb ddbd f9ab a33d 4afc 36bd f311 243e
00000240: 66e4 02be d2e2 a03d 9be7 0ebe 3111 913d
00000250: 9ffe b53d ac8c 5dbd 0eca b0bb 189c 08be
00000260: 3138 bdbc 7a98 c23c 3ba9 e5bd 4a14 583e
00000270: 9de9 58be cf46 9b3e ec0d adbe 7dec bdbd
00000280: 894f 0dbe db2b 9c3d fd8f 21bc 315c 6b3e
00000290: a7d3 0bbe efaf d5bc 136e 753d 2b91 c93d
000002a0: 2ba5 53be 2f53 213e 5910 ab3e e911 92bd
000002b0: 9019 273e 8b3b ec3d d566 2c3e 2708 03bf
000002c0: 5217 243e b259 913e b7f7 a43d 48e9 1f3e
000002d0: b4b0 123d 23e5 98be f3f4 72bd e176 f9bc
000002e0: 2658 f5bd c6bb 8a3d a1aa 14be c718 5c3e
000002f0: 0aa3 483e 6a53 4fbe 1710 9c3d 03f3 043e
00000300: 1eb3 40bd efa1 06bc b2ff febb 3185 dcbd
00000310: d0c8 4d3d e39e d5bd f562 83bd 324b 2a3d
00000320: 0fda bcbd 63fb 843c 2420 253d 4458 e9bc
00000330: b656 053e f791 84bd 0e54 05be ee8a 9c3d
00000340: 01ab 113e efdc 97bd 8d73 d43d b624 d0bd
00000350: 7d84 6a3c ad98 e7bd 41f3 233d 8cb7 82bc
00000360: f3ed 40bd 461d bf3d e713 a73d 9d20 8ebb
00000370: fc4f 903d 4036 873d 0a4c a4bd 8ec8 2e3d
00000380: a764 e9bd 068e c6bd ebea 6fbd 3290 f33d
00000390: f2f4 babd f9af d7bc 9135 043e 02de 14bd
000003a0: 33a2 a2bd f7a1 ccbd 051d b1bd dd76 0e3e
000003b0: e44d febd e235 0a3d 1588 04be 7e08 5bbd
000003c0: a4f1 083e ea3f af3d dd14 afbd cde1 b5bd
000003d0: 7605 41bc fbf2 9fbd 6220 bcbd f64e 953d
000003e0: 4ef1 04be 1b2a 133e 2ab7 afbd 4389 c7bd
000003f0: ef14 b53d 56e5 7d3d 0dbe 90bc cbf6 a6bc

encoder.conv2d_2.bias f4 [32]
-0.015386722 0.09796269 -0.0145082865 -0.042317685 -0.04850578 0.008762038 0.079020634 -0.101582006
-0.0063905017 -0.049120232 0.04803049 0.006100691 0.08962233 -0.11439286 -0.13037677 -0.05361547
-0.09535438 -0.040662717 0.07053029 -0.05691757 0.056399878 0.23399515 -0.13637476 -0.04474661
0.11248053 -0.10715176 -0.13733044 0.0002445129 0.05320442 -0.051189914 -0.023278825 0.12418067
00000000: 9718 7cbc aaa0 c83d 2ab4 6dbc 4f55 2dbd
00000010: ffad 46bd a78e 0f3c 92d5 a13d 3a0a d0bd
00000020: 6a67 d1bb 4c32 49bd 9ebb 443d 4ee8 c73b
00000030: ea8b b73d ce46 eabd 7d81 05be e59b 5bbd
00000040: 2849 c3bd f38d 26bd 2f72 903d 6622 69bd
00000050: 8f03 673d 6d9c 6f3e d3a5 0bbe 3948 37bd
00000060: 315c e63d 6272 dbbd 5aa0 0cbe f731 8039
00000070: e1ec 593d 84ac 51bd 3cb3 bebc 6f52 fe3d

encoder.conv2d_3.weight f4 [64, 32, 1, 3]
0.059015375 0.054124795 -0.005906156 -0.5150885 -0.30690235 -0.20449242 -0.33568949 -0.38070706
-0.38916475 0.3688325 -0.16768873 0.15068878 0.012119845 -0.0679732 0.092656545 -0.055782735
0.03454367 0.099013396 -0.08842864 -0.038886093 -0.09777982 0.09423314 -0.006777523 -0.04313511
-0.42580077 -0.32576123 -0.4073108 -0.11538249 -0.1330399 -0.15384397 -0.28971523 -0.34729192
-0.4300786 -0.07430184 -0.12846635 -0.012297019 -0.42679068 -0.44429487 -0.2396061 -0.009969063
-0.03299393 0.04976031 -0.07068499 -0.028183347 0.026625784 0.21597114 0.16585921 0.09548204
0.06033152 0.03151308 0.007890586 0.06381543 0.064704396 -0.048327953 -0.05415649 -0.11271152
-0.03431884 -0.26016173 -0.28534567 -0.16573642 -0.060241085 -0.07857721 0.09654418 0.11804693
0.08011868 0.062861726 -0.26140133 -0.06752219 -0.48129147 0.031342298 0.09388613 -0.08992966
0.18504773 0.11128361 0.044665862 0.02072435 -0.0058856155 0.0084618395 0.029088698 -0.100364916
-0.0076409364 0.0022919055 -0.16963893 -0.4761825 -0.5901992 -0.32737 -0.2676089 -0.8572746
-0.27396935 -0.3101167 0.047543075 0.010551539 0.020823304 0.00034345384 0.0015923176 -0.052414063
0.012468532 -0.06642837 -0.075627096 0.03787837 0.026167601 -0.10020899 -0.051874347 -0.05630663
-0.03463177 -0.049966194 0.0060648834 -0.09722745 0.07805584 -0.08803374 0.03829485 -0.04678286
0.039398704 -0.05864157 -0.051197663 0.07525608 0.042965908 -0.069207296 -0.07083376 -0.0825639
-0.052832935 0.013681415 -0.0970908 0.016622722 -0.057266515 -0.094856866 -0.09389835 0.016369056
-0.108947925 -0.05814732 0.061649483 -0.09681032 0.009818601 0.042156946 0.085938945 0.026618483
-0.00016307678 -0.015180828 -0.06646614 -0.060506564 -0.0663982 0.060832124 0.06291036 -0.104463845
0.03063727 0.03144518 -0.077536725 0.085102886 0.09949757 0.014983411 -0.06081837 -0.06869146
-0.03362758 0.0021046405 -0.09379582 0.06259635 -0.059376527 -0.06789257 -0.06713285 0.023103973
-0.07570555 -0.0022306857 0.08037217 -0.024235226 -0.06846768 0.028939657 0.01934856 0.02331443
0.056791916 -0.04254441 -0.10466749 0.0492795 -0.06586891 -0.036080062 -0.094404444 -0.054292664
-0.038296822 0.022857413 -0.050116323 0.010474925 0.024678128 0.06251076 -0.0858894 -0.07043434
0.023070155 0.07814556 0.0587112 0.006662718 0.023532934 -0.0860625 -0.111903675 -0.088024065
-0.107436985 -0.060803972 -0.24326742 0.026787134 -0.0721879 -0.031464837 -0.15654302 -0.06633681
0.111531906 -0.015389466 0.09815179 0.17961979 0.04066447 0.033982906 0.062621675 0.017862258
-0.035580803 -0.04014226 0.08867651 -0.050838232 -0.05635005 0.01986117 -0.09761548 0.056824517
0.024323585 -0.03492438 0.026777877 -0.2213737 0.0011256598 -0.25306094 -0.13140973 -0.08736092
-0.14654541 0.10170195 0.0479535 0.17015389 -0.01648977 0.021076484 0.15444626 0.041551206
0.14310189 -0.057511035 -0.09579487 -0.03302126 -0.032497652 -0.3296478 0.21536724 -0.13218816
-0.04208252 0.06697246 -0.08525222 0.036364585 -0.03399169 0.07757888 0.27804726 -0.042408213
0.08281493 -0.14589679 0.099055335 0.021505445 0.09225849 0.08844984 -0.015627092 -0.22775874
00000000: 1bba 713d f6b1 5d3d 6d88 c1bb d7dc 03bf
00000010: 4e22 9dbe 7666 51be 7edf abbe 09ec c2be
00000020: 9a40 c7be 9dd7 bc3e 98b6 2bbe 294e 1a3e
00000030: 5092 463c 8835 8bbd b7c2 bd3d 707c 64bd
00000040: aa7d 0d3d 89c7 ca3d 131a b5bd 0647 1fbd
00000050: c940 c8bd 4efd c03d fc15 debb 71ae 30bd
00000060: 8f02 dabe 2dca a6be 0b8b d0be a84d ecbd
00000070: 9d3b 08be 4689 1dbe 8e55 94be 3fd0 b1be
00000080: 4333 dcbe 902b 98bd af8c 03be 7079 49bc
00000090: 4f84 dabe 9e7a e3be 4d5b 75be 4855 23bc
000000a0: a524 07bd 78d1 4b3d 4bc3 90bd c3e0 e6bc
000000b0: 511e da3c 8a27 5d3e ffd6 293e 168c c33d
000000c0: 2f1e 773d dc13 013d 8447 013c aab1 823d
000000d0: bd83 843d 88f3 45bd 32d3 5dbd 4cd5 e6bd
000000e0: e991 0cbd eb33 85be d418 92be cfb6 29be
000000f0: 5bbf 76bd 17ed a0bd f4b8 c53d 97c2 f13d
00000100: 4315 a43d a6bd 803d 65d6 85be 1349 8abd
00000110: d66b f6be c860 003d 5f47 c03d 0b2d b8bd
00000120: 277d 3d3e a9e8 e33d 8df3 363d 1dc6 a93c
00000130: 1fdc c0bb 87a3 0a3c 6c4b ee3c 1f8c cdbd
00000140: d260 fabb cb33 163b d4b5 2dbe 31ce f3be
00000150: 4b17 17bf 0a9d a7be 0904 89be 5976 5bbf
00000160: b645 8cbe 9ec7 9ebe 87bc 423d 5de0 2c3c
00000170: a295 aa3c 9811 b439 50b5 d03a 21b0 56bd
00000180: d048 4c3c 990b 88bd 61e2 9abd 5a26 1b3d
00000190: 705d d63c 5f3a cdbd 327a 54bd c8a1 66bd
000001a0: 0bda 0dbd 5aa9 4cbd eebb c63b 2f1f c7bd
000001b0: bedb 9f3d 094b b4bd 10db 1c3d 629f 3fbd
000001c0: 8960 213d 2532 70bd a4b4 51bd dc1f 9a3d
000001d0: 05fd 2f3d 8ebc 8dbd 4a11 91bd 4317 a9bd
000001e0: 5967 58bd 0328 603c 8bd7 c6bd 602c 883c
000001f0: 4b90 6abd 5144 c2bd c74d c0bd 6618 863c
00000200: 1720 dfbd e22b 6ebd 2b84 7c3d 7d44 c6bd
00000210: 33de 203c c3ac 2c3d c200 b03d 010f da3c
00000220: 97ff 2ab9 02b9 78bc 661f 88bd bbd5 77bd
00000230: c8fb 87bd 1b2b 793d 26d7 803d 24f1 d5bd
00000240: 03fb fa3c a9cc 003d 93cb 9ebd 6c4a ae3d
00000250: 62c5 cb3d fb7c 753c af1c 79bd 1cae 8cbd
00000260: 13bd 09bd 02ee 093b 0618 c0bd 8432 803d
00000270: cd34 73bd 420b 8bbd f37c 89bd 8b44 bd3c
00000280: 830b 9bbd b230 12bb 2a9a a43d f488 c6bc
00000290: c838 8cbd dc12 ed3c df80 9e3c e7fd be3c
000002a0: a49e 683d 0c43 2ebd e95b d6bd 4dd9 493d
000002b0: 47e6 86bd b0c8 13bd 1e57 c1bd fc61 5ebd
000002c0: 21dd 1cbd 783f bb3c c646 4dbd 059f 2b3c
000002d0: c929 ca3c a405 803d c8e6 afbd e13f 90bd
000002e0: 9ffd bc3c c80a a03d 287b 703d ee52 da3b
000002f0: 24c8 c03c 8941 b0bd c12d e5bd f645 b4bd
00000300: ec07 dcbd 960d 79bd 181b 79be b170 db3c
00000310: 40d7 93bd 46e1 00bd d04c 20be 98db 87bd
00000320: d76a e43d 1924 7cbc ce03 c93d 40ee 373e
00000330: ca8f 263d a931 0b3d cb3f 803d df53 923c
00000340: 2dbd 11bd 366c 24bd 089c b53d c03b 50bd
00000350: 4fcf 66bd e4b3 a23c a0ea c7bd d3c0 683d
00000360: 4142 c73c de0c 0fbd 475d db3c caaf 62be
00000370: e08a 933a 3491 81be 4690 06be 48ea b2bd
00000380: 0010 16be 1d49 d03d e46a 443d d23c 2e3e
00000390: 8e15 87bc 97a8 ac3c 2927 1e3e 9931 2a3d
000003a0: 4d89 123e b190 6bbd 1a30 c4bd 4d41 07bd
000003b0: 421c 05bd 99c7 a8be 3b89 5c3e 555c 07be
000003c0: b85e 2cbd db28 893d b798 aebd 08f3 143d
000003d0: df3a 0bbd ade1 9e3d 365c 8e3e 3cb4 2dbd
000003e0: e09a a93d f865 15be 86dd ca3d 302c b03c
000003f0: 05f2 bc3d 3125 b53d 6304 80bc 9639 69be

encoder.conv2d_3.bias f4 [64]
0.101305835 0.088297516 -0.09117666 0.027846951 -0.122907355 0.018557139 0.054199584 0.005959614
-0.05548544 -0.11814523 -0.043824382 -0.011569571 -0.06194501 -0.087729394 -0.057815276 0.032058436
-0.06456984 0.016267423 0.07044513 -0.080604196 -0.05476649 0.07649697 -0.0212458 0.040989332
-0.057353437 -0.12353311 -0.0815883 0.05609023 0.058953237 -0.116030395 -0.12707205 0.041217756
-0.033277765 -0.00017100875 -0.053952195 0.06876214 -0.04072306 0.040573724 -0.08037373 -0.0085521825
-0.01304414 0.013536696 0.027764222 -0.020229114 0.0126081165 0.019792935 0.024284879 0.050898418
0.11250438 0.019166095 0.0053228694 0.015583305 0.016409408 -0.09488142 -0.054508142 -0.09929463
-0.04587258 0.07559108 0.04053112 0.053995192 -0.0977143 -0.014052453 -0.11061632 -0.04595781
00000000: 6f79 cf3d 54d5 b43d d4ba babd 4a1f e43c
00000010: dab6 fbbd 2405 983c 6200 5e3d de48 c33b
00000020: b344 63bd 20f6 f1bd 3281 33bd 4c8e 3dbc
00000030: 0dba 7dbd 78ab b3bd b6cf 6cbd b54f 033d
00000040: 313d 84bd 4243 853c 8945 903d d013 a5bd
00000050: d452 60bd 72aa 9c3d ac0b aebc 6ee4 273d
00000060: 70eb 6abd edfe fcbd c417 a7bd debe 653d
00000070: f378 713d 58a1 edbd 2d1f 02be f3d3 283d
00000080: 444e 08bd d050 33b9 fafc 5cbd 2ad3 8c3d
00000090: 39cd 26bd a230 263d fb9a a4bd 741e 0cbc
000000a0: 17b7 55bc 05c9 5d3c cb71 e33c 87b7 a5bc
000000b0: 4692 4e3c cb24 a23c 15f1 c63c dc7a 503d
000000c0: b268 e63d 3702 9d3c 776b ae3b 1e51 7f3c
000000d0: 066d 863c 3151 c2bd ee43 5fbd fc5a cbbd
000000e0: e3e4 3bbd 7fcf 9a3d f603 263d 102a 5d3d
000000f0: 6f1e c8bd 433c 66bc cf8a e2bd 423e 3cbd

encoder.fc.weight f4 [16, 64]
-0.03245636 0.03982355 -0.08196874 -0.031720903 -0.15325053 0.12699553 -0.007199861 0.19061221
-0.011410201 -0.09402007 0.123440355 -0.14682218 0.17357856 -0.051373422 0.08885981 0.013678484
0.1345756 -0.03074885 -0.009620961 -0.051754303 0.06654163 -0.10305011 0.03410293 -0.1800519
0.053259283 -0.09389782 -0.07348589 0.15760957 0.0258663 0.10656566 -0.10549776 -0.06357405
-0.08102649 -0.049088556 0.43228453 0.098433614 -0.0034332855 -0.09332468 -0.14044194 -0.06896722
-0.06159469 -0.114847995 -0.100079425 0.35699427 -0.23939517 0.16336015 0.010192162 0.10983104
-0.19096981 0.037813444 0.04062748 0.11114962 -0.16580878 0.2503343 0.110427774 0.06327456
0.16036172 0.14567639 -0.07922418 0.07220105 -0.04474425 -0.026117869 0.045513395 -0.031734742
-0.20178337 -0.03519262 -0.17976755 -0.02144436 -0.1276488 -0.1894509 -0.094690636 0.1507963
-0.026930077 -0.08771383 0.0068684635 0.0024610464 -0.20685436 -0.08545469 0.05796874 0.01350326
-0.38978806 -0.14946477 0.17162928 -0.058794305 -0.110901445 0.09918518 -0.009905695 -0.03640044
-0.13822378 0.10148449 0.07137595 0.03140142 -0.004304312 -0.013239481 -0.051704135 -0.089740396
0.12866771 -0.05573528 0.0038901241 -0.010183863 0.07546507 -0.016989596 -0.12686282 0.0299369
0.051280934 -0.15527251 0.22297509 0.040774703 -0.07051011 -0.24509603 0.036659595 -0.09017651
0.13921638 -0.123750985 0.06968065 0.059475545 0.028804872 -0.0018971241 -0.077575415 -0.085464515
0.0090918 0.053500615 -0.11804096 -0.18533698 0.08668407 0.123743735 -0.115250744 0.3396834
-0.060520396 0.108400226 -0.24712665 0.040102974 0.030052278 0.036183164 0.10758285 -0.2797721
0.10698281 0.06271289 0.056120314 0.09915217 -0.22766106 -0.10785793 0.045796886 0.0015306737
-0.15429541 -0.1078926 0.15564696 0.054515064 -0.19001892 0.018160164 0.13132383 0.094693266
0.08545286 -0.0038291106 0.08744965 0.093297705 -0.07913096 -0.014801342 0.037799075 -0.01672112
0.011610937 0.060631808 0.48258576 -0.037278745 0.097949915 -0.077534355 0.24971558 -0.0755418
-0.057386056 0.20359482 -0.09649319 -0.23276435 0.06935862 0.12906845 0.12578888 0.013112275
-0.18829776 -0.010539781 0.06422398 0.0065572686 0.029746685 0.03462199 -0.0143299345 0.0012446637
-0.16451685 0.024093157 0.05096406 -0.15635094 -0.006291053 -0.06430439 -0.010868435 0.19470952
0.24790998 0.057997573 0.035012003 0.15615246 -0.041175365 -0.018554518 0.06574599 -0.06447932
0.072482646 -0.27940696 -0.08267417 -0.08707891 0.13006802 0.06621897 -0.058197156 -0.12243171
0.15602708 0.015581759 -0.111889295 0.3246781 -0.0059262286 -0.11422853 -0.028965438 -0.22550148
0.028854271 -0.082277335 0.036132284 -0.09099162 -0.2579937 -0.049641114 0.05246844 0.036066093
-0.0979832 0.19298683 0.22367622 -0.12883273 0.043363836 -0.13173681 0.15297307 0.26782995
-0.094086505 0.20734039 -0.04600455 -0.022363992 -0.0063852994 -0.17107126 -0.11467941 0.08941161
0.17772481 0.11730251 0.08559554 -0.12945728 -0.08482882 -0.25398177 -0.28239122 0.07299324
0.062336124 0.06565037 0.19238387 -0.18339989 -0.027512364 0.043738283 -0.084196314 -0.09061015
00000000: f6f0 04bd 051e 233d 3adf a7bd c7ed 01bd
00000010: b5ed 1cbe 1e0b 023e d0ec ebbb d92f 433e
00000020: daf1 3abc 988d c0bd 4cce fc3d 8e58 16be
00000030: 94be 313e f06c 52bd 22fc b53d b81b 603c
00000040: 30ce 093e 03e5 fbbc 3ca1 1dbc 52fc 53bd
00000050: fa46 883d f00b d3bd 84af 0b3d 865f 38be
00000060: 6826 5a3d 804d c0bd c57f 96bd 6764 213e
00000070: 90e5 d33c 193f da3d 360f d8bd 1d33 82bd
00000080: 37f1 a5bd 1511 49bd 6654 dd3e 9097 c93d
00000090: f900 61bb 0321 bfbd 03d0 0fbe b03e 8dbd
000000a0: b74a 7cbd 6d35 ebbd 71f6 ccbd f4c7 b63e
000000b0: 0224 75be e247 273e 07fd 263c 19ef e03d
000000c0: 978d 43be 45e2 1a3d 0069 263d 69a2 e33d
000000d0: c7c9 29be d12b 803e f527 e23d 1896 813d
000000e0: dd35 243e 312c 153e 4940 a2bd 25de 933d
000000f0: bf45 37bd 24f5 d5bc 416c 3a3d 4afc 01bd
00000100: 4da0 4ebe 2326 10bd fc14 38be 15ac afbc
00000110: 5eb6 02be 6bff 41be 2aed c1bd 586a 1a3e
00000120: 779c dcbc 4fa3 b3bd d910 e13b 8249 213b
00000130: a1d1 53be de02 afbd a170 6d3d c73c 5d3c
00000140: 4d92 c7be 4b0d 19be 96bf 2f3e 4cd2 70bd
00000150: 4c20 e3bd 9a21 cb3d 7f4b 22bc a118 15bd
00000160: 898a 0dbe 1ad7 cf3d 8e2d 923d c69e 003d
00000170: 300b 8dbb 68ea 58bc b7c7 53bd d0c9 b7bd
00000180: 78c1 033e ad4a 64bd 74f1 7e3b 38da 26bc
00000190: 6e8d 9a3d c42d 8bbc 54e8 01be 3b3e f53c
000001a0: f50b 523d c2ff 1ebe 9553 643e 6003 273d
000001b0: 9b67 90bd 74fa 7abe 5f28 163d 76ae b8bd
000001c0: bd8e 0e3e 2871 fdbd bbb4 8e3d a19c 733d
000001d0: 32f8 eb3c eca8 f8ba dcdf 9ebd 0508 afbd
000001e0: c6f5 143c 7623 5b3d 75bf f1bd fac8 3dbe
000001f0: 6b87 b13d 5b6d fd3d 9508 ecbd fcea ad3e
00000200: 3ce4 77bd f000 de3d c50e 7dbe 0443 243d
00000210: 3230 f63c cc34 143d 6654 dc3d 4a3e 8fbe
00000220: ce19 db3d 9e6f 803d 6ade 653d 4b10 cb3d
00000230: fb1f 69be 9ee4 dcbd 8495 3b3d e3a0 c83a
00000240: 9eff 1dbe ccf6 dcbd eb61 1f3e 304b 5f3d
00000250: 5294 42be a0c4 943c c179 063e 8bee c13d
00000260: e901 af3d d1f1 7abb cd18 b33d de12 bf3d
00000270: 6a0f a2bd 5481 72bc 34d3 1a3d bbfa 88bc
00000280: cd3b 3e3c 0f59 783d 7b15 f73e 99b1 18bd
00000290: f799 c83d 55ca 9ebd 71b5 7f3e a9b5 9abd
000002a0: a40d 6bbd 297b 503e 399e c5bd c759 6ebe
000002b0: e40b 8e3d 852a 043e cdce 003e ded4 563c
000002c0: 21d1 40be 0caf 2cbc dd87 833d 5bde d63b
000002d0: 52af f33c cacf 0d3d 1ac8 6abc fc23 a33a
000002e0: 1b77 28be 035f c53c b1bf 503d 761a 20be
000002f0: 2d25 cebb 05b2 83bd 8511 32bc ef61 473e
00000300: 1ddc 7d3e dd8e 6d3d bf68 0f3d 6ee6 1f3e
00000310: 80a7 28bd a5ff 97bc d5a5 863d bc0d 84bd
00000320: c871 943d 6e0e 8fbe 1351 a9bd 6d56 b2bd
00000330: 8d30 053e d09d 873d 2460 6ebd 7abd fabd
00000340: 90c5 1f3e a24a 7f3c 3726 e5bd 353c a63e
00000350: cf30 c2bb a6f0 e9bd ed48 edbc dce9 66be
00000360: cb5f ec3c 0581 a8bd 72ff 133d d159 babd
00000370: c017 84be 7b54 4bbd 26e9 563d 0aba 133d
00000380: 6aab c8bd 579e 453e 610b 653e baec 03be
00000390: 479e 313d 04e6 06be f9a4 1c3e 0221 893e
000003a0: 6db0 c0bd 0a51 543e 446f 3cbd b134 b7bc
000003b0: c63b d1bb 4e2d 2fbe 0add eabd 6f1d b73d
000003c0: 7efd 353e 4c3c f03d b74c af3d 7390 04be
000003d0: bbba adbd e609 82be 9595 90be 7b7d 953d
000003e0: 2a54 7f3d b473 863d 4700 453e 2ecd 3bbe
000003f0: 9c61 e1bc ea26 333d 1e6f acbd d091 b9bd

encoder.fc.bias f4 [16]
0.10200634 0.14315405 -0.13448638 -0.12273587 0.068344854 -0.024261434 0.035539832 0.01093803
0.1084264 0.019456143 0.09867642 0.11042966 0.08169424 0.029934125 -0.017096084 -0.06313455
00000000: b3e8 d03d fa96 123e ccb6 09be f25c fbbd
00000010: 63f8 8b3d eabf c6bc 3792 113d 6c35 333c
00000020: a90e de3d 7d62 9f3c dd16 ca3d f228 e23d
00000030: 4f4f a73d 6938 f53c 160d 8cbc b04c 81bd

decoder.decoder_fc1.weight f4 [64, 16]
-0.23686199 0.49052894 0.12754291 -0.115796074 -0.04324784 0.12992898 0.51361316 -0.05219783
0.1319774 -0.11591118 0.0503143 -0.032499775 0.10558936 -0.48515895 0.11791056 0.23343669
-0.0738199 -0.0006951902 0.15791762 0.21986613 -0.3712646 0.16220775 0.13450603 0.017862929
0.233619 -0.026204236 -0.06502327 -0.2974533 0.21360828 -0.24435057 -0.046472143 -0.118605174
0.24732022 -0.11493446 0.25591287 -0.074369505 0.082460634 0.1984665 -0.25064418 0.0752936
-0.16894394 0.089835234 0.066549525 -0.035557218 -0.09093044 -0.09867199 -0.2336167 -0.1599596
0.022724107 0.13737084 0.047355603 0.06230625 -0.16110435 -0.019062733 -0.27752814 -0.026926778
0.18087676 -0.0060957083 -0.28003952 0.10588849 -0.18794905 0.094668105 0.04446797 -0.23043402
0.21418975 0.02609684 0.19553532 -0.1094917 -0.09021339 0.013421092 -0.31659785 0.14163336
0.021074487 0.2739717 -0.037678484 -0.19385879 0.21383157 0.059093714 0.008459182 0.051776722
0.2558576 -0.2410688 -0.53441775 -0.066967145 0.06669065 0.08116106 -0.17697446 0.16276273
0.2829208 -0.13997026 -0.29450178 0.13557331 0.10056058 -0.05399455 0.33515033 0.059670117
0.206568 -0.10324008 0.66433865 0.46446526 -0.1180984 -0.23421732 -0.11464709 -0.20347467
-0.32206804 -0.07067468 0.15751858 0.29893482 0.2990896 0.19814557 0.2836802 -0.1731935
-0.5026748 -0.24006481 -0.19446164 -0.10998847 -0.47416183 -0.0110803805 -0.08011913 0.07044116
0.08454985 -0.034787193 0.072991505 -0.05843576 0.3417789 0.06790734 0.20957822 0.015145351
-0.27640796 -0.1447702 0.51814795 -0.22622366 0.07094157 0.16261837 0.10127136 0.17077813
0.03355681 0.109706424 0.070420586 -0.069275714 -0.11504269 -0.21638407 0.45819974 -0.17376158
0.43623272 -0.16428757 0.44393584 0.5528201 -0.44423252 0.13837925 0.011315293 0.07997379
0.0025708904 0.07416093 0.06188246 0.30505615 0.07862595 -0.031320743 0.14422183 0.12719087
0.07003098 -0.13197525 -0.045823615 -0.3494519 0.03277587 -0.25796193 -0.10381875 -0.21507603
0.117323324 0.015195661 -0.031066798 0.010768088 0.09922072 0.35451436 0.08266376 -0.037660565
-0.32908872 0.24345908 -0.239403 0.13085558 0.11386705 0.07624761 -0.1974952 -0.107522555
-0.30119282 -0.14448945 0.021109888 -0.094541 0.23933806 0.34654525 -0.18184705 -0.24602222
-0.18709885 -0.0008368376 0.13851899 0.18087313 0.30849525 0.17013939 0.29799318 0.24213873
-0.17379035 0.1898218 -0.0836929 -0.09830157 0.08487609 0.033952583 -0.03690263 -0.16838077
0.1406239 -0.19593215 -0.27119014 -0.24434446 -0.29281008 -0.0116788745 -0.12789328 -0.18154632
-0.29393828 0.025691649 0.26765633 -0.41988882 -0.10039349 0.11580575 -0.005639315 -0.1871669
-0.2097581 -0.18029284 0.19722854 0.31118727 0.35518903 0.11625635 -0.12385268 0.111224085
0.3359581 -0.13975327 -0.04530571 -0.26120898 -0.19080159 -0.13658935 0.2543913 0.26064914
-0.21636413 -0.101322286 -0.23178652 0.061509 0.03830198 0.13695362 -0.06408488 0.347567
-0.09728202 0.24658462 0.050721627 -0.25894314 -0.17054398 0.065694384 -0.024004167 0.22236921
00000000: f38b 72be 9c26 fb3e 9c9a 023e 7e26 edbd
00000010: a624 31bd 1a0c 053e 277c 033f 64cd 55bd
00000020: 1525 073e d762 edbd 5e16 4e3d 7c1e 05bd
00000030: 3c3f d83d c166 f8be 177b f13d 070a 6f3e
00000040: e32e 97bd 6d3d 36ba 28b5 213e 9624 613e
00000050: 6516 bebe ca19 263e f3bb 093e 4755 923c
00000060: d239 6f3e 44aa d6bc ec2a 85bd cd4b 98be
00000070: 21bc 5a3e 0937 7abe 9359 3ebd 45e7 f2bd
00000080: 8341 7d3e c262 ebbd 0307 833e 0a4f 98bd
00000090: 1fe1 a83d cd3a 4b3e 6f54 80be 8833 9a3d
000000a0: a4ff 2cbe 89fb b73d 1e4b 883d 72a4 11bd
000000b0: bd39 babd 8a14 cabd 3739 6fbe 73cc 23be
000000c0: e827 ba3c f1aa 0c3e f3f7 413d d734 7f3d
000000d0: 8af8 24be 7329 9cbc 2b18 8ebe 8c95 dcbc
000000e0: c237 393e 82be c7bb 5761 8fbe 11dc d83d
000000f0: b775 40be 5ae1 c13d 0c24 363d e5f6 6bbe
00000100: 8f54 5b3e 0ac9 d53c 693a 483e 2f3d e0bd
00000110: ccc1 b8bd 24e4 5b3c 1d19 a2be 5608 113e
00000120: 67a4 ac3c 0546 8c3e c154 1abd eb82 46be
00000130: aaf6 5a3e 400c 723d 6298 0a3c d413 543d
00000140: c4ff 823e bdda 76be 9acf 08bf 1226 89bd
00000150: 1c95 883d c537 a63d cb38 35be 46ab 263e
00000160: ffda 903e 5d54 0fbe f0c8 96be bbd3 0a3e
00000170: b5f2 cd3d 6429 5dbd d398 ab3e a768 743d
00000180: 9086 533e 896f d3bd 1912 2a3f 64ce ed3e
00000190: 93dd f1bd aad6 6fbe 18cc eabd aa5b 50be
000001a0: 1ae6 a4be e3bd 90bd 8d4c 213e fc0d 993e
000001b0: 4622 993e ace6 4a3e 883e 913e a359 31be
000001c0: 4caf 00bf 8dd3 75be f420 47be a341 e1bd
000001d0: 57c5 f2be 7c8a 35bc 8015 a4bd 7443 903d
000001e0: 7928 ad3d 047d 0ebd 927c 953d 565a 6fbd
000001f0: a5fd ae3e 0113 8b3d ac9b 563e 3524 783c
00000200: 5885 8dbe a43e 14be 58a5 043f 2da7 67be
00000210: d049 913d 6e85 263e 5c67 cf3d 76e0 2e3e
00000220: de72 093d c3ad e03d ab38 903d 6de0 8dbd
00000230: 809b ebbd c993 5dbe 2899 ea3e 8eee 31be
00000240: e559 df3e 003b 28be 8f4b e33e 9e85 0d3f
00000250: 7272 e3be 4ab3 0d3e c763 393c 4cc9 a33d
00000260: 627c 283b b0e1 973d 7678 7d3d 5230 9c3e
00000270: a406 a13d 2e4a 00bd e3ae 133e 533e 023e
00000280: 676c 8f3d 8524 07be 8bb1 3bbd 5ceb b2be
00000290: fe3f 063d 9613 84be ed9e d4bd e43c 5cbe
000002a0: 3647 f03d 39f7 783c cc7f febc a26c 303c
000002b0: 3c34 cb3d e882 b53e 9e4b a93d f741 1abd
000002c0: 517e a8be 564d 793e 0f26 75be 01ff 053e
000002d0: 2133 e93d b527 9c3d 2f3c 4abe c934 dcbd
000002e0: f235 9abe 0bf5 13be a5ee ac3c b69e c1bd
000002f0: 0915 753e 616e b13e 1d36 3abe 40ed 7bbe
00000300: d796 3fbe 385f 5bba ecd7 0d3e ce36 393e
00000310: 17f3 9d3e 0539 2e3e 9092 983e 37f3 773e
00000320: 19f6 31be a560 423e 2f67 abbd 5552 c9bd
00000330: 84d3 ad3d dd11 0b3d 3627 17bd 026c 2cbe
00000340: b6ff 0f3e 70a2 48be 6fd9 8abe 6f35 7abe
00000350: 34eb 95be c058 3fbc 75f6 02be 47e7 39be
00000360: 147f 96be 4b77 d23c 400a 893e abfb d6be
00000370: 1a9b cdbd 912b ed3d 01ca b8bb aea8 3fbe
00000380: d4ca 56be b09e 38be 47f6 493e f053 9f3e
00000390: 56db b53e cf17 ee3d 79a6 fdbd 74c9 e33d
000003a0: b302 ac3e 7b1b 0fbe 7b92 39bd 2fbd 85be
000003b0: 7e61 43be 14de 0bbe 943f 823e ce73 853e
000003c0: 8f8e 5dbe 0f82 cfbd 7259 6dbe dcf0 7b3d
000003d0: 89e2 1c3d 923d 0c3e ef3e 83bd 4df4 b13e
000003e0: cc3b c7bd ae80 7c3e 7bc1 4f3d 3294 84be
000003f0: 15a3 2ebe c78a 863d 63a4 c4bc c1b4 633e

decoder.decoder_fc1.bias f4 [64]
0.09140694 0.05242415 -0.12418537 0.17400488 -0.07427861 -0.2690386 -0.135263 -0.100486636
-0.046836533 0.1521195 0.18383554 0.16672099 0.17773016 -0.14638816 -0.05637635 0.024263619
0.27256772 0.3911757 -0.013753432 -0.20978814 0.23142356 -0.25104886 0.2121204 -0.34257922
-0.06258306 0.16141962 -0.04322304 0.16637538 0.27939925 -0.018145815 0.14535734 -0.008806338
0.18013962 0.23921429 0.16972467 -0.053584944 -0.09557513 -0.25660524 -0.09599106 -0.20397808
0.12124884 -0.072801694 -0.23594558 0.20290326 0.15971069 0.25209916 -0.20445494 0.2639343
-0.24637066 0.24679787 0.13363291 0.1973039 -0.210675 -0.20106871 0.25025254 0.05947393
0.01931994 0.17520607 -0.11498991 -0.0033214334 -0.12691 0.19632742 0.25633815 0.23993216
00000000: 9033 bb3d b5ba 563d e654 febd 562e 323e
00000010: 621f 98bd 6dbf 89be 6282 0abe f0cb cdbd
00000020: aad7 3fbd 37c5 1b3e 623f 3c3e e8b8 2a3e
00000030: e5fe 353e c7e6 15be e3ea 66bd 7fc4 c63c
00000040: ff8d 8b3e 2e48 c83e 1356 61bc b4d2 56be
00000050: 4cfa 6c3e 7a89 80be 1736 593e 8b66 afbe
00000060: 8c2b 80bd 2f4b 253e a40a 31bd 4f5e 2a3e
00000070: 6b0d 8f3e 88a6 94bc 8ed8 143e 7548 10bc
00000080: 8576 383e 97f4 743e 4ecc 2d3e e37b 5bbd
00000090: e5bc c3bd c361 83be f696 c4bd a1df 50be
000000a0: 5051 f83d 0e19 95bd b89b 71be dfc5 4f3e
000000b0: 338b 233e 2413 813e a35c 51be 6622 873e
000000c0: 9748 7cbe 95b8 7c3e 11d7 083e 090a 4a3e
000000d0: 30bb 57be f5e4 4dbe 1a21 803e f09a 733d
000000e0: da44 9e3c 3869 333e d47f ebbd 68ac 59bb
000000f0: b2f4 01be 0e0a 493e c13e 833e c7b0 753e

decoder.decoder_fc2.weight f4 [128, 64]
0.054092746 -0.04630286 0.101194076 0.11746778 -0.08004971 -0.008365271 -0.13051541 -0.26129416
0.04364095 0.044179298 0.012246623 -0.19875728 -0.0087546 -0.15284713 0.042768266 -0.021626573
-0.067936115 -0.19951828 0.00035023116 -0.063712835 0.071232006 -0.112656236 0.024891568 0.017490966
0.08841176 -0.019616272 -0.11440423 -0.07751704 -0.014238299 0.14759232 0.048778668 0.110822216
0.0775712 0.12111786 0.010166815 -0.47280508 -0.034926917 -0.11004525 0.3043521 -0.10359667
-0.41375667 0.18768926 0.06595992 0.12051527 0.0046590865 0.0008606523 0.04738067 0.14966264
-0.094996 0.049548164 0.08861333 -0.114726245 -0.1945979 0.08622855 0.013621771 0.021948539
0.0784497 0.13461632 0.03587715 -0.017718956 -0.08975754 -0.15982464 -0.031646326 -0.054777835
0.05482422 -0.08499503 -0.014982615 0.067414045 0.042672332 0.06398523 -0.10030131 0.08075442
-0.07630783 0.06961969 -0.062159143 0.08335118 0.1080561 -0.0036645923 0.027038842 -0.070486866
-0.046925575 0.054351155 0.03473556 0.04768747 -0.03642782 0.055854786 0.06536175 0.038136255
0.06273556 -0.14127083 -0.07811736 0.014703737 0.0109327715 0.08241047 -0.018312393 -0.053972278
-0.15861166 -0.13029489 -0.00022579674 -0.10042916 -0.038909957 0.008011201 0.020984424 0.064780496
-0.11620175 0.09996346 -0.1115572 0.04624258 -0.13298726 -0.10031866 -0.020987252 -0.022294415
0.049606025 0.0040041697 -0.018750308 -0.13278893 -0.12402953 0.035491664 -0.06198565 -0.053031847
-0.059127957 -0.0276693 0.04306153 -0.0957998 -0.024199927 -0.024580672 -0.0059407204 0.010719672
-0.27329808 0.2632186 -0.08963092 0.074219406 -0.14353961 0.08998402 0.012336457 0.25151524
0.011282594 -0.20921294 0.06517169 -0.20554098 -0.09547495 0.3654847 -0.26285872 0.0076882145
0.06388541 0.02869349 0.13242336 0.0022423118 -0.2644874 -0.06949249 -0.13745703 -0.2903031
-0.048252765 -0.024792098 0.0943173 0.07723821 0.013070807 -0.04916898 -0.00056324544 -0.06929087
0.09341897 0.15872936 -0.057224937 0.17862158 -0.039387364 0.19845608 -0.040530678 -0.17925131
0.020179257 -0.07187939 0.12588441 0.105071954 0.10874631 -0.15089728 -0.22517668 -0.09214303
0.07734385 0.10821187 -0.0030316724 0.069521226 0.21468389 -0.026480371 0.044515405 -0.17424145
-0.32372153 -0.03379763 0.10078162 -0.10152145 0.12646605 0.18712269 -0.5894701 -0.028103521
-0.02272402 0.084759824 0.043240946 0.07177948 0.024286369 -0.14049935 0.097856894 -0.15101412
-0.08103855 -0.015577913 -0.11615403 -0.04827455 0.17606893 0.044052683 -0.023327105 0.0014524538
0.10193574 -0.012035067 0.003250107 -0.06464481 0.16253746 -0.04514142 0.1196394 0.36280423
0.08708682 -0.074700564 0.13622634 -0.07503138 -0.041944478 0.15386319 0.0037218216 -0.06770559
-0.10171226 0.13338344 -0.06937689 0.21362159 -0.10816502 -0.057990726 -0.09895212 -0.06664631
0.13569525 -0.3345276 0.050437566 -0.21174255 0.033778433 0.07926738 0.19080272 0.08799715
-0.090049446 -0.05863922 0.065861896 0.07321852 0.020084552 0.021435412 -0.07862776 -0.09849739
-0.06149184 -0.07358931 -0.082055554 -0.058678664 -0.20654203 0.2024798 0.12772503 -0.07568153
00000000: 5b90 5d3d 11a8 3dbd d73e cf3d f392 f03d
00000010: 1af1 a3bd 7d0e 09bc d5a5 05be 59c8 85be
00000020: dac0 323d 5af5 343d 0fa6 483c 0787 4bbe
00000030: 746f 0fbc f583 1cbe c72d 2f3d 362a b1bc
00000040: 1722 8bbd 854e 4cbe 3b9f b739 e07b 82bd
00000050: 16e2 913d 50b8 e6bd 67e9 cb3c 3749 8f3c
00000060: 3a11 b53d 4eb2 a0bc c44c eabd 41c1 9ebd
00000070: c147 69bc 7122 173e 24cc 473d c2f6 e23d
00000080: a6dd 9e3d a40c f83d b692 263c 8213 f2be
00000090: 870f 0fbd 675f e1bd 0ad4 9b3e 7e2a d4bd
000000a0: ead7 d3be 9d31 403e ff15 873d b6d0 f63d
000000b0: 40ab 983b 669d 613a 3c12 423d 2a41 193e
000000c0: 438d c2bd 04f3 4a3d e87a b53d 98f5 eabd
000000d0: ac44 47be 9898 b03d d92d 5f3c 6ccd b33c
000000e0: 3caa a03d dcd8 093e ebf3 123d 5827 91bc
000000f0: cdd2 b7bd 12a9 23be 949f 01bd b95e 60bd
00000100: 5c8f 603d e011 aebd a479 75bc 6010 8a3d
00000110: 2fc9 2e3d b00a 833d c66a cdbd 9362 a53d
00000120: 4847 9cbd c594 8e3d 969a 7ebd 06b4 aa3d
00000130: 844c dd3d a829 70bb 9080 dd3c 6b5b 90bd
00000140: 0835 40bd 519f 5e3d e046 0e3d f053 433d
00000150: 5635 15bd fdc7 643d 62dc 853d c334 1c3d
00000160: 807b 803d 4da9 10be fffb 9fbd f1e7 703c
00000170: 5e1f 333c d2c6 a83d df03 96bc 0912 5dbd
00000180: 186b 22be 066c 05be dac3 6cb9 cead cdbd
00000190: 0c60 1fbd 6a41 033c 87e7 ab3c a3ab 843d
000001a0: 2ffb edbd a4b9 cc3d 1a78 e4bd dc68 3d3d
000001b0: d02d 08be df73 cdbd 75ed abbc c7a2 b6bc
000001c0: b02f 4b3d 6935 833b 3f9a 99bc d2f9 07be
000001d0: 3203 febd b55f 113d aae4 7dbd ec37 59bd
000001e0: 2830 72bd baaa e2bc 4961 303d af32 c4bd
000001f0: ed3e c6bc 685d c9bc 60aa c2bb 90a1 2f3c
00000200: baed 8bbe 97c4 863e 6a90 b7bd 5800 983d
00000210: 0cfc 12be 8b49 b83d da1e 4a3c 9bc6 803e
00000220: a1da 383c eb3b 56be bc78 853d 5679 52be
00000230: 5f88 c3bd d020 bb3e 6b95 86be 6bed fb3b
00000240: 5bd6 823d 9c0e eb3c fd99 073e c0f3 123b
00000250: e46a 87be 1452 8ebd 89c1 0cbe 9ca2 94be
00000260: b1a4 45bd cc18 cbbc 6e29 c13d 112f 9e3d
00000270: f026 563c 6a65 49bd c3a6 13ba 5fe8 8dbd
00000280: 7252 bf3d f389 223e b264 6abd 93e8 363e
00000290: a554 21bd 1238 4b3e 7f03 26bd a88d 37be
000002a0: f84e a53c 8035 93bd d8e7 003e f72f d73d
000002b0: 63b6 de3d d184 1abe b794 66be 7cb5 bcbd
000002c0: 7466 9e3d 2f9e dd3d 06af 46bb 2561 8e3d
000002d0: 18d6 5b3e 5ded d8bc c955 363d 5a6c 32be
000002e0: d4be a5be 626f 0abd 9866 ce3d 7aea cfbd
000002f0: 5180 013e 179d 3f3e 83e7 16bf 5b39 e6bc
00000300: b927 babc 8f96 ad3d 6b1d 313d 1f01 933d
00000310: 35f4 c63c 10df 0fbe 3269 c83d 72a3 1abe
00000320: 8af7 a5bd 813a 7fbc 2ae2 edbd 89bb 45bd
00000330: 6a4b 343e 9670 343d 7c18 bfbc 4360 be3a
00000340: afc3 d03d bb2e 45bc bfff 543b 8064 84bd
00000350: 3870 263e 36e6 38bd 8005 f53d 7ac1 b93e
00000360: 935a b23d 9cfc 98bd eb7e 0b3e 0daa 99bd
00000370: f9cd 2bbd 508e 1d3e cee9 733b 3aa9 8abd
00000380: 844e d0bd ab95 083e 7915 8ebd 9ebf 5a3e
00000390: 9f85 ddbd af87 6dbd 69a7 cabd dc7d 88bd
000003a0: b2f3 0a3e 3447 abbe 9f97 4e3d 0ad3 58be
000003b0: 415b 0a3d f056 a23d ca61 433e da37 b43d
000003c0: d86b b8bd ae2f 70bd 9ae2 863d 97f3 953d
000003d0: 5c88 a43c 5199 af3c 9707 a1bd 00b9 c9bd
000003e0: dede 7bbd feb5 96bd be0c a8bd 0a59 70bd
000003f0: c17f 53be dd56 4f3e 5aca 023e ebfe 9abd

decoder.decoder_fc2.bias f4 [128]
0.011800886 -0.13302572 0.03943954 0.110568345 -0.076912984 -0.07189736 0.15555637 -0.15184751
-0.021946054 0.0148309665 0.14960463 0.11776531 0.0075650522 0.077767536 -0.07690933 0.14050467
0.10391537 0.07238392 0.013785072 0.03612042 -0.06635909 -0.09443423 -0.06799015 0.005383314
-0.06471842 0.01371011 0.039610043 -0.023358902 0.09777458 0.0070393956 0.13443722 0.06652972
0.1496754 0.13013293 0.06031933 -0.053067584 0.01701506 0.07855235 0.092808686 0.05425273
0.04873541 0.051448923 0.010093381 0.07436552 -0.121759504 -0.039694186 0.086861216 -0.047251757
-0.2588895 0.08592769 -0.033411548 0.1493375 -0.07567457 -0.20702688 0.010353972 0.13663125
0.03948956 0.059719644 -0.021669388 -0.050078496 0.048781395 0.043164983 0.14803354 -0.09903834
-0.11240527 -0.18755472 -0.09955001 0.09959089 -0.0011628823 -0.12683406 -0.12916027 -0.11588637
0.12648728 -0.0801351 -0.020419963 -0.016675172 -0.21359594 -0.03506441 0.01943674 0.15923342
-0.033337545 0.058429588 0.024294425 -0.10880287 0.1373603 -0.018940931 -0.058499835 -0.0022288612
-0.12380446 -0.06923602 -0.13906641 0.14379293 0.12112472 0.015968088 0.1637851 -0.044900987
0.04602534 0.035400126 -0.043143123 -0.12216472 -0.03092159 0.09851003 0.18379655 0.1314125
0.022291265 -0.07216827 -0.16148487 0.033531275 -0.0030143145 -0.112994835 -0.035560865 -0.10450732
0.07295663 -0.099526316 -0.09593508 -0.13438466 0.076968424 -0.084572606 0.12969163 -0.053089574
0.119336225 -0.13414697 -0.055699255 0.06348441 -0.05079291 0.053655516 -0.12210118 -0.0008039826
00000000: 8158 413c e537 08be 5b8b 213d a871 e23d
00000010: 8e84 9dbd ec3e 93bd 2b4a 1f3e ea7d 1bbe
00000020: 36c8 b3bc 95fd 723c f531 193e f02e f13d
00000030: 42e4 f73b 9644 9f3d a482 9dbd 75e0 0f3e
00000040: 95d1 d43d 053e 943d c8da 613c 01f3 133d
00000050: 46e7 87bd bc66 c1bd 6b3e 8bbd 8366 b03b
00000060: 178b 84bd 5fa0 603c 243e 223d 2b5b bfbc
00000070: 0a3e c83d bbaa e63b e9a9 093e bc40 883d
00000080: 8244 193e 9141 053e 6711 773d 655d 59bd
00000090: 2b63 8b3c 0ee0 a03d 7b12 be3d 1c38 5e3d
000000a0: c89e 473d 1bbc 523d b55e 253c f34c 983d
000000b0: 0c5d f9bd 5f96 22bd 4be4 b13d 0f8b 41bd
000000c0: 2a8d 84be dbfa af3d 8cda 08bd eeeb 183e
000000d0: 45fb 9abd dbfe 53be b5a3 293c 10e9 0b3e
000000e0: cebf 213d 969c 743d 0084 b1bc 1c1f 4dbd
000000f0: 00cf 473d c4cd 303d 1b96 173e 9dd4 cabd
00000100: bc34 e6bd 580e 40be e0e0 cbbd 4ff6 cb3d
00000110: db6b 98ba cae0 01be 9742 04be d555 edbd
00000120: e285 013e df1d a4bd c447 a7bc 5f9a 88bc
00000130: e5b8 5abe b39f 0fbd cc39 9f3c 160e 233e
00000140: f38c 08bd dd53 6f3d 1a05 c73c 0ad4 debd
00000150: 2ea8 0c3e 032a 9bbc 869d 6fbd 1612 12bb
00000160: 318d fdbd 9dcb 8dbd 6d67 0ebe 743e 133e
00000170: 3d10 f83d 82cf 823c 48b7 273e 19ea 37bd
00000180: 1185 3c3d b9ff 103d d8b6 30bd 7f31 fabd
00000190: 464f fdbc a0bf c93d 2a35 3c3e 0091 063e
000001a0: 2c9c b63c f5cc 93bd 4a5c 25be 1758 093d
000001b0: ce8b 45bb d669 e7bd 45a8 11bd ef07 d6bd
000001c0: 496a 953d 74d4 cbbd 9c79 c4bd 229c 09be
000001d0: 9fa1 9d3d 6734 adbd e2cd 043e 7474 59bd
000001e0: 8d66 f43d d35d 09be e724 64bd 1d04 823d
000001f0: 3a0c 50bd e3c5 5b3d 2f10 fabd 5cc2 52ba

decoder.decoder_fc3.weight f4 [72, 128]
0.02107957 -0.009538734 0.038057327 0.041796878 -0.10070893 0.10994352 -0.038992748 0.01394142
0.015006831 -0.063900985 -0.058210663 -0.09017697 -0.08685877 -0.008728451 0.07038899 0.1326934
0.10973419 -0.0024170836 -0.008698872 -0.017447442 0.01170097 -0.11009893 -0.009622425 0.09110868
0.04417774 0.10994984 0.067881234 0.12218292 -0.0074142567 -0.061954252 0.21836191 -0.0034540275
0.026661335 -0.021562442 0.13194063 0.167184 0.09781789 0.0753185 -0.010346459 0.008240104
0.11448146 -0.03733611 -0.08638501 0.103147835 -0.042004913 -0.17538883 0.056153245 0.11064856
0.012677487 0.17547788 0.15693952 -0.05795242 -0.102303475 -0.107532054 0.021709867 0.06546202
0.052302513 -0.04804554 0.04920427 -0.026761046 0.04098812 0.07001764 0.17317875 0.029363489
-0.029044978 0.085657574 -0.01540617 0.07799086 -0.056362383 0.010529656 -0.0064466354 -0.05005685
0.1941538 0.04322008 0.036572415 -0.0046924804 0.051770236 0.047580793 -0.003962905 -0.059466448
0.33695948 -0.05143493 0.15504341 -0.063895896 -0.12846091 -0.00018912155 -0.075740136 0.2423742
0.0027579535 0.010452894 0.028847823 0.06221409 0.110231444 0.108573474 -0.049619485 0.046088632
-0.044767488 0.023795072 0.09870609 -0.104598954 0.060439106 -0.06830436 0.035505034 0.11128684
-0.33116618 -0.031069169 -0.049140774 -0.0017721457 -0.06694605 0.04336223 0.035501156 -0.0054729786
-0.042945333 -0.024337055 -0.17876785 0.100532815 0.073832616 0.021288104 -0.118596874 -0.3629734
0.07729505 -0.05112263 0.007240908 -0.039857354 0.08363708 -0.027587209 0.1116648 -0.017822284
0.09270549 0.011207071 0.03899842 0.07416556 -0.04164381 0.11069415 0.0273572 -0.007804249
0.008905246 0.026871996 -0.0022806295 -0.004746436 -0.0252773 0.16185617 0.084987216 0.06364617
0.18169993 0.02615222 -0.003191257 0.0464566 0.09920152 0.0317269 0.024372624 -0.023588726
0.034483757 -0.0621137 0.042585578 0.035403155 0.122362725 -0.025611868 0.11782185 -0.10280333
-0.05133063 0.008675859 0.031788588 -0.028576586 -0.013881847 0.099890195 -0.060112692 -0.018692996
0.022100406 -0.0021912977 -0.05126428 -0.08721998 0.013427591 -0.00049360807 0.13005874 -0.05444555
0.12381937 0.028134903 -0.062988855 -0.050205972 0.04943411 0.019966178 -0.025720874 -0.018773474
-0.079062805 0.051957402 0.025709566 -0.08042176 0.022748983 -0.035802685 -0.007883962 -0.011829329
-0.02430598 0.12291498 -0.04923532 0.006108508 0.09542448 0.017807908 -0.05513377 0.07292474
0.13141912 0.0003927282 0.07247543 0.055675194 -0.062900245 0.051493194 0.0710631 0.07984744
-0.19824274 -0.0011303962 0.018848384 -0.078136146 -0.02717001 -0.05962192 -0.005674195 -0.06801571
-0.049572285 -0.034507796 0.021787677 -0.040986355 0.16706394 0.07928131 0.022032145 -0.0324232
0.012655571 0.09733382 -0.0038872007 -0.006367563 -0.021080626 0.08061477 0.004479695 0.2673703
0.086717725 0.009903752 0.06135094 0.12183738 -0.17150126 -0.058393274 0.005031966 -0.04731094
0.0542714 0.006895235 -0.041538924 0.19293143 0.087835744 0.032090772 0.052246068 -0.019884136
0.07219417 0.11099074 0.08405694 -0.020236619 0.024898108 -0.03834946 0.07531528 0.05408996
00000000: 10af ac3c 5a48 1cbc 00e2 1b3d 3433 2b3d
00000010: 7c40 cebd 112a e13d dcb6 1fbd 8e6a 643c
00000020: 36df 753c 85de 82bd 4e6e 6ebd b4ae b8bd
00000030: 03e3 b1bd c701 0fbc 1a28 903d c7e0 073e
00000040: 52bc e03d ef67 1ebb b785 0ebc f0ed 8ebc
00000050: 6db5 3f3c 8c7b e1bd 60a7 1dbc 3097 ba3d
00000060: b8f3 343d 622d e13d 5105 8b3d 0a3b fa3d
00000070: 4bf3 f2bb bec3 7dbd 449a 5f3e f75c 62bb
00000080: df68 da3c b8a3 b0bc 721b 073e 4832 2b3e
00000090: bf54 c83d 9640 9a3d 3284 29bc 8001 073c
000000a0: 4175 ea3d c0ed 18bd a0ea b0bd 2c3f d33d
000000b0: 580d 2cbd 2199 33be f200 663d b69b e23d
000000c0: 3cb5 4f3c 79b0 333e c1b4 203e 845f 6dbd
000000d0: 7c84 d1bd c439 dcbd e4d8 b13c f410 863d
000000e0: 293b 563d 66cb 44bd 6b8a 493d fb39 dbbc
000000f0: 29e3 273d 6965 8f3d c555 313e b38b f03c
00000100: bcef edbc 3d6d af3d 296a 7cbc acb9 9f3d
00000110: 3edc 66bd 9484 2c3c 4c3e d3bb 6908 4dbd
00000120: 41d0 463e 8a07 313d f5cc 153d 61c3 99bb
00000130: 070d 543d 14e4 423d 42db 81bb 1793 73bd
00000140: f485 ac3e 6fad 52bd b3c3 1e3e dadb 82bd
00000150: 428b 03be ee4e 46b9 a51d 9bbd f130 783e
00000160: c8be 343b 9d42 2b3c 4552 ec3c 34d4 7e3d
00000170: 06c1 e13d c55b de3d cd3d 4bbd 6fc7 3c3d
00000180: 1d5e 37bd e2ed c23c 6b26 ca3d fa37 d6bd
00000190: ff8e 773d 28e3 8bbd ba6d 113d 5bea e33d
000001a0: 9d8e a9be c584 febc d647 49bd 5847 e8ba
000001b0: 031b 89bd 989c 313d a969 113d ac56 b3bb
000001c0: 72e7 2fbd 815e c7bc eb0e 37be 26e4 cd3d
000001d0: 8e35 973d 6464 ae3c ebe2 f2bd a6d7 b9be
000001e0: de4c 9e3d f665 51bd 2445 ed3b 7741 23bd
000001f0: eb49 ab3d 92fe e1bc 84b0 e43d 0a00 92bc
00000200: 60dc bd3d dd9d 373c cfbc 1f3d 1de4 973d
00000210: b392 2abd 9db3 e23d 351c e03c c9ba ffbb
00000220: 4fe7 113c a922 dc3c 9d76 15bb fe87 9bbb
00000230: 5712 cfbc a0bd 253e c70d ae3d ec58 823d
00000240: 8c0f 3a3e 2e3d d63c 6824 51bb 4749 3e3d
00000250: 2b2a cb3d 11f4 013d 19a9 c73c 253d c1bc
00000260: d73e 0d3d ef6a 7ebd 376e 2e3d e602 113d
00000270: 4f99 fa3d fbcf d1bc 954c f13d 8d8a d2bd
00000280: 1140 52bd 3125 0e3c c034 023d 7219 eabc
00000290: b070 63bc 3b93 cc3d ba38 76bd 0e22 99bc
000002a0: e90b b53c e09b 0fbb 7efa 51bd 64a0 b2bd
000002b0: 66ff 5b3c 7a65 01ba 1e2e 053e 4c02 5fbd
000002c0: 0395 fd3d 2b7b e63c 4d00 81bd c7a4 4dbd
000002d0: 6c7b 4a3d 1c90 a33c 95b4 d2bc d4ca 99bc
000002e0: aeeb a1bd 49d1 543d de9c d23c 2ab4 a4bd
000002f0: 135c ba3c d6a5 12bd bc2b 01bc cdcf 41bc
00000300: 561d c7bc d9ba fb3d faaa 49bd e129 c83b
00000310: e96d c33d e4e1 913c f3d3 61bd 9159 953d
00000320: bc92 063e 16e7 cd39 006e 943d ac0b 643d
00000330: d8d1 80bd 87ea 523d 8889 913d 0e87 a33d
00000340: 2500 4bbe cd29 94ba ed67 9a3c d805 a0bd
00000350: a493 debc 1d36 74bd 99ee b9bb d24b 8bbd
00000360: 4f0c 4bbd 0c58 0dbd 127c b23c 4fe1 27bd
00000370: cf12 2b3e 3d5e a23d c27c b43c 30ce 04bd
00000380: 5059 4f3c f456 c73d 68c0 7ebb fda6 d0bb
00000390: 47b1 acbc 5b19 a53d 68ca 923b c3e4 883e
000003a0: 1099 b13d 5943 223c 204b 7b3d e085 f93d
000003b0: 079e 2fbe c92d 6fbd 31e3 a43b 1ec9 41bd
000003c0: b04b 5e3d 6cf1 e13b b824 2abd d18f 453e
000003d0: 3ae3 b33d 9d71 033d f9ff 553d 0ee4 a2bc
000003e0: 89da 933d 1d4f e33d 0c26 ac3d 44c7 a5bc
000003f0: 1ef7 cb3c 5314 1dbd e63e 9a3d 6f8d 5d3d

decoder.decoder_fc3.bias f4 [72]
0.072505794 0.07658119 0.062811814 0.10638036 0.12963627 0.013138668 -0.01131651 -0.016485874
0.029652685 0.08392898 0.08621198 0.06675319 -0.03537476 -0.0022513564 -0.00039097486 -0.05273446
-0.0030088313 0.07935295 0.08977632 0.12080124 0.10765689 0.12295977 0.07533413 0.11522643
0.011184214 0.010050285 0.03659945 0.052418105 0.0060651754 0.08018211 0.0008370442 0.016907578
-0.029861277 0.0032995536 -0.025085637 -0.035475258 0.04441408 0.028663838 0.00020470824 0.08514349
-0.008252496 -0.033484165 0.07382389 0.015252648 -0.0046942867 -0.012328782 0.065745495 0.025617518
0.15104382 0.033325832 0.025631413 0.015349459 -0.024295246 -0.067685656 -0.027686607 0.095729746
0.07651633 -0.00043405461 0.09454087 0.019231474 0.07011958 -0.018840993 -0.032619547 0.030097853
0.048314292 -0.018659998 0.0017417038 0.025355272 0.06316311 0.043031443 0.036137395 0.15927558
00000000: eb7d 943d 99d6 9c3d 7ba3 803d f2dd d93d
00000010: 5fbf 043e 9143 573c e268 39bc 620d 87bc
00000020: 30ea f23c f5e2 ab3d e88f b03d e5b5 883d
00000030: 20e5 10bd 7e8b 13bb c2fb ccb9 1700 58bd
00000040: d02f 45bb cd83 a23d a6dc b73d a466 f73d
00000050: 377b dc3d 55d2 fb3d c848 9a3d d6fb eb3d
00000060: fe3d 373c f3a9 243c 4ee9 153d 5eb4 563d
00000070: 61be c63b 8536 a43d 166d 5b3a c381 8a3c
00000080: a39f f4bc 533d 583b 6580 cdbc 814e 11bd
00000090: 8aeb 353d 6dd0 ea3c f3a6 5639 b65f ae3d
000000a0: 7a35 07bc b126 09bd fb30 973d 3ee6 793c
000000b0: 88d2 99bb a9fe 49bc 93a5 863d d4db d13c
000000c0: 3bab 1a3e ab80 083d f8f8 d13c 4c7c 7b3c
000000d0: d306 c7bc c79e 8abd 06cf e2bc f50d c43d
000000e0: 98b4 9c3d d391 e3b9 a59e c13d 538b 9d3c
000000f0: db9a 8f3d 6d58 9abc 139c 05bd c68f f63c
00000100: 35e5 453d dadc 98bc e249 e43a dcb5 cf3c
00000110: a95b 813d bd41 303d ce04 143d 2319 233e
