clustering/clustering/encoder_weights/ros2_bigbag_laserscan/lidar_encoder_autoencoder_ros2_bigbag_laserscan.pth (torch, 95740 bytes, 14 tensors)

encoder.conv2d_1.weight f4 [16, 1, 1, 3]
00000000: 1d3c 0a3f aee5 00bf 3bbe d13d c052 97be
00000010: ddf6 e93d 7ea1 e63e 817c 1ebe b905 af3d
00000020: 604a 9ebe fb89 0bbe bde5 2d3e 96aa 87be
00000030: 59b7 b63e 79bc dd3e f329 053e 9de5 153f
00000040: 425f e33e d571 d1be 4d37 0d3f 93b9 813d
00000050: 49bc 2cbe 4019 d9be f0e4 0b3f cd41 85bd
00000060: 828e c13e 2676 fabe 822f 043d 6684 d23b
00000070: 9730 163e de98 85be 27f0 3f3d 8d31 da3e
00000080: 523a e33e b1fb ad3e 6dd0 0dbf c71f 113f
00000090: 06ff 953e e8a9 e83e 8104 01bf fd59 d93d
000000a0: d4a7 a33e 714d 853c e054 863e 1ffc d6be
000000b0: 5025 b33d ad47 83be cc0a 89be cb96 f9be
0.53997976 -0.50350463 0.10241362 -0.2955532 0.114240386 0.45045084 -0.15477182 0.085460134
-0.3091612 -0.13626854 0.1698217 -0.26497334 0.35686758 0.43307856 0.13004284 0.5855349
0.44408613 -0.4090716 0.5516251 0.063342236 -0.168687 -0.42402077 0.54646206 -0.06506691
0.37804037 -0.48918265 0.03227187 0.0064244745 0.14666973 -0.2609319 0.046859886 0.4261593
0.44380432 0.33981088 -0.5539616 0.56689113 0.2929613 0.45442128 -0.503975 0.10612867
0.3196398 0.016272279 0.2623663 -0.41989228 0.08747351 -0.25640622 -0.2676605 -0.48747858

encoder.conv2d_1.bias f4 [16]
00000000: 29a9 26be 7a7c 403e 08da 093f 39ad 433e
00000010: 1488 203e ca0c cf3e 4ae0 fc3d d2df f539
00000020: 9204 08bf d405 d83d 7b0a b8be 4e0e 973e
00000030: 31d2 7dbe 4443 00bf c490 c2be 70f2 91be
-0.16275467 0.18797484 0.53848314 0.19109048 0.1567691 0.40439445 0.12347467 0.000468968
-0.53131974 0.105479866 -0.35945496 0.295031 -0.24787213 -0.5010264 -0.38001072 -0.28505278

encoder.conv2d_2.weight f4 [32, 16, 1, 3]
00000000: 2f35 6bbd 057d 40be 2e1c cfbc a47d 5a3e
00000010: 4d9f 3d3e d29b 4d3e 2aef 28bd 0726 9abd
00000020: f13c c23d 3ed5 b93d b352 f9be a16c 2f3e
00000030: c2b6 93bd 929e 3a3e 11a2 c53d 8d8f 3cbe
00000040: 4990 20bd b984 463e 43f4 74be 452f 65bd
00000050: 0fdb 3dbd 7af8 703f 71e5 9a3e b192 e93e
00000060: 2244 d33d 3ddc c93c 047b 123e 6373 66be
00000070: d1ca 27bf 2af1 7abd a5e2 07be 3ca5 193e
00000080: 363c b03c 5fc6 9e3d fb1e 54bb ed70 c3bd
00000090: 7c79 21bf 84f1 30bb f77a fa3d 64e0 fcbd
000000a0: 4cc9 043e 16c4 b63d d3e8 ef3c 30a0 593d
000000b0: 8dc8 b3bd 6960 db3c 2524 083d ce98 a23d
000000c0: 9e4e a6bd 3890 02be 6f89 82be 7762 c9bc
000000d0: 9dc2 073e b1be 6abd 6f33 28be 37ea 333d
000000e0: f1e7 943d 76d9 c2bd e736 22be 0288 1abd
000000f0: 67cf 043e f949 cdbd f6b0 233e 927d c1bd
00000100: 0a6c 61bb 363a ed3d 8089 203d bb40 96bc
00000110: b90b 223e 1d7a b23d 27b3 943d 58ee 1cbf
00000120: 8f80 573c 5080 073e 7752 f43d 3dda 7ebe
00000130: 9dff 13bf 416a 03bf 6ffb 68bd dcf1 64bd
00000140: 6453 ab3d 92b3 dd3d f65c 103e a10c 0d3e
00000150: 84a1 17be 4b72 bebe 6ceb 96be ec66 f1bd
00000160: 7fd4 a9bd e42a c5bd d166 27bd ad1b 0ebe
00000170: 4fe3 433d 32c8 cabc a8da cc3d 6e45 0bbe
00000180: 57e9 92be 3cc1 653e 50df a6be b5c8 953d
00000190: 12b7 713d ed00 28bd d986 bebd ae01 9f3d
000001a0: 16db 0cbd b64e 98be 11ca e4be 97e6 08be
000001b0: 8f3b 4c3c 3723 3abd 5bef 3bbd 567b d83c
000001c0: 4d85 bd3d 32e5 bebd 262d 0c3e 544d 2b3e
000001d0: bd51 09bb 4c09 6ebe ba85 023d 58b7 573e
000001e0: 2a1e 873d de80 5a3d 8bb0 8d3d d875 a3be
000001f0: dca4 0fbf 0ed1 7d3d 0a4b 90bd 7a9d 0d3e
00000200: db95 263e dbb9 31ba ecec b93c 1dbf 323e
00000210: 1d90 bebd 5c2e 53be b826 803d 28fd ec3c
00000220: 27f4 073d 0f1a fb3d 1ef9 233c cb01 24bd
00000230: ad94 54bc 9fcb 893d f224 28bd 794d 063e
00000240: ea4d 243c 57b2 72bd cf14 9fbd 853b 17bc
00000250: 4590 c53d c217 01be 9496 e3bc f545 04be
00000260: a69d 13bd d9a9 983d e10a 4cbd edfe 88bc
00000270: c6f1 d63c 6d02 3d3d 960e 96bd ae19 6ebd
00000280: b0d4 aebd 5946 dabd cd5d 2f3d da06 44bd
00000290: 3a0e 72bd c7dd e7bd daea 9e3d 8c32 273d
000002a0: ba1d f2bd 053e d5bc ad19 4dbb 1f46 033e
000002b0: bc7b 653d 71bd 61bd dcaf 08be 243f d9bc
000002c0: 9f61 b53d cc0f e7bd eb2d e23c f450 493c
000002d0: 1da4 013d b722 ce3d 148e debd f0bc f0bd
000002e0: e6d2 913d 008f ad3b 122d 333d 487e 063b
000002f0: 0734 9ebd f6f3 0ebd 9479 003e 1517 1f3c
00000300: 08d0 f63d cf57 dabe 706a 653c 3e4a a33d
00000310: 4224 9abc 048b 89be 84ab 123e 933e 87bb
00000320: 943a c23e 0ed8 353d 7a4f e03e fda3 d03e
00000330: ccde cabd 471a f4bc f21b febd 6d4b 483d
00000340: ac8f 0b3d eb9f c33d 61b3 94bb 94fc 9d3e
00000350: d131 fd3c 9b99 073e 437d 86be 3eee 413e
00000360: 8ab7 a9bd c535 b4bd 3b60 8c3d 1b11 983d
00000370: ce57 173f a28f 613f 10e8 3d3c 8de6 80bd
00000380: bc07 57be af3d 04bc 2016 613a 7b9e 52be
00000390: f35f 07be d092 8e3b fd7b f33e 05e2 aa3d
000003a0: cffd b2bd 8edb 893d a3f6 48bd 0e2e e6bd
000003b0: fc01 b2bd 107a d33d 804e 933c e0e7 453d
000003c0: a996 42be 73a7 68be 1892 823e 46be 8339
000003d0: f25f 3dbd 1073 2abd d830 26bc 1eb7 64bc
000003e0: b4b9 3abd 64bd 27bd 8a53 923e 69da 863d
000003f0: 13c1 8c3d dd76 713d 6a4a 053e 2af5 be3b
-0.057423767 -0.18797691 -0.025281992 0.2133699 0.185178 0.20078972 -0.04124371 -0.075267844
0.0948428 0.09073876 -0.48695907 0.17131282 -0.07212593 0.18224552 0.09650052 -0.18414135
-0.0392001 0.19386567 -0.23921303 -0.055953283 -0.04635149 0.94129145 0.30253175 0.4561973
0.1031573 0.02464115 0.14304739 -0.22504954 -0.6554385 -0.06126515 -0.13270052 0.15004438
0.021513086 0.0775268 -0.0032367099 -0.09543023 -0.63075995 -0.0026999423 0.12230485 -0.123474866
0.12967414 0.08924119 0.029285824 0.053131282 -0.087784864 0.02677937 0.033237595 0.079393014
-0.08120464 -0.12750328 -0.2549548 -0.024583085 0.13257833 -0.057310764 -0.1642587 0.043924537
0.07270802 -0.09514134 -0.15841256 -0.037727363 0.12969743 -0.10023875 0.15985474 -0.09447779
-0.0034396672 0.115833685 0.03919363 -0.018341413 0.15824784 0.087146975 0.07260733 -0.61301184
0.013153209 0.13232541 0.119297914 -0.24887939 -0.5781191 -0.51334006 -0.05688041 -0.055894718
0.08365515 0.10825266 0.14097962 0.13774349 -0.14807707 -0.37196574 -0.29476488 -0.11787209
-0.082924835 -0.09627321 -0.040869538 -0.13877745 0.0478242 -0.024753664 0.10002643 -0.13600704
-0.2869365 0.22436994 -0.3259225 0.073136725 0.05901248 -0.041016508 -0.09303064 0.07763992
-0.034388624 -0.29747552 -0.44685414 -0.13369213 0.012465372 -0.04544374 -0.045882564 0.026425999
0.09253941 -0.09321059 0.13689098 0.16728717 -0.002095326 -0.23245734 0.031865813 0.21066034
0.0659755 0.053345554 0.069184385 -0.31925845 -0.5611093 0.06196695 -0.070455626 0.13829604
0.16268103 -0.0006779709 0.022695981 0.17455716 -0.09304831 -0.20623153 0.06257385 0.028929308
0.033191826 0.1226083 0.010008125 -0.040040772 -0.0129749 0.06728291 -0.04105086 0.13115491
0.010028342 -0.05925211 -0.07767641 -0.009230499 0.09646658 -0.12606719 -0.027781762 -0.12917311
-0.036039017 0.07454271 -0.049815062 -0.01672312 0.026238333 0.04614489 -0.07327001 -0.05812996
-0.08536661 -0.10657949 0.042814065 -0.047858097 -0.0590956 -0.113215975 0.07759638 0.04081969
-0.11822076 -0.02603055 -0.0031295822 0.12819718 0.056026205 -0.055112306 -0.13348335 -0.026519366
0.0885651 -0.1128231 0.027609786 0.012287367 0.03165065 0.10065215 -0.10866943 -0.11754787
0.07120304 0.005296588 0.043744154 0.0020522047 -0.07724767 -0.034900628 0.12546378 0.009710093
0.120513976 -0.42645118 0.014002427 0.07973145 -0.018816117 -0.26863873 0.1432324 -0.0041273325
0.37935317 0.0443955 0.43810636 0.40750113 -0.099057764 -0.029797686 -0.12407674 0.048900057
0.034072563 0.09551986 -0.004537985 0.30856764 0.030907543 0.1324219 -0.26267442 0.18938538
-0.082869604 -0.08799318 0.06854292 0.074251376 0.59118354 0.8810979 0.011590973 -0.06293974
-0.20999044 -0.008071347 0.0008586366 -0.20568268 -0.13220195 0.0043509975 0.47555533 0.08343891
-0.087398164 0.0673133 -0.049063336 -0.11239253 -0.08691785 0.10326016 0.017981768 0.048316836
-0.19002785 -0.22720127 0.25502086 0.00025128032 -0.04623408 -0.04161364 -0.010143481 -0.013959674
-0.045587257 -0.0409521 0.2857936 0.06584627 0.068727635 0.058951247 0.13016668 0.0058275657

encoder.conv2d_2.bias f4 [32]
00000000: 9a8e ea3d 9def fd3c 222c 4e3d 089e d73d
00000010: edee 2f3e 832f 94bd 2170 b8bd b3ae cfbd
00000020: 6203 c0bc a6c5 ba3d bf63 04be b0e9 163e
00000030: 898f 62bd fc83 5abc 7a4f ab3d 4c0b 00be
00000040: 78d6 713d 3a2a d23d 8de3 273e a8e8 0b3e
00000050: 539b 123e cbc9 013e d967 db3d 2df9 013e
00000060: f300 893c 1a7c 1d3e 94bd 06be 38f9 54bd
00000070: c260 cbbd e3b1 e6bd 1568 a6bd 8cbc 873d
0.1145298 0.030998046 0.050335057 0.10528189 0.17180987 -0.07235625 -0.09005762 -0.10140743
-0.023439113 0.0911973 -0.12928675 0.14737582 -0.055312667 -0.013337132 0.08364768 -0.1250431
0.059042424 0.1026196 0.16395397 0.1366297 0.14317064 0.12674634 0.10713167 0.1269271
0.016724085 0.15379372 -0.13158256 -0.051995486 -0.099305645 -0.11264398 -0.08125321 0.06627759

encoder.conv2d_3.weight f4 [64, 32, 1, 3]
00000000: 46c2 1abe 015c 263e c53e 94bd 705e 03be
00000010: 9156 b23d 59fd ec3d a160 f6bd 2086 ac3d
00000020: ef39 fc3d 39ca 003d 9685 293d 3448 b93c
00000030: 0940 b8bc 9ce5 34be 5a63 40be c77a 5e3c
00000040: f72e 8f3d 365a 1e3c b884 e93b 5198 483d
00000050: 460f b1bc 68e8 c33d 6c01 e73b 4050 913d
00000060: 980d 19be a07e 293d 3fa6 a63c 6779 e0bd
00000070: 719a 73bc 62bc 41be f37c ffbc b3bf 7f3c
00000080: 1c2b fcbc 6440 16be 5539 cd3d 746e f33d
00000090: 0a45 3bbe 2657 3dbc ee76 d83c 55ba 52be
000000a0: 265c 1f3d 4c2d f83d af03 37be 0fd5 9d3d
000000b0: 045f 16bd ef66 55bd 6640 77bd 9942 863d
000000c0: 5027 933c 634c 5dbe c9f6 f53c 32a5 a5bd
000000d0: 484b 8b3c 852b 913d 6d06 1cbe a3a7 a33d
000000e0: 4702 ec3c cc56 3fbe ff77 033e 1919 d83c
000000f0: 69ec dbbd 1fc8 1f3d 8be5 693d 0f97 15be
00000100: 05d8 74bd 8896 e43d cf1f c5bd 73d6 b53d
00000110: ca7e 083d 6e88 95bd 7eaa 683d dd08 403c
00000120: 19b1 06be 3a22 fc3d 050b 1cbb f44f 3dbe
00000130: a5f7 54bd 0c86 74bd 32e1 cabc 4d7a 90bc
00000140: 44e4 83bd 1ea9 4d3d 37ba 413d 4056 18bc
00000150: 9332 753d 3acb cbbc 7aee 14bd 2dba 2ebe
00000160: ea3f f0bd ac1a bc3d 1fe2 ad3c 1447 973d
00000170: ffe6 c0bd 2ee6 19bd 9bfc 69bc 7d06 73bd
00000180: c442 90be 4efb 8bbe 4658 ce3d 7312 2abd
00000190: 1b14 30bd be68 babd 87fe d03d b1c3 84bd
000001a0: 6432 d1bc 5dee a8bd a42d a93d dd9a ba3d
000001b0: 911c 9b3d 2b1a 8d3d 5cec 363e 292b 85ba
000001c0: 5b90 95bc 9d5d 1c3d 701f 033d b700 c9bc
000001d0: b72d 55bd 896a 3e3c 9ac7 1abc 3b54 22bc
000001e0: 11a5 9c3d 7cfb 9e3d 1af2 1dbe 9153 1ebf
000001f0: e49a c9bd 8548 15be 31a7 983c 3133 7dbd
00000200: 1c6f bfbd 7ce7 983c 0b7c b33d 7f0a 413c
00000210: 38cd 0e3e 4833 5a3d 6871 c8bd 2cd3 823d
00000220: 8922 ecbd b561 ebbd 1762 4b3d a938 9d3d
00000230: db63 e53d 26f5 a6bd bf25 253d 5b30 9f3d
00000240: 0d3c 2b3e a7b0 073d 283d d1bc ca36 a33c
00000250: 9c46 fe3c c1bb c4bc d6c9 f1bc 8cb6 293c
00000260: dccd dc3d dcef aa3d 13ea 593d 60cd a9bd
00000270: 6eac 01bd 55cc 56bc 23dc 3bbc 0990 8cbd
00000280: 7418 9abc affb b9bd 6a79 9a3c ebbb 33bc
00000290: 357f 04be 15c7 84be 6e51 a2bd ff72 ca3d
000002a0: 8d28 ca3c cd29 a73d 68be 5fbd c959 ab3c
000002b0: c01a 4abd fe25 673d 3777 c7bd 2388 0a3d
000002c0: 2635 ae3d 41f8 d7bc d1dc 82bc 4f3d 98bd
000002d0: 93f5 863d 0273 41bd 8d24 57bd 65fe 0d3e
000002e0: 4aeb 103d 7678 7cbd 99bb 393d d78a 53bd
000002f0: 7922 163d ba89 0bbc c1f0 6f3d 0442 25bd
00000300: 0357 02be 880c ccbd 10e5 7b3d cda5 573d
00000310: b2c6 71bd 3369 dcbd 6b93 37ba d9f8 cdbc
00000320: 59c9 dc3b dce2 5abd 3770 653d 18e4 653d
00000330: efe0 c4bd 05d4 08bc 3a8d a0bc 1200 c6bc
00000340: 83f8 08be 409b 083d 3168 9bbd c1f4 be3d
00000350: cce7 3f3d 8ac9 9ebc 6630 b3bd 666f d23c
00000360: c7ce 25bd b335 b9bd 4635 98bc 1ecd aabd
00000370: 5843 c2bd 13df 84bc 135c 843d 91d8 1fbc
00000380: b26d 87bc 9890 e9bb d499 bdba e065 7bbc
00000390: b4be b53c be24 28bd e752 5abd e28f 28bd
000003a0: 8e77 923c 9a22 05be db68 b0bb 3ed1 8ebd
000003b0: 74e6 b7bc 7242 7e3d bc01 17bd e4fe 85bd
000003c0: 7b15 1bbe 5542 92bc 2612 c4bd 3fcf 03be
000003d0: c23b 54bc 0151 5cbd ba2e 00bd dd56 34bd
000003e0: da04 193c 7de5 a43c 8e73 833c 1cd0 803d
000003f0: ae92 3fbd 5cab 15bd 983c 43bd 1701 04be
-0.15113172 0.16246034 -0.07238535 -0.12828994 0.087079175 0.1157176 -0.12030149 0.0842402
0.123157375 0.031442855 0.041387163 0.022617437 -0.022491472 -0.17665714 -0.187879 0.013579077
0.0699138 0.009665063 0.007126417 0.048973385 -0.021613728 0.09565812 0.00704973 0.070953846
-0.14946592 0.041380525 0.020342944 -0.10960656 -0.014868365 -0.18919519 -0.03118751 0.0156096695
-0.030782275 -0.14673 0.10020701 0.11886302 -0.18288055 -0.011556422 0.026423898 -0.20578893
0.03890624 0.12118015 -0.17872499 0.07706653 -0.036711708 -0.05210012 -0.06036415 0.06555671
0.017963082 -0.2161117 0.030024903 -0.08088149 0.01700367 0.07088379 -0.15236826 0.079909585
0.02880968 -0.18685454 0.12838744 0.026379155 -0.10738451 0.03900921 0.057103675 -0.14608406
-0.059776325 0.11161524 -0.09625208 0.088787936 0.03332404 -0.073014125 0.05680322 0.011720863
-0.13153495 0.12311216 -0.002381028 -0.18487531 -0.051993985 -0.05969815 -0.024765585 -0.017636443
-0.064400226 0.05021011 0.04729673 -0.009297907 0.059862684 -0.02487718 -0.03636024 -0.17063208
-0.11730941 0.09184775 0.021225987 0.07386604 -0.09419059 -0.037573032 -0.014281417 -0.05933236
-0.28175938 -0.27340168 0.100754306 -0.0415215 -0.042987924 -0.09102009 0.10204797 -0.06482638
-0.025536723 -0.08248589 0.082606584 0.09111569 0.07573808 0.06889757 0.17863601 -0.0010159957
-0.01825731 0.038175214 0.032012403 -0.024536474 -0.05204555 0.01162208 -0.009447003 -0.009907777
0.076486714 0.077628106 -0.15424386 -0.6184626 -0.09843996 -0.14578445 0.01863441 -0.061816398
-0.09347364 0.018665068 0.08763894 0.011782288 0.13945472 0.05327156 -0.097872555 0.06387934
-0.115300246 -0.114932455 0.049654093 0.07676823 0.112006865 -0.08152227 0.0403192 0.07772895
0.16722126 0.033127453 -0.025541857 0.019923586 0.031039529 -0.02401531 -0.029515188 0.010358464
0.10781452 0.08346531 0.053201746 -0.08291125 -0.031658582 -0.01311024 -0.011466059 -0.0686341
-0.018810488 -0.09081208 0.018856723 -0.010970096 -0.1293915 -0.25933138 -0.07925688 0.09885215
0.02467754 0.0816227 -0.054624945 0.020916836 -0.049341917 0.056432717 -0.09739535 0.033821236
0.08506231 -0.026363494 -0.015974434 -0.07433569 0.06589808 -0.04722882 -0.052525092 0.13866575
0.03538064 -0.061638318 0.045344923 -0.05164608 0.03665397 -0.008516723 0.05857921 -0.04034616
-0.12728505 -0.09963328 0.061497748 0.052648354 -0.05902738 -0.10762253 -0.0007002863 -0.025143074
0.0067378697 -0.053439006 0.05601522 0.05612573 -0.09613215 -0.008351331 -0.019598592 -0.024169955
-0.1337605 0.033351183 -0.07588232 0.09324027 0.046851918 -0.01938321 -0.08749466 0.025687885
-0.0404804 -0.090434454 -0.01858009 -0.08339904 -0.09485501 -0.016219651 0.06462874 -0.009756223
-0.016531799 -0.0071278326 -0.00144654 -0.015344113 0.02218566 -0.041050665 -0.053301718 -0.041152842
0.017879274 -0.1300148 -0.0053835935 -0.069735035 -0.022448756 0.062075086 -0.03686689 -0.06542757
-0.15144913 -0.017853895 -0.09573774 -0.12872027 -0.0129537005 -0.05378819 -0.031294562 -0.04402815
0.009339536 0.02012896 0.016046312 0.06289694 -0.046770744 -0.036540374 -0.04766521 -0.1289104

encoder.conv2d_3.bias f4 [64]
00000000: bf97 8f3d 9b05 19bd e1ec d7bd 0679 d53c
00000010: 6b29 c73c 1550 8dbd f98f c63d 4816 a1bd
00000020: 324c 613d cf64 c1bc ae1f 2f3c 8809 793d
00000030: 4b0c 353d 8ddc dabd 7aee 9abc c704 e2bb
00000040: 888c aabd 640a 8bbc aab9 cdbd 83cc 923d
00000050: 931f 0ebd 92bb 2bbc cb0d 2bbb a2f7 83bd
00000060: 36d8 2cbd afb9 833a e83f 943d 5342 b6bd
00000070: 0fe8 34bd 12a3 87bc 0249 78bd ce6b 263d
00000080: 60d3 a5bd 4b0f c5bd 73dc 30bd e4ff 433d
00000090: 5ab3 c13d a1bb 803d 1875 4d3d d904 8a3c
000000a0: fd2a 043e 0d43 86bd accb 123b 19d0 66bd
000000b0: 21e1 0dbd e56f 963d 1dea c5bd c6b6 903d
000000c0: 3f71 afbd 84d7 54bd 7c16 d7bd 3a98 d83c
000000d0: 59a2 0cbd 7b41 e13a f6d4 4c3d dd51 e9bc
000000e0: 08e9 143c 14c5 99bd 202e cd3d 755e b4bd
000000f0: a77f 653d baf6 ebbd 2bc2 d6bd e762 a53d
0.07011365 -0.03735886 -0.10543228 0.026058685 0.024311742 -0.0690004 0.09695429 -0.07865578
0.055004306 -0.02360764 0.010688705 0.060800105 0.044201177 -0.10686598 -0.018912543 -0.006897542
-0.083275855 -0.016972728 -0.10045178 0.07167914 -0.03469808 -0.010481732 -0.002610075 -0.064437166
-0.042198382 0.0010049845 0.07238752 -0.08899369 -0.04416662 -0.01655725 -0.0606165 0.040630154
-0.08096957 -0.096220575 -0.043178987 0.04785146 0.09458037 0.062857874 0.050160497 0.016848015
0.12907024 -0.06555758 0.002239923 -0.0563508 -0.034638528 0.07345561 -0.09663794 0.07066111
-0.08566522 -0.051963344 -0.105023354 0.026439775 -0.034334514 0.0017185652 0.050007783 -0.028481418
0.009088762 -0.07508293 0.10018563 -0.08807079 0.056029942 -0.11521669 -0.10486253 0.08075505

encoder.fc.weight f4 [16, 64]
00000000: ef6f 193e 92f9 133e ce33 69bd f87d f73d
00000010: 5b9b 353e e6e0 84be b8d3 acbd 2be6 6b3d
00000020: e395 71bc 5037 8e3d 7f04 243e c228 25bd
00000030: b3d3 d33b a942 e3bc ac06 9ebd b03f 56bd
00000040: 6a81 f93d 9b53 a4be 6024 3a3d 5f22 34bd
00000050: e017 483c 5c55 523d e400 493b 9fc8 9e3d
00000060: c912 ffbd 8562 ccbc 882a 483d 259a 053e
00000070: 4e25 893d cf64 f33c 62c1 b03b 81c0 f0bd
00000080: 1c87 d0bd ee72 ab3d ad81 b9bd b734 8b3c
00000090: 0273 c1bd bd90 4d3c 1844 bdbd 58c0 93bc
000000a0: c3b4 193e bdc6 a7bd d67c 63be 70ce 83bd
000000b0: a7fe 7c3c 47bc a3bd dc6a 8abd 8b14 ea3d
000000c0: ea75 ef3d e4f6 de3d cef8 733d 80e4 7d3d
000000d0: 4869 3bbd ccae f13d 370f 30be d07d 413d
000000e0: 7ebe 8e3d 8559 473e ce60 953c 4d31 da3d
000000f0: 0435 0b3e f310 b13d d60e f33d 4998 cd3c
00000100: 21bd 6e3d 14e9 a23d 179c f3bd b4d4 cb3d
00000110: 5933 153e 0b42 643d e307 8dbd a4d4 c7bc
00000120: fd1a fc3d 2082 6d3d 66b1 0d3e 0677 0c3e
00000130: a153 5abd 6253 64bc 8515 1f39 14b8 933d
00000140: 00ae 2c3d 3719 f63d 4cb6 63bd 7f78 473d
00000150: be1e ccbd b57b 083d ce0a fd3c b056 d63d
00000160: bf5b 92bc 5a82 37bd 7c23 2b3c fc3a d9bd
00000170: b193 053d 43c3 92bd 322e 9f3d 74ed f9bc
00000180: c526 b03d 007a 0bbc cf9f de3d fe2b f33d
00000190: 636f 863d 6e44 38bd 29e5 9d3d 4fcb b33d
000001a0: c18e 9d3d 2d7c 383d 8066 b43b 4ac5 c23d
000001b0: 2e6f 8a3d 964d 9abc 40da 593c ed42 143e
000001c0: b7df d5bd 6e11 adbc 36c6 063d b066 9cbd
000001d0: ca5d b53d 4284 db3d 018f 2ebd b4cd 4fbd
000001e0: 8a5f 783d 2056 a5be 521c f33d 1cd6 8d3d
000001f0: 8c74 0d3e 4b41 c9bd c04d 6dbd 6df7 4bbd
00000200: b2e9 adbd 2a42 263e 483f eebd c9f9 63be
00000210: d6b3 7c3d 3c05 053e 5f23 69be c534 ae3d
00000220: 14cd 933c 8e2e 9cbd 016e 74bd 2497 3cbe
00000230: 5c14 e33a c5ef bf3a 2081 efbd fddb ef3d
00000240: 200b a1bd 5069 d63e 186c 8c3d 829f a63d
00000250: 42c4 cc3d 3664 033e f4eb 203e ea1b da3b
00000260: 3aef febd cab3 073d 8349 3f3d 0274 a43d
00000270: f66e 393d 1405 a53d 0140 3e3c 0b8e a4bc
00000280: ef1e f4bd 98d7 353d f996 a7bc acc4 5c3b
00000290: 5f8f 8e3d 30ab 13be 753c ecbd a580 24bb
000002a0: 8eaa 2abe 72d6 7d3e 0663 c8bd 7409 b63d
000002b0: f307 4dbd be1c 47bb e034 e2bb d6f7 4fbc
000002c0: 4d79 be3d 1a89 a8bd ec25 5dbd c074 cabd
000002d0: 8006 6e3d d88d ec3d 57f0 993e 1082 de3c
000002e0: d1df 42bd e42e bb3e 9232 033e a2f4 6f3c
000002f0: fdca 663d 4b46 f2bc 3f5d 613d d715 5bbc
00000300: e231 2d3d af3f 813d f091 babd de9d 33be
00000310: e385 94bd 561c 593e 91bc dabe dbdb 66bc
00000320: 0e3d 113e a0fd 0e3c 6609 a73d a244 42bd
00000330: 906a a93c 761e 55bd 491c a53d 2e7f bd3d
00000340: 3c93 5bbd c50e 3cbd e0c1 a93c 571b fc3c
00000350: 0af4 85bd ab97 ec3d 52be 12bd 0e64 ee3d
00000360: 2417 2f3d c6d8 093e 5230 4fbe 0edd 613c
00000370: 3b0e 093e d22a b3bd fa0e 69bd d0de f13d
00000380: 3571 d63c 6467 97bd ce0d f43d de7a 1c3e
00000390: 2ba2 55bb 865d 453d bfcf 513c 82bd ef3d
000003a0: 96a9 9b3c 5ad7 bcbd b162 87be 34bf d0bd
000003b0: 5c55 03be 549a 39bd e49a b4bd 0f04 0e3d
000003c0: 75ec dbbc 89af 573d 0a32 c4bb be76 b83c
000003d0: c03c 6cbc 8c13 fabd 289e 8a3e 3eb8 8a3d
000003e0: 31fa 11bd 6133 13be cddb 11bc dbf8 c9bc
000003f0: 49e2 5f3c 1796 9e3d ad62 c6bd a9b6 183e
0.14984106 0.14450672 -0.05693417 0.120845735 0.17735045 -0.25952834 -0.0843882 0.057592552
-0.014745208 0.06944144 0.1601734 -0.040322073 0.0064644455 -0.027741747 -0.07716116 -0.05230683
0.12182887 -0.32095036 0.045444846 -0.04397809 0.0122127235 0.051350936 0.0030670697 0.07753109
-0.12454755 -0.024949322 0.048868686 0.13047083 0.066965684 0.029711155 0.005394147 -0.11755467
-0.1018202 0.083715305 -0.09057937 0.01699291 -0.09445764 0.012546715 -0.092415035 -0.018036053
0.15010361 -0.08192203 -0.2221559 -0.06435859 0.015441573 -0.079948954 -0.06758663 0.114296995
0.11692412 0.108869344 0.05956345 0.061985493 -0.0457547 0.11800918 -0.17193304 0.047239125
0.06969927 0.19467743 0.018234637 0.10653935 0.13594443 0.08645811 0.11868064 0.02509703
0.058285836 0.079546124 -0.11895006 0.09952679 0.14570369 0.055727046 -0.0688627 -0.024393387
0.12309835 0.057985425 0.13837203 0.13717279 -0.05330241 -0.013935896 0.00015171438 0.072128445
0.042158127 0.12016528 -0.055593774 0.0486989 -0.09966801 0.0333211 0.030888941 0.10465753
-0.017866014 -0.044802047 0.010445472 -0.106069535 0.032611553 -0.071661495 0.07772483 -0.030508734
0.08601145 -0.008512974 0.10870325 0.11873625 0.06564214 -0.044987135 0.077097245 0.087790124
0.07693244 0.0450403 0.005505383 0.09510286 0.06759487 -0.018835824 0.013296664 0.14478655
-0.10443061 -0.021126475 0.032903872 -0.076367736 0.088557795 0.107185856 -0.042616848 -0.050733283
0.06063799 -0.3229227 0.11870636 0.06925604 0.1381399 -0.09826907 -0.057935476 -0.04979651
-0.084918395 0.16236177 -0.11633164 -0.22263254 0.061694942 0.12990278 -0.22767399 0.08506159
0.018042125 -0.07626067 -0.05967522 -0.1841703 0.0017324793 0.00146436 -0.116945505 0.11711881
-0.0786345 0.41877222 0.06856555 0.081358925 0.09998371 0.12831196 0.15715009 0.0066561596
-0.124479726 0.033130445 0.046700966 0.08029939 0.045271836 0.08057609 0.011611939 -0.020087263
-0.119199626 0.04439506 -0.020457732 0.0033686562 0.069609396 -0.14420772 -0.11534969 -0.0025101092
-0.16666624 0.24788836 -0.09784512 0.08888522 -0.05005641 -0.0030382122 -0.006903276 -0.012693366
0.0930048 -0.08229275 -0.053991243 -0.098855495 0.058111668 0.11550492 0.30066177 0.027161628
-0.04757673 0.36559212 0.1281226 0.014645727 0.05634593 -0.029574534 0.055020567 -0.013371906
0.0422839 0.06310975 -0.091098666 -0.1754069 -0.07252099 0.21202216 -0.4272199 -0.014090504
0.14183447 0.008727461 0.081560895 -0.047428735 0.020680696 -0.052031003 0.080620356 0.09252773
-0.05360721 -0.045912523 0.02072233 0.030774755 -0.065406874 0.11552366 -0.035826035 0.11640178
0.042746678 0.13461599 -0.20233276 0.013785614 0.13384335 -0.08748402 -0.05689905 0.11810076
0.026177028 -0.07392767 0.119166955 0.15281245 -0.003259788 0.048184894 0.012805878 0.117060676
0.019001763 -0.092207626 -0.26442483 -0.10192719 -0.12825531 -0.045313194 -0.088186055 0.03467184
-0.02684615 0.052657638 -0.0059874104 0.022517558 -0.014418781 -0.122107595 0.2707379 0.06773423
-0.03563899 -0.14375068 -0.008902502 -0.024654796 0.01366479 0.07743471 -0.0968679 0.1491343

encoder.fc.bias f4 [16]
00000000: 0611 493d 9758 e53d 0cb3 82bc cefc a93d
00000010: 8240 25bd bb15 09bc 570a ec3d 824c 193e
00000020: 885f 683d cd03 e13d 1c73 023e c13b 853d
00000030: c354 123d 06d6 68bd 8755 a8bd d356 a2bd
0.0490885 0.11198538 -0.015954517 0.08300172 -0.040344723 -0.008366997 0.1152541 0.14970592
0.05673173 0.10987053 0.12739223 0.06505538 0.035725366 -0.056844734 -0.08219438 -0.07926717

decoder.decoder_fc1.weight f4 [64, 16]
00000000: 1263 dcbd 6050 3cbe b67b 043e b562 a8bd
00000010: 1ac1 94be afa7 e83d 31a8 763e b08d c6bd
00000020: 082f 80be f2d8 403e 7341 eebd 26a4 8f3e
00000030: 777e 473e 1428 56be 2ab9 763d 17bb 67be
00000040: 4ac8 d9bd 95a0 8f3e 3c72 42bd abd7 28be
00000050: c7df 953d 397c 823d 64f1 49be db00 a5bc
00000060: a711 6a3d a78d 823e c825 3dbd 91a5 2bbd
00000070: 5dfb 66be cd3c 733c 2b02 31be c09d d63d
00000080: 697e c7bd b2c9 e6bd df48 6cbe 08fb 20bd
00000090: dee3 343e 1256 05be accf f33d c8f9 383e
000000a0: f506 123e ac82 1f3e 23c7 de3d 009e 6c3e
000000b0: 5606 f53d 64da 71bd 7c1d ce3d 5340 933d
000000c0: 009b b0bc d662 d83d 98e3 9fbd b53b 0e3e
000000d0: 08f3 7b3d 3128 313e 7c2e 213d 18ec 143e
000000e0: fd1f ffbc 6f6d 003c 9372 363e 0eb2 3abe
000000f0: 4545 36be 6d2a ea3c 2453 14be 1489 7e3e
00000100: b838 85bd dd25 d9bd 914b 683d ed72 623e
00000110: f6a6 58be b845 fc3d 3257 ebbc c534 273d
00000120: 646a 0ebd 7df3 3fbb cd91 1cbd c3a6 8e3c
00000130: 483e 4e3e 19f6 0dbe a94b 15be 5583 823e
00000140: a0f7 503d 3ae6 733e c9b3 7d3e 9512 3abe
00000150: 6c0b abbe 373a 143e cf48 3bbd 1678 87be
00000160: 0b21 103e a549 ca3d 893f 37be cd6a 0b3e
00000170: ff6a f4bd b4ab f83c e2c2 ae3d 216a 193e
00000180: 61cc b63d cd86 873e dd09 323e fdfc 4d3e
00000190: 0a3b 2c3e 55f0 603e e13a ce3d dcc0 753e
000001a0: a619 4ebe 5320 443e 940d 11be ed97 3a3e
000001b0: 6d14 a13d dae9 bbbd b434 37bd b420 773d
000001c0: 8213 913d 250b 1e3e 15cd 93bd 1ccb 20be
000001d0: c5e2 9d3d 29ea 55be d145 fcbd 25ec 583e
000001e0: 657a 353e 43cf d2bd 793b 57be c76c ed3d
000001f0: cefa 77be a63a 30be 041a dd3d 0f41 163e
00000200: 324e 1dbe dbc8 1d3a 1aa7 943e 2fd9 3a3e
00000210: 0c09 d0be 53ea 03be 48e3 0fbc c413 2a3e
00000220: 22cc 573e 1c54 8abd 4556 873d 8dfa 233e
00000230: 9888 eb3d 3c96 c9be dc41 15be 4cc0 b23d
00000240: ebce 203d f8af 523e f7cb 38be 85be 31be
00000250: b4d3 8cbe 4a20 273e 6376 fb3d 278e 853d
00000260: c50b 713e 42ac 49bb b803 59be a871 383e
00000270: 09d8 c5bd 0b94 693e 53be d2bd 042d 603e
00000280: b35b 6fbe 73b8 983d 518a e23d def9 443e
00000290: 6549 8bbd 89dc 23be de5a a03d 699f e7bc
000002a0: 068f 1fbe 792d 723e 40bd 6fbe 0526 65bd
000002b0: d7d8 023e 7995 493e d4da 713d 45f1 02be
000002c0: 50d6 f1bc 7075 dd3c 50f9 27be b0ca 013d
000002d0: e0f7 9ebc c0ff 3a3d 3a44 3dbe e6f9 1bbe
000002e0: bcbd 38be 78ca 583e f4f7 bd3d 0c67 88bd
000002f0: 14d4 4bbe 9054 cfbd d862 66be 4872 393d
00000300: 11e9 a9be d46b a7bd 4f7a 713e 7832 08be
00000310: 5989 22bd 30b4 98bd 1c06 a53e a3c0 63be
00000320: d81a 853d c38b aebe 18c7 d33e 5a7c f83d
00000330: a407 b73e d98b 9abe ef48 5abe 5484 663e
00000340: 9eca 4dbe 32fe 403e c950 b4bd 580c 10be
00000350: c669 81bd 6294 803e f757 723e 5a1b a23d
00000360: 58c2 0ebe f917 4bbd 20f9 a4bd 5543 cf3d
00000370: 9775 c7bc b46b 4b3e d4fd 7d3e eccf f93d
00000380: 76a5 34be e403 443b 0e74 39be 3640 0c3b
00000390: 6eb6 abbe 68c4 1c3e 3f9e 573e 0af7 343e
000003a0: 9287 5ebe 6180 8dbe 4569 babb 2b97 23bc
000003b0: 3c88 023e 32ab 523e d8e0 4b3e cb49 f0bd
000003c0: e478 e73d 72ab 9dbd 7f78 36bd 823d 913e
000003d0: 5e43 413e 1a10 a63d b4fe 63be 59b2 883e
000003e0: a631 373d 1182 5fbd 032a e93d 7150 153e
000003f0: e4dc 0ebe ea31 69be b830 833c 6276 663e
-0.10761084 -0.18390036 0.12937817 -0.08221952 -0.29053575 0.11360108 0.24087597 -0.096949935
-0.25035882 0.18832758 -0.11633577 0.28054923 0.19481836 -0.20913726 0.06023518 -0.22629963
-0.10633905 0.28052202 -0.047472224 -0.16488521 0.07318073 0.0637135 -0.1972099 -0.02014201
0.05714574 0.25498697 -0.04617861 -0.041905943 -0.22556825 0.014846039 -0.17285983 0.10479307
-0.09740908 -0.11268939 -0.23074673 -0.039301902 0.1766505 -0.13021114 0.11904845 0.18064034
0.14260466 0.15577191 0.10877826 0.23107147 0.11964099 -0.059046164 0.100642174 0.07190003
-0.021558285 0.105657265 -0.07807082 0.13889964 0.06151107 0.17300488 0.03935097 0.14543188
-0.031143183 0.007838591 0.17817144 -0.18231985 -0.17799862 0.028584683 -0.1448484 0.24856979
-0.06504959 -0.10602925 0.05671269 0.22114153 -0.2115744 0.12317985 -0.028728101 0.04082181
-0.03476943 -0.0029289417 -0.038224984 0.017413503 0.20140946 -0.1386341 -0.14579643 0.25490823
0.051017404 0.23818293 0.24775614 -0.18171151 -0.33407152 0.14475332 -0.045723733 -0.26458806
0.14075105 0.09877328 -0.1789533 0.1361496 -0.119344704 0.030355312 0.08533265 0.14981891
0.08925701 0.26470032 0.17386575 0.20116039 0.16819397 0.2196668 0.10069824 0.23999351
-0.20126972 0.19152956 -0.14165336 0.18222018 0.07865224 -0.09175463 -0.044727996 0.060333923
0.07083799 0.15433939 -0.07216851 -0.1570248 0.077092685 -0.20890106 -0.12318004 0.21183832
0.17722471 -0.10293438 -0.21018781 0.11593013 -0.24216768 -0.17209873 0.10795978 0.14673255
-0.1536186 0.00060190045 0.29033738 0.18246911 -0.40631902 -0.12882356 -0.008782215 0.16609102
0.21073964 -0.06754324 0.066082515 0.16013546 0.115006626 -0.39372432 -0.14575905 0.08728084
0.039259832 0.20574939 -0.18046556 -0.17357834 -0.27505267 0.16320911 0.1227844 0.06521254
0.23539646 -0.003077284 -0.21192825 0.18012106 -0.09660346 0.2281038 -0.10290208 0.21892172
-0.23374824 0.07457056 0.11061538 0.19235942 -0.06801108 -0.16002096 0.078298315 -0.028274255
-0.15581903 0.23650159 -0.23412037 -0.05594446 0.1277803 0.19685926 0.05904658 -0.1278735
-0.029521137 0.027033538 -0.16403699 0.03168744 -0.019405305 0.04565406 -0.18483058 -0.15232047
-0.18041128 0.21170986 0.09275809 -0.0666028 -0.1990512 -0.10123551 -0.22498643 0.045275003
-0.33185628 -0.081748635 0.23581813 -0.13300502 -0.039681766 -0.07456243 0.32231224 -0.22241454
0.06499261 -0.34091005 0.41362834 0.12133093 0.35748017 -0.3018482 -0.21316884 0.22511417
-0.20096824 0.18846968 -0.08804471 -0.14067209 -0.06319003 0.25113207 0.23666368 0.07915373
-0.13941324 -0.04958341 -0.08055329 0.101202644 -0.024348063 0.19865304 0.24803859 0.12197861
-0.17641243 0.0029909546 -0.18110678 0.0021400577 -0.3353762 0.15309298 0.2105646 0.17672363
-0.21731403 -0.27637008 -0.0056888186 -0.009984772 0.12747282 0.20573118 0.1990999 -0.11732825
0.11302355 -0.07698716 -0.044548508 0.2836724 0.18873355 0.0810854 -0.2226513 0.26698568
0.044725083 -0.0545674 0.11384966 0.14581467 -0.1395145 -0.22772947 0.016014442 0.22506097

decoder.decoder_fc1.bias f4 [64]
00000000: 9551 823d cd99 f63d 1e74 683e a5e0 e7ba
00000010: ff96 4a3d 3161 a9bd 8e1d 533e 2704 203e
00000020: 12c5 d1bd deca 093e cc63 ea3d b853 fabd
00000030: 1012 7ebe 4e17 c9bc 5daf ffbd 505a 9f3d
00000040: b297 853d 4dea 04be 50da af3d fa2f 0cbe
00000050: c096 6fbe 2791 4e3e e0b1 80be 9733 45be
00000060: b88f 09be 54cd 153d 8c51 75be c05b 32bc
00000070: 6058 d7bd 24e4 803d dfcb 863d 5b74 063e
00000080: a091 8abe afe1 c83d 00a7 4fbc 2235 5fbe
00000090: 327f 053e c968 f13d eb2d 793e 8963 07be
000000a0: daf6 97bd 4c29 2dbe 66e1 df3d 0b3b e93d
000000b0: c0dc ba3d 89f7 223e b747 4cbc 68bd c63d
000000c0: 500f af3d 9fff a6bd 4820 3abe b806 5a3e
000000d0: b476 59be b6e8 e0bd f04d 5ebd 936d 06be
000000e0: b762 7ebd 8870 1ebe 0a1b 6abd 891f 5e3e
000000f0: 0fb0 6c3d 60d8 203d c376 15be 6f61 8e3b
0.06363217 0.12041054 0.22700545 -0.0017690851 0.049460407 -0.08270491 0.20616743 0.15626584
-0.10242666 0.13456294 0.11444816 -0.12222999 -0.24811578 -0.024547245 -0.1248462 0.077808976
0.06523074 -0.12980004 0.08586562 -0.13690177 -0.2339735 0.20172559 -0.25135708 -0.19257961
-0.1343373 0.03657277 -0.23956889 -0.010886133 -0.10514903 0.06293514 0.06581854 0.13130324
-0.27064228 0.09808671 -0.012674093 -0.21797612 0.13036802 0.11787564 0.24333923 -0.13221563
-0.0742013 -0.16910285 0.10931663 0.11388215 0.09124136 0.1591474 -0.01246827 0.09704095
0.085478425 -0.081542246 -0.18176377 0.21291625 -0.21236688 -0.10981886 -0.054273546 -0.13127737
-0.06210586 -0.15472615 -0.057154693 0.21691717 0.05778509 0.03926885 -0.14596085 0.004345111

decoder.decoder_fc2.weight f4 [128, 64]
00000000: 07dd c0bd 5291 26bd 9d24 27bd 651d 003d
00000010: 6674 ea3c b378 3cbd e687 043d 4a45 a2bd
00000020: 5843 c83d 4912 253d 9a30 cf3d 9479 39bd
00000030: a029 713d 054d c1bd c0d2 aebd ae35 cdbc
00000040: f314 33bd fb04 af3d 72ac a53d be9e 80bd
00000050: 3fbe 4fbd 337e df3c b0d2 9fbd 75b3 c73d
00000060: e632 763d 3083 713d 38de 0f3d 625d b9bd
00000070: 9000 41bc 3e11 ac3d e655 e03c d65b 05bd
00000080: 4b0d 13be 69a9 a43d cc85 633d 14f6 043d
00000090: 9f52 9a3d 0e77 84bc 3a63 54bc e89e 7bbd
000000a0: 3823 76bd 8a35 fdbd e293 ac3d 9f4f 91bc
000000b0: 2c5c 463d ccd2 d3bc 11b0 d83c 7883 03bc
000000c0: 8903 dd3d a2eb 0cbe 2e16 b1bd 23d0 1ebd
000000d0: 56df b83d 18c1 ecbd 20da f43c 420a 9dbd
000000e0: e4d8 7dbd 4431 54bd bc41 483c c776 89bd
000000f0: 2009 e4bd 4a44 b3bd fb16 11bd b035 f0bc
00000100: c8ec 773d aabc d2bd ea46 ab3d bce2 bfbd
00000110: d09d 0e3d e079 ad3b d037 6b3c 9ce3 50bd
00000120: 8850 e9bc 24ac dabd 0e54 8b3d 9894 4c3d
00000130: 48d6 f03c 4263 96bd 002d d9bb f83c 13bd
00000140: d003 c8bc 28f4 94bd f0a4 0e3c 8268 edbd
00000150: 04b3 c9bd 1cbf b8bd 6e3f c73d a0c0 aebd
00000160: 821e fc3d 2036 65bc 788e 4c3d c66b c53d
00000170: 3051 d9bd f274 acbd 261a d03d fc3e 0bbd
00000180: a489 d23d 90cc 693d 50cc 55bc d602 ac3d
00000190: 7814 98bc ea53 e8bd 8013 053b 2022 a03b
000001a0: 6cda 14bd 4043 7cbd 248d 5dbd e220 f1bd
000001b0: 262e bd3d badd cfbd 4023 4c3d e295 b83d
000001c0: a0e4 a93b 4019 fabd beea 9dbd 2abc d0bd
000001d0: 6820 e5bc c8b3 c2bc 10e1 9b3c d888 8dbd
000001e0: b281 aebd f0e3 37bd e0d8 81bd 8c55 e83d
000001f0: f0c8 bebc 5890 b4bd 70d9 43bc 08a2 e43c
00000200: c5c5 9b3d c450 5dbd 86df f23d 4260 f83c
00000210: afd0 f53b 5f0d 02be d817 913d f39e 113d
00000220: ff17 003e aca0 423d a704 943c 04e5 9f3d
00000230: 0c90 ec3e 10d8 313c ba8b 2abe 770c 403d
00000240: c2f4 f13c e435 233e 2a98 ed3c c0ab 2bbc
00000250: 6006 273e 3439 d9bd 1c9e ac3d 7c02 e33d
00000260: 84a7 863b 51f8 b93e 5ec9 74bd 001d b0ba
00000270: 1821 813d a361 963d af5a bcbd d08c bfbd
00000280: 2317 813d ebcd e03d 3bc7 70bc a4e7 88bd
00000290: 063e e0bc ef32 82bd 91f5 c5bd 6d8c e1bd
000002a0: e679 12bc 4cc1 c63d a940 123b f8b4 933d
000002b0: c53f 59be a529 513d 69c1 ce3d 7927 24bc
000002c0: 85d2 67bd 136c b3bd 70aa bf3d cc94 d2bd
000002d0: 79b9 73ba dc10 1abc a48b c3bd 8eb4 863d
000002e0: 18ba 0fbd 28c9 d6bc 7e59 bd3e 5817 df3d
000002f0: 89c8 ee3d da40 8f3d 73fa efbd dfaf 583e
00000300: ffdd 6d3d 3ca3 2f3c 4856 a63d 2112 263c
00000310: 8415 f93c 95f3 2a3c 558c 653c 4f1c b2bc
00000320: b9e6 ca3d aba7 3abc e317 0e3e 4066 1a3d
00000330: 005f 33be b07c c0bb 95b1 533d 1e17 f73d
00000340: 6610 1f3e ba08 143e 1747 1ebd f4ca 30bd
00000350: 80d3 b73d 5144 7a3d 00b3 c53d 3dac 66bd
00000360: 76cf a73d 1439 923e 2181 963d ac50 0cbd
00000370: 3ecd 97bd 042c 6c3d 2729 e93c cde7 afbd
00000380: c85a c0bd 3ef1 0a3d a19c c23d e014 6abc
00000390: 65ac d6bd f601 3a3d 9e68 c93d b45e 61be
000003a0: 5732 b33d b675 b5bd ec21 4abc 5de6 44bc
000003b0: 8873 c7be 5b42 9a3d 8f83 dc3d d325 53bb
000003c0: cf35 83bd b980 ee3d 6c9d c73d 1f2d 203e
000003d0: a8a3 c5ba 03c6 833b 86dc 8dbd b5b2 c73d
000003e0: 695c f53d 0c20 dabd 835f c8bd 5de9 df3d
000003f0: ea99 f73d 09d3 56bd a7d6 d6bc 4a9d fc3d
-0.094171576 -0.040665932 -0.0408064 0.031278033 0.028619956 -0.046013545 0.032356165 -0.07923372
0.0977847 0.04030064 0.10116692 -0.04528196 0.058877587 -0.094385184 -0.08536291 -0.02505001
-0.04372115 0.08545872 0.08089532 -0.06280278 -0.050718542 0.027281856 -0.07803857 0.097510256
0.060107134 0.058963 0.035124034 -0.090510145 -0.011779919 0.08401726 0.02738471 -0.032558285
-0.1436054 0.08040125 0.05554752 0.03246124 0.0753529 -0.016170051 -0.012963111 -0.06143084
-0.06009218 -0.123637274 0.08426644 -0.017738162 0.048427746 -0.025857352 0.026451143 -0.00802695
0.1079169 -0.13761762 -0.086468086 -0.038772713 0.09026973 -0.11560267 0.029889166 -0.07667972
-0.06197442 -0.051804796 0.012222704 -0.06712108 -0.11134553 -0.087532595 -0.035422307 -0.029322475
0.060528547 -0.10289891 0.08363135 -0.09369418 0.03481847 0.0052940696 0.014356568 -0.050998315
-0.028480783 -0.106773645 0.068031415 0.049946398 0.029399052 -0.07343151 -0.006627679 -0.035946816
-0.02441588 -0.072731316 0.008706316 -0.11592199 -0.09848598 -0.09020826 0.09728895 -0.08532834
0.123105064 -0.013989955 0.049940556 0.09639697 -0.106111884 -0.08420743 0.101612374 -0.033995613
0.10280159 0.05707985 -0.0130492 0.083989784 -0.018564448 -0.1134413 0.0020305812 0.0048868805
-0.036341116 -0.061587572 -0.05408968 -0.1177385 0.09237318 -0.10149713 0.049838305 0.09012963
0.005184725 -0.12211847 -0.07710789 -0.101921394 -0.027969554 -0.023767367 0.019028217 -0.069108665
-0.08520831 -0.044895113 -0.06340194 0.11344442 -0.023289174 -0.08816594 -0.011953697 0.027909294
0.07606081 -0.054032102 0.1185904 0.030319337 0.0075016837 -0.12700413 0.07084626 0.035551976
0.12509154 0.04751651 0.018068625 0.07807353 0.4620365 0.010854736 -0.16654864 0.046886887
0.029535655 0.15938526 0.029003222 -0.01047796 0.16311026 -0.10606614 0.084285945 0.11084458
0.004109325 0.36322263 -0.05976235 -0.0013436377 0.0630514 0.073428415 -0.09196984 -0.0935303
0.06303241 0.10976776 -0.014695938 -0.06684807 -0.027373325 -0.06357371 -0.09665979 -0.11013112
-0.008940196 0.09704837 0.0022316372 0.072122514 -0.21215732 0.051065106 0.10095484 -0.010019177
-0.05659725 -0.08760848 0.0935868 -0.10282287 -0.0009297352 -0.009403434 -0.09548119 0.06577407
-0.035089582 -0.026218966 0.3698234 0.10893124 0.11659343 0.06994791 -0.11717691 0.2116084
0.05807304 0.01072007 0.081219256 0.010136158 0.030405767 0.010434051 0.014010509 -0.021742014
0.09907288 -0.011392514 0.138763 0.03769517 -0.17516708 -0.005874239 0.051683027 0.12064956
0.155336 0.14456454 -0.038642015 -0.0431623 0.08975887 0.061100308 0.09653282 -0.056316603
0.08193867 0.28559172 0.07348848 -0.034256622 -0.07412194 0.057659164 0.028462006 -0.08589134
-0.09392315 0.033921473 0.09502531 -0.014287204 -0.104821004 0.045412026 0.09834407 -0.22008783
0.08749836 -0.08860342 -0.012337189 -0.0120178135 -0.3895533 0.075321876 0.1076728 -0.003221859
-0.064067475 0.11645646 0.09746823 0.15642212 -0.0015078681 0.0040214076 -0.06926827 0.097508825
0.119805165 -0.10650644 -0.097838424 0.109331824 0.12089904 -0.052447353 -0.026225401 0.12334688

decoder.decoder_fc2.bias f4 [128]
00000000: 4a04 64bd 9c11 a0bd cfc8 d7bd 2913 d73c
00000010: d058 cebd 643f 9f3d a1a8 debd 1e7c 403d
00000020: b63a a13d 8ec2 fd3d fc5f a63c 6370 0a3e
00000030: 9fad 063d a31b 38bd 2647 163d 64c0 95bd
00000040: 900a 653d fbd2 0b3e e770 0abe 5851 1a3e
00000050: 1bf9 083e 9350 0d3e 8e03 893d 85b8 793d
00000060: e7ca 36bd 4278 a43d 34b2 bd3d d8da 9f3d
00000070: 4a16 0c3e f0d6 523c 943c 03be 87c6 01be
00000080: b96e 2dbd 70fb 913d 6e89 ff3d e1c7 0bbe
00000090: e0a8 32bc d932 113e 6963 9dbd e89b 15bd
000000a0: 4fab 92bc 1c8f 46bd 267b cdbd 9c95 a7bd
000000b0: 998d f23d 6bfa c2bd 5fbe 883d 60ff 7dbd
000000c0: 594b 07be 6172 263c 12c2 89bd 4dea 8a3d
000000d0: c055 00be 4488 333d 1f29 0c3e c49e 9b3c
000000e0: 8084 e53b 1e96 6e3c 6cc4 85bd 260a 50bc
000000f0: 9509 02be 1814 13be 086b a03b ac7e abbd
00000100: 1645 053e ee98 87bd 1a26 b6bd da27 9fbd
00000110: 08f4 4a3d 7c9c c4bd 7cbe 12bd fd21 c23d
00000120: d133 2bbc d9ac 203d 84d0 a9bd 4a42 eabd
00000130: f4c8 58bd 3011 883c a669 223e 24f1 003d
00000140: b4f2 243d 0d1d 2abd 768e abbd d3ed 35bb
00000150: 887b 78bd b1a3 da3d 6bf2 cf3d 0965 d6bd
00000160: b20d a3bd 8b34 e83d d761 e33d 7ffc b63d
00000170: 2706 fc3d dc32 7abd b6c5 b1bd 9be3 093d
00000180: b579 ac3d 91f1 403e add3 883c c4d1 d8bc
00000190: 6e37 01be 1884 4f3d e4f8 ae3d 4574 203e
000001a0: 5137 08bd ef99 f4bd 702a 223c 7376 72bd
000001b0: fdff 2bbd f8fe 0f3e fd16 9cbd c121 a0bc
000001c0: df00 96bd 6cd2 16be dbda ef3d a2c5 d8bd
000001d0: 3418 cabd f78e ae3d b3f9 81bc 644a ecbd
000001e0: 8f0a 973d 4505 3a3d 44fa d4bd 44de 8ebd
000001f0: 1e47 b3bd 9cba 65bd 8210 0d3d cc52 653d
-0.055668153 -0.07815859 -0.10536348 0.026254253 -0.100755334 0.07775763 -0.10872007 0.046993367
0.07872526 0.12390624 0.02030944 0.13519435 0.03288042 -0.04494823 0.036688946 -0.07312086
0.055918276 0.13654701 -0.13519631 0.15070093 0.13376276 0.13800268 0.06690131 0.060966987
-0.044627097 0.0803075 0.09262505 0.07805413 0.13680378 0.012868628 -0.12816077 -0.12673388
-0.04234192 0.07128036 0.124773845 -0.13650467 -0.010904521 0.14179553 -0.076849766 -0.036525637
-0.017903952 -0.048476323 -0.10033254 -0.081828326 0.11843414 -0.0952042 0.066769354 -0.062011123
-0.13212337 0.010159106 -0.06726469 0.067829706 -0.12532711 0.043831125 0.13687561 0.018996604
0.0070043206 0.014562158 -0.06531605 -0.012697732 -0.12698968 -0.14363134 0.0048955716 -0.0837377
0.13014635 -0.06620966 -0.08893986 -0.07771273 0.049549133 -0.096001595 -0.03582619 0.09479139
-0.010449366 0.03922734 -0.08291724 -0.11438425 -0.05292602 0.016609758 0.15860614 0.03147997
0.040270522 -0.04153161 -0.08376782 -0.0027760162 -0.060664684 0.10675753 0.101536594 -0.1046849
-0.079615965 0.11338147 0.11102646 0.089348786 0.12305861 -0.06108366 -0.086802885 0.033664327
0.08421651 0.1884215 0.016702497 -0.026467212 -0.12618801 0.050663084 0.08543566 0.15669353
-0.03325588 -0.11943423 0.009897813 -0.059194993 -0.041992176 0.14062107 -0.07621572 -0.019547345
-0.07324385 -0.14728707 0.11711665 -0.105845705 -0.09867898 0.08523362 -0.015866136 -0.115376264
0.07375061 0.04541518 -0.10399297 -0.069759876 -0.08753799 -0.056086168 0.03443957 0.055987164

decoder.decoder_fc3.weight f4 [32, 128]
00000000: 4d01 9e3d a87a b33d dd1f 5d3d 4d7f 45bd
00000010: 8726 563d 47be a63d 0aea 643b a385 7e3d
00000020: 2a7b cc3d 921c 043c 8413 03bd d31a 363b
00000030: 895a 8f3d 88a3 41bd 3054 d13d 117d f53c
00000040: 21e3 1bbd 0116 ae3b 5b7f 98bc cfd4 ee3c
00000050: ba70 9a3d cbf6 cd3d 42a8 90bd 1977 e33b
00000060: fcd3 523d 98c4 db3d 9b88 c83d fcd8 1bbb
00000070: faf7 b13d 7d3e 80bd b24b 5bbd 889c 813c
00000080: adb4 84bd 37cb a13d 85b2 c73d 71c5 d0bc
00000090: 9448 3fbd a6a9 0cbd bd93 173e 3296 2cbd
000000a0: 8610 4e3d c4e6 8a3a a623 e2bc 9f04 6d3d
000000b0: 7fd5 c73d 6ecc 953c 756b 1cbd 9d28 57bd
000000c0: a709 ab3d 2969 623e 666a 903d 7326 1ebd
000000d0: 5e80 b3bc fe9b 7e3d c223 293d 4fe8 023e
000000e0: ef89 bdbc 9f66 713c a101 903d db1c 723b
000000f0: 40ed 84bd a158 933d cd45 80bd b2a5 1e3c
00000100: 5f72 2a3d 820c 54bd 3164 963d e78a a53d
00000110: 2595 513a 3c39 c83c 1b1e a53c ec98 7f3c
00000120: 167d 8cbc 7a2d 19bd e240 71bd d450 003d
00000130: 45bd 2f3c 53e8 bfbe a341 8d3d 1ad1 0bbd
00000140: f411 243d 9f16 323d 574e f33c ef6b ce3c
00000150: e93b debc 9026 9e3d c8fa 19bc 8391 6b3c
00000160: 16ab dabc 4682 18bc d67e 5e3c a2f0 0b3d
00000170: ea05 383d e5e9 a83d a0e3 063d 8e07 d43d
00000180: a379 143d ddf0 fa3d 242b 7a3d ee4a bd3d
00000190: 8027 58bd 4b46 023c 7ea5 063d 565e cd3c
000001a0: 1faa 133b e69d 8ebd b9c6 ae3d b38e 333e
000001b0: 1a2a 03bd 6265 2fbd 8fd1 533d f34a 9bbd
000001c0: 0320 57bd 7b7e 9b3b 0350 a0bc 7171 903a
000001d0: dc99 9cbb c7be cb39 1ba9 63bd ae0c 903c
000001e0: 7c15 6f3d e38d dc3c 8c7f c5bc 61a1 c23c
000001f0: 2545 9a3d 046f 273c 6913 cb3d 7e75 173a
00000200: 9640 1a3d 5a56 853d 6d8d 3cbd 1ed5 093d
00000210: e3b9 8e3c 25a4 8d3d e3ae 6f3d eeab 863c
00000220: bc28 343d 7b86 21bd 7c50 dcbd 5208 a23d
00000230: b60d a33d c1dd 07ba ab2a 4fbd 4906 6bbd
00000240: 4c64 b23d afdc f63d 49c9 c3bb 39fc de3c
00000250: f627 da3c 484d 3f3d e979 613d 1e74 51bd
00000260: 9c86 0e3d 27fc ed3d cdd0 e9bc 8860 0abd
00000270: ea6d 663d 0cf5 2ebd 2549 653d c6de 953c
00000280: b974 a53c 7569 b33d b998 b83d 0778 89bd
00000290: fc99 943d 0f56 1e3d cd14 dfbc fe0c 1a3d
000002a0: 7e2d a43d 2ba8 1e3c 6388 6dbd de59 2bbd
000002b0: 1939 e43d 2800 9abc 7226 e63c 00af 9cbd
000002c0: 06df 213d 2fd9 863e 4a07 33bd 573a 92bc
000002d0: 456f 2a3d 8789 273e 6132 20bd f62d 0a3d
000002e0: a4c4 073c 43c7 90bb 952c 8cbd 5bb2 ed3e
000002f0: 00a1 613d 8914 f6bc b604 bdbd 26de 21bd
00000300: 92f9 3bbd 0332 a23c 0879 34bc 85ac bebb
00000310: 87a0 573c 88f4 eabc 20e1 6d38 f44a 9e3b
00000320: c2c2 8f3d 58ee 86bd bae0 2d3d b982 8bbd
00000330: fe6a 1cbd 2e7d bdbd 61dc abbb e09d e43d
00000340: 3606 78bc 4bac be3d d4be 7bbd 92e4 9f3d
00000350: 449e a2bd a39a 7cbd 7b09 af3d 7deb 833d
00000360: 14e8 a13b 748e 203d b378 55bd 8409 58bd
00000370: 35d3 6bbc 738f b23b 2bc3 32bd da5e 9c3d
00000380: 0fc6 773d e5d7 103e 76ea ac3d 23cd be3b
00000390: 2f85 cd3c 0261 a6bd 74c3 03bd 2995 91bc
000003a0: b09c ad3d b0f2 ec3d 30de 6b3d e811 e33d
000003b0: 7265 e4bc bff7 f33d 1f92 12bc 75b0 ce3d
000003c0: 3d63 4cbc 3e01 19bd fbc1 d83d 0479 95bd
000003d0: c283 aebd 4c74 89bd b58d 863d 512f 98bd
000003e0: 19d9 7e3c 5eeb e43d 5249 a8bc 1c32 7abd
000003f0: 8fb1 2fbc 47a8 043c 086c 363d 2a58 833d
0.07715092 0.08763629 0.053985465 -0.048217107 0.052282836 0.08141761 0.0034929537 0.062139165
0.09984429 0.008063452 -0.032001033 0.0027786985 0.0699969 -0.047275096 0.102211356 0.029966863
-0.038058404 0.0053126817 -0.018615415 0.02915421 0.07541032 0.10056838 -0.07063343 0.006941688
0.051471695 0.10730857 0.097916804 -0.0023780456 0.08689876 -0.06261919 -0.053538986 0.01582171
-0.06479774 0.07900088 0.09750847 -0.025484772 -0.046700075 -0.034341477 0.14802451 -0.042135425
0.050308727 0.0010597338 -0.02760489 0.057865735 0.09757518 0.018285956 -0.038188417 -0.052528966
0.083514504 0.22110428 0.07051544 -0.038610887 -0.021911796 0.062160484 0.041293867 0.12783931
-0.02313706 0.014733939 0.07031561 0.0036943469 -0.06490564 0.07194639 -0.062633134 0.0096830595
0.04161298 -0.05176974 0.07343329 0.08083134 0.00079949416 0.024441354 0.020155957 0.015600424
-0.01714949 -0.037396885 -0.058899768 0.031327084 0.010726278 -0.37481937 0.06897285 -0.03413496
0.040056184 0.043478604 0.029700441 0.025197951 -0.027128177 0.07722199 -0.00939817 0.014377954
-0.026692908 -0.009308403 0.013580045 0.034165032 0.044927515 0.08247737 0.032931924 0.103530034
0.036248814 0.12252972 0.0610763 0.09242807 -0.052772045 0.007951329 0.03287267 0.025069397
0.002253182 -0.069637105 0.08533997 0.17534904 -0.032022573 -0.042821296 0.051713523 -0.07582655
-0.052520763 0.0047453023 -0.019569403 0.0011020136 -0.0047790837 0.00038861317 -0.055581193 0.017584171
0.0583701 0.026923126 -0.02410867 0.023758592 0.075327195 0.010219339 0.099158116 0.00057777006
0.03765925 0.06510611 -0.04603331 0.03365051 0.017422622 0.06916074 0.058516394 0.016439404
0.04398416 -0.03943489 -0.10757539 0.07911743 0.079615995 -0.0005182885 -0.0505778 -0.05737904
0.08710536 0.12053811 -0.005974923 0.027219879 0.026630383 0.04670456 0.055047903 -0.05113613
0.034796342 0.1162036 -0.028541947 -0.033783466 0.056257166 -0.042714164 0.05597796 0.018294703
0.02019726 0.08760349 0.090135045 -0.067123465 0.07255933 0.03865629 -0.027231598 0.037610047
0.080164894 0.009683649 -0.057991397 -0.04183375 0.11143703 -0.018798903 0.028094504 -0.07650566
0.039519332 0.26337573 -0.043708123 -0.017850084 0.04161002 0.16361056 -0.039110545 0.033735238
0.008286629 -0.004418285 -0.06844441 0.46425137 0.055085182 -0.030039089 -0.09229414 -0.039518498
-0.045892306 0.019799238 -0.011015184 -0.005818906 0.013160831 -0.028681055 5.6714867e-05 0.0048307125
0.07019569 -0.06588429 0.042450644 -0.06812043 -0.038187973 -0.09252392 -0.005244777 0.11162925
-0.0151382 0.09310206 -0.061461285 0.07807268 -0.07940343 -0.06167091 0.0854673 0.064414
0.004940996 0.039198354 -0.05211706 -0.05274345 -0.014393617 0.0054492294 -0.043643158 0.07635279
0.060491618 0.14144857 0.084431574 0.005822794 0.025087921 -0.081239715 -0.03216882 -0.01777132
0.084771514 0.115697265 0.05758494 0.110874 -0.027880404 0.11912488 -0.008945971 0.1009225
-0.012474832 -0.0373547 0.10583874 -0.072984725 -0.085212246 -0.06711635 0.06569997 -0.074309
0.01555469 0.11177705 -0.020542774 -0.061082944 -0.010723486 0.008096761 0.04453662 0.064133

decoder.decoder_fc3.bias f4 [32]
00000000: d77d f03d 673b 8a3c de2d c4bb 85b4 ccbc
00000010: 528f 063d fd9c 80bd 504b 2ebc addf 5a3d
00000020: 4929 89bc f832 b5bc 65a9 c7bc a094 00bd
00000030: 4ad8 c13d 7ee0 473b 29a7 99bb 70c6 9b3c
00000040: 659f ec3d 3cd1 313d b128 98bc 7b22 f93c
00000050: d6e3 1abd 416a c53d dbd4 1cbd 9b4f b53c
00000060: 867a 41bc 5870 803d 75c2 983d 9989 b63d
00000070: 33f4 f33c f91b b73d 5a32 f63d 8e0e 06bb
0.11742752 0.016874028 -0.005986913 -0.024988422 0.032851525 -0.06279943 -0.010638073 0.05343597
-0.01674332 -0.02211903 -0.024372766 -0.03139174 0.09465082 0.0030498798 -0.0046891165 0.01901552
0.115538396 0.043412432 -0.01857409 0.03041195 -0.037814938 0.09639407 -0.038288932 0.022132685
-0.011808997 0.06271428 0.07458965 0.089129634 0.02977953 0.08940882 0.120213225 -0.0020455453
