clustering/clustering/encoder_weights/ros2_bigbag/lidar_encoder_autoencoder_ros2_bigbag.pth (torch, 95560 bytes, 14 tensors)

encoder.conv2d_1.weight f4 [16, 1, 1, 3]
-0.4935875 -0.34373653 0.3521312 -0.18850109 0.11025791 0.41326955 0.4961415 -0.13468891
0.3723443 -0.4746058 0.44526199 -0.18071021 -0.13886866 -0.41323617 0.21588956 0.07430051
-0.030511066 0.14043437 0.45344755 0.23559241 0.09379333 -0.03714854 -0.3360808 0.30273244
-0.02706529 -0.27603993 0.1830681 -0.58470464 -0.04058116 0.64310664 0.43914518 0.59555036
0.6025425 -0.052517448 0.012912423 0.2002183 -0.27231038 0.57268786 0.027007872 -0.47086987
0.57882756 0.17669125 0.008717261 0.3606073 -0.55513465 -0.19376537 -0.25465557 -0.4673017
00000000: 80b7 fcbe 3cfe afbe 8a4a b43e 6e06 41be
00000010: e6ce e13d 1198 d33e 4206 fe3e e4eb 09be
00000020: e9a3 be3e 88ff f2be 61f9 e33e 190c 39be
00000030: 9633 0ebe b193 d3be 2712 5d3e de2a 983d
00000040: 58f2 f9bc 07ce 0f3e 472a e83e 233f 713e
00000050: b816 c03d 1129 18bd c812 acbe bfff 9a3e
00000060: 07b8 ddbc 1b55 8dbe 3476 3b3e 34af 15bf
00000070: 6e38 26bd a3a2 243f a3d7 e03e fd75 183f
00000080: 3a40 1a3f 891c 57bd a18e 533c 0706 4d3e
00000090: 446c 8bbe ac9b 123f 9d3f dd3c db15 f1be
000000a0: 0b2e 143f 8dee 343e d8d2 0e3c 85a1 b83e
000000b0: 4e1d 0ebf 6e6a 46be 3762 82be 2b42 efbe

encoder.conv2d_1.bias f4 [16]
0.21390967 -0.2567242 0.3823939 0.20895976 0.33393684 0.124172196 0.5027039 0.37116668
-0.5573522 0.013005444 0.42664564 -0.35939673 -0.29223025 0.27647743 0.18553771 0.012329265
00000000: 230b 5b3e 5b71 83be 22c9 c33e 8cf9 553e
00000010: c5f9 aa3e fe4d fe3d 34b1 003f 8f09 be3e
00000020: a2ae 0ebf c914 553c 4c71 da3e d902 b8be
00000030: 349f 95be 738e 8d3e 99fd 3d3e af00 4a3c

encoder.conv2d_2.weight f4 [32, 16, 1, 3]
-0.17677958 -0.37246576 0.10848661 0.013965197 0.007879165 -0.19365379 0.11728246 -0.099161364
-0.01813314 -0.11716822 -0.022409804 -0.36445662 0.032341503 -0.2848066 0.28067032 0.15942231
-0.056629684 0.17804265 0.16135906 0.04224741 0.11682182 0.0101215495 -0.18088248 0.079896115
-0.101616845 -0.032567475 0.09880496 -0.134791 -0.11018316 -0.17073877 0.124946035 0.09061209
0.077475555 -0.1142466 0.059070993 0.0071666976 -0.16038898 -0.16895105 -0.29329062 -0.0682284
0.06504012 0.11020649 0.002733264 0.10804375 -0.36728752 0.03794791 -0.14384274 -0.066183835
0.40735427 0.26768535 0.31473204 0.21086997 0.251245 0.14286037 0.11560116 -0.09629789
-0.0033214511 0.34847227 0.48826903 0.2553707 0.48678723 0.24114208 -0.12548807 -0.06747373
0.030168278 0.08295104 -0.006332266 0.028533861 0.15283944 -0.018907046 0.23732828 -0.009304462
0.10092972 -0.05906621 -0.0045140074 0.06749915 0.25829375 0.19578288 -0.16611476 0.14580277
-0.0569815 -0.068694 0.13772444 -0.12582974 0.10965063 0.3732398 -0.084739946 0.14734052
0.081826024 0.13938762 0.14055711 0.043840427 0.49709076 0.12832743 0.050979763 0.13166703
-0.11060676 -0.07676335 0.059045423 -0.48075107 0.12743208 -0.09792752 0.052585956 -0.013742569
0.060678735 -0.33451754 0.21078424 -0.3784946 0.1421482 -0.013699651 -0.15612005 -0.02179161
0.082404196 -0.10610377 0.14644432 0.056178555 0.051891565 0.1824679 0.06868782 0.120935105
0.04757297 -0.13934347 0.036832336 -0.23657593 0.0028186224 -0.042002242 -0.11116628 0.020301986
0.14176488 0.13377033 -0.13296646 0.032773316 -0.124781094 0.2093659 -0.32425877 -0.15678225
0.0037256372 0.025682062 0.11704847 0.032545693 0.03497477 0.11738005 0.020614412 -0.002813415
-0.051781993 -0.11576102 0.10947859 0.024631739 0.05734136 -0.0656045 0.066729695 -0.12618522
0.11127095 0.13199994 -0.08656888 -0.12054843 -0.00020761216 0.05755156 -0.12751454 -0.08672154
0.07662873 0.09519984 0.08471237 -0.14502037 -0.14142093 -0.07584178 -0.055526827 -0.025062412
-0.0141532095 -0.09057778 0.09415313 0.11599675 -0.03729452 -0.15087278 -0.10696046 0.11351513
-0.04850798 0.05014916 -0.06420953 -0.046887297 0.002928715 0.046329193 0.10895089 -0.14093056
-0.07164471 0.104032196 -0.06326135 -0.04668488 -0.1422272 -0.044163905 -0.10272793 -0.014071841
-0.036346126 -0.2583138 -0.21123868 -0.08036762 0.09050998 0.39974672 0.067007065 0.15583646
0.048569273 -0.26144534 -0.16415098 0.030717777 -0.0043615843 -0.116854444 -0.2664772 0.06285782
0.0506895 -0.06150274 -0.045691874 0.061008234 -0.03061081 0.1243143 0.049001325 -0.025989717
0.09457163 0.13258621 -0.016721675 -0.11991869 0.2670297 0.19889255 -0.08612538 0.10064723
0.15295355 -0.03786334 -0.109509 0.119389534 -0.12774324 0.19779354 0.045870453 -0.071757264
0.08684444 0.15867862 -0.12242925 -0.46115288 0.030248431 0.10174679 -0.07428353 -0.005313691
0.046680156 0.08349774 0.4743027 -0.39615086 -0.19520429 0.31260705 -0.06670837 0.09397241
-0.07270586 -0.26260433 -0.25093213 0.17053983 -0.10279094 0.26709864 -0.09531405 0.07902589
00000000: b505 35be d5b3 bebe 3a2e de3d 48ce 643c
00000010: 9d17 013c 2e4d 46be c931 f03d 1d15 cbbd
00000020: f38b 94bc e4f5 efbd c494 b7bc 0f9a babe
00000030: 8678 043d 2cd2 91be 05b4 8f3e 9a3f 233e
00000040: 87f4 67bd d050 363e 4f3b 253e 9f0b 2d3d
00000050: 4740 ef3d dbd4 253c 4239 39be 93a0 a33d
00000060: 7e1c d0bd 7965 05bd 415a ca3d a706 0abe
00000070: b5a7 e1bd 25d6 2ebe b5e3 ff3d d592 b93d
00000080: 81ab 9e3d 1ffa e9bd 6df4 713d 9ed6 ea3b
00000090: 023d 24be 8101 2dbe 302a 96be 55bb 8bbd
000000a0: c133 853d f1b3 e13d 8f20 333b 0b46 dd3d
000000b0: 1c0d bcbe 456f 1b3d 834b 13be 648b 87bd
000000c0: bd90 d03e 0e0e 893e 8f24 a13e 4cee 573e
000000d0: 2fa3 803e fd49 123e 4dc0 ec3d d437 c5bd
000000e0: b4ac 59bb f56a b23e 66fe f93e f3bf 823e
000000f0: 2d3c f93e f3ed 763e f27f 00be ab2f 8abd
00000100: 7723 f73c 3ce2 a93d e67e cfbb d8bf e93c
00000110: f181 1c3e f3e2 9abc 2f06 733e be71 18bc
00000120: 3eb4 ce3d 69ef 71bd 3dea 93bb ff3c 8a3d
00000130: 143f 843e 4f7b 483e fd19 2abe 524d 153e
00000140: 6f65 69bd 71af 8cbd a307 0d3e 83d9 00be
00000150: 8290 e03d 4919 bf3e 238c adbd 6fe0 163e
00000160: 6794 a73d a1bb 0e3e 34ee 0f3e 0592 333d
00000170: ae82 fe3e 4468 033e 28d0 503d b9d3 063e
00000180: cc85 e2bd 1a36 9dbd 9dd9 713d 0125 f6be
00000190: 8e7d 023e 398e c8bd 5f64 573d 8328 61bc
000001a0: 448a 783d e245 abbe d3d7 573e 0bca c1be
000001b0: 4c8f 113e 8074 60bc efdd 1fbe 5284 b2bc
000001c0: 88c3 a83d ef4c d9bd 80f5 153e 7c1b 663d
000001d0: 408c 543d ddd8 3a3e 33ac 8c3d d3ac f73d
000001e0: e0db 423d 0eb0 0ebe 81dd 163d f640 72be
000001f0: a3b8 383b 8b0a 2cbd 26ab e3bd 5a50 a63c
00000200: d02a 113e 17fb 083e 5c28 08be 503d 063d
00000210: 3b8d ffbd 0464 563e 3f05 a6be 878b 20be
00000220: d229 743b 3063 d23c 1cb7 ef3d a24e 053d
00000230: b441 0f3d f464 f03d 8edf a83c 4561 38bb
00000240: 5b19 54bd 1d14 edbd 5036 e03d 80c8 c93c
00000250: c6de 6a3d a75b 86bd 94a9 883d b336 01be
00000260: 06e2 e33d fe2a 073e 064b b1bd 18e2 f6bd
00000270: 77b2 59b9 2fbb 6b3d 2c93 02be 109b b1bd
00000280: 86ef 9c3d 22f8 c23d ae7d ad3d 3880 14be
00000290: a6d0 10be ef52 9bbd 1970 63bd b04f cdbc
000002a0: dde2 67bc d880 b9bd 5bd3 c03d b48f ed3d
000002b0: 23c2 18bd 657e 1abe 160e dbbd 9f7a e83d
000002c0: 4eb0 46bd 3569 4d3d 4980 83bd e50c 40bd
000002d0: afef 3f3b aec3 3d3d a521 df3d 1a50 10be
000002e0: 76ba 92bd d50e d53d 2b8f 81bd a538 3fbd
000002f0: 02a4 11be 36e5 34bd 0563 d2bd 948d 66bc
00000300: addf 14bd b541 84be f44e 58be c797 a4bd
00000310: 4c5d b93d 9aab cc3e 003b 893d 9893 1f3e
00000320: 93f0 463d 2adc 85be 3217 28be d9a3 fb3c
00000330: 9feb 8ebb 6251 efbd b36f 88be 9abb 803d
00000340: cb9f 4f3d 4cea 7bbd 6727 3bbd c5e3 793d
00000350: 85c3 fabc 7f98 fe3d 9db5 483d 63e8 d4bc
00000360: c5ae c13d aec4 073e e5fb 88bc ee97 f5bd
00000370: 1eb8 883e 7daa 4b3e 8162 b0bd 2320 ce3d
00000380: db9f 1c3e 9716 1bbd 4146 e0bd 8082 f43d
00000390: 20cf 02be 648a 4a3e a8e2 3b3d 79f5 92bd
000003a0: 7fdb b13d a67c 223e 30bc fabd 3b1c ecbe
000003b0: 8fcb f73c 9f60 d03d f721 98bd 791e aebb
000003c0: b133 3f3d dd00 ab3d ced7 f23e 49d4 cabe
000003d0: a2e3 47be 080e a03e 669e 88bd 9b74 c03d
000003e0: cfe6 94bd 1374 86be 2d7a 80be fea1 2e3e
000003f0: 0e84 d2bd 27c1 883e 0334 c3bd 53d8 a13d

encoder.conv2d_2.bias f4 [32]
0.10296003 0.061225332 0.13554311 0.11759335 0.019014603 0.13059102 -0.07732821 -0.07996165
-0.024704784 0.09459887 0.09231031 -0.11897385 0.054635298 -0.04356728 0.07102195 -0.0048614773
0.038864255 0.08797924 0.11825242 0.098712415 0.041820757 0.011221966 -0.0916488 0.054889224
0.014113821 0.067206204 0.05687325 -0.104875006 -0.029310757 0.0020179125 0.0811667 0.05508239
00000000: b5dc d23d 6ac7 7a3d d0cb 0a3e c8d4 f03d
00000010: 83c4 9b3c a7b9 053e 415e 9ebd efc2 a3bd
00000020: b061 cabc 0dbd c13d 300d bd3d 90a8 f3bd
00000030: 43c9 5f3d 9b73 32bd f573 913d 074d 9fbb
00000040: 2030 1f3d 762e b43d 532e f23d bc29 ca3d
00000050: 3e4c 2b3d 56dc 373c 5eb2 bbbd 86d3 603d
00000060: a83d 673c 68a3 893d edf3 683d b5c8 d6bd
00000070: 1d1d f0bc f43e 043b ba3a a63d 129e 613d

encoder.conv2d_3.weight f4 [64, 32, 1, 3]
-0.028192848 0.058431163 0.060620125 -0.012549234 -0.042308893 -0.07271896 0.042683236 -0.039828565
0.009808859 0.07120351 -0.09656816 -0.039199788 -0.094901115 0.03612391 -0.121758714 -0.044201296
-0.0799649 -0.007011443 0.029583825 0.101538956 0.03654083 0.019397458 -0.05257685 -0.1015846
0.0032331916 0.06400371 -0.07109218 -0.0004308002 -0.07131147 0.028245587 -0.057292923 -0.102432854
0.043140963 0.022722313 -0.08228969 0.07954199 0.004965797 0.00029837733 -0.07671896 -0.04976656
-0.1024937 -0.07594631 -0.0012304476 -0.08414601 -0.045332875 -0.06557438 0.016188253 0.07391005
0.06883435 -0.11425924 -0.053268485 -0.07609235 0.0459728 -0.039907016 -0.030065652 -0.1155526
-0.100192636 -0.058437254 -0.08414452 0.03352453 -0.08410586 -0.094812915 0.0065644006 -0.04214324
0.05850557 -0.0723862 0.0047401525 0.015597174 0.050396297 0.018305419 -0.099038824 0.024285285
-0.07219891 -0.0073748864 -0.030702665 -0.021952208 0.0556695 0.060543768 -0.078538276 -0.09792532
-0.026938358 0.08714123 0.061785214 0.015243435 -0.09505943 0.018699221 -0.0056847692 -0.07870192
0.069127835 0.09971468 -0.04913243 -0.07877732 -0.06310134 0.0009448574 0.0070438753 0.07863635
0.055342674 0.04001062 -0.01621399 0.007857465 -0.051334277 -0.007850452 -0.058036026 -0.018320914
-0.06602897 0.051402077 0.099797405 -0.0032043078 0.020965764 -0.11819106 -0.113609806 0.0041813347
-0.09455658 0.016084595 -0.0021791945 -0.08652847 0.064592555 -0.09943849 0.026190177 -0.025297625
-0.05786828 -0.103311606 0.03507143 -0.08697065 0.018041674 -0.047998957 -0.035202224 -0.03017631
-0.09271818 -0.030830393 0.00411258 -0.04102424 0.04458266 -0.030936584 0.029066214 0.017148234
-0.05725069 0.01815291 0.03314743 -0.0059557813 0.07595255 0.034500133 0.049708456 -0.116677776
-0.049441997 0.060549658 -0.06840153 -0.08902815 0.038064767 -0.11395571 0.03634763 0.041773785
-0.04879204 0.06414925 0.004877019 -0.040202484 -0.07009897 -0.04871667 0.020631742 -0.012947634
0.07425749 0.07862414 0.00569405 0.0055719567 -0.091593415 -0.07031483 0.028411541 0.073227845
0.07146586 -0.060429387 -0.077896 -0.046562757 0.02912194 0.066163465 -0.09228096 -0.081010155
-0.0014564673 -0.0194056 -0.045331072 0.012804351 -0.11539827 0.0070137563 0.016368037 -0.0060419827
-0.06286224 -0.01601582 0.063550405 -0.08779125 0.036143173 0.027422942 -0.10555648 -0.06458796
0.1171977 -0.087279394 0.011438649 -0.3486452 0.080839254 -0.018558426 -0.051318906 0.12711734
-0.06001334 0.001860831 0.07277002 -0.024261177 -0.0268284 -0.01918325 0.04575903 0.1259032
0.13949002 -0.076957025 0.013534382 -0.083516784 -0.0230715 -0.35060966 0.1510457 -0.021719236
0.033821587 0.05256092 0.10043117 -0.0077116997 -0.13390352 -0.05028262 0.0049008653 0.100070804
0.019889453 0.09156169 -0.09915429 0.09562959 -0.0473463 -0.009615587 -0.0008393961 -0.34078565
-0.11225979 0.03963594 0.0795947 -0.047745977 -0.039186407 0.071702756 -0.021613326 0.035605416
0.120620795 -0.06884142 0.044814553 0.039304182 -0.008429523 0.028052408 0.07635327 0.039383203
-0.06746777 0.09995849 -0.2056063 0.07090253 0.08921364 -0.01264718 -0.06291118 -0.030450778
00000000: b0f4 e6bc 8455 6f3d cf4c 783d 4d9b 4dbc
00000010: 174c 2dbd aeed 94bd 9ed4 2e3d 4723 23bd
00000020: 56b5 203c 25d3 913d 87c5 c5bd f58f 20bd
00000030: 845b c2bd aaf6 133d a25c f9bd 6b0c 35bd
00000040: a3c4 a3bd 3fc0 e5bb c759 f23c a8f3 cf3d
00000050: d6ab 153d 6be7 9e3c d35a 57bd 960b d0bd
00000060: f4e3 533b 6114 833d c798 91bd 06dd e1b9
00000070: bf0b 92bd 4a63 e73c fcab 6abd 51c8 d1bd
00000080: 94b4 303d 2524 ba3c 7f87 a8bd e9e6 a23d
00000090: 20b8 a23b 876f 9c39 d51e 9dbd 05d8 4bbd
000000a0: 38e8 d1bd bd89 9bbd f846 a1ba be54 acbd
000000b0: f7ae 39bd dc4b 86bd 3a9d 843c 275e 973d
000000c0: 06f9 8c3d c000 eabd 0e30 5abd 4ed6 9bbd
000000d0: fa4d 3c3d 8a75 23bd 3e4c f6bc d7a6 ecbd
000000e0: cc31 cdbd e75b 6fbd f653 acbd 0451 093d
000000f0: b13f acbd 462d c2bd 2f1a d73b 649e 2cbd
00000100: 89a3 6f3d 373f 94bd 4853 9b3b 4a8b 7f3c
00000110: 596c 4e3d 3ff5 953c ded4 cabd eff1 c63c
00000120: 06dd 93bd 08a9 f1bb 2884 fbbc 1ed5 b3bc
00000130: b405 643d befc 773d add8 a0bd 128d c8bd
00000140: d5ad dcbc 1a77 b23d 7e12 7d3d 9abf 793c
00000150: 85ae c2bd 1c2f 993c 4d47 babb 792e a1bd
00000160: e592 8d3d 3637 cc3d 163f 49bd 0156 a1bd
00000170: 463b 81bd 4fb0 773a 4fd0 e63b 180c a13d
00000180: 00af 623d 2de2 233d 34d3 84bc 99bc 003c
00000190: e443 52bd 2f9f 00bc 2fb7 6dbd be15 96bc
000001a0: 323a 87bd fc8a 523d 9562 cc3d 5dff 51bb
000001b0: 65c0 ab3c 280e f2bd 42ac e8bd 9403 893b
000001c0: e1a6 c1bd d7c3 833c d1d0 0ebb d735 b1bd
000001d0: 1a49 843d 68a6 cbbd c88c d63c f73c cfbc
000001e0: 4a07 6dbd 0995 d3bd 0fa7 0f3d ab1d b2bd
000001f0: 22cc 933c 8e9a 44bd 3530 10bd 4f34 f7bc
00000200: 07e3 bdbd 0590 fcbc d2c2 863b 0909 28bd
00000210: 4f9c 363d b86e fdbc 451c ee3c 747a 8c3c
00000220: b37f 6abd 69b5 943c 99c5 073d b728 c3bb
00000230: 038d 9b3d 0350 0d3d 189b 4b3d c2f4 eebd
00000240: b183 4abd eb02 783d 1a16 8cbd 6454 b6bd
00000250: cde9 1b3d 9c61 e9bd 41e1 143d fd1a 2b3d
00000260: 2ada 47bd af60 833d 67cf 9f3b 5cab 24bd
00000270: 0c90 8fbd 228b 47bd e603 a93c 5022 54bc
00000280: 5014 983d b105 a13d 2795 ba3b f694 b63b
00000290: 5495 bbbd 3901 90bd 52bf e83c 7bf8 953d
000002a0: b15c 923d ce84 77bd f087 9fbd 97b8 3ebd
000002b0: 2291 ee3c b680 873d cdfd bcbd a7e8 a5bd
000002c0: efe6 beba 7ef8 9ebc 13ad 39bd 57c9 513c
000002d0: ee55 ecbd a7d3 e53b 4316 863c d3fb c5bb
000002e0: ebbd 80bd 9c33 83bc b726 823d e6cb b3bd
000002f0: dd0a 143d 14a6 e03c ff2d d8bd b146 84bd
00000300: 5905 f03d 8abf b2bd 2c69 3b3c a081 b2be
00000310: 0d8f a53d d707 98bc c633 52bd 0c2b 023e
00000320: 8cd0 75bd 21e7 f33a 7308 953d 60bf c6bc
00000330: 3cc7 dbbc 3126 9dbc d26d 3b3d c5ec 003e
00000340: 79d6 0e3e a59b 9dbd 50bf 5d3c d90a abbd
00000350: 7100 bdbc 1c83 b3be b9ab 1a3e 8aec b1bc
00000360: 8188 0a3d 1f4a 573d dbae cd3d 6db2 fcbb
00000370: 011e 09be 26f5 4dbd 7097 a03b ecf1 cc3d
00000380: 35ef a23c b284 bb3d 6811 cbbd 72d9 c33d
00000390: 32ee 41bd b28a 1dbc eb0a 5cba 757b aebe
000003a0: 76e8 e5bd 4c59 223d 8c02 a33d 4991 43bd
000003b0: ed81 20bd e5d8 923d 6e0e b1bc fcd6 113d
000003c0: 0908 f73d bbfc 8cbd 778f 373d 6cfd 203d
000003d0: fb1b 0abc 2ace e53c 1a5f 9c3d 4850 213d
000003e0: 8b2c 8abd 09b7 cc3d 758a 52be 5835 913d
000003f0: a4b5 b63d 1e36 4fbc 94d7 80bd e973 f9bc

encoder.conv2d_3.bias f4 [64]
-0.011647787 -0.058465946 -0.013046127 -0.0071546854 -0.005865157 -0.059657954 -0.09599721 0.067863286
0.05817244 -0.07515049 -0.04347232 0.038442086 0.0597624 0.036157623 -0.07143909 0.0008354214
0.051732298 -0.02580445 -0.035616025 -0.00369023 0.17321321 0.03502355 0.07514814 0.059132952
0.061368283 0.036709458 0.07343163 0.059287142 -0.11996777 -0.006901306 -0.080477305 -0.00590671
-0.014976646 -0.030199714 0.02069339 -0.10127589 -0.09870631 -0.055927545 -0.0070812833 -0.088461235
-0.044899974 -0.07739201 -0.058858857 0.07496372 0.059709515 0.0142509295 0.016296986 -0.041533522
-0.07137077 -0.018722571 -0.04922469 0.03200436 0.020701943 0.010661918 -0.08676281 -0.09348555
0.037946988 0.050973028 -0.047513444 -0.060980845 -0.06123741 -0.10201687 -0.10682366 0.05851674
00000000: 5cd6 3ebc fd79 6fbd 6cbf 55bc da71 eabb
00000010: 8130 c0bb e65b 74bd 2f9a c4bd e8fb 8a3d
00000020: 3946 6e3d 80e8 99bd 0810 32bd 7375 1d3d
00000030: 6bc9 743d 041a 143d a84e 92bd 2e00 5b3a
00000040: 3fe5 533d db63 d3bc 1ce2 11bd c9d7 71bb
00000050: ce5e 313e db74 0f3d 45e7 993d 6535 723d
00000060: 4f5d 7b3d a85c 163d 5363 963d 13d7 723d
00000070: aab1 f5bd 5a24 e2bb 49d1 a4bd 138d c1bb
00000080: 9b60 75bc 6465 f7bc 2f85 a93c bc69 cfbd
00000090: 8926 cabd 4814 65bd 1c0a e8bb 2a2b b5bd
000000a0: 09e9 37bd b47f 9ebd fc15 71bd 9486 993d
000000b0: f791 743d bb7c 693c 4281 853c 0e1f 2abd
000000c0: d72a 92bd 1460 99bc d49f 49bd 0117 033d
000000d0: 1f97 a93c 53af 2e3c b3b0 b1bd 5a75 bfbd
000000e0: 4d6e 1b3d 18c9 503d 759d 42bd 0dc7 79bd
000000f0: 14d4 7abd 39ee d0bd 5dc6 dabd 40af 6f3d

encoder.fc.weight f4 [16, 64]
-0.0041295015 -0.06364569 0.34141755 -0.086322464 0.14466843 -0.10050024 0.015582696 -0.015026938
0.026770443 0.008090816 0.13395153 0.116062224 -0.052203078 0.12142089 -0.09756442 0.2599214
0.033373937 -0.09362591 -0.060643632 0.024591722 -0.14030477 0.042798113 -0.21060327 0.027007889
0.0060864687 -0.106655136 0.1537669 0.007891702 0.06654417 0.0089915525 0.16050811 -0.0636697
-0.086481705 0.13301282 -0.14050382 0.15794946 -0.016776096 -0.030387653 -0.08887873 0.09134133
-0.09101725 0.13195354 -0.12197934 0.0992446 0.04103035 -0.020681065 0.09434133 0.12777303
0.13282518 -0.074954964 0.11748673 0.042008277 -0.13027269 -0.08627974 -0.27847695 -0.040341176
-0.14368299 -0.24982676 -0.03656754 -0.06980976 0.105921894 0.12408517 -0.11036619 0.12116173
-0.04806739 -0.013911364 -0.11559058 0.081591144 -0.04196948 -0.008495565 0.014851779 0.024958061
0.05995748 0.026887562 0.010474808 0.06704679 -0.067454785 -0.0083862385 0.038225416 0.11686697
-0.03842759 -0.09076084 0.043764602 0.11201588 0.15101168 0.037789386 -0.17588905 -0.06250584
0.022991836 -0.006643837 0.036652524 -0.012666022 -0.03939072 0.0955418 -0.10320677 0.10965668
0.067434594 -0.1969396 -0.18347457 0.097696446 -0.09714953 0.011356263 0.07160198 -0.019922376
0.07423953 -0.010050566 0.11317113 0.030772617 -0.024509924 -0.2327473 -0.070793055 0.1369183
0.060745876 -0.17872752 0.12903088 -0.027499914 0.1275391 0.112796016 -0.19521897 -0.03633861
0.1207952 0.10100117 -0.10116256 -0.038615346 0.08436425 0.008351833 0.124389224 0.00123796
0.13762768 0.04098935 -0.088904604 -0.084697634 -0.003685752 0.0728719 0.007327765 -0.11680412
0.03306651 0.08110618 0.119327396 0.046324924 0.06700601 -0.05081136 0.104797296 0.12211193
-0.009904005 0.102155186 -0.053061776 0.13264182 -0.285541 -0.060534332 -0.07864482 -0.06100675
-0.0714944 0.05600281 0.008230699 0.040710907 0.06991859 -0.06967119 -0.036306977 0.060627595
0.027977884 -0.21131462 0.047670916 0.042415854 -0.013519061 -0.08904968 -0.03348702 0.072901994
-0.034438036 0.027194902 -0.09203598 0.077961266 -0.10091433 0.0969902 -0.01499779 0.09459348
-0.115743 0.03646354 -0.0027579977 0.09512586 -0.092440605 0.08313805 -0.104757495 -0.014223815
-0.045658536 -0.4884846 0.045470446 -0.047420744 -0.01455896 0.027398705 -0.11629619 0.014672207
-0.0885988 -0.007806367 0.06317736 -0.041448593 -0.0911025 -0.09237989 0.001516059 -0.045556955
-0.052932627 -0.081753545 0.11219576 -0.15362127 0.031385068 0.16773812 -0.0269115 -0.14889197
0.09112478 -0.12517333 0.07632208 -0.13983813 0.21029222 0.011881872 0.13937578 -0.053003535
0.049276203 -0.13600993 0.03322068 -0.018963639 -0.08944451 0.06279709 0.099635676 -0.10058127
-0.038500383 -0.32955357 -0.0971023 -0.1251416 -0.033561476 0.05179912 0.055091918 0.021189451
-0.031862076 0.0554999 -0.030027747 0.0844961 0.009499034 -0.019400345 0.021330118 -0.11902319
0.03621431 -0.11697149 -0.08447126 -0.1134632 -0.098466076 0.07605788 -0.06865432 0.07251147
0.2579024 0.05794345 0.11442372 -0.00012666848 -0.04241358 0.117916524 0.041090447 0.10903584
00000000: c550 87bb ac58 82bd 48ce ae3e d5c9 b0bd
00000010: f623 143e 12d3 cdbd 904e 7f3c 8c33 76bc
00000020: b04d db3c 588f 043c 972a 093e 08b2 ed3d
00000030: e5d2 55bd 84ab f83d dbcf c7bd 6b14 853e
00000040: 1cb3 083d f1be bfbd 7565 78bd 9474 c93c
00000050: 0eac 0fbe 134d 2f3d 62a8 57be a63f dd3c
00000060: 0071 c73b 026e dabd 1275 1d3e 324c 013c
00000070: 4f48 883d 4e51 133c 3d5c 243e 4265 82bd
00000080: 521d b1bd 8334 083e 3ce0 0fbe 81bd 213e
00000090: 066e 89bc 87ef f8bc 0d06 b6bd 2a11 bb3d
000000a0: 4167 babd d41e 073e 4ed0 f9bd c140 cb3d
000000b0: 710f 283d 566b a9bc 0736 c13d efd6 023e
000000c0: 5303 083e fd81 99bd e29c f03d df10 2c3d
000000d0: 3466 05be 6fb3 b0bd 8894 8ebe ca3c 25bd
000000e0: a221 13be 96d2 7fbe d8c7 15bd 6bf8 8ebd
000000f0: 94ed d83d 5e20 fe3d ab07 e2bd a423 f83d
00000100: 50e2 44bd 7dec 63bc c1ba ecbd 4219 a73d
00000110: 31e8 2bbd fb30 0bbc e054 733c d974 cc3c
00000120: f995 753d 4e43 dc3c 879e 2b3c d44f 893d
00000130: bc25 8abd 6f66 09bc 4192 1c3d f357 ef3d
00000140: 4066 1dbd d2e0 b9bd 8342 333d 9568 e53d
00000150: cea2 1a3e 0bc9 1a3d 421c 34be 1003 80bd
00000160: 6059 bc3c 8bb4 d9bb f520 163d 2685 4fbc
00000170: 2a58 21bd 6bab c33d 125e d3bd ae93 e03d
00000180: 261b 8a3d 89aa 49be c2e0 3bbe 1315 c83d
00000190: 55f6 c6bd 9f0f 3a3c 0fa4 923d 4034 a3bc
000001a0: e50a 983d 21ab 24bc 44c6 e73d db16 fc3c
000001b0: 09c9 c8bc 4f55 6ebe f3fb 90bd 5034 0c3e
000001c0: abd0 783d 5904 37be ac20 043e 8047 e1bc
000001d0: 9c99 023e 9901 e73d 7be7 47be cbd7 14bd
000001e0: 7963 f73d b4d9 ce3d 512e cfbd 202b 1ebd
000001f0: 2ac7 ac3d 20d6 083c c7bf fe3d 0b43 a23a
00000200: 45ee 0c3e 73e4 273d 9e13 b6bd f475 adbd
00000210: a88c 71bb dd3d 953d c01d f03b 0037 efbd
00000220: c070 073d ff1a a63d ec61 f43d 34bf 3d3d
00000230: 723a 893d 931f 50bd f79f d63d d215 fa3d
00000240: 6844 22bc bd36 d13d 4e57 59bd 42d3 073e
00000250: 6e32 92be d9f2 77bd 8910 a1bd 37e2 79bd
00000260: a86b 92bd 3463 653d 0eda 063c 7bc0 263d
00000270: 7a31 8f3d c5af 8ebd a0b6 14bd a454 783d
00000280: e031 e53c dc62 58be 9442 433d 3fbc 2d3d
00000290: 0d7f 5dbc ae5f b6bd af29 09bd a44d 953d
000002a0: e60e 0dbd d8c7 de3c 5c7d bcbd 28aa 9f3d
000002b0: 2cac cebd cca2 c63d 4ab9 75bc 3aba c13d
000002c0: aa0a edbd cb5a 153d 86bf 34bb 59d1 c23d
000002d0: 8051 bdbd 4844 aa3d 198b d6bd 010b 69bc
000002e0: 7204 3bbd a71a fabe 383f 3a3d 413c 42bd
000002f0: b488 6ebc 4073 e03c b22c eebd b263 703c
00000300: 4a73 b5bd 8dcc ffbb 2263 813d 00c6 29bd
00000310: f393 babd ab31 bdbd 80b6 c63a ee99 3abd
00000320: e2cf 58bd 676e a7bd e4c6 e53d e54e 1dbe
00000330: a18d 003d 8bc3 2b3e 8275 dcbc 2377 18be
00000340: a19f ba3d 702d 00be c04e 9c3d ba31 0fbe
00000350: d856 573e 2fac 423c 86b8 0e3e 3c1a 59bd
00000360: d8d5 493d 3046 0bbe 6812 083d a259 9bbc
00000370: af2e b7bd c39b 803d ca0d cc3d 8efd cdbd
00000380: 94b2 1dbd 3fbb a8be 92dd c6bd 1f25 00be
00000390: c277 09bd 502b 543d 10a8 613d 8095 ad3c
000003a0: cf81 02bd dd53 633d c0fc f5bc 4b0c ad3d
000003b0: d6a1 1b3c 79ed 9ebc 80bc ae3c 6ec2 f3bd
000003c0: 7555 143d c08e efbd 45ff acbd 655f e8bd
000003d0: 95a8 c9bd 3cc4 9b3d a39a 8cbd e580 943d
000003e0: c90b 843e 1c56 6d3d fc56 ea3d 50d2 04b9
000003f0: ddb9 2dbd 387e f13d 754e 283d 2f4e df3d

encoder.fc.bias f4 [16]
0.012901514 0.14455673 0.18663332 0.02273719 -0.045628533 -0.04674631 0.08039486 -0.067928724
0.057303574 0.14428791 0.014069045 0.043891035 -0.105498 -0.047715053 0.03423328 0.09967274
00000000: df60 533c ae06 143e ce1c 3f3e 5843 ba3c
00000010: fce4 3abd 0f79 3fbd 0fa6 a43d 371e 8bbd
00000020: 27b7 6a3d 36c0 133e da81 663c 16c7 333d
00000030: 560f d8bd dc70 43bd 3238 0c3d 3921 cc3d

decoder.decoder_fc1.weight f4 [64, 16]
-0.3537826 0.17957589 0.28803277 0.15445945 -0.03816523 0.1411426 0.099069305 0.005641787
-0.03997876 0.22613148 0.2964014 -0.58210063 -0.100160874 0.031786595 -0.20271474 0.007853696
0.11065383 0.2362987 0.31610748 0.16496639 -0.20930713 0.20026746 0.19141148 0.19996476
0.16848841 0.046609625 -0.21922868 -0.0316427 0.01817301 -0.2594214 -0.21515171 -0.20572512
0.030144166 0.16843231 0.11798733 0.12647933 -0.26206598 -0.280798 -0.23150139 -0.11500256
0.2477341 -0.062289033 0.073082276 0.12238076 -0.0865534 -0.24275954 -0.039495435 0.14226094
0.11721242 0.056890674 0.26837313 -0.018028634 -0.058971792 0.21963237 -0.11256146 0.20106567
-0.19557974 0.20795278 0.0394729 0.15598857 -0.11794655 -0.039417878 0.022093138 -0.17252688
0.1720695 -0.22675596 0.2255803 0.02753634 -0.270887 -0.016633138 0.068959326 -0.18518628
-0.20514378 0.17296374 0.024652982 -0.17438202 -0.24610135 0.05142979 0.32712737 0.22204103
0.265788 0.2958174 0.20995335 -0.07514253 -0.06005339 -0.08912677 -0.23963305 0.22041939
-0.04270898 0.0010852738 -0.3024727 -0.008229291 -0.12779562 -0.09327401 0.065785974 -0.21704419
-0.24203119 -0.09821742 -0.123237886 -0.20431091 0.056105725 0.08648952 0.07269367 -0.13163964
-0.21962275 0.10189744 0.38929272 0.06489779 -0.006247746 0.11374474 0.16942126 -0.001319692
-0.017002758 -0.14564845 -0.20824394 0.015975721 -0.19583017 0.10433055 -0.009553539 0.1651221
-0.19492263 -0.056110643 -0.26742792 0.20086591 -0.15631928 0.1361045 0.1507683 -0.17560065
-0.4881453 -0.15037097 -0.05419021 -0.100804515 0.19758654 -0.2766523 -0.29836473 0.058036435
0.21273655 -0.118892014 -0.20095664 0.20766309 0.23467225 0.32372937 0.4205908 -0.0037405745
-0.017717658 -0.03221618 0.13536073 0.04095221 -0.20723045 -0.101767145 -0.07570022 0.091986954
0.20681241 -0.14897832 -0.079219945 -0.03730827 -0.09038757 -0.09671372 -0.2601716 -0.0010345763
-0.060148265 -0.2075513 0.2052925 -0.16681045 -0.1883184 0.10342434 0.010478126 -0.009102631
-0.2695457 -0.17961389 -0.026431719 0.037557606 0.04870475 0.12708004 -0.043843344 -0.08445453
-0.18817523 0.24894838 -0.25169548 0.25052777 -0.14763536 -0.09304515 -0.19432475 0.10419734
0.14467493 -0.045255944 0.13602778 -0.04875267 -0.24087839 0.14675605 -0.32010093 -0.006127207
0.11154905 -0.16347018 -0.04291275 0.046686143 -0.06324199 0.24486473 0.0909363 0.24677798
-0.08162457 -0.033040464 -0.22834095 -0.17143738 0.021767199 0.17295265 0.17008165 0.022274673
0.26342422 0.017201476 0.15495718 -0.20447737 0.14047472 0.20063229 -0.115163736 -0.22771892
0.04177382 -0.036805272 -0.017131062 -0.043874215 0.22306916 -0.12596875 -0.05353081 -0.110870905
-0.15362585 0.21546353 0.03376482 -0.028452422 0.19497953 -0.23465012 -0.18865785 0.12417309
-0.111621045 -0.0443834 0.02440106 0.0064030113 0.117199294 -0.19031774 0.076915674 0.16974886
0.29137295 -0.023108494 0.06566078 0.03633186 0.054167774 -0.1924607 -0.22973461 -0.25807545
0.20841338 0.02548627 -0.19263728 -0.008135166 -0.2543382 -0.18159753 -0.0797636 0.17856821
00000000: fe22 b5be bee2 373e 0879 933e 9e2a 1e3e
00000010: 2553 1cbd b087 103e d9e4 ca3d bdde b83b
00000020: c5c0 23bd 038f 673e edc1 973e 8c04 15bf
00000030: 2521 cdbd a932 023d 7494 4fbe caac 003c
00000040: 7a9e e23d 49f8 713e d7d8 a13e f3ec 283e
00000050: 9c54 56be ea12 4d3e 5f01 443e 90c3 4c3e
00000060: 3a88 2c3e bce9 3e3d 7c7d 60be c79b 01bd
00000070: 90df 943c e2d2 84be bb50 5cbe 9ba9 52be
00000080: e6f0 f63c 8579 2c3e 57a3 f13d cc83 013e
00000090: 832d 86be c1c4 8fbe b30e 6dbe 7686 ebbd
000000a0: 02ae 7d3e c922 7fbd 29ac 953d c4a2 fa3d
000000b0: e942 b1bd f595 78be f7c5 21bd daac 113e
000000c0: 110d f03d 3206 693d 3468 893e c9b0 93bc
000000d0: 688c 71bd 4fe7 603e 9f86 e6bd 29e4 4d3e
000000e0: 0e46 48be 93f1 543e 56ae 213d 78bb 1f3e
000000f0: f68d f1bd a474 21bd abfc b43c e3aa 30be
00000100: fd32 303e b732 68be 86fe 663e e493 e13c
00000110: b3b1 8abe 3842 88bc 8c3a 8d3d 79a1 3dbe
00000120: 3611 52be 681d 313e 0df5 c93c 3391 32be
00000130: fe01 7cbe 0ba8 523d 3d7d a73e b95e 633e
00000140: 5d15 883e 6175 973e 03fe 563e 54e4 99bd
00000150: 8bfa 75bd 1988 b6bd 5e62 75be 9fb5 613e
00000160: 9def 2ebd bf3f 8e3a b4dd 9abe 26d4 06bc
00000170: dbdc 02be 7206 bfbd ccba 863d d540 5ebe
00000180: 06d7 77be 3726 c9bd 2564 fcbd e136 51be
00000190: 1ecf 653d 6b21 b13d 6be0 943d 8bcc 06be
000001a0: c9e4 60be 9baf d03d 6051 c73e 22e9 843d
000001b0: e4b9 ccbb 01f3 e83d c47c 2d3e 84f9 acba
000001c0: 5e49 8bbc de24 15be e63d 55be 84df 823c
000001d0: b487 48be 41ab d53d 7286 1cbc c515 293e
000001e0: cc99 47be 46d4 65bd 50ec 88be cbaf 4d3e
000001f0: 2912 20be fa5e 0b3e 0163 1a3e a8d0 33be
00000200: 2eee f9be d9fa 19be 8ef6 5dbd 9972 cebd
00000210: 2054 4a3e 5fa5 8dbe 43c3 98be 9db7 6d3d
00000220: 9cd7 593e a87d f3bd 94c7 4dbe a2a5 543e
00000230: ec4d 703e dbbf a53e ad57 d73e 6d24 75bb
00000240: 9f24 91bc 1df5 03bd 019c 0a3e 81bd 273d
00000250: 3834 54be 4b6b d0bd b808 9bbd a863 bc3d
00000260: a2c6 533e c68d 18be 113e a2bd 8ed0 18bd
00000270: 1e1d b9bd d811 c6bd 3635 85be 9f9a 87ba
00000280: 075e 76bd 5488 54be 3238 523e 5cd0 2abe
00000290: 8ad6 40be 24d0 d33d 72ac 2b3c 3423 15bc
000002a0: e501 8abe b4ec 37be 5587 d8bc 01d6 193d
000002b0: a27e 473d 4521 023e 1495 33bd 7ff6 acbd
000002c0: 02b1 40be 53ec 7e3e 3bde 80be 2d45 803e
000002d0: b92d 17be 758e bebd 11fd 46be 6a65 d53d
000002e0: aa25 143e 4c5e 39bd de4a 0b3e e1b0 47bd
000002f0: d3a8 76be 3847 163e 45e4 a3be bdc6 c8bb
00000300: d473 e43d ba64 27be 48c5 2fbd f839 3f3d
00000310: 0485 81bd d2bd 7a3e d03c ba3d 5eb3 7c3e
00000320: c82a a7bd 7055 07bd 36d2 69be 488d 2fbe
00000330: 2051 b23c 801a 313e e229 2e3e 6079 b63c
00000340: 8adf 863e 1cea 8c3c 18ad 1e3e 8462 51be
00000350: 9bd8 0f3e 8d72 4d3e f7da ebbd 262f 69be
00000360: 061b 2b3d 20c1 16bd 7156 8cbc 73b5 33bd
00000370: 3e6c 643e f4fd 00be 1f43 5bbd 4910 e3bd
00000380: 1850 1dbe 79a2 5c3e fb4c 0a3d 0e15 e9bc
00000390: b7a8 473e 1f48 70be 862f 41be 764e fe3d
000003a0: 9399 e4bd 5ecb 35bd bbe4 c73c 5ad0 d13b
000003b0: 2f06 f03d a7e2 42be f785 9d3d a5d2 2d3e
000003c0: d62e 953e 064e bdbc 2979 863d b7d0 143d
000003d0: 07df 5d3d 6b14 45be 8d3f 6bbe 7722 84be
000003e0: 516a 553e 95c8 d03c b542 45be 5c49 05bc
000003f0: 9e38 82be b4f4 39be 195b a3bd 96da 363e

decoder.decoder_fc1.bias f4 [64]
0.106679805 -0.049751494 -0.057582606 0.04318459 0.24419075 -0.15079336 0.24032547 0.23131761
0.20297435 0.17633565 -0.114923865 0.13878682 -0.22279522 -0.17300823 -0.10062887 0.11721027
0.03542698 -0.10974295 -0.06343178 0.12436076 0.17131513 0.2515245 0.07082625 -0.105982214
0.13951276 -0.2411887 -0.0034069014 0.24006355 0.2355766 0.1681356 -0.24407935 0.03573831
-0.10038791 -0.22771607 0.08802714 0.22546363 0.23255175 -0.19048384 0.07300399 -0.23694411
0.22211777 -0.15471016 0.14766894 0.029430905 -0.2287184 -0.17074332 0.17204916 0.14934184
-0.17201391 -0.21340531 -0.09887425 -0.12477756 0.1871159 -0.16612312 0.22488207 -0.16738948
0.12118117 0.025339698 -0.20378183 0.2895323 -0.17856003 -0.24146768 0.0028663208 -0.16653061
00000000: f17a da3d 39c8 4bbd bddb 6bbd 53e2 303d
00000010: 240d 7a3e 9369 1abe e117 763e 86de 6c3e
00000020: 82d8 4f3e 5591 343e 345d ebbd 221e 0e3e
00000030: 6e24 64be 1229 31be 8216 cebd f00b f03d
00000040: e21b 113d e9c0 e0bd 85e8 81bd dbb0 fe3d
00000050: 3c6d 2f3e d2c7 803e 5a0d 913d 340d d9bd
00000060: 6fdc 0e3e 2cfa 76be 5246 5fbb 38d3 753e
00000070: fe3a 713e bd2b 2c3e f0ef 79be 5662 123d
00000080: 2d98 cdbd 672e 69be 9347 b43d f0df 663e
00000090: 0c22 6e3e 320e 43be 1e83 953d 7aa1 72be
000000a0: d772 633e 576c 1ebe 8736 173e 1519 f13c
000000b0: 2835 6abe 56d7 2ebe a82d 303e 11ed 183e
000000c0: 6a24 30be ec86 5abe 957e cabd 618b ffbd
000000d0: 4f9b 3f3e 2e1c 2abe 7c47 663e 2668 2bbe
000000e0: d52d f83d 3395 cf3c 2fac 50be 943d 943e
000000f0: 71d8 36be 4e43 77be e2d8 3b3b 0087 2abe

decoder.decoder_fc2.weight f4 [128, 64]
0.18140484 -0.040207475 0.066573605 0.085192114 -0.060699217 0.13328554 0.080866344 -0.12235543
0.06763026 0.0571753 0.017905882 -0.049467575 -0.06381996 -0.004046186 -0.10649854 0.083070025
-0.07648186 0.11450054 -0.11485002 -0.09085637 0.013661702 0.100113235 0.042243235 -0.08426313
-0.09209105 -0.07571216 0.101189606 0.0394678 -0.066801466 -0.18478747 0.014033869 0.15107402
-0.06402462 -0.11062588 -0.014849002 0.07574563 0.060505133 -0.008148193 -0.047426697 0.051968172
-0.1590556 -0.1708818 0.065911025 0.12805235 -0.060847804 0.060375128 0.13597171 0.041326486
0.10318785 -0.1201739 -0.04205786 -0.06494669 -0.060867187 -0.048077896 -0.050474133 -0.005541052
-8.692115e-05 0.074527256 -0.07391872 -0.010188359 -0.031619925 -0.005638063 0.012073275 0.082494885
-0.026398249 0.035484467 0.04258579 -0.036884606 0.08723846 0.042915363 0.029107783 0.10017773
-0.03563719 -0.092137106 0.04975438 -0.05718514 -0.083792016 -0.12397565 0.033932835 -0.03463404
-0.11565959 -0.0085219 -0.1268645 0.03225905 -0.018618194 0.014012989 0.089773774 -0.102643445
-0.06352017 0.030523568 0.09850933 0.015845934 -0.040600926 0.10816367 0.12332772 -0.0019715668
-0.07091934 -0.11551662 0.1148488 0.105343565 -0.06772812 0.082397774 -0.0490154 -0.040130705
-0.11034069 0.1146708 -0.06701147 -0.124299586 -0.11660993 -0.051837295 0.050342176 -0.035707336
-0.054414168 -0.021722078 -0.056054235 -0.046847448 -0.021529593 -0.0535879 0.0638582 0.028627917
0.06775355 -0.07175849 0.0799586 0.01660681 -0.041556735 -0.092248976 -0.07820482 0.040809497
0.228669 0.063343205 -0.014090211 0.09251837 -0.020878572 0.06629351 -0.10942007 0.018599665
0.12943955 0.009129607 -0.02153481 0.12457773 0.0525499 -0.047328316 0.041615363 0.053549223
0.056043915 0.11670299 -0.10478051 0.0896917 0.15241726 0.04962249 0.052656136 -0.11607747
0.050441965 0.07427271 0.111649536 0.08780004 -0.073513016 0.014378134 0.014771864 0.06648691
0.09133239 0.049519613 0.09688375 -0.0060346606 -0.035517488 -0.05311683 -0.0926221 -0.0066701323
0.012205258 -0.14205065 0.07914656 0.07215179 0.08582921 0.028483285 0.0062642354 0.06906512
0.0055582253 -0.07589227 0.03542992 -0.2875093 0.0841102 -0.03954287 0.091565095 0.17380261
-0.0783185 -0.13028722 -0.07360009 -0.06364512 0.13850793 -0.0773422 -0.052489996 -0.0074824095
0.008602025 -0.065058194 0.13153128 0.022954049 -0.08172302 0.06703121 0.22156818 -0.045033053
0.27821255 -0.03090886 0.04779569 -0.014968234 -0.09326303 -0.09340998 0.080677904 -0.07548022
-0.0051557026 -0.13257805 0.12058753 0.03458514 0.107994825 0.030786218 0.056922235 0.062469706
0.10300896 -0.06596537 -0.06945441 0.057073694 0.06533357 -0.20838727 0.078622445 -0.05654604
-0.101735376 0.05087517 0.06517977 0.0072018355 -0.0014491596 0.0794629 0.010688919 0.1129877
-0.24068575 0.006211482 0.04069491 0.046218753 0.08344133 -0.11218736 0.038466085 0.122172944
-0.14103839 0.08395296 0.03331583 -0.012980498 -0.10977816 -0.12174183 -0.1135922 0.13593441
0.06792297 0.14060098 0.028084122 0.097870454 -0.15024962 -0.053076282 -0.012467004 0.036453083
00000000: 31c2 393e 98b0 24bd be57 883d 3479 ae3d
00000010: be9f 78bd 017c 083e 419d a53d 7c95 fabd
00000020: bc81 8a3d a630 6a3d 5baf 923c 839e 4abd
00000030: 0ab4 82bd de95 84bb e81b dabd 9e20 aa3d
00000040: 85a2 9cbd 427f ea3d 7d36 ebbd e812 babd
00000050: 55d5 5f3c 2b08 cd3d 3e07 2d3d 2692 acbd
00000060: 3c9a bcbd fa0e 9bbd 7f3c cf3d fda8 213d
00000070: 35cf 88bd ed38 3dbe 50ee 653c 26b3 1a3e
00000080: 571f 83bd d28f e2bd 3a49 73bc 8620 9b3d
00000090: 3bd4 773d 0080 05bc 7f42 42bd 94dc 543d
000000a0: 79df 22be a3fb 2ebe 5cfc 863d 2820 033e
000000b0: 8c3b 79bd e94b 773d 2b3c 0b3e f645 293d
000000c0: 2754 d33d bc1d f6bd dd44 2cbd c502 85bd
000000d0: df4f 79bd 54ed 44bd f7bd 4ebd b791 b5bb
000000e0: 7049 b6b8 bfa1 983d b362 97bd 13ed 26bc
000000f0: e583 01bd 80bf b8bb fcce 453c 14f3 a83d
00000100: 2441 d8bc 2958 113d 706e 2e3d 5014 17bd
00000110: 14aa b23d 05c8 2f3d 7273 ee3c fb29 cd3d
00000120: 4df8 11bd 61b2 bcbd 40cb 4b3d f73a 6abd
00000130: 269b abbd f2e6 fdbd 28fd 0a3d 6cdc 0dbd
00000140: efde ecbd 709f 0bbc c4e8 01be 1122 043d
00000150: 2f85 98bc bc96 653c 50db b73d ba36 d2bd
00000160: dd16 82bd 900c fa3c 42bf c93d 55cf 813c
00000170: 284d 26bd ea84 dd3d 3e93 fc3d 6735 01bb
00000180: 293e 91bd fa93 ecbd d935 eb3d 5ebe d73d
00000190: 0ab5 8abd 2ac0 a83d 5fc4 48bd 1860 24bd
000001a0: 4dfa e1bd 86d8 ea3d 4f3d 89bd c890 febd
000001b0: 30d1 eebd 5853 54bd 9933 4e3d db41 12bd
000001c0: 64e1 5ebd 80f2 b1bc 2099 65bd 1ce3 3fbd
000001d0: d45e b0bc fc7e 5bbd 17c8 823d 1885 ea3c
000001e0: 60c2 8a3d 1df6 92bd 56c1 a33d 010b 883c
000001f0: 6537 2abd 08ed bcbd d929 a0bd dc27 273d
00000200: 3528 6a3e 15ba 813d a1da 66bc 457a bd3d
00000210: 8a09 abbc e4c4 873d a117 e0bd 535e 983c
00000220: cd8b 043e 5994 153c c569 b0bc 9c22 ff3d
00000230: 903e 573d 56db 41bd df74 2a3d 6e56 5b3d
00000240: 4e8e 653d fa01 ef3d 2a97 d6bd 48b0 b73d
00000250: 4513 1c3e f440 4b3d f6ad 573d 06ba edbd
00000260: 3c9c 4e3d 4a1c 983d 83a8 e43d 82d0 b33d
00000270: fe8d 96bd 4492 6b3c b005 723c 4a2a 883d
00000280: 7a0c bb3d 14d5 4a3d fd6a c63d 67be c5bb
00000290: c97a 11bd 0891 59bd a8b0 bdbd 2091 dabb
000002a0: 90f8 473c ba75 11be 9717 a23d 51c4 933d
000002b0: 3ac7 af3d c755 e93c 3744 cd3b 0372 8d3d
000002c0: c621 b63b 686d 9bbd f71e 113d 6b34 93be
000002d0: f841 ac3d b4f7 21bd 7b86 bb3d 50f9 313e
000002e0: 7365 a0bd 036a 05be a5bb 96bd 5f58 82bd
000002f0: 06d5 0d3e 9665 9ebd c0ff 56bd 002f f5bb
00000300: 82ef 0c3c 3b3d 85bd 23b0 063e 210a bc3c
00000310: 665e a7bd a947 893d c5e2 623e 9474 38bd
00000320: e071 8e3e 9434 fdbc 6ac5 433d 533d 75bc
00000330: b000 bfbd bb4d bfbd 753a a53d 6095 9abd
00000340: 2bf1 a8bb 8ac2 07be 98f6 f63d 26a9 0d3d
00000350: 642c dd3d 6133 fc3c 4a27 693d 3ce0 7f3d
00000360: 5df6 d23d da18 87bd 1d3e 8ebd 1bc6 693d
00000370: 9bcd 853d 7963 55be ce04 a13d d29c 67bd
00000380: a35a d0bd 7b62 503d f97c 853d 60fd eb3b
00000390: baf1 bdba 72bd a23d 9320 2f3c 1866 e73d
000003a0: 5376 76be b089 cb3b b5af 263d e04f 3d3d
000003b0: 4ae3 aa3d 7dc2 e5bd 9d8e 1d3d cf35 fa3d
000003c0: 5e6c 10be 88ef ab3d 2e76 083d 28ac 54bc
000003d0: 5fd3 e0bd c853 f9bd 07a3 e8bd 6432 0b3e
000003e0: 331b 8b3d b4f9 0f3e ac10 e63c 4e70 c83d
000003f0: 09db 19be 8466 59bd 6842 4cbc d44f 153d

decoder.decoder_fc2.bias f4 [128]
-0.027649261 -0.031094145 0.11644033 0.04251641 0.058833156 0.026016694 -0.033039242 -0.0035048658
0.10660865 0.026954936 0.086439 0.07964289 0.02099393 0.05097557 -0.114461124 -0.06058738
-0.004366844 -0.032854374 0.02965719 -0.071016744 0.003928125 -0.0019244327 0.06371976 -0.09337795
-0.121158026 -0.12077516 0.12404355 0.08511221 -0.035447985 0.08110629 -0.023544326 -0.06127296
0.07262281 -0.061693013 0.0060578072 -0.026843207 -0.0046761185 0.045292046 0.0019940902 0.12983865
-0.10749261 -0.13559493 0.06748873 0.07168183 0.14594862 -0.07081994 -0.09068775 0.022250725
0.022040173 0.023000296 0.14536496 0.05123606 0.05525623 -0.00381504 -0.105051525 0.13445954
-0.041866593 0.026401022 0.08515681 0.03676746 0.009010824 0.0026376694 -0.050348677 -0.12961592
0.04817296 0.061180197 -0.006643547 -0.13711713 0.044575986 -0.0071590645 0.07884973 0.02996248
-0.009813074 -0.054282818 0.0045138607 0.0873822 -0.11003056 0.030169897 -0.01718676 0.084610924
0.056650918 0.03185486 -0.052672505 -0.11896166 0.010294899 0.05338121 0.0011679936 0.022148661
0.042119727 0.09499573 -0.03871856 -0.006398843 0.06498767 0.057408273 -0.06043671 0.06979828
-0.10745585 -0.040401775 -0.055252526 -0.11222218 0.031889394 0.068494156 -0.0013917075 -0.12718722
-0.02764795 0.11868732 -0.027203294 -0.12110682 -0.03832188 0.0056688935 0.02915672 -0.004600075
-0.0498775 -0.015976202 -0.13554056 -0.028853582 -0.07321267 -0.100261986 -0.11624339 0.10910559
0.02919366 0.07858485 -0.021172294 -0.1286262 -0.101240136 0.012624623 0.021426875 0.006730503
00000000: b480 e2bc 26b9 febc 4578 ee3d b025 2e3d
00000010: 09fb 703d f620 d53c 2854 07bd e4b1 65bb
00000020: a355 da3d 99d0 dc3c ee06 b13d d01b a33d
00000030: 76fb ab3c c2cb 503d 986a eabd 792a 78bd
00000040: be17 8fbb 4f92 06bd a3f3 f23c 3a71 91bd
00000050: 80b7 803b 3f3d fcba 817f 823d f03c bfbd
00000060: b321 f8bd f858 f7bd 8b0a fe3d 4f4f ae3d
00000070: e831 11bd 0e1b a63d 08e0 c0bc 5bf9 7abd
00000080: 45bb 943d d0b1 7cbd 9280 c63b 49e6 dbbc
00000090: 203a 99bb 2784 393d 48af 023b 6cf4 043e
000000a0: 1625 dcbd 66d9 0abe 8837 8a3d eccd 923d
000000b0: 8e73 153e 0b0a 91bd 80ba b9bd 2747 b63c
000000c0: 988d b43c 1e6b bc3c 8dda 143e e7dc 513d
000000d0: 5b54 623d c005 7abb 4125 d7bd c3af 093e
000000e0: 4e7c 2bbd f546 d83c b266 ae3d 7a99 163d
000000f0: 23a2 133c c0dc 2c3b 6a3a 4ebd 09ba 04be
00000100: 0251 453d 1698 7a3d 1db2 d9bb 6f68 0cbe
00000110: 4f95 363d 9696 eabb f87b a13d e073 f53c
00000120: 04c7 20bc a957 5ebd 02e9 933b 70f5 b23d
00000130: b457 e1bd dc26 f73c 40cb 8cbc 7e48 ad3d
00000140: cb0a 683d 3e7a 023d 20bf 57bd 2ca2 f3bd
00000150: f0ab 283c 41a6 5a3d 5d17 993a 1c71 b53c
00000160: bc85 2c3d 1f8d c23d 5a97 1ebd 63ad d1bb
00000170: 4118 853d f024 6b3d 7c8c 77bd 67f2 8e3d
00000180: d011 dcbd 557c 25bd 7950 62bd bed4 e5bd
00000190: 749e 023d aa46 8c3d f469 b6ba 5e3d 02be
000001a0: f47d e2bc 5612 f33d 71d9 debc da06 f8bd
000001b0: 67f7 1cbd 20c2 b93b 13da ee3c 3abc 96bb
000001c0: 594c 4cbd 86e0 82bc 25cb 0abe 595e ecbc
000001d0: 86f0 95bd 2856 cdbd 0411 eebd c072 df3d
000001e0: 8b27 ef3c 18f1 a03d 8571 adbc 96b6 03be
000001f0: fd56 cfbd 82d7 4e3c 6a87 af3c 8d8b dc3b

decoder.decoder_fc3.weight f4 [32, 128]
0.021440554 -0.07894259 0.017250754 0.007918755 0.07059111 -0.026824469 -0.20574471 -0.046988774
0.06803197 0.17915073 -0.025536774 0.026352417 0.09971963 -0.016177887 -0.0059048366 0.0668703
-0.020543728 -0.07088998 0.06093487 0.03818565 -0.035519753 0.07863777 0.03602767 -0.06535854
0.13397703 -0.044363685 -0.011620885 0.1152198 0.05377553 0.120020166 0.050439198 0.13823265
0.10001512 -0.04092278 -0.030331919 0.08012525 0.080268785 -0.05646093 0.046013493 0.035869442
-0.053410962 -0.03553819 0.07377867 -0.007576226 0.03026693 0.08284644 -0.058505237 -0.044252366
0.03261789 0.05887886 -0.03738957 0.07718982 0.02415017 -0.036606845 -0.04852644 0.054988332
-0.15888222 0.063726485 0.071173385 0.008636748 0.11415877 -0.013134306 0.060797814 -0.064352944
0.0042793225 0.041582227 -0.09008123 0.0740963 0.043206867 0.024450265 0.01728967 -0.07382403
-0.03802271 -0.0843075 0.033039484 -0.027916633 0.020218244 -0.034703664 -0.083124675 0.07391424
0.12788284 0.087653786 0.014325793 0.07865284 0.08418902 0.05324957 0.066712976 -0.071639605
-0.00156879 0.057751212 -0.0692901 -0.017158987 0.025912633 0.010954584 -0.2627327 0.008625776
0.0045853523 -0.01618505 0.14539562 0.0869734 -0.062380128 0.08823392 -0.0025491077 0.06709572
0.06489374 0.053491913 -0.034845233 -0.08295789 -0.054562844 0.0442722 0.044921305 0.09705453
0.05467097 -0.0018650226 -0.09470218 0.028193897 0.07420882 -0.22219561 0.036566626 0.07639665
0.072290674 0.003371168 -0.3619005 -0.18472214 -0.09161204 -0.01966204 0.08398272 0.008309068
0.08128786 -0.03145957 0.096958674 0.03766797 -0.031186098 0.03791971 -0.0010580115 0.09320745
0.033440854 0.07988999 0.0503019 0.033927698 0.020081503 -0.012014184 -0.022092894 -0.046343315
0.061337393 -0.022899881 0.09369577 0.03298069 -0.05365158 0.07432788 0.029809844 0.017070537
0.12626024 0.058472194 0.056698807 0.07606487 0.061122276 0.11140994 -0.047758386 0.20307022
0.12256436 0.13856655 0.048134055 0.1785792 -0.087280646 -0.048953492 0.080508 0.07816607
0.030820832 0.0015245436 0.06522704 -0.12396642 0.080055065 0.072327405 0.034068823 0.071472086
-0.0836135 0.015651071 0.014443871 -0.0072672246 0.043746825 -0.077328466 -0.14497904 0.039156258
-0.14377676 -0.021998674 -0.0066755502 -0.0025772979 0.21326534 0.07073907 0.107042596 -0.052896176
-0.038886398 -0.014302239 -0.0426934 0.05101015 -0.052510135 -0.046528038 0.09309157 -0.028171713
-0.19525336 -0.14198095 -0.024477921 0.040789686 0.037995793 0.056279484 -0.13675657 0.08981093
0.108345054 0.023668362 -0.05801617 0.009995052 0.05429657 0.023499073 -0.02451785 0.0039648116
-0.06599722 -0.020444663 0.046612196 0.06843264 -0.05761998 0.11318361 -0.32433736 0.058054205
0.04728707 0.035548925 0.0885807 -0.06387167 -0.08633767 0.06846377 -0.057238057 -0.010810685
-0.006923573 0.041425172 -0.016878735 -0.04986698 -0.060175415 0.020461367 0.00168059 0.11014708
0.01690549 -0.02675837 -0.08878534 0.010647784 -0.021358369 -0.21299963 0.001047307 0.058963813
-0.003241318 0.023397606 -0.36135733 -0.2231532 -0.076214485 -0.1015658 -0.072462656 -0.050383862
00000000: 1aa4 af3c a7ac a1bd 7451 8d3c aabd 013c
00000010: 1292 903d fdbe dbbc beae 52be 4d77 40bd
00000020: 5854 8b3d 4a73 373e 7f32 d1bc 06e1 d73c
00000030: ce39 cc3d 7d87 84bc 5c7d c1bb 4cf3 883d
00000040: 524b a8bc c42e 91bd d896 793d 8e68 1c3d
00000050: 297d 11bd d70c a13d c091 133d b3da 85bd
00000060: 4631 093e b2b6 35bd 8665 3ebc 5cf8 eb3d
00000070: bb43 5c3d 22cd f53d 5599 4e3d dc8c 0d3e
00000080: bad4 cc3d a59e 27bd a57a f8bc b518 a43d
00000090: f663 a43d 9343 67bd a578 3c3d d6eb 123d
000000a0: 74c5 5abd 7e90 11bd 4519 973d fd41 f8bb
000000b0: 5af2 f73c 65ab a93d 30a3 6fbd f841 35bd
000000c0: 569a 053d f62a 713d ce25 19bd b215 9e3d
000000d0: 94d6 c53c 0ff1 15bd a9c3 46bd 723b 613d
000000e0: 05b2 22be 0883 823d 5ac3 913d 2681 0d3c
000000f0: 13cc e93d 4631 57bc 2107 793d 7acb 83bd
00000100: 8f39 8c3b 2052 2a3d 827c b8bd cdbf 973d
00000110: aff9 303d ec4b c83c 11a3 8d3c 0e31 97bd
00000120: b3bd 1bbd 69a9 acbd 6954 073d 6cb1 e4bc
00000130: bba0 a53c 6e25 0ebd 453d aabd 5960 973d
00000140: b8f3 023e d483 b33d bbb6 6a3c bd14 a13d
00000150: 4b6b ac3d 391c 5a3d d0a0 883d c9b7 92bd
00000160: db9f cdba 898c 6c3d f8e7 8dbd 0191 8cbc
00000170: bb46 d43c db7a 333c e784 86be 2053 0d3c
00000180: b940 963b 8396 84bc 97e2 143e 1c1f b23d
00000190: 4e82 7fbd fcb3 b43d ee0e 27bb 7b69 893d
000001a0: 02e7 843d 561a 5b3d e0b9 0ebd d4e5 a9bd
000001b0: 4a7d 5fbd c456 353d 67ff 373d 87c4 c63d
000001c0: abee 5f3d c673 f4ba 37f3 c1bd e3f6 e63c
000001d0: cbfa 973d 3f87 63be e3c6 153d d975 9c3d
000001e0: 220d 943d d0ee 5c3b 064b b9be cd27 3dbe
000001f0: 189f bbbd 4912 a1bc 22ff ab3d c222 083c
00000200: 407a a63d c0db 00bd 4592 c63d bb49 1a3d
00000210: fd79 ffbc b351 1b3d faac 8aba 8ce3 be3d
00000220: 47f9 083d 5d9d a33d 5d09 4e3d c5f7 0a3d
00000230: f781 a43c 24d7 44bc 28fc b4bc 7dd2 3dbd
00000240: eb3c 7b3d 8898 bbbc 91e3 bf3d c316 073d
00000250: c2c1 5bbd 3739 983d c633 f43c 83d7 8b3c
00000260: 5d4a 013e 8a80 6f3d 023d 683d e6c7 9b3d
00000270: 5a5b 7a3d e52a e43d 4c9e 43bd a4f1 4f3e
00000280: 0603 fb3d 64e4 0d3e 3728 453d 77dd 363e
00000290: 32c0 b2bd 7583 48bd 61e1 a43d 8815 a03d
000002a0: f87b fc3c 32d3 c73a c195 853d 1be2 fdbd
000002b0: e9f3 a33d 6420 943d c08b 0b3d f55f 923d
000002c0: 8e3d abbd ad36 803c fca5 6c3c e621 eebb
000002d0: df2f 333d 635e 9ebd 6375 14be 5062 203d
000002e0: 373a 13be 9036 b4bc 93be dabb e2e7 28bb
000002f0: 3b62 5a3e a5df 903d 2639 db3d a9a9 58bd
00000300: 5847 1fbd f053 6abc 46df 2ebd 05f0 503d
00000310: de14 57bd 2f94 3ebd cba6 be3d 5dc8 e6bc
00000320: 7ff0 47be 7463 11be ec85 c8bc 1613 273d
00000330: 7aa1 1b3d 5185 663d ea09 0cbe cbee b73d
00000340: 03e4 dd3d 27e4 c13c 5da2 6dbd 49c2 233c
00000350: 1566 5e3d 2181 c03c a8d9 c8bc 40eb 813b
00000360: 8d29 87bd 917b a7bc 6eec 3e3d 6926 8c3d
00000370: ee02 6cbd cfcc e73d 8c0f a6be 3fca 6d3d
00000380: 16b0 413d c09b 113d cc69 b53d 26cf 82bd
00000390: ced1 b0bd bc36 8c3d 7472 6abd 4d1f 31bc
000003a0: 24df e2bb 71ad 293d 4645 8abc 5241 4cbd
000003b0: 7f7a 76bd 999e a73c 3e47 dc3a cb94 e13d
000003c0: 627d 8a3c 5f34 dbbc 17d5 b5bd 0b74 2e3c
000003d0: bff7 aebc 931c 5abe cb45 893a 0a84 713d
000003e0: 4b6c 54bb 56ac bf3c d403 b9be 4682 64be
000003f0: 5716 9cbd bb01 d0bd 4d67 94bd 4f5f 4ebd

decoder.decoder_fc3.bias f4 [32]
-0.047494996 0.02758611 0.06756572 -0.021401243 0.028872399 0.039643288 -0.062296286 -0.05424811
-0.028648911 -0.018250981 0.01207281 0.04228578 -0.013082259 0.08705516 0.10720235 0.030249283
0.026685845 -0.026667789 0.04326241 0.09736011 0.029852232 -0.023302551 0.052721944 0.04026261
0.10880425 -0.03236204 0.007146608 0.091368526 0.008853674 -0.030449506 -0.011581752 0.0372518
00000000: 1d8a 42bd 44fc e13c e55f 8a3d a951 afbc
00000010: cf85 ec3c 0061 223d 642a 7fbd 4433 5ebd
00000020: 1fb1 eabc 1583 95bc 09cd 453c db33 2d3d
00000030: f956 56bc fa49 b23d e88c db3d 58cd f73c
00000040: 469c da3c 6876 dabc ed33 313d bd64 c73d
00000050: ab8c f43c fee4 bebc f7f2 573d 68ea 243d
00000060: c3d4 de3d 0f8e 04bd 182e ea3b 6c1f bb3d
00000070: 000f 113c 3e71 f9bc 64c1 3dbc 5895 183d
