clustering/clustering/encoder_weights/full_bag/lidar_encoder_autoencoder_full_bag_8.pth (torch, 95578 bytes, 14 tensors)

encoder.conv2d_1.weight f4 [16, 1, 1, 3]
00000000: c657 59bd d3b2 0dbc 0754 20be 25af 2e3f
00000010: 7c9b 2e3e 82e0 04bf f4df 873e e8ed 03bd
00000020: 1373 7ebe 1786 d5be 035c 053f b4ab 0e3f
00000030: 0064 083f 7897 013f 2121 423e 451d 08bf
00000040: 8be2 cfbe 99fc 073e f1bb 5fbe 9563 e2be
00000050: 0705 72be 98a1 d73e 1ffb 373d cba5 f33e
00000060: 06cd 1d3d 983b 523e 1319 d43e d075 13be
00000070: df25 aa3e 50b6 043f 2610 80bd 6b1d 72be
00000080: b3e0 02bf a3a6 87be bb1f eabe 145c 0fbf
00000090: 609d acbe 1634 773e 0428 ab3e 924d ee3e
000000a0: f4fa efbd 8a0e f1be 0160 253f 474a 43bd
000000b0: e3cb 82bd 68db 813e e663 b83e a67a dc3e
-0.053062223 -0.008648592 -0.15657054 0.68236 0.170515 -0.5190507 0.2653805 -0.032209307
-0.24848585 -0.41703865 0.52093524 0.5573075 0.5327759 0.5062175 0.1895795 -0.5316966
-0.40602526 0.13279952 -0.21849038 -0.442166 -0.2363473 0.42115474 0.044917222 0.47587427
0.038525604 0.20530546 0.4142538 -0.1440041 0.33232018 0.51840687 -0.0625308 -0.23644035
-0.51124114 -0.2649432 -0.45727333 -0.55999875 -0.33713818 0.24140963 0.33428967 0.46543556
-0.117177874 -0.47081405 0.64599615 -0.04767826 -0.063865446 0.25362706 0.36013716 0.43062323

encoder.conv2d_1.bias f4 [16]
00000000: 6858 e63e 3865 283d 913e 83be 9325 96bb
00000010: a76e 7bbc 5f95 193e b668 f2bd a325 b0be
00000020: 0362 b0be 45c6 5fbe b508 0d3e 1beb 89be
00000030: c5ad 6a3d b279 cd3e 252c 17be 402a be3e
0.44989324 0.041112155 -0.25633672 -0.004582116 -0.015346206 0.14998387 -0.11836378 -0.34403715
-0.34449777 -0.21852978 0.13772853 -0.26937184 0.057294626 0.4013191 -0.14762934 0.3714161

encoder.conv2d_2.weight f4 [32, 16, 1, 3]
00000000: b54b 083d 7ac2 cebc dea8 03be c313 54bd
00000010: 4a5e 203d cd26 f13d 96c0 9cbd 1ac0 0ebe
00000020: abab 13bc 7fae 9a3d e26a debd 7acd 19be
00000030: cdd9 d7bd e733 45bd be21 953d 67d5 a3bd
00000040: 657f 79bb 5351 53bd ef37 8fbd fa67 02be
00000050: a437 b93d 23d6 363d f5f2 ac3d ed3c ed3d
00000060: ff95 223d e8dd 27be d5d9 3c3d e36e 933d
00000070: 1aa0 c9bd dde8 15bc 14f4 dc3d 7c0d 3cbc
00000080: 7fd2 ca3d be29 11be 3050 883d 9a77 16bd
00000090: 8614 06bd 473f 8fbd a518 283e 488f 25be
000000a0: 3bfe 2abd 5256 78bc ef60 c83d 5ee4 b5bd
000000b0: ea9e c83d 9484 19be 4ef2 0b3d cf9a 0dbe
000000c0: eff8 543d cdba a73d ba22 82bd f3cd 493c
000000d0: af1e 10bd a916 bebd eb1d 02bd 6e70 55ba
000000e0: ed87 12bd 2357 c03c f23c 633c 0d41 b03d
000000f0: 5c76 65bd 29c5 c6bd 7fca 72bd 792f 4ebd
00000100: 764c b13d d9e4 963d 336b 8c3d 1436 f9bd
00000110: 1d4a ed3d 2856 c4bd 570c 7ebd 0c12 9ebd
00000120: 8009 f43d 08a0 033e 735c 813c cede 9cbd
00000130: f787 e13d f4aa f73d 2ac3 cf3d 2849 aabc
00000140: 3766 b83d 1935 113e bf1e 83bd 9c39 d83d
00000150: 6475 563b c079 4cbb 9123 d13b c0d0 03be
00000160: 7ca5 34bd ba3b a0bb 0468 9d3b ca2e f9bd
00000170: 25e9 9cbd 745c 9cbd ba4d b13c a1ef 3eba
00000180: 45be b73d 10d7 57bd 5c05 033c d4ae 4e3d
00000190: d82b 53bd 607f 073e 5a4f 983b f77d ce3d
000001a0: e4ab 023c a874 823b 083c b63d 1e40 eebd
000001b0: 56b1 283d a65a 1cbe fe5b 0bbd 8f88 79bd
000001c0: c567 80bd 432e c13d bad4 be3d 5c6a 0a3e
000001d0: 9b21 40bd 317f 063c 6d5f 113d 9b83 b3bd
000001e0: 9b79 eabd c3ee 1bbe c94b b2bd 1cd3 8ebd
000001f0: f47c 31bc 8be5 3b3d a339 973d 4f01 8dbc
00000200: e331 ffbc 2f0f e6bd 86a8 f33c a8be 13be
00000210: 61ba 7fbd fef5 0bbc b803 0bbe a2f9 8abd
00000220: 52fc 903d c77f fc3d c73c ecbd 83e3 323d
00000230: 3abc 01bd ac7d c8bd 5c65 4f3d d2d6 bf3d
00000240: 7cbd e83d 6bba 433e 890e 3f3e cda7 1dbd
00000250: c3ac fcbd 69dc 253d 99ff f63d 151e fabd
00000260: 30c2 98bd 09a5 9cbd 0bd6 94ba 8f89 07bd
00000270: 4975 9b3c c950 1cbd daa2 03bc b51f ec3c
00000280: 25b2 903d a88c 15bd ca3d 8fbd e466 acbc
00000290: def4 ba3d 7279 7d3d 133a cdbd 7092 053e
000002a0: 569b c9bd 38f7 b83d 64e9 43bd d920 20be
000002b0: 457c 26bd eddd 3bbe 903e 273d c278 f23d
000002c0: 8fac 9cbc 2dae 14bd 0d82 33bd 74b1 8a3c
000002d0: ce74 fcbd 1da3 093e 6d84 343d c5cd 2a3e
000002e0: ff37 ef3d db35 abbd 452c bfbc 4890 e9bd
000002f0: b1ee 50bd b4e2 1a3d 38e7 c8bc 85bc 3f3c
00000300: c17b 2abd 205c 30be 6223 20bd 080d 073e
00000310: 57cc 9c3d 19ef 47be 7f2f 003e d141 2fbc
00000320: d118 fabd d134 0739 8308 ed3d 2efe 093e
00000330: 8bf4 d93d 32b9 a03d ab78 5f3d df32 d9bb
00000340: 3028 f03d 2b0c a03c 823f eebd 9c70 fbbd
00000350: 92c5 89bc 6b74 e33d f857 b9bd e4c9 283d
00000360: 151c 043d 7a81 213d 6068 d33c 560f bdbd
00000370: 392b 9d3d 3d10 353e ab08 c8bd 44cf f7bd
00000380: 32f4 413d 0e34 4c3d 9d77 103e 1c02 ad3d
00000390: 53d8 ce3c d058 233d b8bf 86bd 5712 0dbe
000003a0: 0749 cfbd 4b6d 2fbe 6900 633d 6c72 fcbc
000003b0: d335 a2bd 0582 95bc 9eb6 1ebd 450d 333d
000003c0: 118f e4bc 6c07 aabd a1cf 90bc 9f9e 7a3e
000003d0: 7a12 4a3e 3c6f 9ebe 5f71 dabd 3788 2b3d
000003e0: 6a07 b23c 35e7 85bc 3971 3abe 9d79 5c3e
000003f0: dcb8 203e 1e84 be3c 2994 efbc f3b5 91bc
0.033275325 -0.025239218 -0.12857386 -0.05177666 0.03915242 0.11774979 -0.0765392 -0.13940468
-0.009013097 0.07552814 -0.1086023 -0.1501979 -0.10539589 -0.0481452 0.072818264 -0.07999688
-0.0038070318 -0.05159123 -0.0699309 -0.12734976 0.09043816 0.04463781 0.08444778 0.11583886
0.03969383 -0.16393244 0.04610618 0.07198884 -0.0984499 -0.009149757 0.10788742 -0.011477824
0.0990343 -0.1417608 0.066559196 -0.036735155 -0.032734416 -0.06994491 0.16415651 -0.16167939
-0.04174636 -0.015157299 0.097841136 -0.08881448 0.097959355 -0.14991981 0.034166627 -0.13828586
0.051995214 0.08189926 -0.0635428 0.0123171685 -0.035185512 -0.09281666 -0.031766813 -0.00081420585
-0.03577416 0.02347905 0.013869511 0.086061575 -0.05602108 -0.09705574 -0.059275147 -0.050338242
0.08657162 0.07367868 0.06856384 -0.12168518 0.115864016 -0.095867455 -0.062023487 -0.07718286
0.119158745 0.12854016 0.015791154 -0.07659684 0.11012261 0.120931536 0.101446465 -0.020786837
0.09003871 0.14180411 -0.06402349 0.10557863 0.003272378 -0.0031200498 0.0063824137 -0.128726
-0.04410313 -0.0048899325 0.0048036594 -0.121671274 -0.07661656 -0.076348215 0.021643508 -0.00072836323
0.08971838 -0.052695334 0.007996883 0.050459698 -0.051555485 0.13232183 0.0046481313 0.1008262
0.007975552 0.0039811917 0.08898169 -0.11633323 0.041184746 -0.15268955 -0.034023277 -0.060921248
-0.062697925 0.09432652 0.09317918 0.13517135 -0.04690705 0.008209036 0.035491396 -0.08765336
-0.11448976 -0.15227799 -0.08705861 -0.0697386 -0.010833014 0.045873206 0.0738404 -0.017212538
-0.031151718 -0.11233365 0.029743444 -0.14428198 -0.062433604 -0.008542536 -0.13575637 -0.06785895
0.07079376 0.12329059 -0.1153503 0.043674003 -0.031673647 -0.09789595 0.050633773 0.093671456
0.11364266 0.19114082 0.18657888 -0.038490105 -0.12337639 0.040493403 0.1206047 -0.12212769
-0.07458913 -0.076486655 -0.0011355294 -0.03309017 0.018976824 -0.03816298 -0.008034432 0.028823713
0.070652284 -0.036511093 -0.06994207 -0.021045156 0.09128736 0.061883397 -0.100208424 0.13044143
-0.09844081 0.09031528 -0.04783 -0.1563753 -0.040645856 -0.18346377 0.04083115 0.11839439
-0.019125251 -0.03629892 -0.043825198 0.01693032 -0.12326966 0.13441129 0.044071604 0.16680057
0.11680602 -0.083598815 -0.023336539 -0.114044726 -0.051008884 0.037813857 -0.024524316 0.011702661
-0.041621927 -0.17222643 -0.039096244 0.13188565 0.07656162 -0.19524802 0.12518118 -0.010696844
-0.122117646 0.00012894279 0.11573889 0.13475868 0.10642346 0.07847823 0.054558437 -0.0066283788
0.11726415 0.019537052 -0.11633207 -0.12277338 -0.016817842 0.11106189 -0.09049982 0.041208163
0.032253344 0.03943012 0.025806606 -0.09231441 0.0767426 0.17681976 -0.09767278 -0.1210008
0.047352023 0.04985433 0.14108129 0.08447668 0.025249636 0.03987962 -0.06579536 -0.13776527
-0.10121351 -0.17131536 0.055420313 -0.03081628 -0.079204224 -0.018250475 -0.038748376 0.043713827
-0.02790025 -0.08302197 -0.01767713 0.24474572 0.19733611 -0.3094424 -0.10666155 0.04187795
0.02173205 -0.0163456 -0.18207254 0.21530767 0.15695518 0.023256358 -0.029245453 -0.017786955

encoder.conv2d_2.bias f4 [32]
00000000: 78bd 523d f0c1 0fbe 0bb5 4ebd 25fe 0b3e
00000010: 7822 923d 5daf 3d3d cd68 43bd 177c 1ebe
00000020: dd97 01bb 2d44 2c3d 17d2 fdbd 0f7a 843d
00000030: 7bdc 663d 7871 673d 2092 e63c cf00 c0bd
00000040: ccb6 1e3e e36b 9d3d 73af 0bbd 0992 0d3e
00000050: ed32 22be e8f2 f1bd 6522 ba3c c004 c8bd
00000060: f728 1a3e c10d 0bbe 7a8f cb3d 6e93 3c3b
00000070: 9de0 c1bd aa08 0e3d 25d9 acbd 99fb b13d
0.051450223 -0.14038825 -0.050465625 0.13671167 0.07135481 0.046309818 -0.047707368 -0.15477024
-0.0019774355 0.042057205 -0.12393587 0.06468593 0.05636261 0.056504697 0.02814585 -0.09375154
0.15499419 0.076865934 -0.03410287 0.13825239 -0.15839739 -0.11813909 0.022721479 -0.09766531
0.1505469 -0.13579465 0.09939475 0.0028774398 -0.0946667 0.03467623 -0.084398545 0.086905666

encoder.conv2d_3.weight f4 [64, 32, 1, 3]
00000000: b801 9cbd 1c16 49bd 50fa 2d3d e087 303d
00000010: ede3 013c 1b3a 873c 8d7e 2fbc 7883 babb
00000020: 589e d53d 89c5 28be c39a 683c dd84 7f3d
00000030: faa4 38bc b47a d73c 8390 f6bd 864a cb3c
00000040: 45ee c13d bc8e 7bbf bd68 91bd dc29 bdbd
00000050: 6494 aebd 3aa1 9c3b cab0 9ebd 6177 0ebe
00000060: 5fdf 3b3d 57fc 343d 3f3d ed3c f1a8 ae3c
00000070: f3ed db3d b891 30bd 7e56 3f3b 1887 653d
00000080: 5693 78bd abbf c2bd bba7 c53d 8e9d 283d
00000090: 5131 da3d c6e7 843c 8b96 a33d 6a0b 98bc
000000a0: 8273 763b 2d33 353d c578 c0bd 5994 1fbd
000000b0: b5d3 8ebd 8aad d23c ee90 62bd 74e4 063e
000000c0: 657c a0bd 55eb 6dbb 1bfc bfbe 9e1d ca3a
000000d0: 423d 3abb 21d4 1f3d 8bf7 703b c392 733d
000000e0: d41b b3bd 326a 85bd 49e7 1ebe 3164 0c3e
000000f0: e05c 003d de7c c5bc 3763 93bd 8493 00bd
00000100: 169a 46bd 9996 683d c0f0 d7bc df97 a3bd
00000110: 5804 cfbd a241 6bbd bdac 9bbd 1e01 c2bd
00000120: 2354 d63d d705 b6bd c449 75bd 581e 4f3d
00000130: 91b5 f4ba 855d d83d 176a 6dbd d21b c6bd
00000140: 9b40 f6bd 2f96 49bd 69ea 523d be5d c93d
00000150: a963 c4bd edfc 4c3c 2e00 bd3d 29fa 843d
00000160: 7bd8 5dbd f68b 9b3d 0781 26bd d29e 8cbd
00000170: 5187 7dbb 4d43 553d f61b 7dbd 7382 8fbd
00000180: a54f a13d 9254 d0bd 325c a83d 95e8 94bd
00000190: fd35 00bd 85fc 0cbc edd7 c0bd 0b9b ae3d
000001a0: 2bd7 063b 1a61 d23d 3b8d 07bd 9362 8abd
000001b0: 47da f03d cd40 26bd 8b1a 45bc 7669 23bc
000001c0: 83b6 063d 479b 2dbf d479 833c e44f 23ba
000001d0: b80c ae3d d662 15bc d150 8abd 5646 93be
000001e0: 8ac5 8dbd 1e81 cabd d3a6 c0bd f95a d23d
000001f0: cf04 7d3d fa17 ce3d a688 87bd 19fc 7abd
00000200: acb1 b73d defd 973d 358a db3c ef67 3a3c
00000210: 80cd 363d ed53 543c 90fe 503d 0b5d 8d3c
00000220: d711 833d 86d4 15bd a2ef c93d c369 2e3d
00000230: b597 23bd 3b16 883d e9e8 4dbb b1e7 fa3d
00000240: e441 ea3b 9f1a 0bbd ff81 b0be 5254 733d
00000250: 8668 92bb 80a5 433d 1578 2bbb 1297 303d
00000260: 0b2f 5e3d 3ef4 043d c27c b0bd 8886 adbe
00000270: 1260 aa3c d171 93bd 1757 03be 9d3a 9d3d
00000280: 774f d33b 01b8 e1bc 146d 12bd a653 c63d
00000290: a3a7 bdbd 833a 473c ba77 1abd 5746 783d
000002a0: 7968 d83c e432 103e c71f bf3b 7746 3f3e
000002b0: 07b5 8abe c945 cd3b 2f46 36bd 84cb 03bd
000002c0: 92eb 43bc f735 803d 881b 373c f4b9 c13d
000002d0: 962a af3c 01b0 17bd df16 123d 602d 013b
000002e0: 53a0 b9bd 37a7 cebc dddc 493d bf40 49bd
000002f0: 5bb2 9abc 93d4 6bbb cbab 0fbd e614 1a3d
00000300: 0811 c23d 1231 c7bc c058 9f3d 074e 9f3d
00000310: d5ed 84bd 04a3 40bd 50fd 223d 2c57 b23d
00000320: 6f28 3d3d 5b75 1cbe 8274 1ebe b912 85bd
00000330: 609b 8f3d ee2c a53d b570 713d f734 513c
00000340: f334 a33d be3d 063e ddc6 c63d 75bb efbc
00000350: 317f afbd cf85 95bd 9240 cf3d 07dc c1bc
00000360: d0db 943d 0bda 133d 18f8 87bd 399d fbbc
00000370: d20d b0bd bf9a f13c 6f3c 793c 66b0 803d
00000380: 3474 df3d 1e34 d3bd 323b 563d 4497 c03d
00000390: c2b5 eb3d 4e7e 533d 4334 6ebd 606b 10bc
000003a0: 1ec3 6d3d e36f 913c 262b bfbd 1088 bbbd
000003b0: a4b6 3bbd d76b 6b3d 0525 d3bc 8e51 713d
000003c0: 9b65 d93c 0888 193d 8668 1fbd a9b7 b7bc
000003d0: b243 2a3d 26d4 15bd e0bb a23c 341f 693d
000003e0: a737 08bd be65 1ebe 692f 6dbe 97c7 9bbe
000003f0: 9063 91bd 8482 8ebd fe6b ef3d 51fd 973d
-0.07617515 -0.04909335 0.042475045 0.04309833 0.007927877 0.016507199 -0.010711324 -0.005691942
0.10430592 -0.16481604 0.014197054 0.062382568 -0.011269802 0.026303627 -0.12039282 0.024815809
0.094692744 -0.9826467 -0.07100055 -0.092365 -0.08524397 0.004779962 -0.077485636 -0.13912727
0.04586732 0.044185963 0.028959868 0.021320792 0.107387446 -0.04310772 0.002919584 0.05603704
-0.060687385 -0.09509214 0.09651133 0.04116588 0.106539376 0.0162238 0.07987698 -0.01856013
0.003760547 0.04423826 -0.09398035 -0.038959835 -0.06973974 0.025717515 -0.055313997 0.13173085
-0.078362264 -0.00363036 -0.3749703 0.0015420204 -0.002841786 0.03902066 0.003676864 0.059466135
-0.08745542 -0.06514396 -0.15517916 0.13710095 0.031338573 -0.024107393 -0.07196658 -0.031390682
-0.04848679 0.056784246 -0.026359916 -0.079879515 -0.101082504 -0.05743564 -0.076013066 -0.09472869
0.104652666 -0.088878326 -0.0598848 0.050566047 -0.0018669834 0.105647124 -0.057962503 -0.09673275
-0.12024041 -0.04921549 0.051493082 0.09832333 -0.09589321 0.012511474 0.0922855 0.06493027
-0.05416153 0.07595055 -0.040650394 -0.0686623 -0.0038685391 0.052066136 -0.061794244 -0.07007303
0.07876519 -0.101723805 0.0822071 -0.07270924 -0.031301487 -0.008605127 -0.094161846 0.08525666
0.0020575027 0.10272427 -0.033093672 -0.06757083 0.11760383 -0.040589143 -0.012030254 -0.009973874
0.0328889 -0.6781506 0.016049303 -0.0006229861 0.0849852 -0.009117803 -0.06753696 -0.287646
-0.06922443 -0.098879084 -0.09406819 0.10271258 0.061772164 0.10063167 -0.066178605 -0.061275575
0.08969435 0.07421468 0.0267993 0.011377319 0.044629574 0.012959463 0.05102402 0.01725628
0.06399887 -0.03657963 0.098601595 0.04258133 -0.0399396 0.06644865 -0.0031419343 0.12251223
0.007148968 -0.033960935 -0.3447418 0.059406586 -0.0044680266 0.047765255 -0.0026164104 0.043112822
0.054244082 0.03245949 -0.08617546 -0.33891702 0.020797763 -0.07199443 -0.12826191 0.07677195
0.006448682 -0.02755356 -0.035748556 0.096839234 -0.0926049 0.012159946 -0.037711836 0.060613956
0.026417004 0.14081913 0.0058326456 0.18679224 -0.27091238 0.0062644226 -0.044500526 -0.03217651
-0.01195802 0.06260293 0.011175998 0.09459296 0.021382611 -0.037033085 0.035666343 0.0019710883
-0.090637825 -0.025226219 0.049282897 -0.049134012 -0.018883875 -0.0035984858 -0.035075944 0.037617587
0.09475905 -0.02431539 0.077805996 0.077785544 -0.06490675 -0.047030464 0.03979236 0.08708033
0.04618114 -0.15279143 -0.15474132 -0.06497712 0.07012057 0.0806521 0.058945376 0.012768975
0.07969084 0.1310949 0.09705899 -0.029264191 -0.08569182 -0.073009126 0.10119738 -0.023664488
0.072684884 0.036096614 -0.06639117 -0.030714618 -0.08596386 0.029492734 0.015212162 0.06283645
0.10910836 -0.10312675 0.052302547 0.09403852 0.11509277 0.051634125 -0.05815531 -0.008814663
0.058047406 0.017753547 -0.09334402 -0.09156811 -0.045828477 0.05747589 -0.025774488 0.058915667
0.026537707 0.037483245 -0.03891804 -0.022426443 0.041568466 -0.036579274 0.019864976 0.056914523
-0.0332562 -0.15468499 -0.23162617 -0.30425712 -0.07099068 -0.06958488 0.1169052 0.07421363

encoder.conv2d_3.bias f4 [64]
00000000: bacd e5bc 5650 bf3c 0f1d 453c bb83 62bc
00000010: 800a 973c 5885 263d 052c 9f3d 96cf fdbc
00000020: b604 d9bd 8923 b43c 9bad a1bd 178f b13c
00000030: 2772 f73b b2a2 74bd 5670 5dbc 43bb e7bc
00000040: 2dcb dcbd 6ce2 d93d 8550 bc3d d0aa d0bc
00000050: e113 6e3d 2513 583d 0e2c 843d 0f82 523b
00000060: 13ee 5ebc 867d 42bd 7440 403d 515d 623d
00000070: c6c1 123d b5f1 3d3d f944 73bd f5b6 903d
00000080: bf2d e5bd 0986 caba 7e77 38bc d6fc b5bd
00000090: a5b5 73bd 1fbf 093d 4646 9cba df58 403c
000000a0: 4c2a 55bd 4017 2b3d 1eb0 01be 0a66 95bd
000000b0: 7467 7abd 65bc 6a3d e96a a8bb 298d b6bd
000000c0: 76ea 19bd 4630 a53d 06e4 a83d 690b f3bd
000000d0: fed4 7f3d 61c1 973c 2d05 91bd 6217 c2bb
000000e0: f229 cd3d 3373 ccbd 0bf2 833d 0f96 81bd
000000f0: 03aa ad3d 8dd6 03bd 11c9 1cbd e80d 783c
-0.0280522 0.023353737 0.012030854 -0.013825352 0.018437624 0.04065451 0.07772068 -0.030982774
-0.10596602 0.0219896 -0.07894441 0.021674676 0.00755145 -0.05972547 -0.0135155525 -0.028287536
-0.1078094 0.1063889 0.091950454 -0.025472075 0.058124427 0.052752633 0.06453715 0.0032120978
-0.013606566 -0.04748299 0.046936467 0.055264775 0.035829328 0.046373088 -0.05939195 0.07066146
-0.11190366 -0.0015451323 -0.011258958 -0.08886115 -0.0594994 0.033629533 -0.0011922799 0.0117399385
-0.05204229 0.04177022 -0.1266484 -0.07294853 -0.061133817 0.057308573 -0.005139698 -0.08913643
-0.037577115 0.08065848 0.08246617 -0.11867411 0.062458985 0.018524827 -0.07081065 -0.0059231976
0.10017766 -0.0998291 0.064426504 -0.063274495 0.08479693 -0.032187033 -0.03827769 0.015140034

encoder.fc.weight f4 [16, 64]
00000000: 1c09 b1bd 2609 9dbc d776 ca3d a129 9cbc
00000010: 1680 46be 8a40 be3d 06b4 d53c 0f1e c6bc
00000020: cbd7 be3c 956e c7bd ed98 f23d 7628 bebd
00000030: a671 b93c 9235 d5bd 746f 0bbd 0be0 e23d
00000040: bea7 75bc 1f02 a03e 7c49 6cbb c1dd 253d
00000050: cdcb c23c 615b 983c f5de 56bd 9aba f1bd
00000060: 09d4 b13d 1aaa 973c 4d3a f93d 44fc 08bd
00000070: 903a 183d cc0e bcbc 42be adbd ec96 1e3c
00000080: 3b93 b43d 2e73 c03d cd16 6f3d 37f1 8dbe
00000090: 05dc dd3d 3a69 063c f2b4 17be 778c 33be
000000a0: 4019 ab3b 6d77 bb3d 4360 543d 5c08 223e
000000b0: 1810 98bd 51ba 9e3d 2a11 cdbd e3e3 06be
000000c0: 1c87 bfbd d338 513d 10f5 e2bc 6752 113c
000000d0: 1146 85bd 5484 2f3c f9ad 8d3d e9bb 7b3c
000000e0: 26e0 3bbd 0b1e bfbd c27c 5ebd 799c 7b3c
000000f0: 556f 373d 9dbf 78be b265 d83d 0525 f3bc
00000100: d0bb 74bb 40b7 d0bd 64dc 8d3c 8b6e a93d
00000110: 8e64 de3d 2d37 133b 60e8 963d 51e7 c0bd
00000120: 0bf3 6cbd b925 f83c 2aa7 e7bd 582b 2bbd
00000130: ab96 ec3c d845 f6bd 2ba8 24bd 1ccc f9bc
00000140: 8c61 d03d 0658 793e 9435 243e d53d 3b3d
00000150: ece5 a33d 05dd 20be 6fff 043c 7a2b e8bd
00000160: e8fe dabc 5906 f03c 1e06 eebd 023c f23c
00000170: b1c8 1fbe 05a9 df3c e477 fc3c ea05 b13a
00000180: 0a57 bd3d 6dd0 573d 0c8d ab3c d858 e3bc
00000190: e1a2 e53d 84b9 25bd 8633 1b3d cdb8 0e3e
000001a0: 3291 d9bd 44ee 6d3d 393c cc3c 2d83 06be
000001b0: ce6f 1fbd 7f56 f0bd 1e94 debc 259f bebd
000001c0: d256 c0bd 3210 7e3b 5a7e 153c 831d 8d3d
000001d0: 8197 39bd 781a 99bd e7f6 bf3d 0281 37bd
000001e0: 82d3 dd3e d265 dd3b 1e62 9cbe 7280 2ebd
000001f0: f570 73bd 24e3 b2bd 407f a1bc b996 d9bd
00000200: fc13 a53d 4d7a 5f3a ab80 cb3d d720 b53b
00000210: 5d32 7bbc 4c63 9cbd 406f 983c 6bd0 62bc
00000220: 8650 aeba 49ae 513d 51c8 103d 9fe8 573d
00000230: 662f 5dbd e01c f1bd 584b e03b 553c 52bd
00000240: 37dc e6bc 83c2 393d ee5a 41bd 3fef 30bd
00000250: 37fb f03d f0ab a93d 57e4 803d f78f 9a3d
00000260: e08b 0e3e 3bea aa3d 35e5 123e 7cce 33be
00000270: ff85 033e dd14 0a3e b379 5fbd 857c f03d
00000280: 4c2a 45bd 1365 db3b 3e59 cdbd b13f 123e
00000290: 1b01 7a3d 6537 d43d 38f8 b93d 3fcb 803d
000002a0: 0005 883a abd9 203d 4182 5abd 75ca 393d
000002b0: 445a c73d 07c5 533d db10 6cbd c0e9 1ebe
000002c0: c9c2 423d 922e 143e 25bf 703b b9d8 3c3d
000002d0: 69da 14bd f10f 42bd af57 1d3d c514 b7bd
000002e0: e660 103d e7e3 a33d 0846 2e3c 83dd 91bc
000002f0: b994 ca3d f114 b1bd 2a2b b3bd 6e3a aa3c
00000300: ac01 bc3d 706d 553c e6cf 7d3d 3b0a 4abe
00000310: 2708 cdbb 10ab 0f3e 5974 c13d 78d9 2cbc
00000320: 5641 b0bd d85d 033e 695f d2bd 179b 6cbd
00000330: 00bd bd3a 509d 13bd 4c62 fd3d 4b35 273d
00000340: 351f 67bd f13e 8b3c 16f3 263b 24a9 1e3d
00000350: 4b5d 4a3b bf78 023e 0c5b 2a3e d47f b43d
00000360: 418b 963d 14e9 373e 1e1e 973d cad1 0f3e
00000370: ce72 c53d 3179 fdbc 8244 c9bd 2f89 aabd
00000380: 92d8 9a3d c3e0 b0bd bd7d b3bd ff8f abbd
00000390: 1982 d8bd ab31 463e 8652 423d ea28 aabe
000003a0: f84d d13c b823 3abd f1e7 7b3d 6765 d4bd
000003b0: 4792 a93d f4c5 3a3c b58f 123d 162d 09be
000003c0: 918b 47bb 44bc 733c 6c3b 4a3d fa96 9dbb
000003d0: 7372 bf3c 6183 b2bb 0122 373d b08a 2f3c
000003e0: 35b8 cfbe dd4e a0bd ba8a a73d 7ca8 e33c
000003f0: a754 c7bc 3036 1f3e 0f6e 33bd f077 b73d
-0.086443156 -0.019169401 0.09885948 -0.019062819 -0.19384798 0.092896536 0.026086818 -0.024184255
0.023296257 -0.09737889 0.118455745 -0.09285061 0.0226372 -0.10410608 -0.034041837 0.11077889
-0.014993606 0.31251618 -0.0036054542 0.040494684 0.02377882 0.01859826 -0.052458722 -0.118031695
0.086830206 0.018513728 0.12169323 -0.033443704 0.037165225 -0.022956274 -0.084835544 0.009679537
0.088171445 0.09396969 0.058371354 -0.27723095 0.10832981 0.008203799 -0.14815119 -0.17534052
0.005221516 0.09153638 0.051849615 0.15823501 -0.07424945 0.07750381 -0.100130394 -0.1317287
-0.09351942 0.051079582 -0.027704746 0.008869744 -0.06507505 0.010712702 0.06917948 0.0153646255
-0.04586806 -0.09331902 -0.054318197 0.01535713 0.04478391 -0.24291845 0.10566272 -0.029680738
-0.003734339 -0.10191202 0.017317005 0.082730375 0.10859023 0.0022463307 0.07368541 -0.0941912
-0.05784897 0.030291425 -0.11311181 -0.041789383 0.028880438 -0.120250404 -0.04019944 -0.030492835
0.101748556 0.24349985 0.16036063 0.045713264 0.080028385 -0.15709312 0.008117541 -0.113364175
-0.026732877 0.029299902 -0.116222605 0.02956963 -0.15603901 0.027302274 0.030818887 0.0013505791
0.09245117 0.052689005 0.02094128 -0.027752325 0.11212707 -0.040460125 0.037890933 0.13937683
-0.10623397 0.058088556 0.02493106 -0.13135977 -0.038924985 -0.11735248 -0.027170237 -0.09307698
-0.0939156 0.0038766977 0.009124363 0.068903945 -0.0453105 -0.07475752 0.09373265 -0.044800766
0.4332543 0.0067565227 -0.30543607 -0.042602964 -0.059433896 -0.0873473 -0.019713998 -0.10624451
0.08060452 0.0008524999 0.09936651 0.0055275965 -0.015331832 -0.07636127 0.018607736 -0.013843636
-0.0013299144 0.051191602 0.035347287 0.05271208 -0.05400028 -0.117730856 0.006844919 -0.05132707
-0.028181178 0.045351516 -0.047205858 -0.043196913 0.117666654 0.082847476 0.06293552 0.0754699
0.13920546 0.08345457 0.14345248 -0.17559236 0.12844084 0.13484521 -0.05455942 0.117425
-0.04813604 0.0066953986 -0.10026787 0.14282109 0.06103621 0.10362128 0.09080547 0.06288766
0.0010377467 0.039270084 -0.053346876 0.045359094 0.09734014 0.05170157 -0.057633262 -0.15518856
0.047549043 0.1447089 0.0036735025 0.04610512 -0.036341105 -0.047378484 0.0384137 -0.08939508
0.03524866 0.08002453 0.010636814 -0.01780582 0.09891648 -0.086465724 -0.08748467 0.020779815
0.091800064 0.01302658 0.061965846 -0.19730465 -0.0062570754 0.14030099 0.0944602 -0.010549895
-0.08606212 0.12828767 -0.10272104 -0.057765093 0.0014475882 -0.036038697 0.12372264 0.04082231
-0.056426246 0.016997786 0.002547448 0.038735524 0.003087836 0.12741373 0.16636294 0.08813444
0.07350779 0.17960006 0.07378791 0.14044872 0.09641038 -0.030941578 -0.0982752 -0.08326947
0.07560839 -0.0863662 -0.08764217 -0.083770745 -0.10571689 0.19354884 0.04744198 -0.3323434
0.025549874 -0.04544422 0.061500493 -0.103709035 0.08279853 0.011399735 0.03578158 -0.13396105
-0.0030448178 0.014876429 0.049373075 -0.0048092576 0.023370003 -0.0054477905 0.044710163 0.010714218
-0.40570226 -0.07827542 0.08180757 0.0277903 -0.024332358 0.15548015 -0.043806132 0.08958423

encoder.fc.bias f4 [16]
00000000: a3fd 88bd bbf9 a23c 93c0 303c 427c f4bd
00000010: 238e c03d 44fa 663d c105 9d3d 6501 29be
00000020: e157 15bc cf2d f4bd 65ae dcbc 49ed 0bbe
00000030: fdef 63bd 917b e93d d73c 8cbb c2ca a23d
-0.06689002 0.019894471 0.010788101 -0.11937763 0.094021104 0.056391016 0.07667113 -0.16504438
-0.00911519 -0.119228 -0.026938627 -0.13664736 -0.055648793 0.114005215 -0.0042797136 0.07948829

decoder.decoder_fc1.weight f4 [64, 16]
00000000: 692c 26be f7ee 383e 5e5e 59bd 07ae c4bc
00000010: 4e75 52be 97bf e2bd d416 e0bd 548c e23d
00000020: 6aa2 3dbe 096c 2abe 2530 a4bd 5a0c 253e
00000030: ff33 c0bd 97c7 3cbe 31a9 36be 84f6 97bd
00000040: 48b0 f1bd a1da 1dbe 2ccf 143c 2499 fcbd
00000050: c82e 44bc 4b57 e1bb 44f9 cdbd 30d3 303e
00000060: dc7d 0f3e 14e2 463b 1c28 3c3e 3449 9d3c
00000070: 2ac6 e33d d5d7 50be faca 503d 56bb 30be
00000080: 4bb0 1e3e 4ed4 4abe 5536 48bd 9cab 11bd
00000090: b84e 85be ff92 1cbe c954 2ebe cb36 273e
000000a0: f06f 6c3e adf3 75be 5136 5a3e f379 a03e
000000b0: 555d b0bd 1d04 e3bd 2a04 cc3c d949 a0be
000000c0: 645b 04be 1fcf e93d 3d35 e3bd 5ef1 8fbe
000000d0: 1888 3c3e a609 60be 3bff 9ebe e58b 623e
000000e0: fd09 99be edb9 8f3d 261c 823e 848d 39bd
000000f0: 1d88 8cbe c6bf 38be c440 1c3e b6f2 aebb
00000100: d4f6 68be 2ceb 9b3d 0036 3fba 9005 0ebe
00000110: 00ba 653e 4830 503e 2e85 0e3e b8ee 20be
00000120: e897 173e c81c 6a3d 56ab 39be e6bf 283e
00000130: 40d2 de3b 504e 94bd 28ec 073d 489c cc3d
00000140: 0fcd 993d 1894 16bd db87 51be 29c5 7a3e
00000150: 980c 143e 09cb 09be 24c7 0a3e d3c6 06bf
00000160: 197f 05be 67f6 4bbd 8069 433d 5d1b 1b3e
00000170: f6f8 d2bd 5809 90bc a323 2f3e e2c5 063f
00000180: 3c0d 6d3e be03 ea3b 9821 8cbd ed25 433e
00000190: 9992 613d 29a3 c1bd 62f0 b7bd f3b5 4ebe
000001a0: 7c85 efbd 757b 28be 11ec c8bd 27a1 6bbe
000001b0: a9e1 af3d 3441 7a3d d1c9 43be f7eb da3d
000001c0: 491b 22be f016 b0bd 5301 05be bdbc 513e
000001d0: fe53 56be 4cc0 2c3c 1a75 fa3b 4756 e4bd
000001e0: ca65 7f3e 94ff 143e 0105 f5bd b9ec 79be
000001f0: 75f9 5f3e 6ae9 83bd a72e 863e 2395 2d3e
00000200: a460 be3d 8cff 4d3e e042 b9bc cac8 03be
00000210: 606e aa3d 004f 3a3c 5c84 7c3e 6414 0bbe
00000220: 9ae7 31be 105a be3d 9adb 613e 1c50 cd3d
00000230: 88ce 2e3d 904c bebd 7434 26be f83a da3d
00000240: ace8 b4bd 321b b13b 4fb3 793b 5041 acbd
00000250: 265e 01bd db3a 2dbe af3b 85bd 2b07 893e
00000260: 7d46 02be cb52 803e 539f 53be 5aa8 bfbd
00000270: 55b1 e83d 5830 95bd 36a5 6dbe 4655 b6bc
00000280: ffd9 8cbc 6961 0c3e e0e3 3ebe 0bcb 403e
00000290: 8b03 30be bbfe b53d f3ee d0bd 05c1 24be
000002a0: 6e12 5a3d 59b0 d0bb 15ab 4ebd 78de e73d
000002b0: c764 d83d 52ee 48be 6428 8fbe 5d89 fc3c
000002c0: d960 8dbc eb7b 703e 17ac 2d3e 764c 1abe
000002d0: 8ed4 da3d 9eca 333e 135b 88be 7fb3 093f
000002e0: bd0d 76bd 8e47 063e 581d 813e d124 90bc
000002f0: bbcb a9be 36a8 94bd 1202 c7bd 331d 923f
00000300: a861 f63a e82b 43be ea88 803e 6463 063e
00000310: 0b3f 8cbe 4560 c4bd 3024 6e3d b48a c43c
00000320: 1b7b 923b 24e3 863d 9b4c f0bd 0b5d 83be
00000330: 8f67 873e 72af 13be f62a 0dbd ccf8 813e
00000340: ba72 bb3d f480 293e d71d 233e f158 1b3e
00000350: da2e 173e 9537 8b3e d3a0 fb3c b483 8bbe
00000360: f7d3 32be b160 68be 4ba3 2a3e 5093 8b3d
00000370: f1ce 1c3d d5b6 303e 1720 c93d 7696 38bd
00000380: 8b82 5c3e bf7e c83d 9ecd 3e3d 2df2 a13d
00000390: aa4c bdbd 08e7 46be 6585 1c3e 5a88 01be
000003a0: a748 cd3c 00cd 133c 33c8 ab3e 010c e0bc
000003b0: 4bf0 153e aa1b 68be 5760 603d 520a debd
000003c0: 4677 353e 7528 42be 1a34 213e 4aee 40be
000003d0: c8a3 1d3e 49f8 89be 4f49 313b 2884 e0be
000003e0: 9e74 bd3e 0d51 833e 1544 88be ff61 d8be
000003f0: 1a94 6a3d eb70 943e 3040 753e 0a86 b6be
-0.16227879 0.18059908 -0.05306851 -0.024008764 -0.2055256 -0.11071699 -0.10941854 0.11061922
-0.18518987 -0.16642775 -0.08016995 0.16117993 -0.093849175 -0.18435512 -0.17837979 -0.07420066
-0.11801201 -0.15415432 0.009082597 -0.12333897 -0.011974044 -0.006876861 -0.10057309 0.17268062
0.14012855 0.0030347155 0.18374676 0.019199945 0.11121781 -0.20394833 0.050974824 -0.17258963
0.15496938 -0.1980755 -0.04887994 -0.03556405 -0.2603662 -0.1529045 -0.1702453 0.16329496
0.23089576 -0.24018736 0.21309783 0.3134304 -0.08611552 -0.11084769 0.02490433 -0.3130634
-0.12925488 0.11416458 -0.11094139 -0.28113836 0.1841129 -0.2187868 -0.310541 0.22123678
-0.29890433 0.070178844 0.254121 -0.045300975 -0.27447596 -0.18041906 0.15259081 -0.005338992
-0.22750407 0.07613215 -0.00072941184 -0.1386931 0.22434235 0.20330918 0.13917992 -0.15716064
0.14804041 0.057156354 -0.18131766 0.16479453 0.006799966 -0.072414994 0.0331842 0.09990746
0.07509815 -0.036762327 -0.20461981 0.24489273 0.14457929 -0.13456358 0.13552529 -0.5264713
-0.13036765 -0.049795534 0.047708035 0.15147157 -0.10301392 -0.01758258 0.17103438 0.52645695
0.2314958 0.0071415594 -0.06842345 0.19057436 0.055071447 -0.094549485 -0.08981396 -0.20186596
-0.11695382 -0.16453345 -0.09810651 -0.23010693 0.08587963 0.06109734 -0.19119956 0.10689538
-0.15830721 -0.08598125 -0.12988786 0.20482154 -0.20930478 0.010543894 0.007643354 -0.111492686
0.24941173 0.1455062 -0.11963845 -0.24406709 0.21872504 -0.064410046 0.26207468 0.16951422
0.092957765 0.20117015 -0.022614896 -0.12869564 0.083218336 0.011371374 0.24659866 -0.13581997
-0.17373505 0.09294522 0.22056428 0.10025045 0.042677432 -0.09291947 -0.16230947 0.10655779
-0.08833441 0.0054048533 0.003810126 -0.08410895 -0.031583928 -0.16916983 -0.06505524 0.2676328
-0.12722202 0.25063166 -0.20666246 -0.093582824 0.113619484 -0.072846115 -0.23207554 -0.022257458
-0.017193792 0.13709034 -0.18641615 0.18827455 -0.17188852 0.088864766 -0.10201826 -0.16089256
0.053240232 -0.0063686785 -0.050456125 0.113217294 0.10566097 -0.19622162 -0.27960503 0.030827219
-0.017258095 0.23484771 0.16960178 -0.1506823 0.10685073 0.17557761 -0.26631984 0.53789514
-0.060071696 0.13113233 0.252177 -0.01759568 -0.33163247 -0.07258646 -0.09717192 1.1415161
0.0018797414 -0.19059718 0.25104457 0.13123852 -0.27391848 -0.095886745 0.05813998 0.02399192
0.0044702417 0.065862924 -0.11733361 -0.25656924 0.26446196 -0.14422396 -0.0344648 0.2538513
0.09152742 0.16553098 0.15929352 0.15170647 0.14763966 0.27190843 0.030716335 -0.2724892
-0.1746367 -0.22693135 0.16663854 0.06815207 0.038283292 0.17257245 0.09820574 -0.045065366
0.21534173 0.097898 0.04658281 0.079075195 -0.09243138 -0.19424069 0.15285261 -0.1264967
0.025059057 0.009021044 0.33551177 -0.027349474 0.14642446 -0.22666803 0.054779377 -0.10841812
0.1772128 -0.18960746 0.15742531 -0.188409 0.15394509 -0.2694724 0.0027051752 -0.43850827
0.37003034 0.25647774 -0.26614442 -0.42262265 0.057270147 0.289924 0.23950267 -0.3564914

decoder.decoder_fc1.bias f4 [64]
00000000: 6b64 0bbe d1b0 6a3e 2b95 cb3c b176 46bb
00000010: cc20 61be fcea a53c 55ca 513e f525 ff3d
00000020: 44e7 5cbe 69c4 9b3d a41f 0dbd 9656 fe3d
00000030: b19b 153e b80b d33d dffb b0bd 453c 65bd
00000040: 3684 02be 71c8 f33d 748b 28bc 67ec fabd
00000050: a7b0 97bd 58f6 68be 1c7b 17be d998 3dbe
00000060: e241 2e3e cf27 6fbe c671 973d ac45 afbd
00000070: b68d d63d fd72 813e 77dc a83d 6876 dbbd
00000080: 136a c33d 1fe0 623e f09e cc3d c831 6ebe
00000090: 1cf3 953d 9612 123e 3fa7 453e d69a e53d
000000a0: a116 793d 4ce5 3a3e 019d 05bc 4e5a 63be
000000b0: 7c92 76be 9f33 e93d 2452 dd3d 2c55 9dbd
000000c0: b51e c83d fc9b 39be 0471 7ebe 804a 7fbb
000000d0: 7bc1 5dbe a21c 473e 25d1 423e 2971 bebe
000000e0: 6c60 543e 5378 dbbd 9631 90bc bc8f b9bd
000000f0: 4a01 1fbe 739b 993e ffe6 613e 08be 133e
-0.13612525 0.22919013 0.024851402 -0.0030283148 -0.21985167 0.02025365 0.2048734 0.124584116
-0.21572596 0.07605822 -0.034454003 0.12418859 0.14610173 0.103049695 -0.086417906 -0.05596568
-0.12745747 0.119034655 -0.0102871545 -0.122521214 -0.07406741 -0.22750223 -0.14793056 -0.18515338
0.1701732 -0.2335503 0.073947474 -0.08558211 0.10476248 0.25283042 0.08245175 -0.107159436
0.095417164 0.22155808 0.099912524 -0.23261178 0.0732176 0.14264902 0.1930208 0.11211173
0.060812596 0.18251532 -0.008155108 -0.22202417 -0.24079317 0.11386799 0.10806683 -0.07682261
0.09771482 -0.1812591 -0.248478 -0.0038954318 -0.21655838 0.19444516 0.19025095 -0.3719571
0.20739907 -0.107163094 -0.01760177 -0.09060618 -0.15527835 0.3000141 0.22060774 0.1442796

decoder.decoder_fc2.weight f4 [128, 64]
00000000: 1cba 7dbd 13bf b4bd afef 9fbd 3744 13bd
00000010: 1eaa b1bd 39ed c1bd 96ca 1e3d e9fd eebc
00000020: dc3b 91bd bde3 6c3d 1109 8a3d b618 dc3d
00000030: f125 5ebd 9852 e6bd 3da7 593c 748c 133e
00000040: 4bf2 f8bd 6d08 2b3e a9ad c33d c86b 893d
00000050: 7e67 583d d09a cb3c 22e0 bfbd 5e50 123d
00000060: 3b8f 683d 790b 64bc 59dc 513d c0b1 efbd
00000070: ab29 e0bc 22ec 3e3e fe56 e43d 5bec 163e
00000080: 6d68 c73c 519b 693d 336a 0abe 23fa 7a3e
00000090: ae02 81bd 8b9a 53be aaf9 ad3d cc59 16b9
000000a0: fafe 6abd 8e95 823b 23a6 793e 662c 8cbd
000000b0: f00c 68bd 6a39 7b3d ee85 b7bd ab9d d4bd
000000c0: 7d67 113e b050 14bd ff8e 073c f622 bebd
000000d0: 6d27 5b3d f6db b8bc eecc 4dbb 3447 dbbd
000000e0: 17e7 a9bd cc49 c73d fa76 073e 4acb a63d
000000f0: 545c e63d f273 273c b513 a6bc 6234 333d
00000100: c924 58bd 7dc7 e53d da0c cd3d c302 193e
00000110: 0c19 e13d 2814 9bbe a04c 223c 9dd2 6ebd
00000120: 6461 073d 2825 403d 4e33 a13c e054 843e
00000130: bb68 dc3d 6b28 01be 47ea 1bbe 3092 753e
00000140: 663e c4bd 4c51 3e3e 2721 5c3d f11d 90bd
00000150: 77de 5c3d 7aff 85bd 306e d2bd 34ec 9b3e
00000160: 81be f7bd 85d3 9c3e 275c cc3c 5088 b53d
00000170: dcbd 16bd 5067 a1be f24c 8e3d 576c 1b3e
00000180: a9e5 89bc 2e26 aa3d 2bc0 c93d e1a2 713b
00000190: d61b af3d d464 29be 7d45 26bc 4e54 bd3d
000001a0: bde0 313d ca4d 26bc 552f 28be 5c8d 4ebd
000001b0: 2a57 e13d 2c53 6cbe 984d 2ebd 77fe 713d
000001c0: cca7 e43c 5893 9dbd 12f9 b3bd b017 91bd
000001d0: 2391 91bd f7e5 b43d 0f28 4fbd d2d3 dd3e
000001e0: 2dbf c23c c2d7 143e 3ac1 4d3c 6065 a73d
000001f0: 2cba 6b3d 8c44 cebb 49c7 3ebe e6a4 bd3d
00000200: cc6a c5bd 40c2 2a3c e6de acbd a024 c5bc
00000210: 3cbf bebd 26b0 c03d bc72 2d3d 287d bf3d
00000220: 4c03 573d 2836 96bd bc9f f23d 52a8 cc3d
00000230: f8b6 393d 8496 893d 806e b2bb 0810 f1bc
00000240: 6c3f 97bd 5c25 893d c2ef fe3d a8cf 6dbd
00000250: b8ee fe3c e231 933d f28a a13d 60fd b2bb
00000260: 5c00 85bd 6047 633d d643 ac3d 3a11 c83d
00000270: 8aef adbd 7aab a2bd 2049 8dbb d4db f13d
00000280: c051 bd3c b805 c8bc c85d 493d eefe ccbd
00000290: 8ed2 c83d 5220 bb3d 807b 6e3b 6c7d 8dbd
000002a0: 00f0 f53a 4a0a d33d 9292 ebbd 88d3 283d
000002b0: 80c2 fcbb f44d 883d 807e f2bc 300e 60bd
000002c0: a003 163c 3cca cebd 68c7 42bd d8b8 a03c
000002d0: 8cf2 393d a273 debd 30dd 47bc fc83 ff3d
000002e0: 48ad f6bd b044 b3bd c0b7 4fbd 5ce9 7a3d
000002f0: 08f9 cbbd 142d 05bd 3029 82bc 2891 93bc
00000300: fe38 cfbd 2a9f 813d c7dc c9bd fcc6 e0bc
00000310: acf3 5f3d 84c0 19bd d683 833c a663 803d
00000320: a84e 293d a00e e63c edbf ecbd 048a 23bd
00000330: 0d5e 7abd c1c5 adbd 83b6 443d 40ca b0bd
00000340: 6585 7c3d ee30 92bd f987 9dbd b346 783d
00000350: 4dea 95bd b6d2 b23d a0f3 823c 631b 33bd
00000360: 22bf 21bd 6487 d5bc f160 583d 32f6 eabd
00000370: d64f 723d 7b57 28bd 57b7 a83d f4fa 73bd
00000380: 78e1 113d 937b 413d 4a02 f8bd 587f b33c
00000390: 083c fd3d b0df 193d 32bb 73ba 68fc fd3c
000003a0: a409 cbbd 3c39 da3d 5c16 fcbd a023 ac3c
000003b0: 581c ba3c 5d7e 973c e84a 1ebd eef9 e4bd
000003c0: 162e c4bd 380b 333d a7f6 ce3d 9888 a53d
000003d0: 8392 50bc f14d bbbc a098 9c3b d0d3 cabd
000003e0: f89d 08be 1afa acbd 1096 6d3c 604d 533c
000003f0: cc9b 473d 2a12 49bb 05ca 8abd e1a4 e13d
-0.061945066 -0.08825507 -0.07809388 -0.035953727 -0.086750254 -0.09469075 0.03876742 -0.029173808
-0.070914954 0.057834376 0.067400105 0.10746901 -0.054235402 -0.11246222 0.013284502 0.14409047
-0.12155589 0.16702433 0.095546074 0.06710011 0.052833073 0.024854094 -0.09368922 0.035721175
0.05677722 -0.013918751 0.05123553 -0.11703825 -0.027363619 0.18644765 0.11149405 0.147386
0.024341786 0.057032887 -0.13517074 0.24509482 -0.06299339 -0.20664422 0.08494885 -0.00014338567
-0.05737207 0.0039851135 0.24379782 -0.06844406 -0.056652963 0.06133405 -0.08961092 -0.10381635
0.14199634 -0.036209762 0.008273839 -0.09284012 0.053504396 -0.022565823 -0.0031402665 -0.1070694
-0.0829603 0.097308725 0.1322898 0.08144243 0.11248079 0.010220515 -0.020273069 0.043751128
-0.052769456 0.1121969 0.10012217 0.1494246 0.109911054 -0.30288815 0.009905964 -0.058306325
0.033051863 0.046910435 0.019677784 0.25846004 0.10762163 -0.12613074 -0.15226088 0.23981547
-0.09582214 0.185857 0.053742554 -0.07036961 0.053923097 -0.06542869 -0.10274923 0.30453646
-0.120968826 0.30630127 0.024946285 0.0886389 -0.036802158 -0.31524134 0.0694827 0.15178047
-0.016833143 0.083080634 0.09851106 0.0036870765 0.08550231 -0.16542369 -0.010148403 0.092445955
0.043427218 -0.010150382 -0.16424306 -0.05042778 0.11002953 -0.23078603 -0.042554468 0.059080567
0.027912043 -0.07694119 -0.08787741 -0.07084596 -0.07107761 0.08832925 -0.050575312 0.4332567
0.0237728 0.1453543 0.012558276 0.081736326 0.057550594 -0.0062947925 -0.18630709 0.092599675
-0.096395105 0.010422289 -0.08440952 -0.024065316 -0.09313819 0.09408598 0.042345747 0.093500435
0.05249338 -0.07334548 0.11846873 0.09993042 0.04534051 0.06718162 -0.0054453015 -0.02942659
-0.07385144 0.06696579 0.12448074 -0.058059365 0.03111969 0.07187249 0.0788783 -0.0054623336
-0.06494209 0.05548799 0.08411376 0.09768911 -0.08492954 -0.07942863 -0.0043116957 0.11809507
0.02311027 -0.02441679 0.049161702 -0.100095615 0.09805785 0.09137024 0.003638953 -0.06908688
0.0018763542 0.10304697 -0.115025654 0.041217357 -0.007713616 0.066554934 -0.029601336 -0.05470103
0.009156138 -0.10097167 -0.04755345 0.01961939 0.045397326 -0.10861899 -0.012198731 0.12476346
-0.120447695 -0.087533355 -0.050712347 0.061257705 -0.09959608 -0.032513693 -0.01588878 -0.018013552
-0.10118292 0.06329186 -0.09856563 -0.027438633 0.054675743 -0.037537113 0.016054075 0.062690064
0.041334778 0.028083146 -0.115600444 -0.039926544 -0.06112485 -0.08484984 0.04802562 -0.08632326
0.061650652 -0.07138239 -0.0769195 0.0606143 -0.0732008 0.08731596 0.01598531 -0.04372729
-0.03948892 -0.026065536 0.052826826 -0.11472739 0.05915817 -0.041099053 0.08238094 -0.0595655
0.035615414 0.04723699 -0.121098116 0.021911308 0.12364966 0.03756684 -0.00092976086 0.031004146
-0.09913948 0.10655448 -0.12308952 0.021013081 0.022718593 0.018492872 -0.038645655 -0.11180483
-0.09579103 0.04371187 0.10105639 0.08082694 -0.012730244 -0.022864314 0.0047789365 -0.09903681
-0.1334151 -0.084461406 0.01450111 0.012896866 0.048732564 -0.0030680993 -0.067768134 0.11017776

decoder.decoder_fc2.bias f4 [128]
00000000: e856 eb3d 5c2f 98bd 8ab0 c6bd 29b6 9dbd
00000010: ec1f 3abd f517 683d 0ad8 c8bc 3d20 fe3d
00000020: 2ce7 c13d 3c26 aebd 6202 083c 915d 2c3d
00000030: f3a5 ba3d 1b89 993d 758c b9bd 989a 53bd
00000040: 6db7 ed3d 38c4 0e3c 16b4 ebbd 1dd9 0dbe
00000050: f122 c6bd 45e9 a13d 807b 8c3b deba 043e
00000060: 60bd 873c 9c00 69bd 020b cdbd 4ac1 7fbd
00000070: 1f0d a8bd 217d f0bc c7d7 24bc 40b1 7bbd
00000080: 0cc6 58bd fc2e 0f3e aa84 dc3c eb91 2ebd
00000090: 85b8 2c3d a760 80bd b56e 0d3e 07a2 913d
000000a0: e6f8 af3d c03f 70bc 3040 023e ae03 cabd
000000b0: 9e42 1f3e 8065 cfbc 515c 8bbc e907 08bd
000000c0: ea0f 3cbe 1b19 bb3d ee26 293d 4033 0e3c
000000d0: 0fd2 9a3c 9f27 2fbd 25d9 133e c608 593d
000000e0: bac4 22bd 7e38 c23d 9edf d23d 2d38 1e3e
000000f0: fa1a 07bb 0ba4 c53d e388 a83d 32c0 893d
00000100: 29cd 553c e78b d13d 275e b63d 6ea5 023e
00000110: 4e01 ecbd e587 75bd 0d4a d4bc dd7f fabd
00000120: 7c05 97bd dfd8 813c 30b3 c33d a199 3c3e
00000130: 0299 7a3d f77e f2bd 38a0 babd 536e 1a3e
00000140: 8101 2cbd d243 d3bd b941 c2bc 56da a8bd
00000150: ffa4 d1bd 5877 a53d 9895 0ebe d2c2 423d
00000160: 718e 153c 10fc efbc da6c 223e e1e5 cfbd
00000170: 7383 033d 4aeb 253e a426 b9bd 0396 acbc
00000180: 8167 dabd 2b63 96bd d387 edbd 7d43 b8bc
00000190: d0ed 343c b4b1 da3d 19c0 aabd b9a0 183d
000001a0: 370a 273e 7cdb 14be 91b5 65bc ca34 173e
000001b0: 252f d63c 1f35 263e 0104 883c 584c 70bd
000001c0: 4e96 d43d ad50 b9bc 2cc4 16be fa10 97bc
000001d0: b068 f33d c76d 43bd 00b1 ccbc 045e 8f3d
000001e0: 0dcb 6dbd adb3 5c3d 85c0 e8bb fb7e b13d
000001f0: 707b d93d 238d e63d 2a12 3a3d 72c9 253e
0.114911854 -0.07430908 -0.09701641 -0.0770076 -0.0454406 0.056663472 -0.024517078 0.12408493
0.09467921 -0.085033864 0.008301349 0.04208142 0.091136836 0.07496854 -0.09059993 -0.051661104
0.11607251 0.008713774 -0.11508958 -0.13852353 -0.09674633 0.07905821 0.0042871833 0.12961909
0.016569793 -0.056885347 -0.10011865 -0.062440194 -0.08205628 -0.029356541 -0.010061211 -0.061448336
-0.052923247 0.13982767 0.026918728 -0.042619627 0.04216816 -0.06268435 0.13811763 0.071109824
0.085923955 -0.014663637 0.12719798 -0.09863983 0.15552756 -0.025316954 -0.017011793 -0.03321067
-0.18365446 0.09135648 0.041296892 0.008679211 0.018898992 -0.042762395 0.14438303 0.052986883
-0.039738394 0.09483431 0.10296558 0.15451117 -0.0020615445 0.09650429 0.08229234 0.067261115
0.013049402 0.102317624 0.08904677 0.12758419 -0.11523686 -0.059944052 -0.025914216 -0.12231419
-0.07374093 0.015850483 0.09555662 0.1841798 0.061181076 -0.11840623 -0.091125906 0.15081148
-0.04199362 -0.1031567 -0.02371298 -0.08244769 -0.10236549 0.08079404 -0.13924253 0.047549076
0.009128199 -0.029294997 0.15861836 -0.10151268 0.03210778 0.16203037 -0.09040573 -0.021067625
-0.10664273 -0.073431335 -0.11598172 -0.022493118 0.011043027 0.106784254 -0.08337421 0.037262652
0.1631249 -0.14536852 -0.01402034 0.14766231 0.026145527 0.16231202 0.016603472 -0.058666557
0.10380231 -0.022621477 -0.14723271 -0.018440712 0.11885202 -0.047712114 -0.024986744 0.07000354
-0.058054972 0.05388229 -0.0071030282 0.08666798 0.10619247 0.112573884 0.04542748 0.16190127

decoder.decoder_fc3.weight f4 [32, 128]
00000000: b998 e63d d50b 863d 028d 5e3d ab78 82bd
00000010: 4e81 193d 8572 a23c 2fd2 e6bc 02b9 923d
00000020: 518d cf3d 83ff ea3c 60a1 8a3b 5dd0 bbbb
00000030: f417 083d a73f 2e3d 33fe 193c cafe 403d
00000040: 3364 843d 3331 913d 4ebd f43c 5812 373d
00000050: 1ff5 a0bd f546 8f3c a306 183d ac13 cf3d
00000060: ced3 af3c 37d3 26bd 8556 d73c 0d5c 7dbd
00000070: e217 a9bd 0b91 413d accc 453c 3b95 8ebd
00000080: d304 f7bc d304 163e b074 b7bc 9f7e 2a3d
00000090: d9de 74bd f1d5 73bb 23da bd3d cfd3 17bd
000000a0: 660e b93c ba7a 46bd fffc e93d 19a7 13b8
000000b0: 95f7 023e b09e 2b3d 0109 7b3d 2dd1 393d
000000c0: 3dcc 07be 1a4e 123e 724d bfbd 8322 83bc
000000d0: c76a 68bc 6b26 16bd 2a9e c73a 3a3f 76bd
000000e0: 36ce 333d 0347 1d3e 57ae 033d bd6e 733d
000000f0: aff8 2fbd 9450 c63d 0cda af3c ee2a e03d
00000100: d1c7 79bd c11a e2bc 166b c53d 5c07 893c
00000110: 90d4 ccbc c271 bebc 92ac 363d 98ae e8bc
00000120: df51 40bd 1be7 023d 2599 0c3e b8d7 bb3d
00000130: 01b8 ddbc 6680 893d 07c8 73bd c97e d73c
00000140: b382 a53d fdba 7cbd 0d46 8a3d 9887 afbd
00000150: b455 973d b8f7 e63b a355 b7bd 98c2 833d
00000160: a3d4 20bc ef30 ec3c 1adc 683d ac1e e93c
00000170: d411 6ebd f56c 5d3c cc9d 99bd 885a 2c3d
00000180: 5bf0 66bc 6108 a6bc a9f6 203d 1199 173d
00000190: 912e 6cbd a447 803c 4fe7 3b3d 8b07 99bd
000001a0: 2cf0 1ebb 85e3 45bd 5ff0 513c a987 033e
000001b0: 849f 493c 4f78 533c dc89 c9bc 7124 bbbd
000001c0: 7013 ba3d 121a 6fbd 87f6 56bd 8d0c 1b3b
000001d0: fb4f 1c3c 0e69 0f3d 10a7 9abd f062 ccbb
000001e0: 6523 8f3d 317a e93d 2cad 813d 1007 e53d
000001f0: 0545 9abc 724d 793c cf76 85bd c658 f63d
00000200: ceac 65bc 7a5d 073c 6ca1 ef3c 0b26 953d
00000210: 3dbd c63c 3421 7f3d 1d88 15bc df2f c83d
00000220: 54b6 773d e16e a8bd 23d6 a3bc 7169 0dbd
00000230: b3a6 943c 11bd 35bd 7beb 2abd e421 893d
00000240: 6868 ee3c a76b 7ebd 05e9 d13b efae a9ba
00000250: 94ff b0bd 9ccb acbc 11f7 03bd 3614 2d3d
00000260: dd6a 56bd 7575 35bd e14d 6abc 11f9 a7bd
00000270: d96d ba3c d680 c03b 7988 b83d d66a c1bc
00000280: b6cb a93d 1eb0 b73d 4534 3bbd 9450 4d3d
00000290: 4c5c 113c cf39 483d 755a e13d 5c03 933c
000002a0: 6457 d73c c69c 4b3c ee9e 0e3e f6d5 79bd
000002b0: 3462 913d 1a74 043d 8980 153b 6944 84bd
000002c0: 3173 8cbd 7e4d a93d 1fb8 d33b 9e02 6a3d
000002d0: aa5c d8bc b02e 41bb 3fd4 80ba 1ff1 21bd
000002e0: 49cc debb defe 733d db77 923d 9ee5 e73d
000002f0: f74a 183d dbd1 4a3d 33ce 463b f9fd 713c
00000300: 28ac a7bd b558 ee3c 848a 933d c933 183d
00000310: 97ae 153d 6313 be3d 4004 373c a0d6 edbc
00000320: 087d b83c 08f8 cabc e20a 873c 4740 b33d
00000330: 71de 48bc 7961 53bd b7ce a73d 4ad8 64bc
00000340: 7be2 d83c 7301 aabb ff1f 7c3d 15eb 7a3d
00000350: 17ef ec3c 11e5 993d 7ff3 c2bd c168 893d
00000360: 4644 fc3c 7d0c d83d 54e0 e63d 22cb 883d
00000370: 33d7 d43c 9e38 c53d 0fd1 33bd 98e5 a3bc
00000380: c773 81bb da15 b33d 1071 8ebc 34b0 b8bd
00000390: 7923 5e3b c85b 0abd 1710 4a3d 044f 623c
000003a0: 7d1c b23d 1f4b a13c 6514 74bc 81a7 a03d
000003b0: 984e 0d3c 32f7 dc3d a906 9cbc d0ef c13c
000003c0: a45f 643d 7216 69bd fff9 b7bc e9b6 f43c
000003d0: df90 b53d 2691 85bc 524e 3c3d b429 67bc
000003e0: f0d5 ab3d 5d42 0c3e 16db b0bb 15c4 c43d
000003f0: a6be 5c3d c891 11bd 9ef4 e1bc bfe5 043d
0.11259598 0.065452255 0.054333694 -0.06370672 0.03747683 0.019829998 -0.028176395 0.07164194
0.10134376 0.02868629 0.004230663 -0.005731626 0.03322597 0.042541172 0.009398985 0.047117986
0.06464424 0.07089462 0.029875424 0.04469523 -0.07859253 0.01748989 0.037115704 0.10111174
0.021463301 -0.040728774 0.026286373 -0.061855365 -0.082565084 0.047257464 0.012072723 -0.06962057
-0.030153668 0.14650278 -0.022394508 0.04162466 -0.059782837 -0.0037206376 0.09270122 -0.03706723
0.022589874 -0.048456885 0.11425208 -3.5203153e-05 0.12789758 0.041899383 0.061287884 0.0453655
-0.13261504 0.14287606 -0.093409434 -0.016007667 -0.014185614 -0.036657732 0.0015229632 -0.06011889
0.04389783 0.1535912 0.032148685 0.05943178 -0.042961773 0.09683338 0.021466278 0.10945688
-0.060981575 -0.027600648 0.09639566 0.016727142 -0.025003701 -0.023247603 0.04459817 -0.028403565
-0.04695308 0.03195868 0.13730295 0.091720045 -0.027065279 0.06713943 -0.059516933 0.026305573
0.080815695 -0.061701763 0.067516424 -0.08570784 0.073893934 0.0070485733 -0.08951881 0.064336
-0.009816322 0.028831927 0.05685053 0.028457008 -0.05812247 0.013514747 -0.075008005 0.042078525
-0.014095391 -0.020267667 0.039297733 0.03701121 -0.057661597 0.01565916 0.04587489 -0.07472142
-0.002425204 -0.048312683 0.012813657 0.12844719 0.012306098 0.012907102 -0.02460187 -0.0913781
0.09085739 -0.058374472 -0.0524812 0.0023658604 0.009540553 0.035012297 -0.07551396 -0.00623738
0.06989173 0.11400259 0.06331858 0.11182988 -0.01883174 0.015216218 -0.065168016 0.12028651
-0.014018251 0.008262033 0.029251777 0.07282647 0.024260158 0.062287524 -0.00912669 0.09774756
0.060476616 -0.082242735 -0.01999957 -0.034524385 0.018145895 -0.04436976 -0.041728478 0.06695917
0.02910252 -0.062114384 0.006405952 -0.0012945811 -0.08642498 -0.021093182 -0.032218043 0.042255603
-0.052348007 -0.04430147 -0.014300794 -0.082018025 0.022757458 0.0058747334 0.09010405 -0.023610514
0.08290808 0.089691386 -0.045704145 0.050125673 0.008872103 0.048883256 0.110035814 0.017945938
0.026286788 0.012427514 0.13927814 -0.060995065 0.07098809 0.032337286 0.0022812209 -0.06458361
-0.068579085 0.082667336 0.006461158 0.057131402 -0.026411373 -0.002947729 -0.0009828879 -0.03953659
-0.006799255 0.059569232 0.07151767 0.11323093 0.037180867 0.04951654 0.0030335307 0.014770024
-0.08187133 0.029095033 0.07204154 0.03715876 0.036543455 0.092810415 0.011170447 -0.029033005
0.022520557 -0.024776474 0.016484682 0.08752494 -0.012260065 -0.05160663 0.081937246 -0.013967583
0.026475182 -0.005188161 0.06155395 0.061259348 0.0289226 0.07514394 -0.095190994 0.06709433
0.030794274 0.10549257 0.11273256 0.066793695 0.025981521 0.096299395 -0.043900546 -0.02000694
-0.0039505693 0.08744402 -0.017387897 -0.09017983 0.0033895655 -0.033778936 0.04933175 0.013812784
0.0869684 0.01968914 -0.014897441 0.07844449 0.008624695 0.10789336 -0.019046145 0.023673922
0.055755273 -0.05690617 -0.022458075 0.029872375 0.088655226 -0.016304564 0.04597313 -0.014109064
0.08390415 0.1369719 -0.005397211 0.09607712 0.053892754 -0.03553942 -0.027582463 0.032445665

decoder.decoder_fc3.bias f4 [32]
00000000: afbb c53d 095e 1b3e b72f 283e 88fa 073e
00000010: 81eb 033d 7057 763d 66a9 a33d fc4f 653d
00000020: 485c 3e3d 7139 e4bb 85b4 fbbc 8a00 2e3d
00000030: a77c 683c 53e3 363d 1673 2f3e b972 cc3d
00000040: 0133 7a3d f2eb 173d 3c7c e73c 44ea f13d
00000050: 0f3a 033e ab3c 523d ea4b 19bd c664 49bd
00000060: d851 b93d 180a 203d 1a6e df3d ca39 c43d
00000070: 64b9 693b c184 f53d 33de db3d 2245 9e3d
0.096549384 0.1517259 0.16424452 0.13279164 0.032207016 0.06014198 0.079912946 0.055984482
0.046474725 -0.0069648554 -0.030725727 0.042480983 0.014189876 0.044650387 0.17133746 0.09982819
0.061083797 0.03709025 0.028257482 0.11812261 0.12815116 0.05132739 -0.037425913 -0.04916837
0.090488136 0.039072126 0.10909672 0.09581335 0.003566348 0.119882114 0.107357405 0.0772803
