clustering/clustering/encoder_weights/full_bag/lidar_encoder_autoencoder_full_bag_25.pth (torch, 95560 bytes, 14 tensors)

encoder.conv2d_1.weight f4 [16, 1, 1, 3]
0	0xbde8a5f6	-0.113597795
1	0x3f31022d	0.69143945
2	0xbf7bf6be	-0.98423374
3	0x3e024a33	0.12723617
4	0x3e8fac0c	0.2806095
5	0x3ee65bff	0.44992062
6	0xbe79cc93	-0.24394445
7	0x3ef9ac3f	0.48764226
8	0xbeeee7a3	-0.466611
9	0xbf1691fa	-0.5881649
10	0x3ecb8ade	0.39754385
11	0xbebcf409	-0.36904934
12	0x3ee2c22b	0.44288763
13	0xbebaa00d	-0.36450234
14	0xbf0506f6	-0.51963747
15	0x3ece640d	0.40310708
16	0x3f0b61ea	0.5444628
17	0xbed2ec86	-0.41196078
18	0xbe88c6e0	-0.2671423
19	0xbec79e66	-0.38988036
20	0x3dfa3800	0.122177124
21	0xbe91100b	-0.28332552
22	0x3e350d23	0.17680793
23	0xbe5b2227	-0.21399747
24	0xbea504ce	-0.32230228
25	0xbe5043fa	-0.20338431
26	0x3e0dc4cd	0.13844605
27	0xbf574a21	-0.84097487
28	0x3e1bc5b0	0.1521213
29	0x3eebdd51	0.4606729
30	0xbe74e0bd	-0.23913856
31	0x3ef2b592	0.47404152
32	0x3de8fa50	0.11375868
33	0xbee1eeda	-0.44127542
34	0xbec9568c	-0.39323843
35	0x3ee61b2f	0.44942614
36	0x3f1abfee	0.6044911
37	0x3ebf8f8a	0.374142
38	0xbe2d215d	-0.16907258
39	0xbdd11055	-0.10208193
40	0xbe99220a	-0.29908782
41	0xbec223d6	-0.37917966
42	0xbd19bc18	-0.037532896
43	0x3efd3b40	0.49459267
44	0x3f033117	0.5124678
45	0x3f166199	0.5874267
46	0x3df0e124	0.11761692
47	0xbf33f4ef	-0.70295614

encoder.conv2d_1.bias f4 [16]
0	0x3dffef66	0.124968335
1	0xbe55bae1	-0.2087207
2	0x3ed5e227	0.41774103
3	0x3e8a1f37	0.2697694
4	0x3eabff15	0.3359305
5	0xbea5cb14	-0.323815
6	0xbe93dca2	-0.28879267
7	0x3ea56a99	0.3230789
8	0x3f0a6fb3	0.5407669
9	0x3dbdad11	0.092615254
10	0xbd26280d	-0.04056554
11	0x3ee297cb	0.44256434
12	0x3d2065fb	0.039159756
13	0xbe553dd2	-0.20824364
14	0xbd9b7db0	-0.07592332
15	0x3bd3a995	0.0064594247

encoder.conv2d_2.weight f4 [32, 16, 1, 3]
0	0x3c866fb1	0.01641068
1	0xbf6b6ea1	-0.9196568
2	0xbecb8700	-0.39751434
3	0x3d0bbd02	0.0341158
4	0x3e1ce238	0.1532067
5	0xbdea99ef	-0.11455142
6	0x3e04051f	0.12892579
7	0xbd0b0c04	-0.033947006
8	0xbbfcf956	-0.007720153
9	0x3e57c628	0.21071684
10	0xbd67b9e1	-0.056573752
11	0xbdff9ae9	-0.12480719
12	0x3e741309	0.23835386
13	0x3e380acc	0.17972869
14	0xbdbc4a93	-0.091939114
15	0x3d0e2290	0.03470093
16	0x3e6440de	0.2229037
17	0x3e6d09a8	0.23148215
18	0x3d5a105b	0.053238254
19	0xb90c9ef1	-0.0001341065
20	0xbd583b14	-0.052790716
21	0x3d05200b	0.03250126
22	0xbdc2167f	-0.09476947
23	0xbe328482	-0.1743336
24	0x3dbdd05c	0.09268257
25	0x3ca4a195	0.02009658
26	0xbd9067cc	-0.07051048
27	0x3f6f1d14	0.93403745
28	0x3e46d257	0.19416176
29	0xbd4100b9	-0.04711983
30	0x3e01e946	0.12686643
31	0x3e2eedd4	0.17082912
32	0xbeb75669	-0.35808113
33	0x3da98cb6	0.082787916
34	0xbe46c6c6	-0.19411764
35	0xbdaa5a42	-0.083179966
36	0x3c9de353	0.019273436
37	0x3b83767f	0.0040119286
38	0x3d3e3dcc	0.046445653
39	0xbdb6f6a6	-0.08933763
40	0x3d692f74	0.05693002
41	0xbdc194a7	-0.09452181
42	0x3bce681e	0.006299033
43	0xbd72edb4	-0.059308723
44	0xbe11f538	-0.142537
45	0x3e6078e1	0.21921112
46	0x3eb07880	0.34466934
47	0xbcc6fd1a	-0.02429061
48	0x3e9dfb9d	0.30856028
49	0x3f18a8cc	0.59632564
50	0xbd1f5a8d	-0.038904715
51	0x3c6e00e7	0.014526582
52	0x3d8f6441	0.07001544
53	0xbd038b52	-0.032115288
54	0xbe32aae8	-0.17448008
55	0x3d790c8f	0.060802992
56	0xbb3815eb	-0.0028089236
57	0xbe111243	-0.14167123
58	0x3e1f6566	0.15566024
59	0x3d1c1c60	0.038112998
60	0x3d103519	0.035206888
61	0x3d6f631d	0.05844413
62	0x3d988ab3	0.0744833
63	0xbd9bf2a5	-0.0761464
64	0x3dff5b54	0.12468591
65	0x3cafb027	0.0214463
66	0xbc6b67d2	-0.014368014
67	0x3de1a664	0.110180646
68	0xbcbeef29	-0.0233074
69	0xbe3214d2	-0.17390755
70	0x3e2603d0	0.16212392
71	0x3d002161	0.031281833
72	0xbda2f730	-0.079573035
73	0xbdb35be4	-0.08757761
74	0xbd08508d	-0.033279944
75	0x3ec4e349	0.38454655
76	0x3de3f29c	0.111302584
77	0x3e53bcec	0.20677537
78	0xbe1e6a1b	-0.15470164
79	0xbd1a2762	-0.037635215
80	0x3ddd8627	0.10816603
81	0xbd94a4e4	-0.07258013
82	0xbcea7f48	-0.028625146
83	0xbd1827bf	-0.03714728
84	0x3d3405cc	0.04395084
85	0xbd2668a6	-0.040627144
86	0x3cd4970a	0.025950927
87	0xbd4f57fa	-0.05062101
88	0x3da91740	0.08256388
89	0x3d92df0b	0.07171448
90	0x3dbc091d	0.09181426
91	0xbdcb8c9e	-0.0993893
92	0x3df2c3b0	0.11853731
93	0x3e27fa89	0.16404165
94	0x3e96de59	0.29466513
95	0x3c235552	0.009969072
96	0xbdbef2b1	-0.093236335
97	0xbdd8bfec	-0.10583481
98	0xbe896caf	-0.26840732
99	0xbd5f373e	-0.054496042
100	0x3e3f05db	0.18654577
101	0x3e0f769a	0.14010087
102	0x3e06b1a8	0.13153708
103	0xbd27df2c	-0.040984318
104	0xbdb81684	-0.089886695
105	0x3d365ca8	0.044521958
106	0xbeac992c	-0.3371061
107	0xbe7ebbc5	-0.24876316
108	0xbe498cc4	-0.19682604
109	0xbe2acc95	-0.16679604
110	0xbe10a141	-0.14124013
111	0x3e51b795	0.20480187
112	0x3c9c8bf0	0.019109696
113	0xbd940e30	-0.072292686
114	0xbd8e6b9b	-0.06954118
115	0xbd2c5d2b	-0.04208104
116	0xba282bdb	-0.00064152264
117	0x3dd63255	0.10458819
118	0xbd2223e6	-0.039585017
119	0xbe29fd34	-0.16600496
120	0x3d593a76	0.05303427
121	0x3ba22be5	0.0049490803
122	0x3cb30c21	0.02185637
123	0x3e39cd27	0.18144666
124	0xbd9b5707	-0.075849585
125	0x3e3b096f	0.18265317
126	0x3dd25144	0.102694064
127	0xbdbf36b8	-0.09336609
128	0x3e4541b1	0.1926334
129	0xbdee8ed2	-0.116483346
130	0x3cffa6be	0.031207439
131	0x3d1583ad	0.03650253
132	0x3cefde23	0.029280728
133	0x3dec8ef5	0.115507044
134	0x3dc4470c	0.095838636
135	0x3d928933	0.07155075
136	0xbdfd9ca4	-0.123833925
137	0xbdf369e2	-0.1188543
138	0x3e5cbd35	0.21556552
139	0x3e1eeabf	0.15519236
140	0x3e4a2479	0.19740476
141	0x3cdf19dc	0.02723401
142	0xbda3a8df	-0.07991194
143	0xbdc30e7f	-0.09524249
144	0x3f378acb	0.71696156
145	0xbdde8ef0	-0.10867107
146	0x3ea1a367	0.3156998
147	0x3d9d3075	0.07675258
148	0xbd063956	-0.032769524
149	0xbe2d8f3e	-0.16949174
150	0xbb68f515	-0.003554647
151	0x3c3b0ea1	0.011417062
152	0x3e55641f	0.20838974
153	0x3eb2c452	0.34915406
154	0x3e937fdf	0.28808495
155	0x3e4b0a18	0.19828069
156	0xbd1faf20	-0.03898537
157	0x3d5dfe20	0.05419743
158	0x3e99dd44	0.30051625
159	0xbd00433f	-0.03131413
160	0xbe548eae	-0.20757553
161	0x3e522b41	0.20524313
162	0xbdd9ea5c	-0.10640404
163	0xbd072c31	-0.03300113
164	0x3c2ec995	0.010668178
165	0x3e5b514b	0.2141773
166	0x3d9720a6	0.07379274
167	0x3d92b435	0.07163278
168	0x3e038662	0.12844232
169	0x3e58502a	0.2112433
170	0x3d9257e9	0.07145674
171	0x3e29c679	0.16579618
172	0xbd116696	-0.035498224
173	0x3d1b76e2	0.037955172
174	0x3d6e239f	0.05813944
175	0xbdf43688	-0.119244635
176	0xbe4c2c65	-0.1993881
177	0x3e68334e	0.22675821
178	0x3dc36992	0.0954162
179	0x3e2d60d0	0.16931462
180	0xbd828012	-0.06372084
181	0xbd322543	-0.043492567
182	0xbd9cf983	-0.07664778
183	0xbd363097	-0.044479933
184	0x3c640d3a	0.013919169
185	0xbdfa7db0	-0.12231004
186	0xbd9257b0	-0.07145631
187	0xbd5e0789	-0.054206405
188	0xbe93f416	-0.2889716
189	0xbdd65b3f	-0.104666226
190	0xbe1db3be	-0.15400597
191	0x3eb15da1	0.34641746
192	0x3efc5360	0.4928236
193	0x3e6e3410	0.23262048
194	0xbdaefadf	-0.085439436
195	0xbcfeaa90	-0.03108719
196	0xbd04775e	-0.0323404
197	0xbcfa1982	-0.030529741
198	0xbdaff491	-0.08591569
199	0x3d6ba948	0.057534486
200	0x3da27b3c	0.07933661
201	0xbdd83c93	-0.105584286
202	0x3c008d79	0.00784623
203	0xbea5e976	-0.3240468
204	0xbd87f9e8	-0.06639463
205	0x3e1f0651	0.15529753
206	0xbdef8e5d	-0.116970755
207	0x3e81d8af	0.2536063
208	0x3e111895	0.14169534
209	0x3e0ee61e	0.1395497
210	0x3d04e1f7	0.03244206
211	0xbd75f208	-0.060045272
212	0x3e01d608	0.12679303
213	0x3cdfb85d	0.027309591
214	0x3e0b4404	0.13600165
215	0x3db5e3ec	0.08881363
216	0x3ce07e6b	0.02740403
217	0x3d0e3840	0.034721613
218	0x3da1a951	0.07893623
219	0x3e472fe3	0.19451861
220	0xbdb59961	-0.08867145
221	0xbd9ce44a	-0.0766073
222	0xbcd17507	-0.025568498
223	0xbd7c9dab	-0.0616738
224	0xbe36dc68	-0.17857516
225	0xbdde34f4	-0.10849944
226	0xbe145f19	-0.14489402
227	0x3e55ec23	0.2089086
228	0x3e4e1d55	0.20128377
229	0x3df9f5c3	0.122050785
230	0xbd9b8052	-0.075928345
231	0x3cea0f8a	0.028571863
232	0xbda06256	-0.07831256
233	0x3ce2375f	0.027614294
234	0x3db5ec66	0.0888298
235	0x3dbd5cf3	0.09246244
236	0x3d16327d	0.036669243
237	0x3e03ba5a	0.12864056
238	0x3e27fb4f	0.1640446
239	0x3e90e652	0.2830072
240	0xbef7c245	-0.48390403
241	0xbee5243e	-0.44754213
242	0x3eed7a58	0.46382403
243	0x3d32a50b	0.04361443
244	0x3dee7512	0.11643423
245	0xbcd2679b	-0.025684169
246	0x3e2d6585	0.16933258
247	0x3d63fb61	0.055659655
248	0x3e72d79f	0.23715065
249	0xbcda18cd	-0.026623154
250	0xbdd8eadc	-0.10591671
251	0x3e82f42a	0.25576907
252	0xbda57537	-0.080789976
253	0xbc152209	-0.009102353
254	0x3e89f24f	0.2694268
255	0xbd3b77aa	-0.045768417

encoder.conv2d_2.bias f4 [32]
0	0x3e09033e	0.13380143
1	0x3cdacd03	0.026709085
2	0x3a2b647b	0.0006538105
3	0x3cc85c7c	0.024458162
4	0xbd8f8ec5	-0.07009653
5	0x3da4ae22	0.08041026
6	0x3d1f08fe	0.038826935
7	0x3da6ece0	0.08150649
8	0xbd246f6b	-0.04014532
9	0xbd170901	-0.03687382
10	0xbd91dcfb	-0.07122227
11	0x3c906d3f	0.017630218
12	0x3df05126	0.11734228
13	0x3c7e295d	0.015512791
14	0x3cd328bb	0.025776258
15	0x3bc0d326	0.005884546
16	0x3db5c1e4	0.08874872
17	0xbdd613af	-0.10452973
18	0xbd9b10ab	-0.075715385
19	0x3d6f16c2	0.058371313
20	0x3d309bc4	0.0431173
21	0x3e29e295	0.1659034
22	0x3e46def3	0.19420986
23	0xbce5d2af	-0.028054563
24	0x3e3a952d	0.18220969
25	0x3e35a3eb	0.17738311
26	0xbdbea084	-0.0930796
27	0xbdda3748	-0.10655075
28	0xbd82b2c0	-0.0638175
29	0x3cd40f63	0.025886243
30	0x3dcf7f70	0.10131729
31	0x3e06e77e	0.13174245

encoder.conv2d_3.weight f4 [64, 32, 1, 3]
0	0xbde09f82	-0.10967924
1	0xbd9112e0	-0.07083678
2	0x3d097a2d	0.03356378
3	0xbd99a252	-0.07501663
4	0xbc59d5b8	-0.013295583
5	0xbdf6ca5e	-0.12050317
6	0xbdcb84c1	-0.0993743
7	0xbc92ccf7	-0.01792
8	0xbdfbb217	-0.12289827
9	0xbddbb47c	-0.10727784
10	0x3d25a617	0.0404416
11	0xbb5bc310	-0.0033533014
12	0xbd4fb915	-0.050713617
13	0xbddf0c8f	-0.10891067
14	0x3d128c00	0.035778046
15	0xbdbbfcb1	-0.091790564
16	0xbd374df7	-0.044752087
17	0xbd87c9e6	-0.06630306
18	0xbd52e139	-0.05148432
19	0xbda8361a	-0.08213444
20	0x3d6d3789	0.05791429
21	0x3d3196b9	0.04335663
22	0xbd8fc076	-0.07019131
23	0xbdad9b98	-0.08476943
24	0xbd623db6	-0.055234633
25	0xbda7aa51	-0.08186782
26	0x3cfd0373	0.030885434
27	0x3bd33cc0	0.006446451
28	0x3d94dfa5	0.07269219
29	0x3cc26ced	0.02373358
30	0x3d24b38b	0.040210288
31	0xbdfc652d	-0.12323985
32	0xbdf5e0f1	-0.12005795
33	0xbd387985	-0.045037765
34	0xbdd7fb76	-0.10546009
35	0xbcffd6f6	-0.031230431
36	0x3ccc63cf	0.024949936
37	0xbb90ddfe	-0.004420995
38	0xbdb265c8	-0.087108195
39	0xbda04627	-0.078258805
40	0x3d67e703	0.056616794
41	0xbd057a9e	-0.03258764
42	0x3c28ef87	0.010311014
43	0xbd9f1a86	-0.07768731
44	0xbc85e999	-0.01634674
45	0xbb668874	-0.0035176547
46	0xbb94d604	-0.004542114
47	0x3cf28070	0.02960226
48	0x3d8f23ff	0.069892876
49	0xbc281ba5	-0.010260497
50	0xbd5779d1	-0.052606408
51	0xbd590008	-0.052978545
52	0x3d1ad356	0.037799202
53	0x3d24de5b	0.040251117
54	0x3dcd86a2	0.10035445
55	0xbcc57a00	-0.024106026
56	0x3ca259b8	0.019818172
57	0xbd4a4c95	-0.04938944
58	0xbd458b20	-0.048228383
59	0x3ce9812b	0.028503975
60	0xbdea9113	-0.11453452
61	0x3c0de89d	0.008661416
62	0x3d0f4fdb	0.034988265
63	0x3d8a90d1	0.06765903
64	0xbdae5e98	-0.08514136
65	0xbd24e86e	-0.040260725
66	0xbd83359d	-0.0640671
67	0xbdaf2dd7	-0.08553665
68	0x3c8f8c77	0.017523034
69	0x3d3ec900	0.046578407
70	0x3d012819	0.03153238
71	0xbd8d38b1	-0.06895579
72	0xbdb3d61e	-0.08781074
73	0x3d6d023a	0.05786345
74	0x3d40c224	0.047060147
75	0xbdca131e	-0.098669276
76	0xbc84efe9	-0.01622768
77	0xbdbc8465	-0.0920494
78	0xbcb31654	-0.021861233
79	0x3cdd8a5c	0.027043514
80	0xbdef3026	-0.116791055
81	0xbc6d6408	-0.014489181
82	0xbdada90b	-0.08479508
83	0x3b784a80	0.0037886202
84	0x3d5d2505	0.053990383
85	0xbbf5a881	-0.007496894
86	0x3d399ba3	0.045314442
87	0x3d1ce329	0.038302574
88	0x3da8c7c8	0.0824123
89	0x3da58503	0.080820106
90	0x3d3b12af	0.045672115
91	0xbde65f7c	-0.11248681
92	0xbcd32f70	-0.025779456
93	0x3d7ffc83	0.062496673
94	0x3cba56a8	0.022746399
95	0xbd4e4050	-0.050354302
96	0xbce78bb2	-0.028264854
97	0x3d34cc86	0.04414036
98	0x3c16a1ae	0.009193821
99	0x3d4661ec	0.04843323
100	0xbd606c8c	-0.05479102
101	0xbdc541da	-0.09631701
102	0x3d9e0057	0.077149086
103	0x3ca71cef	0.020399539
104	0x3c3546dc	0.0110642575
105	0xbe2fdbd4	-0.17173702
106	0x3dcd9ce5	0.10039691
107	0x3e0fd415	0.14045747
108	0x3dd324da	0.10309763
109	0xbdd3c4c6	-0.10340266
110	0x3e02c829	0.12771668
111	0x3e02b9b3	0.12766151
112	0xbdb25bfc	-0.08708951
113	0x3db88c4b	0.09011134
114	0xbe4daf8a	-0.20086494
115	0x3c43622a	0.01192526
116	0x3da99380	0.082800865
117	0x3e0f735f	0.14008854
118	0x3e03aee2	0.12859681
119	0xbc842aec	-0.016133748
120	0x3e0e4a49	0.13895525
121	0xbcd4237f	-0.025895832
122	0x3e31e039	0.1737069
123	0xbd1be714	-0.03806217
124	0xbd0adbea	-0.033901133
125	0x3e1c384c	0.1525585
126	0x3e0cb9d6	0.13742766
127	0x3e04d7ae	0.129729
128	0x3e6e1f20	0.23254061
129	0xbbcc7b8f	-0.0062403153
130	0xbd106c4f	-0.03525954
131	0x3e04312e	0.12909386
132	0xbd853294	-0.06503788
133	0xbe4b273c	-0.19839185
134	0x3e8bbbd8	0.2729175
135	0x3e6ff7b5	0.23434336
136	0x3dd298e2	0.10283066
137	0x3e0b84c1	0.1362486
138	0xbd288bf3	-0.04114909
139	0xbb55d20c	-0.0032626418
140	0xbc35349d	-0.011059907
141	0x3da2219a	0.07916565
142	0x3d97f84b	0.07420405
143	0x3dcc8043	0.099854015
144	0x3ceba1a9	0.028763609
145	0x3d1a09e7	0.0376071
146	0xbdb594b7	-0.08866256
147	0x3dbd8b4f	0.09255087
148	0xbc4a1928	-0.012335099
149	0x3b522315	0.0032064368
150	0xbdc08c83	-0.094018005
151	0xbc8e8279	-0.017396199
152	0x3d15d8dc	0.036583766
153	0xbbd7d0f1	-0.006586187
154	0xbe16cfaf	-0.14727663
155	0x3dcbbc18	0.099479854
156	0xbc4cdcc0	-0.012503803
157	0x3e169535	0.14705355
158	0x3d8a6c46	0.06758933
159	0xbe2a97ac	-0.1665942
160	0xbd446cfa	-0.04795549
161	0x3d44fa38	0.04809019
162	0x3d752937	0.05985376
163	0x3dc7b4ec	0.09751305
164	0xbd2df2c0	-0.042467833
165	0x3d894b6c	0.06703839
166	0xbe0b4ebf	-0.13604258
167	0x3c814534	0.015780069
168	0x3dd2694e	0.102739915
169	0x3d382092	0.044952936
170	0xbce4d6a6	-0.027934384
171	0x3d8d68d5	0.06904761
172	0xbdb36018	-0.08758563
173	0xbd820a48	-0.06349617
174	0x3e2cb522	0.16865972
175	0x3d169acf	0.03676873
176	0x3d272ba2	0.040813096
177	0x3d746aff	0.059672352
178	0xbd04ab84	-0.032390133
179	0x3dea3e7b	0.114376985
180	0xbcf48d84	-0.029852636
181	0x3ed87511	0.42276815
182	0x3dc02c50	0.09383452
183	0xbd01af26	-0.031661175
184	0xbd85e7b8	-0.065383375
185	0xbc4d3ed5	-0.012527187
186	0x3d98f13f	0.07467889
187	0x3e26f652	0.16304901
188	0xbc534b83	-0.012896421
189	0x3d356769	0.044288073
190	0xbc679c5a	-0.014136398
191	0x3d12ce00	0.03584099
192	0xbda4acd4	-0.08040777
193	0xbe056110	-0.13025308
194	0x3dfb8c01	0.12282563
195	0xbd12ee05	-0.035871524
196	0x3cef51ae	0.029213753
197	0x3e313a9a	0.17307511
198	0xbeeab016	-0.45837468
199	0xbd8ff2b4	-0.07028714
200	0x3d4c699f	0.049905416
201	0xbef0386d	-0.4691805
202	0xbe87d51d	-0.2652978
203	0xbd0914bd	-0.033467043
204	0xbdb9b2ee	-0.09067331
205	0xbe438b43	-0.19096093
206	0x3e064b84	0.13114744
207	0xbdc81c13	-0.0977098
208	0x3d9957d2	0.074874535
209	0x3e09d6b3	0.13460808
210	0xbeb8ab05	-0.36067978
211	0x3d87cdad	0.066310264
212	0x3e1957da	0.14974919
213	0xbda26161	-0.0792873
214	0x3e0c6cca	0.13713375
215	0xbc62193e	-0.0137999635
216	0xbe513008	-0.20428479
217	0xbda0c716	-0.07850473
218	0x3d1a0409	0.037601504
219	0xbe332b32	-0.17496946
220	0x3d82d8cf	0.06389009
221	0x3d44de32	0.048063464
222	0xbec4c6e8	-0.38433003
223	0xbeaaa51d	-0.33329096
224	0x3da74248	0.08166939
225	0xbe1dd803	-0.15414433
226	0xbc4147ac	-0.011796873
227	0x3d93e78f	0.07221901
228	0xbe0bc25c	-0.13648361
229	0xbeb9e147	-0.36304685
230	0xbf167ede	-0.58787334
231	0xbeb5401c	-0.35400474
232	0x3e83b378	0.2572286
233	0xbd99ad41	-0.07503749
234	0xbc407c0c	-0.011748325
235	0x3e12ec87	0.1434804
236	0x3cf66b89	0.030080574
237	0xbe71d8c5	-0.23617847
238	0x3dfb4350	0.12268698
239	0xbd16ebbb	-0.036845904
240	0xbe2e8b5a	-0.17045346
241	0x3c8aa733	0.01692543
242	0x3d936895	0.07197682
243	0x3c1e25c8	0.009652562
244	0xbc9fab67	-0.01949091
245	0xbd3d2c88	-0.046185046
246	0x3da2e268	0.0795334
247	0xbd8de490	-0.069283605
248	0xbb6a73a5	-0.0035774496
249	0xbe379091	-0.17926241
250	0x3d52e328	0.051486164
251	0x3df567b2	0.11982669
252	0xbe630a98	-0.2217201
253	0x3c349f61	0.011024327
254	0x3d6ee756	0.058326088
255	0xbe5a4e9a	-0.21319047

encoder.conv2d_3.bias f4 [64]
0	0xbdfe1500	-0.12406349
1	0x3cc43a50	0.023953587
2	0xbcdaa8d7	-0.026691837
3	0x3da1bacf	0.07896959
4	0xbd8087fc	-0.06275937
5	0xbd6bc002	-0.05755616
6	0xbd963022	-0.07333399
7	0xbde59acd	-0.112111665
8	0xbaf11bfb	-0.001839518
9	0x3d90d560	0.07071948
10	0x3c85d769	0.016338067
11	0x3d0119f2	0.031518884
12	0x3d5f65f4	0.05454059
13	0xbdd453f0	-0.10367572
14	0xbdac267a	-0.08405776
15	0xbe0a95a8	-0.13533652
16	0xbdd5d065	-0.10440139
17	0x3d13afe2	0.036056407
18	0xbd02ba40	-0.031915903
19	0xbd2de3c2	-0.042453535
20	0x3d649076	0.05580183
21	0x3db6784b	0.08909663
22	0x3c925a02	0.017865185
23	0x3d0c902e	0.034317188
24	0xbcbe6467	-0.023241235
25	0xbb9fac23	-0.004872815
26	0x3da8728c	0.08224973
27	0xbd8a580a	-0.06755073
28	0xbd8ae658	-0.06782216
29	0xbd57ee94	-0.05271776
30	0x3d751cf7	0.059842076
31	0xbc14b298	-0.009075783
32	0xbcb0673b	-0.0215336
33	0xbd35ec41	-0.044414762
34	0x3dcea1df	0.10089468
35	0x3bcda356	0.0062755747
36	0xbd80aaa3	-0.06282546
37	0x3d7c8e14	0.061658934
38	0xbd3fc091	-0.046814505
39	0xbcf7534e	-0.03019109
40	0xbcfe3bc3	-0.031034356
41	0x3d5557f4	0.05208583
42	0x3cc5136f	0.024057118
43	0x3d4ffc3d	0.050777663
44	0xbd6070fb	-0.054795247
45	0xbdd98a2b	-0.106220566
46	0xbdd22f40	-0.102629185
47	0xbcb256a0	-0.021769822
48	0xbce53ce8	-0.027983144
49	0xbd800275	-0.06250469
50	0xbdc82c58	-0.09774083
51	0x3cb7a1ed	0.02241608
52	0x3dfa40ab	0.12219366
53	0x3c231ad7	0.00995513
54	0xbdb7b6d6	-0.0897042
55	0xbd471344	-0.048602358
56	0x3cb68a83	0.022282844
57	0xbde71d7c	-0.112849206
58	0xbdd8318f	-0.105563276
59	0xba9637ba	-0.00114607
60	0x3d504041	0.050842527
61	0x3d2294ba	0.039692618
62	0xbc0bda19	-0.008535885
63	0x3d2e2d51	0.042523686

encoder.fc.weight f4 [16, 64]
0	0x3dcfb090	0.101410985
1	0x3dc54c31	0.09633673
2	0xbe4ba427	-0.19886838
3	0xbd610c06	-0.054943107
4	0xbbe38721	-0.006943599
5	0x3d6103e3	0.054935347
6	0x3d9b09af	0.075702064
7	0x3d910bd0	0.07082331
8	0xbdfd2dfb	-0.12362286
9	0x3e6fab64	0.23405224
10	0x3d258280	0.040407658
11	0x3d22d2b1	0.039751712
12	0xbe82637e	-0.25466532
13	0xbe91e1fe	-0.2849273
14	0xbe93275a	-0.2874096
15	0x3d82a0d2	0.0637833
16	0xbd7776b2	-0.06041593
17	0x3e09a14d	0.13440438
18	0x3d4b3aa1	0.04961646
19	0x3ddfa4eb	0.109201275
20	0x3cb36888	0.02190043
21	0xbc5c1563	-0.013432833
22	0x3e2113fe	0.15730283
23	0x3dbdbb71	0.09264267
24	0x3d7f5c50	0.062343895
25	0xbdbaae87	-0.0911532
26	0x3d1a3ce1	0.037655715
27	0x3e2d96d0	0.16952062
28	0x3d3645fb	0.044500332
29	0x3cddcd62	0.027075473
30	0xbdc86cda	-0.09786387
31	0x3d3028e9	0.043007765
32	0xbd85f44e	-0.06540738
33	0x3e334f1f	0.17510651
34	0xbdda4b63	-0.1065891
35	0x3da909a0	0.08253789
36	0x3dcf706e	0.10128866
37	0xbc5df353	-0.013546783
38	0x3dcb26bb	0.099194966
39	0x3cf9faf6	0.030515175
40	0x3c0b9cd7	0.00852128
41	0xbdb1b630	-0.08677328
42	0x3c010b99	0.0078763
43	0x3ccac9e8	0.02475448
44	0x3e4316ec	0.19051713
45	0xbcf48939	-0.02985059
46	0xbe2f6d04	-0.1713143
47	0xbe24385a	-0.16037121
48	0x3d34979c	0.0440899
49	0xbd10eab0	-0.035380065
50	0xbdf4c980	-0.119524956
51	0x3dfb87ae	0.12281738
52	0x3dd511d8	0.10403794
53	0xbe3d9a1c	-0.1851582
54	0xbe1c5025	-0.15264948
55	0x3e09587e	0.13412663
56	0x3d39a268	0.0453209
57	0x3d918e3e	0.07107209
58	0x3e0bcaa8	0.13651526
59	0xbde312a5	-0.110875405
60	0x3dd0d925	0.10197667
61	0xbe4e37bd	-0.2013845
62	0x3c542ca3	0.012950095
63	0x3e1e66fe	0.15468976
64	0x3c2da8b3	0.010599303
65	0xbe000bed	-0.1250455
66	0xbd733fae	-0.0593869
67	0xbe13c264	-0.14429623
68	0x3b6722a3	0.0035268448
69	0x3d6095f0	0.05483049
70	0x3de322ea	0.11090644
71	0x3d380353	0.044925045
72	0xbddb8eb2	-0.10720576
73	0xbdfe9c34	-0.12432137
74	0x3c620247	0.013794488
75	0x3dc0f3df	0.09421515
76	0xbe93fb78	-0.28902793
77	0x3e355168	0.17706835
78	0xbd721de8	-0.059110552
79	0x3d0ad224	0.033891812
80	0xbdd26f74	-0.10275164
81	0x3eaf6e80	0.34263992
82	0xbd27dfb1	-0.040984813
83	0xbd78dd3c	-0.06075786
84	0xbee4de7b	-0.4470099
85	0xbe8c90c6	-0.27454203
86	0xbd962a9e	-0.07332347
87	0xbe5c479f	-0.21511696
88	0x3d0ab206	0.033861183
89	0x3d8c123b	0.06839415
90	0x3de443b6	0.11145727
91	0x3e12fcab	0.14354198
92	0xbd5fc701	-0.054633144
93	0x3db7f6d6	0.08982627
94	0xbdbb24c1	-0.091378696
95	0x3d6139a1	0.0549866
96	0x3cffa268	0.031205371
97	0xbda3a303	-0.079900764
98	0xbe34bd65	-0.17650373
99	0x3e09d405	0.13459785
100	0xbb66c7aa	-0.0035214224
101	0x3e86dcb8	0.2634027
102	0x3b54ffa3	0.0032501004
103	0xbd8b360b	-0.06797417
104	0xbcdcbdbd	-0.026945943
105	0x3db40514	0.08790031
106	0x3e737762	0.2377601
107	0xbdbe3824	-0.09288052
108	0x3e077b04	0.1323052
109	0x3db23760	0.08701968
110	0xbe61d18a	-0.22052589
111	0x3d2c7896	0.042107187
112	0x3c1d9099	0.009616994
113	0x3dcefbb6	0.10106604
114	0x3d27c8c3	0.040962946
115	0x3c31dda3	0.010856065
116	0xbddb1655	-0.10697619
117	0xbadd764e	-0.001689622
118	0x3e832300	0.2561264
119	0xbd9e0629	-0.07716019
120	0x3d6424bf	0.055699106
121	0xbbc1ab4d	-0.005910313
122	0x3dccb435	0.09995309
123	0x3d9dd3b8	0.07706398
124	0x3d72cdcb	0.05927829
125	0xbdf33a81	-0.11876393
126	0xbdddb452	-0.10825409
127	0x3d581d16	0.052762114
128	0xbbfb6bce	-0.0076727634
129	0xbd65736e	-0.056018285
130	0x3e397399	0.18110503
131	0xbe2e9ff1	-0.170532
132	0x3d895345	0.067053355
133	0x3cfa7550	0.030573517
134	0x3dbfa40a	0.0935746
135	0x3b079558	0.002068838
136	0x3dd76f75	0.105193056
137	0xbdb19b60	-0.086722136
138	0x3da04f8e	0.07827674
139	0xbd3c1a5c	-0.045923576
140	0xbd54fb1d	-0.051997293
141	0xbe0d2843	-0.1378489
142	0xbcbfb474	-0.023401476
143	0x3cc46648	0.023974553
144	0x3e3444b0	0.17604327
145	0x3e24ffd5	0.16113217
146	0xbda548a9	-0.080704994
147	0xbdc1d736	-0.09464876
148	0xbead1b29	-0.33809784
149	0xbdca1fda	-0.098693565
150	0xbd7d7e65	-0.061888117
151	0x3e40bd0f	0.1882212
152	0x3c8b6b31	0.017018886
153	0x3c2488e9	0.010042408
154	0xbd8aee78	-0.067837656
155	0xbe789854	-0.24276859
156	0x3e389c01	0.18028261
157	0x3dc20633	0.09473839
158	0x3de0947a	0.1096582
159	0x3db76813	0.089553975
160	0xbbb7fa2e	-0.0056145405
161	0xbda8a82a	-0.082352
162	0x3e491151	0.19635512
163	0xbe2e1f1c	-0.17004055
164	0x3bc228a8	0.0059252568
165	0x3e4c07fd	0.19924922
166	0xbe38467c	-0.17995638
167	0x3e36065f	0.17775868
168	0x3dc83c86	0.09777169
169	0xbd90a6be	-0.070630535
170	0x3e234755	0.1594518
171	0x3e07b5e6	0.13252982
172	0x3cfcded6	0.030867975
173	0xbd35857f	-0.044316765
174	0x3db8fbc0	0.090323925
175	0x3e4e4e51	0.20147063
176	0xbdbc5782	-0.09196378
177	0xbe1cb057	-0.15301643
178	0x3e0533bc	0.13008016
179	0x3ce628da	0.028095651
180	0xbcc981fa	-0.02459811
181	0x3d158072	0.036499448
182	0xbe802f42	-0.25036055
183	0xbd919554	-0.0710856
184	0xbca6434b	-0.02029576
185	0xbdd8fe90	-0.10595429
186	0x3d6c1a51	0.057642285
187	0xbca3e654	-0.02000729
188	0x3d7c6fc2	0.061630018
189	0xbd1bd666	-0.038046263
190	0xbc866b10	-0.016408473
191	0x3e35806b	0.17724769
192	0xbd802357	-0.062567405
193	0x3e295030	0.16534495
194	0xbdd58e41	-0.104275234
195	0xbe801e0e	-0.2502293
196	0xbb3632d5	-0.0027801294
197	0x3d41669c	0.047216997
198	0x3c7532e8	0.01496575
199	0xbdd74e0a	-0.10512932
200	0xbb5a52fe	-0.0033313627
201	0x3d31761d	0.043325532
202	0xbd2d92be	-0.042376272
203	0xbe0a0fb6	-0.13482556
204	0xbe04e60f	-0.12978385
205	0x3d273aec	0.040827677
206	0x3c100706	0.008790737
207	0xbd299a8a	-0.041407146
208	0xbd3c777e	-0.046012394
209	0xbe535ca5	-0.2064081
210	0x3c115a97	0.008871696
211	0xbcda56a7	-0.026652647
212	0xbda0568a	-0.07829006
213	0xbd955edf	-0.07293486
214	0xbd180214	-0.037111357
215	0xbe10f3c6	-0.14155492
216	0x3db0c7b0	0.08631837
217	0x3c98a6f5	0.018634299
218	0x3cca72c9	0.024712937
219	0x3eb63e38	0.35594344
220	0x3e0c1f19	0.13683738
221	0xbd553c1a	-0.05205927
222	0xbdfd0fd8	-0.123565376
223	0xbbed0ca7	-0.0072341743
224	0xbd366f7d	-0.044539917
225	0x3da9108b	0.082551084
226	0xbde46886	-0.11152749
227	0x3e276cdb	0.16350119
228	0x3daa5c51	0.08318389
229	0xbe5e43ed	-0.21705599
230	0xbe493cbb	-0.19652073
231	0x3c6078df	0.013700693
232	0xbd566c4f	-0.052349385
233	0x3e234d4b	0.15947454
234	0xbe19a719	-0.15005149
235	0x3bd6e622	0.0065581957
236	0x3d630936	0.055428706
237	0xbcedf5f7	-0.02904795
238	0x3cc25ac6	0.023724925
239	0x3c54def9	0.012992614
240	0x3df0de87	0.11761194
241	0x3e45afe5	0.1930538
242	0xbd0487f0	-0.032356203
243	0x3e429dc0	0.1900549
244	0xbc9c2e67	-0.019065095
245	0x3e611af1	0.21982934
246	0x3e130e72	0.14360979
247	0x3e1174c0	0.14204693
248	0xbcc34d99	-0.023840712
249	0xbd0d2ce5	-0.034466643
250	0x3df7aedf	0.12093901
251	0x3c3cf7d4	0.011533696
252	0x3d67a1e9	0.056550894
253	0x3dae87b6	0.085219786
254	0xbd8b9668	-0.06815797
255	0xbd620278	-0.055178136

encoder.fc.bias f4 [16]
0	0xbcd9479b	-0.026523402
1	0x3e208820	0.15676928
2	0xbdd07712	-0.10178961
3	0xbdeb7acb	-0.1149803
4	0xbd88b44b	-0.06675013
5	0xbd9ff794	-0.07810894
6	0x3df56447	0.11982017
7	0x3e0521a7	0.13001119
8	0x3d912fb1	0.070891745
9	0xbcb13485	-0.021631489
10	0xbd94f452	-0.07273163
11	0xbd79b122	-0.060959943
12	0x3d6b1c2c	0.057399914
13	0x3d0067e3	0.031349074
14	0x3d7a76cc	0.06114845
15	0xbab8c55a	-0.0014096901

decoder.decoder_fc1.weight f4 [64, 16]
0	0xbb25cd04	-0.00252992
1	0x3d9faa7d	0.0779619
2	0xbd7b978d	-0.061423827
3	0xbe203e6c	-0.15648812
4	0xbc5f7156	-0.013637861
5	0x3e210cd8	0.15727556
6	0x3da21226	0.07913618
7	0xbce7b5d3	-0.028284943
8	0xbe966380	-0.29372787
9	0x3bd90b22	0.0066236416
10	0x3df86ad4	0.12129751
11	0x3e3f4e3d	0.1868219
12	0xbdb63047	-0.08895927
13	0xbdea5cfa	-0.11443515
14	0xbc0008fe	-0.007814644
15	0xbc4761eb	-0.012169342
16	0xbea770db	-0.3270329
17	0x3e8f0b7c	0.2793845
18	0x3d301d35	0.042996604
19	0x3e24eca5	0.16105898
20	0x3dc0f44e	0.094215974
21	0xbd124eba	-0.03571961
22	0x3eb3edd4	0.35142386
23	0x3d427edb	0.04748426
24	0x3d9d7055	0.07687441
25	0x3d3df3c0	0.046375036
26	0xbe88be52	-0.26707703
27	0x3c96db6b	0.018415174
28	0xbe8b8f19	-0.27257612
29	0x3d63d98d	0.055627394
30	0x3ca552d6	0.0201811
31	0xbd51c2d0	-0.05121118
32	0xbe9995d5	-0.29997125
33	0x3e03a1df	0.12854718
34	0x3e31722d	0.17328711
35	0x3bd1d625	0.006403702
36	0x3e958b98	0.29208064
37	0x3d1bdba9	0.03805128
38	0x3de27594	0.110575825
39	0x3edebe5d	0.4350461
40	0xbdc94cdb	-0.09829112
41	0x3e8660e4	0.26245797
42	0xbf232188	-0.6372304
43	0xbdc55b38	-0.09636539
44	0xbde38f0b	-0.11111268
45	0x3dd8cb1d	0.10585616
46	0xbe844ef6	-0.25841492
47	0x3e03e0c5	0.12878712
48	0x3d7052a1	0.05867255
49	0x3e51dd00	0.20494461
50	0xbe4a15b2	-0.19734839
51	0xbcd2ce19	-0.02573304
52	0x3de1a16c	0.11017117
53	0x3dc48343	0.09595349
54	0xbe05c26d	-0.13062449
55	0x3e25719c	0.1615662
56	0x3d3b3cdd	0.04571234
57	0x3d825478	0.063637674
58	0xbe0cea0e	-0.1376116
59	0x3e58d6f3	0.21175747
60	0xbdf8e92f	-0.12153851
61	0xbdefde2f	-0.117123
62	0xbe830e5f	-0.25596902
63	0xbdbfa56c	-0.093577236
64	0x3ddab910	0.10679829
65	0xbe2445e0	-0.1604228
66	0x3e6e13b8	0.2324971
67	0x3e659ddd	0.22423501
68	0xbdc50efc	-0.09621999
69	0xbe335b80	-0.17515373
70	0xbd24bf90	-0.04022175
71	0x3d2cc975	0.042184312
72	0xbe3bbc43	-0.18333535
73	0xbb0795ec	-0.0020688726
74	0x3d9d05e4	0.07667139
75	0x3e90feb4	0.28319323
76	0xbcb0561e	-0.021525439
77	0xbe2dc283	-0.16968732
78	0x3db5841c	0.088630885
79	0x3e744441	0.23854162
80	0xbe5c2130	-0.21497035
81	0xbe1dfbe0	-0.15428114
82	0xbeaaa007	-0.33325216
83	0x3bdc4819	0.006722462
84	0x3e062f63	0.13104014
85	0xbe5dba94	-0.21653205
86	0xbee07c93	-0.43845043
87	0xbd3f158d	-0.04665141
88	0xbe9672a5	-0.29384342
89	0x3d53adf4	0.051679567
90	0xbe944882	-0.2896157
91	0xbc980872	-0.018558715
92	0xbea5face	-0.3241791
93	0xbc6c114b	-0.01440842
94	0xbc628a8f	-0.01382698
95	0x3e4a564b	0.1975948
96	0x3ebdee48	0.37095857
97	0x3dc1fe1e	0.09472297
98	0x3def8544	0.1169534
99	0x3ddfa7f8	0.10920709
100	0xbd9cea2d	-0.07661853
101	0xbe394ea6	-0.18096408
102	0xbe43d590	-0.19124436
103	0x3e6099db	0.21933691
104	0x3e1f457f	0.15553854
105	0xbeb375bc	-0.35050762
106	0xbc433300	-0.011914015
107	0xbd6f4252	-0.058412857
108	0x3e0dd8ce	0.13852236
109	0x3da536b7	0.08067077
110	0xbe4aa9b2	-0.19791296
111	0xbc94d9a7	-0.018170191
112	0x3e477807	0.1947938
113	0x3d2999d8	0.041406482
114	0xbe1fff7a	-0.156248
115	0x3e967367	0.2938492
116	0xbde08a06	-0.10963826
117	0xbd9ae587	-0.0756331
118	0x3c5fe618	0.0136656985
119	0x3dbeccb8	0.09316391
120	0x3e68ca0d	0.22733326
121	0x3e2526fd	0.16128154
122	0x3e9ad14f	0.30237815
123	0xbd90f937	-0.07078784
124	0xbe0234a4	-0.12715393
125	0xbcc7989a	-0.024364758
126	0x3e470b75	0.19437964
127	0xbe49b3ab	-0.19697444
128	0x3dd0fb29	0.10204155
129	0x3de136ba	0.109967664
130	0xbd5c3566	-0.053761862
131	0xbe682711	-0.22671153
132	0x3e1d1f29	0.15343918
133	0xbe2bc39a	-0.16773835
134	0x3e46d19d	0.19415899
135	0x3edee82e	0.43536514
136	0xbe02e2eb	-0.12781875
137	0xbe6c7e34	-0.23095018
138	0x3e27adb6	0.16374859
139	0xbe66d6f0	-0.2254293
140	0xbeb9a563	-0.36258993
141	0x3f04273d	0.5162237
142	0xbc8d90c6	-0.017280947
143	0x3d4881b3	0.048951816
144	0xbd36155f	-0.044453975
145	0x3eb82419	0.3596504
146	0xbdfb812e	-0.122804984
147	0xbe75c4ee	-0.24000904
148	0xbda32263	-0.07965543
149	0x3d7b684b	0.06137876
150	0x3d4f2655	0.050573666
151	0xbe4ff8e3	-0.20309786
152	0x3da45794	0.08024517
153	0xbb8abde4	-0.0042340625
154	0x3db5ccbb	0.0887694
155	0xbab70619	-0.0013963609
156	0xbe425bc6	-0.18980321
157	0x3d2b0448	0.04175213
158	0xbd3c0678	-0.045904607
159	0x3e49fff7	0.19726549
160	0x3dc49ebd	0.096005894
161	0xbcf2f22a	-0.029656488
162	0xbf291451	-0.66046625
163	0xbea37c08	-0.31930566
164	0x3ccdf120	0.025139391
165	0x3db1cc94	0.08681598
166	0xbdb64187	-0.08899217
167	0x3e9d9f8a	0.3078578
168	0xbdab34b9	-0.083596654
169	0xbdcdd432	-0.10050239
170	0xbd0a447a	-0.03375671
171	0xbcdbb4fd	-0.0268197
172	0x3b3faf88	0.0029248912
173	0xbeb5ed83	-0.3553277
174	0xbe084cc6	-0.13310537
175	0x3ee1a3ea	0.4407037
176	0xbd894cba	-0.067040876
177	0xbe8a5866	-0.27020568
178	0x3b989a6d	0.004657081
179	0xbe5c59d5	-0.21518643
180	0xbe130365	-0.14356764
181	0xbe282d48	-0.16423523
182	0xbe623bff	-0.22093199
183	0x3e09912e	0.13434288
184	0xbe633ec1	-0.22191907
185	0xbe840a60	-0.25789165
186	0x3f1561ca	0.5835234
187	0xbe8af145	-0.271372
188	0x3e1cd179	0.15314282
189	0xbd9d3e96	-0.07677953
190	0xbddc3a34	-0.10753289
191	0xbe88b7b9	-0.2670267
192	0xbedfa565	-0.43680874
193	0x3e91402e	0.28369278
194	0xbbc05684	-0.0058696885
195	0x3e773172	0.24139956
196	0xbe31b095	-0.17352517
197	0xbd9c08df	-0.076188795
198	0xbca3dca5	-0.020002672
199	0xbdc2abce	-0.095054254
200	0xbd3e91ef	-0.046525892
201	0xbdf7b2a8	-0.12094623
202	0xbe5556b9	-0.20833863
203	0xbe8884d6	-0.26663846
204	0xbe0349a0	-0.12821054
205	0xbe6d01e2	-0.2314525
206	0xbd7b8a09	-0.061410937
207	0x3d4a4bbd	0.049388636
208	0x3e2365fb	0.15956871
209	0x3e81a86c	0.25323808
210	0x3ead05ca	0.3379348
211	0xbea5ac60	-0.32358074
212	0xbdc698b9	-0.09697098
213	0xbe544179	-0.20728101
214	0xbeab8ebb	-0.33507332
215	0x3e963d48	0.2934363
216	0xbe0420b9	-0.12903108
217	0xbe8ed94e	-0.27900165
218	0x3e7e1417	0.24812351
219	0x3ef0657d	0.4695243
220	0x3dfbcc45	0.12294821
221	0xbeb8a142	-0.3606053
222	0xbe9dc1ad	-0.30811825
223	0x3dcd2602	0.10017015
224	0x3d88da87	0.06682306
225	0x3e116308	0.14197934
226	0xbd04896f	-0.03235763
227	0xbe339451	-0.17537047
228	0x3e341b0c	0.17588443
229	0x3e48c2db	0.19605581
230	0x3e1e1bcb	0.1544029
231	0x3ddbae18	0.10726565
232	0xbe2c0d2d	-0.16801901
233	0xbdff39e0	-0.12462211
234	0xbe00efa6	-0.12591419
235	0xbc0c91d5	-0.008579691
236	0x3e10b6c5	0.14132221
237	0x3e195121	0.14972354
238	0xbe840854	-0.25787604
239	0xbd84b407	-0.0647965
240	0xbe42f4cf	-0.190387
241	0x3d7a11ec	0.061052248
242	0x3bbee729	0.0058258963
243	0x3d4afa05	0.049554843
244	0xbdcecdc2	-0.10097839
245	0xbd18264f	-0.03714591
246	0x3ea47096	0.32117146
247	0x3e281cc5	0.16417225
248	0xbe0013fe	-0.12507626
249	0x3e1f01fc	0.155281
250	0xbeb972a5	-0.3622028
251	0x3e9f1d5e	0.31077093
252	0xbdf1bdb4	-0.11803761
253	0x3da837c5	0.08213762
254	0x3e049c1a	0.12950173
255	0x3e394750	0.1809361

decoder.decoder_fc1.bias f4 [64]
0	0xbdda6820	-0.106643915
1	0x3e86eb0c	0.26351202
2	0xbd78c76d	-0.060737062
3	0xbe1cf65d	-0.15328355
4	0x3e1fe88c	0.15616053
5	0x3ea15575	0.3151051
6	0x3e9888f7	0.29791996
7	0xbac7de9a	-0.0015248836
8	0x3e25ddcb	0.16197889
9	0x3ea98661	0.33110335
10	0xbe52e34d	-0.20594521
11	0xbd8712f0	-0.06595409
12	0xbca5f948	-0.020260468
13	0xbce43acb	-0.027860066
14	0xbde876ad	-0.113507606
15	0x3b6fc95b	0.0036588523
16	0xbe34888c	-0.17630213
17	0x3e889ed0	0.26683664
18	0x3d097dd8	0.03356728
19	0x3e2f6d3a	0.1713151
20	0x3e3ce08c	0.18445033
21	0x3e239f15	0.15978654
22	0x3e49825b	0.19678633
23	0xbe4be8ca	-0.1991302
24	0x3cfbcbac	0.030736767
25	0x3ea906fd	0.33013144
26	0x3e0bc7c5	0.13650425
27	0x3d1b8434	0.037967876
28	0x3e47f223	0.19525962
29	0xbe0d3e88	-0.13793385
30	0x3d4bd077	0.049759354
31	0xbd590a5e	-0.052988403
32	0x3e26e6bc	0.16298956
33	0x3d3275fa	0.043569542
34	0xbd2df02d	-0.042465378
35	0xbe71d083	-0.23614697
36	0xbe996ad2	-0.2996431
37	0xbde5a720	-0.11213517
38	0xbd1b211c	-0.037873372
39	0xbd7b07fd	-0.061286915
40	0x3e6c21d2	0.23059776
41	0x3e1776d9	0.1479143
42	0x3e3c7a5a	0.18406048
43	0xbdda0f7b	-0.10647484
44	0x3d38d38d	0.045123626
45	0x3e9705de	0.29496664
46	0x3d7d8c43	0.061901342
47	0xbe45bacf	-0.19309543
48	0x3e86f57e	0.2635917
49	0xbd32cb54	-0.04365094
50	0x3de64163	0.1124294
51	0xbd7775b5	-0.06041499
52	0x3e69c024	0.22827202
53	0x3da0f7df	0.07859778
54	0xbd0b6a39	-0.03403685
55	0x3dd46c20	0.10372186
56	0xbe97eca4	-0.2967273
57	0x3e826597	0.25468132
58	0xbe5d2068	-0.21594393
59	0x3da19f3a	0.07891698
60	0xbda6079d	-0.08106921
61	0xbe0e7092	-0.1391013
62	0xbccf10ae	-0.025276508
63	0xbe805dcd	-0.25071564

decoder.decoder_fc2.weight f4 [128, 64]
0	0xbb1c5f40	-0.0023860484
1	0xbca52afe	-0.020162102
2	0xbd5ccc60	-0.053905845
3	0x3dc01fde	0.09381078
4	0xbdf20656	-0.11817615
5	0x3e1b1249	0.15143694
6	0x3e32fb65	0.17478712
7	0x3dd8d812	0.10588087
8	0xbe8e87e9	-0.27838066
9	0x3e85fb9a	0.2616852
10	0xbf0d0cb8	-0.5509753
11	0x3dbe17a7	0.09281855
12	0x3d735bd3	0.059413742
13	0x3e3ee38b	0.18641488
14	0x3c2574c0	0.010098636
15	0xbf0aac2a	-0.5416895
16	0xbeca7495	-0.3954207
17	0x3d2bf2cc	0.041979596
18	0x3dc7a4de	0.09748243
19	0x3db2178d	0.08695898
20	0x3df2315d	0.118258215
21	0x3d2cd030	0.04219073
22	0xbafec5a7	-0.0019437567
23	0xbd6cca6e	-0.05781024
24	0xbdbea6e6	-0.09309177
25	0xbe3a5a72	-0.18198565
26	0x3dc1605b	0.094422065
27	0x3d1694c9	0.036762986
28	0xbe916d08	-0.28403497
29	0x3e2ba912	0.16763714
30	0x3e2d0273	0.16895466
31	0xbea61048	-0.32434297
32	0xbc86d2db	-0.016457966
33	0x3e41e0de	0.18933436
34	0xbd00daa5	-0.031458516
35	0x3e49e557	0.19716392
36	0x3d7ad178	0.06123492
37	0xbda0003e	-0.07812546
38	0x3e523c3e	0.20530793
39	0x3eaebab5	0.3412682
40	0xbe35ca11	-0.17752863
41	0x3e024710	0.1272242
42	0xbd872e0a	-0.06600578
43	0xbdd6f7dd	-0.10496495
44	0x3c382cd0	0.011241153
45	0x3d535cf4	0.05160232
46	0x3e1862bb	0.14881413
47	0xbdd91fe5	-0.106017865
48	0xbea7b0f5	-0.32752195
49	0x3d170660	0.036871314
50	0xbd7690bc	-0.060196623
51	0xbde9d72e	-0.114179954
52	0x3e27ac20	0.16374254
53	0xbd23ea96	-0.04001864
54	0x3e4b56ca	0.19857326
55	0xbf02033b	-0.5078618
56	0x3990bc00	0.0002760589
57	0x3e741f1c	0.23839992
58	0x3d9967c1	0.074904926
59	0x3e5826e1	0.21108581
60	0xbe843db3	-0.25828323
61	0x3cf0df68	0.029403403
62	0xbe236d3f	-0.15959643
63	0xbd831a1a	-0.06401463
64	0xbdf3f75e	-0.11912416
65	0x3e8c29df	0.27375695
66	0xbd80ece3	-0.062951826
67	0xbd72940c	-0.05922322
68	0x3e038fdf	0.12847851
69	0x3cbce1bf	0.023056863
70	0x3e5605f5	0.2090071
71	0xbdbee364	-0.09320715
72	0x3e4f5973	0.20248966
73	0x3eab616a	0.3347276
74	0x3ec290a1	0.38000968
75	0xbd3b4c8b	-0.045727294
76	0x3d6ec8cc	0.058296964
77	0xbcd94e02	-0.026526455
78	0x3c53e959	0.012934052
79	0xbf7bf1cb	-0.9841582
80	0xbe587fb7	-0.2114247
81	0x3e0753f5	0.13215621
82	0x3d6ad678	0.05733344
83	0x3e058522	0.13039067
84	0xbd13f6e6	-0.036124133
85	0x3d7e6b84	0.062114254
86	0xbc18fea2	-0.009338053
87	0xbd54c96e	-0.05194991
88	0x3c870338	0.016481027
89	0x3e2fea74	0.1717928
90	0xbda9abe9	-0.082847424
91	0x3d0f0ec1	0.03492618
92	0xbdde1550	-0.10843909
93	0x3cb15d26	0.021650862
94	0xbca2ece7	-0.019888354
95	0xbd786688	-0.060644656
96	0xbf01cad1	-0.507001
97	0x3d1e91b4	0.038713172
98	0x3e88a386	0.26687258
99	0x3e79e42f	0.24403451
100	0xbd8de33c	-0.06928107
101	0x3e40b3c5	0.18818577
102	0xbe6b5c18	-0.2298435
103	0x3e2478d3	0.16061716
104	0xbcbf43c5	-0.023347745
105	0x3dc37bdb	0.09545108
106	0xbd783522	-0.060597546
107	0xbf2799b6	-0.6546892
108	0xbe8c7767	-0.27434847
109	0xbe02e460	-0.1278243
110	0x3e2fa7fe	0.17153928
111	0x3da26fa8	0.07931453
112	0xbd6243c6	-0.055240415
113	0x3dba5306	0.09097867
114	0x3e0efcda	0.13963643
115	0x3e053680	0.13009071
116	0x3c2f4f74	0.010700095
117	0xbd8895e7	-0.066692166
118	0x3e14af3e	0.14519975
119	0xbe8bcf07	-0.27306387
120	0x3dce3a3e	0.100697026
121	0x3d5c3ebe	0.053770773
122	0xbdb9b358	-0.0906741
123	0xbefaa032	-0.48950344
124	0x3db09d6c	0.08623776
125	0x3e26be04	0.16283423
126	0xbeb6d015	-0.3570563
127	0xbdc47bf1	-0.095939524
128	0xbd1fd634	-0.03902264
129	0x3bb3340e	0.005468852
130	0x3b6c0b00	0.0036017299
131	0xbdb6f754	-0.08933893
132	0xbd6eac99	-0.05827007
133	0xbdb54126	-0.08850317
134	0xbdb6b5f3	-0.08921423
135	0x3ce20b1a	0.027593184
136	0xbd3229a4	-0.043496743
137	0xbd29b370	-0.04143089
138	0x3d61e450	0.055149376
139	0xbdccc511	-0.09998525
140	0xbdff644f	-0.12470304
141	0x3daebbfd	0.0853195
142	0xbd12a3a0	-0.035800576
143	0xbcb92e58	-0.022605106
144	0xbcee87e0	-0.029117525
145	0x3dc91519	0.09818477
146	0xbd0d3474	-0.03447385
147	0x3d9c6b97	0.07637709
148	0xbd9008e7	-0.07032948
149	0xbcd33588	-0.025782362
150	0xbccd43a7	-0.025056673
151	0x3cbdc1c0	0.023163676
152	0x3dd83974	0.10557833
153	0x3d7f5b50	0.06234294
154	0x3cb0c680	0.021579027
155	0xbd744e16	-0.05964478
156	0x3c19a8a0	0.009378582
157	0x3d43464e	0.04767447
158	0x3dca9036	0.09890787
159	0xbd77243d	-0.060337294
160	0xbde27616	-0.11057679
161	0x3bfa9cb0	0.007648073
162	0x3ba50ea0	0.005037144
163	0xbd02394c	-0.031792924
164	0x3d0934cc	0.033497617
165	0xbd8d77c4	-0.06907609
166	0xbdd335ef	-0.103130214
167	0x3d96536d	0.07340131
168	0x3d9ba216	0.07599275
169	0xbd155cd0	-0.036465466
170	0xbd8cd670	-0.06876838
171	0xbbaab800	-0.005209923
172	0x3ab6e43f	0.0013953521
173	0xbd758c5a	-0.059948303
174	0xbdf02df3	-0.11727514
175	0x3c8b8c5f	0.017034708
176	0x3c8f5741	0.01749766
177	0xbe0cd61b	-0.1375355
178	0xbd6dffd1	-0.058105294
179	0xbceabd14	-0.028654613
180	0x3de0bee7	0.10973912
181	0xbd6af95e	-0.05736672
182	0xbdc966b1	-0.0983404
183	0x3d278830	0.040901363
184	0xbde86df2	-0.113490954
185	0xbdfe4604	-0.12415698
186	0x3de1d98c	0.11027822
187	0xbd79660c	-0.060888335
188	0xbdf6ab04	-0.120443374
189	0xbdc4d6a2	-0.096112505
190	0xbd6d2e38	-0.057905406
191	0x3db7f079	0.089814134
192	0x3da1dde2	0.07903649
193	0xbd300b6e	-0.04297965
194	0xbd85b06a	-0.06527789
195	0x3d9eae0c	0.077480406
196	0xbd9f78f8	-0.07786745
197	0x3d8a30e0	0.067476034
198	0xbd2e036b	-0.04248373
199	0xbd32e2d4	-0.04367335
200	0x3d276964	0.040871993
201	0xbca5ba68	-0.020230487
202	0xbd34964d	-0.04408865
203	0xbc8fd318	-0.017556712
204	0xbe0955f0	-0.13411689
205	0xbdcd35dc	-0.100200385
206	0xbd9dd790	-0.07707131
207	0xbc99fab5	-0.018796304
208	0xbd2bff24	-0.041991368
209	0x3d1ebed5	0.03875621
210	0xbda8e9a6	-0.0824769
211	0xbe0a0450	-0.13478208
212	0xbe11b06e	-0.14227459
213	0xbe0f0f69	-0.13970722
214	0xbde985ea	-0.11402495
215	0xbc2198d0	-0.0098630935
216	0x3d661af4	0.05617805
217	0x3d981fb4	0.07427922
218	0xbdcc19ac	-0.09965834
219	0xbd8915a0	-0.06693578
220	0xbd62f17d	-0.055406082
221	0x3d8f637e	0.070013985
222	0x3ddcf6bc	0.10789248
223	0xbc7de42b	-0.015496294
224	0x3c901f55	0.017593065
225	0x3d086f14	0.033309057
226	0x3db76a11	0.089557774
227	0x3da0e796	0.078566715
228	0x3dcadf4a	0.0990587
229	0x3dfc0626	0.1230586
230	0x3c508175	0.012726177
231	0xbdf774f0	-0.12082851
232	0xbcc6d28c	-0.024270318
233	0xbd707e62	-0.058714278
234	0xbdbc0c2c	-0.09182009
235	0x3cfb6c18	0.030691192
236	0xbd93897d	-0.07203958
237	0x3ddf4eae	0.10903679
238	0xbd7dacee	-0.061932497
239	0x3cdd4ed0	0.02701512
240	0xbd6cf79e	-0.057853334
241	0xbd7fe518	-0.06247434
242	0x3d42fa6c	0.047602102
243	0x3c0d3d90	0.008620635
244	0x3d979cd4	0.074029595
245	0xbe23d413	-0.15998869
246	0xbbde17c0	-0.0067777336
247	0xbe0d2520	-0.13783693
248	0xbd8ca7e2	-0.068679586
249	0x3d31e39c	0.043429956
250	0xbdfe3b8e	-0.12413703
251	0xbcdfbf9b	-0.027313044
252	0xbd46de04	-0.048551574
253	0x3b630f3d	0.0034646534
254	0xbda3ee96	-0.08004491
255	0x3d89c2ee	0.06726633

decoder.decoder_fc2.bias f4 [128]
0	0xbdeb13d1	-0.11478389
1	0x3d44d54c	0.04805498
2	0xbe0d2956	-0.137853
3	0xbd3405e5	-0.043950934
4	0xbe203b98	-0.15647733
5	0xbce70476	-0.02820037
6	0x3d845d7d	0.06463144
7	0xbddb3b0c	-0.10704622
8	0x3de03792	0.10948099
9	0xbd9a427a	-0.07532211
10	0x3d809074	0.06277552
11	0xbdea677c	-0.11445519
12	0x3dff6046	0.124695346
13	0x3e514d19	0.20439567
14	0xbdadd585	-0.08487991
15	0xbe84da41	-0.25947765
16	0xbcead204	-0.028664596
17	0xbda15b9f	-0.078788035
18	0xbd6e48d9	-0.05817494
19	0x3e07c7e3	0.13259844
20	0x3da8b711	0.08238042
21	0xbe11d52a	-0.14241472
22	0x3c916c52	0.017751846
23	0x3ae2c3d4	0.0017300793
24	0x3d0c787b	0.034294587
25	0xbc3d0457	-0.011536679
26	0x3c055b86	0.008139497
27	0x3e35e89a	0.17764512
28	0xbdffb141	-0.124849804
29	0xbdf7b2f7	-0.12094682
30	0xbc1be57a	-0.009515161
31	0xbd7a7f37	-0.061156478
32	0x3c84d2bf	0.016213773
33	0x3ccdc974	0.025120474
34	0xbcd18372	-0.025575373
35	0x3d96e9cb	0.07368811
36	0x3dd1f484	0.10251716
37	0xbdd4b87d	-0.10386751
38	0x3bffba30	0.0078041777
39	0x3d21e1d7	0.03952202
40	0x3d82007b	0.06347748
41	0xbd8f808a	-0.07006939
42	0x3e1a6d18	0.15080678
43	0xbdfb0d9a	-0.12258454
44	0x3d8383f2	0.06421651
45	0x3e36534c	0.17805213
46	0x3d67f380	0.056628704
47	0xbdff0f7b	-0.124541245
48	0xbd50ed70	-0.051007688
49	0xbda34a3b	-0.07973143
50	0x3dbbe761	0.091749914
51	0x3db6de93	0.089291714
52	0x3e20e980	0.15714073
53	0x3dfbff5a	0.12304564
54	0xbd7d3aa8	-0.061823517
55	0xbc0f8779	-0.008760327
56	0x3e348ebe	0.17632577
57	0x3df2a133	0.118471526
58	0xbe03dc03	-0.12876897
59	0x3dbc7045	0.09201101
60	0x3e12989f	0.14316033
61	0x3e1fa137	0.15588842
62	0xbdf2c383	-0.11853697
63	0xbd681455	-0.056660015
64	0xbd2034de	-0.039112918
65	0xbe12c86d	-0.14334269
66	0x3dc59869	0.096482106
67	0x3e09a162	0.13440469
68	0x3d950511	0.07276357
69	0xbd38f022	-0.045150883
70	0xbd087833	-0.033317756
71	0x3b0184e6	0.0019763052
72	0x3c193b6b	0.009352545
73	0xbdeb6709	-0.11494262
74	0x3e37cb2d	0.17948599
75	0x3e0f7a8a	0.14011589
76	0x3e1f93bb	0.15583698
77	0xbcd397dd	-0.02582925
78	0xbda06be2	-0.07833077
79	0xbc9721ed	-0.018448794
80	0x3d93e75e	0.07221864
81	0xbe0fd053	-0.14044313
82	0x3dab4da7	0.083644204
83	0xbd385963	-0.04500712
84	0x3d053208	0.032518417
85	0x3e23065b	0.15920393
86	0xbe0d938a	-0.13825813
87	0xbd14d681	-0.03633738
88	0x3d09bebe	0.03362917
89	0x3e0df0d1	0.13861395
90	0x3d890a97	0.06691473
91	0xbdc315e9	-0.095256634
92	0xbc794654	-0.015214521
93	0x3d3782e5	0.044802565
94	0x3be30869	0.006928493
95	0xbca3ded8	-0.020003721
96	0xbd868ba2	-0.065696016
97	0xbc7c8136	-0.015411666
98	0xbde6cbea	-0.11269362
99	0xbdc004da	-0.09375925
100	0x3d79994e	0.06093722
101	0xbd95eb3b	-0.07320257
102	0x3d0b4f81	0.034011368
103	0x3d625f2c	0.055266544
104	0x3cc3e8d4	0.023914732
105	0x3d6e5be1	0.05819309
106	0xbe037d9d	-0.12840886
107	0xbdfa3acf	-0.12218248
108	0x3d70a680	0.058752537
109	0x3d414f25	0.04719462
110	0x3cccc6ca	0.024997134
111	0xbd4213e3	-0.047382247
112	0x3e1fe39f	0.15614174
113	0xbe03e5cc	-0.1288063
114	0x3d40689b	0.04697476
115	0xbb25d8b9	-0.0025306179
116	0x3dc1cb09	0.09462554
117	0xbd279b26	-0.040919445
118	0xbda784a8	-0.08179599
119	0xbce517e3	-0.027965492
120	0xbd32d523	-0.043660294
121	0x3e3ae9ee	0.182533
122	0x3d99a309	0.075017996
123	0xbdca47e0	-0.0987699
124	0xbdfda08c	-0.123841375
125	0xbb943a25	-0.004523533
126	0x3de7cb99	0.1131813
127	0xbdc22b2f	-0.09480893

decoder.decoder_fc3.weight f4 [32, 128]
0	0xbe065bc2	-0.1312094
1	0x3ad6561b	0.0016352566
2	0xbd224495	-0.039616186
3	0xbda44785	-0.08021454
4	0x3e0e8a8d	0.1392004
5	0x3e06c30a	0.13160339
6	0xbbb45155	-0.0055028596
7	0xbd72e1b2	-0.05929727
8	0x3b288056	0.002571126
9	0xbd911ad4	-0.07085195
10	0xbd050857	-0.032478657
11	0xbe23d1f1	-0.15998055
12	0x3dc57abd	0.09642551
13	0x3d78701a	0.060653783
14	0xbd81fb59	-0.06346769
15	0x3e3b7856	0.18307623
16	0x3aeb203c	0.0017938684
17	0xbb810b75	-0.0039381334
18	0x3e062ebe	0.13103768
19	0x3cd599cd	0.026074314
20	0x3e1231c2	0.14276794
21	0x3d20ce68	0.039259344
22	0xbcf3fc16	-0.02978329
23	0xbd8f1079	-0.06985564
24	0xbe31d9e7	-0.1736828
25	0x3d876833	0.06611671
26	0xbdfab379	-0.12241263
27	0x3dcac78f	0.09901344
28	0x3c927df5	0.017882327
29	0x3e4df834	0.20114213
30	0x3d3faf3d	0.04679798
31	0x3d49a024	0.049224988
32	0x3ddcf43b	0.10788771
33	0x3dd00f75	0.10159198
34	0x3da52f4d	0.080656625
35	0xbdad19a8	-0.08452159
36	0xbdba6401	-0.091011055
37	0x3c449586	0.01199854
38	0x3e0d57ea	0.13803068
39	0x3d9a4f44	0.0753465
40	0xbdad6c22	-0.0846789
41	0xbd73b3bb	-0.059497576
42	0xbd15c82c	-0.036567852
43	0xbcf7d446	-0.030252587
44	0x3bff6b8f	0.0077948044
45	0x3db8aef4	0.09017745
46	0x3de85615	0.11344544
47	0xbdbc363c	-0.09190032
48	0x3db46203	0.08807757
49	0x3dceb523	0.10093143
50	0x3dce5b4f	0.100760095
51	0x3d7cb39d	0.06169473
52	0xbcccf1f6	-0.02501772
53	0x3d9492a7	0.07254534
54	0x3d7cd861	0.061729793
55	0xbd3e858b	-0.046514075
56	0x3d997b7e	0.074942574
57	0x3e28a3f3	0.16468792
58	0x3e599a32	0.21250227
59	0xbc92589c	-0.017864518
60	0x3e0a31de	0.13495585
61	0x3dbf8451	0.09351409
62	0xbdd2097e	-0.10255717
63	0x3d269dba	0.040677764
64	0x3dba4606	0.09095387
65	0xbd824ebb	-0.06362673
66	0x3cfb4141	0.030670764
67	0x3d8fa7da	0.07014437
68	0xbd2ec7a7	-0.042670872
69	0xbd97d1bd	-0.07413051
70	0xbdb1874d	-0.08668385
71	0xbbe40e87	-0.0069597396
72	0x3df7c908	0.120988905
73	0x3d7349a4	0.0593964
74	0x3d43f1c2	0.04783798
75	0x3cdbf92e	0.026852217
76	0xbd9f3553	-0.07773843
77	0x3d6ce2eb	0.057833593
78	0xbd3c6613	-0.045995783
79	0x3bb14b00	0.005410552
80	0x3e0728ca	0.13199154
81	0xbcd757c1	-0.026286962
82	0x3d895c6a	0.0670708
83	0x3cb39b2e	0.021924581
84	0xbda059c7	-0.07829624
85	0xbd830bb3	-0.06398716
86	0x3bc0febe	0.0058897426
87	0x3d130fc9	0.035903726
88	0xbca73f77	-0.020416005
89	0x3d7edbfa	0.062221505
90	0x3d243442	0.0400889
91	0xbbce488e	-0.0062952703
92	0xbe195957	-0.14975487
93	0xbda740cf	-0.08166658
94	0x3db69232	0.08914603
95	0xbd717634	-0.058950618
96	0x3da7858d	0.0817977
97	0x3da8dd42	0.082453266
98	0xbdb20154	-0.086916596
99	0x3d7e66ca	0.062109746
100	0x3dd566c7	0.10419994
101	0x3da3d8c9	0.08000333
102	0xbcfa34dc	-0.030542783
103	0xbeb24302	-0.34816748
104	0x3e1d9594	0.15389091
105	0x3da5e51c	0.0810034
106	0x3dd3bb23	0.10338428
107	0xbd43ef0d	-0.0478354
108	0xbe496fef	-0.19671606
109	0x3dbc2a33	0.09187736
110	0xbd6e3f3c	-0.058165774
111	0xbd51e02d	-0.05123918
112	0xbd7f7b98	-0.062373728
113	0xbc6a1e11	-0.014289395
114	0x3d347e8d	0.044066
115	0xbd59eefd	-0.053206433
116	0xbd9c3f50	-0.076292634
117	0x3d988161	0.07446552
118	0xbb8972b0	-0.00419458
119	0xbbfea8d1	-0.0077715893
120	0xbd207df2	-0.03918261
121	0xbd5fadf9	-0.054609273
122	0x3c4b3efd	0.012405154
123	0x3d008931	0.031380836
124	0xbc9aae10	-0.018881828
125	0xbd105c5d	-0.035244334
126	0xbdd95549	-0.1061197
127	0x3d98e5b4	0.074656874
128	0xbe206bae	-0.15666077
129	0x3d4e5f6f	0.05038398
130	0xbd413eaa	-0.0471789
131	0xbd23e999	-0.040017698
132	0x3d43614b	0.047700208
133	0x3e05e208	0.13074505
134	0xbd8b8e9d	-0.06814311
135	0xbd66d8bc	-0.056359038
136	0xbd002b56	-0.03129133
137	0x3dc1ed02	0.09469034
138	0xbd910901	-0.070817955
139	0x3db89060	0.09011912
140	0x3d3789d3	0.044809174
141	0x3c6ca816	0.014444372
142	0xbc19a2e5	-0.009377216
143	0x3e510a33	0.20414047
144	0x3bb29111	0.005449422
145	0x3db50be0	0.088401556
146	0xbdbaeba7	-0.09126978
147	0x3d104864	0.035225287
148	0x3dbea1c5	0.09308199
149	0xbd386284	-0.045015827
150	0x3d177d61	0.036984805
151	0x3dc1d849	0.09465081
152	0xbe07e6df	-0.13271664
153	0xbccac8c6	-0.02475394
154	0xbd54e67a	-0.051977612
155	0x3cee08ed	0.02905699
156	0xbb075bbb	-0.002065404
157	0xbe7e192c	-0.2481429
158	0xbe63196e	-0.2217767
159	0x3cdf12a0	0.02723056
160	0xbde7acae	-0.11312233
161	0x3c85c461	0.016328992
162	0xb9a11b22	-0.00030728529
163	0x3deed954	0.11662546
164	0xbdcf479f	-0.101210825
165	0x3da003de	0.078132376
166	0x3e42c691	0.1902106
167	0x3d538843	0.05164362
168	0x3d2ecb7a	0.04267452
169	0xbcd46636	-0.025927644
170	0x3d46e811	0.04856116
171	0x3d9a4101	0.0753193
172	0x3dd6487e	0.104630455
173	0x3dc5421a	0.096317485
174	0xbc583c02	-0.013197901
175	0x3d74dcf7	0.05978104
176	0x3bf6ad24	0.007527964
177	0x3ddc0022	0.10742213
178	0x3e66a626	0.22524318
179	0x3c2b2d91	0.010447876
180	0x3d01bbdb	0.031673294
181	0xbdafe1cb	-0.085879885
182	0xbbb9ef0f	-0.00567425
183	0xbd6507d6	-0.055915676
184	0x3e0fbb11	0.14036204
185	0x3d828063	0.06372144
186	0x3cf4f7a7	0.029903246
187	0xbd83241e	-0.06403373
188	0x3e117d41	0.14207937
189	0x3dca266f	0.09870612
190	0xbd057b08	-0.032588035
191	0xbd8c5efb	-0.068540536
192	0x3dec54c6	0.11539607
193	0x3dc60421	0.09668756
194	0x3cd91d8d	0.026503349
195	0x3e25695d	0.16153474
196	0xbd3acd8a	-0.045606174
197	0xbc889e9e	-0.016677197
198	0xbc4f361a	-0.012647176
199	0x3d83b081	0.0643015
200	0x3d3507ee	0.044197015
201	0x3e772ef1	0.24139
202	0x3e146dab	0.1449496
203	0x3e063bf1	0.13108803
204	0x3b281991	0.0025650004
205	0xbe1f815c	-0.1557669
206	0xbdbef487	-0.09323984
207	0x3c435e10	0.011924282
208	0xbcbcbd38	-0.023039445
209	0x3d8f3692	0.0699283
210	0x3daa59a2	0.08317877
211	0x3c117f11	0.008880393
212	0x3c23eace	0.010004712
213	0x3c9a8e98	0.018866822
214	0x3d0bb3ec	0.034107134
215	0x3e3f1cb8	0.18663299
216	0xbd163ea3	-0.03668083
217	0x3ccbdf25	0.024886677
218	0x3b80866e	0.0039222753
219	0x3ba2dfe6	0.0049705384
220	0xbd0b416e	-0.033997945
221	0x3af21134	0.0018468262
222	0x3dc9827e	0.098393425
223	0xbd923aa7	-0.07140093
224	0xbd409ca7	-0.047024395
225	0x3d5c89fc	0.05384253
226	0x3bed4bf1	0.007241719
227	0x3d94fe16	0.072750255
228	0xba81f172	-0.0009913875
229	0x3ddd2fab	0.108001076
230	0x3d788495	0.060673315
231	0xbe47f66e	-0.19527599
232	0x3e2d6179	0.16931714
233	0x3d80945b	0.062782966
234	0x3dc0e8c9	0.094194
235	0xbd173764	-0.03691806
236	0x3c5c4a27	0.013445414
237	0x3caeb1d1	0.021325024
238	0xbdf8d943	-0.121508144
239	0x3d58c724	0.05292429
240	0x3d0efff8	0.03491208
241	0xbda03a63	-0.078236364
242	0xbce93148	-0.028465882
243	0x3bed63f9	0.0072445837
244	0x3e0ac6b7	0.13552366
245	0xbdfeead7	-0.12447136
246	0xbc7b9f6f	-0.015357836
247	0xbd71003b	-0.05883811
248	0x3c5997a6	0.013280785
249	0x3dbec92a	0.09315713
250	0xbbcbf690	-0.006224461
251	0x3d83e008	0.06439215
252	0xbcd98360	-0.026551902
253	0x3d0b186f	0.03395885
254	0x3aec9e97	0.0018052635
255	0xbc3b904a	-0.011447975
