clustering/clustering/encoder_weights/ground_lidar/lidar_encoder_autoencoder_ground_lidar.pth (torch, 151837 bytes, 15 tensors)

encoder.conv2d_1.weight f4 [16, 1, 1, 3]
000000 1e 30 0a bf b0 0d c3 3d 6d 35 f2 be d5 b2 7d bd
       -0.5397967 0.09524095 -0.47306386 -0.061938126
000010 d2 76 19 3f b2 d2 bd 3e 28 9f ea 3e 64 e3 98 3d
       0.5994693 0.3707481 0.45824552 0.07465246
000020 37 e2 e3 bd 38 14 d3 3e 8b 90 00 3f 08 62 99 3e
       -0.111271314 0.41226363 0.50220555 0.29957604
000030 6e 83 e7 be 5d 78 3a be d8 5e ba 3e 1e b8 05 bf
       -0.4521746 -0.18209977 0.36400485 -0.52234066
000040 42 2c 54 3d e1 9a 07 3f f5 e4 cd be 0f f6 75 be
       0.05180002 0.529707 -0.40213743 -0.24019645
000050 ac f2 f5 3e 52 af 52 3e 5b 15 0f bf fb 06 e2 bd
       0.48036706 0.20574692 -0.5589196 -0.11036488
000060 b7 0b 0a bf 99 99 1f 3f ff 9b 78 3e 37 e0 1b 3f
       -0.53924125 0.62343746 0.24278258 0.60889
000070 c7 2a 92 3d da 97 cb 3e 34 76 97 3e bb b2 32 3e
       0.071370654 0.3976429 0.2958237 0.17450993
000080 14 b5 bc 3c a9 76 a8 bd e2 06 9c 3d 1a b0 1d 3f
       0.023035564 -0.08225758 0.076185 0.61596835
000090 87 4d f6 3e 71 f4 bc 3e 76 76 6a be 86 5a 1b 3f
       0.48106024 0.36905244 -0.22896752 0.60685
0000a0 4b d7 d0 be 23 b6 5b be cd ad 15 3e 5e 1d 7a be
       -0.40789255 -0.21456198 0.14617081 -0.24425265
0000b0 c9 94 65 3e 4d 62 d1 3e 2b b4 c5 3e 49 fa 0a 3e
       0.22420038 0.4089531 0.3861402 0.13572039

encoder.conv2d_1.bias f4 [16]
000000 5e 2c 06 bf c4 ff c6 3e f6 87 2a bd 2a 83 ff be
       -0.5241145 0.3886701 -0.04163357 -0.49904758
000010 ff 52 9e 3e 95 ee 0d 3e 98 ff 65 3e a8 af 77 be
       0.30922696 0.13860543 0.22460783 -0.24188101
000020 67 b6 1d be ef 65 02 be 10 3e 10 3f 39 4f 77 3e
       -0.15401612 -0.12734197 0.563447 0.24151315
000030 a9 3e 0d be b6 9f 86 3d 1d 3c fe 3e 27 17 c1 be
       -0.13793434 0.06573431 0.49655238 -0.37712976

encoder.conv2d_2.weight f4 [32, 16, 1, 3]
000000 69 66 1b bd 5d 3b df bd 91 bc 00 3e f7 a9 e2 3d
       -0.037939463 -0.108999945 0.12571932 0.110675745
000010 ea ee c1 bd 3c 93 68 bc a6 4a 00 3e f8 75 89 3d
       -0.09469397 -0.01419526 0.12528476 0.06711954
000020 8b 89 b9 bd 88 d6 7b bd a1 88 5a 3c 93 b5 3f 3d
       -0.09059437 -0.06148389 0.013338239 0.046804022
000030 a2 5b 1c 3e 3b 20 b4 3e ea 0c 35 3e 7e 41 97 3b
       0.1526933 0.3518084 0.17680708 0.0046159616
000040 8d 82 78 3c 37 75 11 3e 2c 1a 05 3e f1 2b 3a 3e
       0.0151678445 0.1420487 0.12998265 0.18180825
000050 7e 03 c9 3e 6a c4 04 be 86 2c 82 bd 6a 0d 80 bd
       0.39260477 -0.12965551 -0.063561484 -0.062525585
000060 31 f3 99 3c 13 4f 0c 3e ad a8 d4 3d d6 0d 25 bd
       0.01879272 0.1370204 0.10383735 -0.040296398
000070 95 41 b2 3d 9c f0 da bd d0 be a5 3d 32 9b 30 bd
       0.08703915 -0.10690424 0.08093035 -0.043116756
000080 57 2e 48 bc e9 b5 0b 3e e2 41 78 bc 32 bd 86 3a
       -0.0122180795 0.13643612 -0.015152426 0.0010279773
000090 19 4a ff 3d ad 51 c3 bd ab 6a e8 bd 46 73 1a 3c
       0.12465305 -0.09537063 -0.1134847 0.009426897
0000a0 e2 c3 ba 3d 27 72 80 3d b5 37 11 3e 79 eb a7 3c
       0.09119393 0.06271773 0.14181407 0.020498024
0000b0 fc ee e0 3d a2 e6 9c bd 32 39 10 3e 72 e5 48 3d
       0.10983083 -0.07661177 0.14084318 0.04904694
0000c0 d1 3f 66 bd 73 02 76 3d d3 63 a2 3d a9 7b a2 bd
       -0.056213204 0.06006093 0.07929196 -0.079337426
0000d0 bf f2 0a 3e 55 23 89 3e 20 d6 9f be 63 89 04 be
       0.13569163 0.2678477 -0.31218052 -0.12943034
0000e0 2e e0 17 bd a7 6a ec bd bd 94 87 bd 83 27 b0 3e
       -0.03707903 -0.1154378 -0.066201665 0.34405145
0000f0 8c b2 20 3f 23 d0 6b 3e cb 85 8c bd e4 be f5 3d
       0.6277244 0.23028617 -0.068614565 0.119993
000100 48 02 3f 3e 0e bc 88 3e f5 ab 8e 3e 0d 1d d3 3e
       0.18653214 0.26705974 0.27865568 0.412331
000110 0c 27 67 3c 1e 2a ba bd cf 1c dc 3d c9 be 20 3d
       0.014108431 -0.090900645 0.10747682 0.039244447
000120 69 c8 d2 3e 2f 1e 9a 3e 05 e5 b3 bd 9a b6 82 be
       0.41168526 0.30101153 -0.087839164 -0.2552994
000130 e0 e8 cb 3c 4f 14 21 3e 12 c0 30 be 1d 9e 7b 3d
       0.024891317 0.15730403 -0.17260769 0.061430085
000140 97 4c bd 3d 80 c3 bc bd be f1 9c 3e b3 2a 01 3e
       0.09243124 -0.09216976 0.30653185 0.12613945
000150 5d 21 a9 be 52 2f 04 be 70 ae cf bc 3e 6b 9f bd
       -0.33033267 -0.12908676 -0.025351733 -0.07784127
000160 26 1d 92 be 22 db 47 bf 5d 36 5b 3d b0 71 12 bd
       -0.28537863 -0.78068745 0.05351864 -0.035752952
000170 28 b8 cf bd d1 b7 a5 be 39 d8 4b 3d 33 c7 9d 3e
       -0.10142547 -0.32366803 0.049766753 0.3081604
000180 95 af 82 bd 48 87 8d bd 9a 3b 3e bd 79 a8 11 be
       -0.06381146 -0.069105685 -0.04644356 -0.14224423
000190 d2 83 cf 3c 6d fd 01 be 5b 07 cc 3d e0 eb 52 bd
       0.025331412 -0.1269433 0.099623404 -0.05149448
0001a0 88 4f cc bd f3 ca 13 bc bb 6e ec bc 11 13 13 bd
       -0.09976107 -0.009020555 -0.028861394 -0.035906855
0001b0 78 5b 93 3d e2 2d d8 bc dc 4e 9f 3c 8b e8 47 bd
       0.07195181 -0.026389066 0.019446783 -0.048805755
0001c0 3e d7 8a bd 51 12 32 3d 18 82 24 3d 04 2d f5 bd
       -0.067793354 0.0434745 0.04016313 -0.11971477
0001d0 9a 48 e0 bd c3 df c2 3d 8d fd 1d bc 21 ef fa bd
       -0.10951348 0.095153354 -0.009642971 -0.122526415
0001e0 da ba 89 3c d3 b3 5e 3c 8d 2d 04 3e ba f1 fc bd
       0.01681273 0.013592678 0.12908001 -0.12350793
0001f0 b7 0d 6b bc b4 5b 07 be 0f 32 f6 3d a1 4b 0e 3d
       -0.014346532 -0.13218576 0.12021267 0.034740094
000200 87 92 ac bd 8b 88 13 be 35 ef 5f 3d c4 bc 9a bd
       -0.084263854 -0.14407556 0.054671485 -0.075555354
000210 6e a6 de bd 46 9c f0 bc 95 a0 d2 bd 8d 29 db 3d
       -0.10871588 -0.029371392 -0.10284535 0.107012846
000220 33 c5 03 be f2 12 4c bb a4 34 36 3d 37 db 12 bd
       -0.12868194 -0.0031139222 0.044483796 -0.03585359
000230 ab 00 24 bc e5 46 c7 3d c4 63 a4 bd 01 55 53 bd
       -0.010009925 0.09730319 -0.08026841 -0.051594738
000240 c3 5c d6 bd c7 50 b2 3a 18 55 ed bc 6b 9d 3e bd
       -0.10466912 0.0013604396 -0.02897124 -0.046536844
000250 0c 8d 26 be 45 5e 1f bd 22 5a 09 bd c9 c8 6d 3d
       -0.16264743 -0.03890826 -0.033533223 0.05805281
000260 ac 44 53 be a7 54 97 bc 33 f6 30 3d 2f 14 23 be
       -0.20631665 -0.018472983 0.043203544 -0.15925668
000270 77 9d 14 3f 1f 44 5c bd 9d 07 b3 3e 83 12 ec 3e
       0.5805277 -0.053775903 0.34966746 0.46107873
000280 e7 a0 b3 be 81 d2 be 3d 95 6e 07 3f 86 5c 53 3a
       -0.35083696 0.09317494 0.5290311 0.00080627983
000290 69 ee 53 3e 13 76 06 bd 11 57 05 3e 8e 45 b3 3d
       0.20696415 -0.032827448 0.13021494 0.08753501
0002a0 c5 33 43 3f 7a c8 8d be f0 26 26 3f d5 33 1b bd
       0.7625087 -0.27692014 0.64903164 -0.037891228
0002b0 bf 5a 7b ba 73 3d 2c 3e c7 3f 98 3c 23 70 0b 3e
       -0.00095884124 0.16820316 0.018585099 0.13616996
0002c0 24 c0 e7 3d 0a 43 a3 bd 33 ae 8c be e8 f0 c8 3e
       0.11315945 -0.07971771 -0.27476653 0.39246297
0002d0 11 ee 83 be b8 8f 2c 3e 7c 4f 93 be 3d 09 db be
       -0.25767568 0.168517 -0.2877158 -0.42780486
0002e0 b2 df 9f 3e eb 2f 84 3e eb fd f3 3d 86 e8 36 3d
       0.31225353 0.25817809 0.119136654 0.044655345
0002f0 0b 1e c4 3e 95 ae 1f be 6f 3c 13 be 64 a6 d7 bd
       0.3830417 -0.15593942 -0.14378522 -0.10529783
000300 ab dd 05 be 0f 0e 51 39 02 f5 dd 3d db 38 ad 3d
       -0.13072841 0.0001993703 0.10837747 0.0845811
000310 59 27 d6 bd 95 b4 b0 bc ff 0e e8 bd 95 7b ce 3d
       -0.10456724 -0.021570483 -0.11330985 0.10082165
000320 43 b3 27 bc 5e 84 0d 3e 5d 4c 97 3d 12 48 6f bd
       -0.01023561 0.13820025 0.07387612 -0.05841834
000330 c9 f7 26 3d 3e 27 31 3d 99 2b fa bd 2e 9f e6 bd
       0.04076365 0.043250315 -0.12215347 -0.1126083
000340 20 8c b4 bd 0e 32 b8 bd c0 49 83 bd 33 ab 01 be
       -0.08815789 -0.08993922 -0.06410551 -0.12662964
000350 93 de 09 3e 6c cd 0f bd a9 2e f2 3d 9a 7b ab 3d
       0.13463812 -0.035108015 0.11825306 0.083731845
000360 a2 cd f6 bd ef 38 8c 3d d5 33 e0 bc 78 61 c3 3d
       -0.1205094 0.06846797 -0.027368465 0.09540075
000370 ff d0 92 bc ea fb 0a 3e cf 3d 92 bc 22 66 fa bd
       -0.017921923 0.1357266 -0.017851738 -0.122265115
000380 f1 b3 c5 bd c5 5c ab 3c c0 a6 f4 bd da 77 fa bd
       -0.09653462 0.02091826 -0.119458675 -0.12229891
000390 38 3f ca bd b7 b3 01 3e be 90 01 be b7 a5 d1 3d
       -0.09875339 0.12666212 -0.12652871 0.10236686
0003a0 9c ed e8 bd ad 16 bb bd eb 61 4d 3c e6 9f 8a 3d
       -0.113734454 -0.091351844 0.0125355525 0.067687795
0003b0 bc 71 88 3d 5a bd e2 bb bf 6f a7 bd ca e1 25 bd
       0.06662318 -0.006919545 -0.08175611 -0.040498532
0003c0 51 42 d0 3d ba fc d9 bd ab 5e b0 bb 62 fb 10 3e
       0.10168899 -0.10643907 -0.005382379 0.14158395
0003d0 c3 aa 8a 3d e2 39 03 3e b9 ba 98 bd b1 02 d0 bc
       0.067708515 0.1281505 -0.074574895 -0.025391908
0003e0 c1 83 d9 3c d2 d3 25 3d 8e 00 92 bc bc 32 91 3d
       0.026552083 0.04048521 -0.01782253 0.07089755
0003f0 7e ae 5c be 92 dc f8 3d 07 c7 14 3e 0f ac bd bb
       -0.21550938 0.121514454 0.14529048 -0.0057883332

encoder.conv2d_2.bias f4 [32]
000000 4b 60 99 bd 66 cf e4 3d 8d 7c 32 3d fb 4d 31 3e
       -0.074890696 0.111723706 0.043575812 0.17314903
000010 d9 52 de bd 58 4e 00 3e b1 07 f0 3c 1b 2e f9 3c
       -0.10855646 0.12529886 0.029300543 0.030417493
000020 c6 ae 34 bc 5a c2 04 3b da 6c 9a bd 75 87 88 bd
       -0.011027997 0.0020257444 -0.07540293 -0.066664614
000030 95 c8 ec 3a cd 69 0e 3e 53 2f 85 3c 81 dd 22 3e
       0.0018065149 0.13907547 0.016257918 0.1590481
000040 eb 22 ab 3d b7 60 b3 bd 7e e7 c8 3d f3 45 81 3c
       0.083562694 -0.08758681 0.09809779 0.015780425
000050 79 0d c2 3d f9 b2 4d 3d 66 fe 03 3c 66 9e b8 3c
       0.09475226 0.05021951 0.008056259 0.022536468
000060 93 50 f0 3d bf d6 c1 3d 0d 2b cf 3d 89 9f 23 bd
       0.11734118 0.09464788 0.10115633 -0.039947066
000070 c0 57 08 be c8 6b 93 bd 16 82 94 3c c7 77 a8 bd
       -0.13314724 -0.07198292 0.018128436 -0.08225971

encoder.conv2d_3.weight f4 [64, 32, 1, 3]
000000 bb e5 46 3d 00 8d 3d 3d 22 7a 30 3c 09 6b b3 be
       0.04855893 0.046277046 0.010771306 -0.350426
000010 b6 4a 56 3c 7d bb 19 bd 72 5c a8 3d b6 f2 d9 bc
       0.013079336 -0.03753232 0.082207575 -0.026604991
000020 6f 56 16 3c 54 5b 16 3e 81 40 cc be ca 01 28 3e
       0.009175881 0.14683276 -0.39892963 0.16406932
000030 ab 5f ca bd 32 19 00 3d a4 cd d7 bc aa 7e 59 3d
       -0.098815285 0.031274028 -0.026343174 0.053099312
000040 35 d2 d5 bc eb b9 90 3d 78 3e 26 3d a0 e1 97 3d
       -0.026101211 0.07066711 0.04058692 0.074160814
000050 21 4d 70 3d 14 79 eb 3c d9 0f bf bd 66 bd 00 3d
       0.058667306 0.028744258 -0.093291946 0.031430624
000060 5e 41 4b bc 40 87 e2 3d 10 28 06 39 0e cf b1 3d
       -0.0124057215 0.11060953 0.0001279416 0.08682071
000070 72 4d 1a 3d cf 4a 8a 3d 52 4e 34 bc 49 c6 27 bd
       0.037671514 0.0675255 -0.011005001 -0.040960584
000080 64 31 0e bd fa e1 b8 3d a9 d8 a8 bc ee 60 f2 3d
       -0.03471507 0.090274766 -0.020611124 0.11834894
000090 cd e4 8f 3d e8 ab 65 3d 80 2d 19 3d b7 12 c0 bd
       0.07026062 0.056072146 0.037396908 -0.093785696
0000a0 84 a7 19 bd 60 67 e0 3b 34 a8 aa bd 60 41 a7 bd
       -0.03751327 0.0068482608 -0.083328635 -0.08166766
0000b0 08 07 93 bd 0f 47 0f 3d 06 66 dd 3d 50 f4 fd bc
       -0.071790755 0.034979876 0.10810475 -0.031000286
0000c0 1f 9b f6 3d 48 4f 05 bc 22 9a 6a 3d df b5 8e bd
       0.12041306 -0.008136578 0.0572759 -0.06968283
0000d0 28 16 45 3d 31 68 8c 3d 32 ea cf 3d 8d f1 66 bc
       0.048116833 0.068558104 0.10152091 -0.014095676
0000e0 fc 61 eb 3c b0 58 ba 3d 39 19 fd 3c e2 b0 5c 3d
       0.028733246 0.09098947 0.030895816 0.053879626
0000f0 29 0e 9a 3d 2f 85 60 3d 51 e7 b1 3d 61 10 db 3c
       0.07522232 0.054814514 0.08686698 0.026741209
000100 d4 18 d2 3c 8b 44 93 3d 97 2a af bd 06 44 53 3b
       0.025646605 0.07190808 -0.08553045 0.003223659
000110 43 b3 bf 3b ed d9 95 bd 3b 74 eb ba b0 ef cf bd
       0.005850227 -0.07316957 -0.0017963717 -0.10153139
000120 1b bd 75 bc 52 5a bf bc 5f 24 84 bc 05 68 bf 3d
       -0.0149987 -0.023358498 -0.016130624 0.09346012
000130 a0 97 fc 3d 34 31 b0 bc eb 7e 07 bd 7d c3 89 3d
       0.12333608 -0.021507837 -0.033080023 0.067267396
000140 db e8 28 3d ce a6 1f 3d 54 88 58 3d 39 b7 92 3d
       0.041237693 0.038977437 0.052864388 0.07163853
000150 07 07 a1 bd 7a 53 81 bd 4e c7 8f bd 95 ca 08 bd
       -0.078626685 -0.0631475 -0.07020436 -0.033396322
000160 e0 c3 d0 bd b7 e9 01 bd 40 d2 24 bc 65 b6 ba 3d
       -0.1019361 -0.03171703 -0.010059893 0.0911682
000170 3d 78 d2 bd 79 2f 98 3d 3f e5 8d 3c ba 9f 9d 3d
       -0.1027684 0.0743093 0.017321227 0.07696481
000180 5e 1d be 3d 5e 1f 10 bd aa 8b b6 bd 1c 91 82 bd
       0.09282945 -0.035186164 -0.089133576 -0.06375334
000190 cb 68 a4 bd 11 de a0 bd d6 77 91 3d 82 3c ea bc
       -0.080278 -0.07854856 0.07102935 -0.028593305
0001a0 8b 61 45 bd 8d 3a be bd 0e 62 0d 3d d3 1e 8a 3d
       -0.048188727 -0.092885114 0.03451734 0.067441605
0001b0 73 55 b7 bb 55 6b 3b bc a1 44 f0 3b 90 d3 bb bd
       -0.005594903 -0.011439164 0.0073324 -0.09171212
0001c0 ed 2f 53 3b 2e e8 a8 bd 2e 74 ac 3d 10 22 b2 bc
       0.003222461 -0.0824741 0.08420597 -0.021744758
0001d0 41 82 b7 3d 93 df 8f 3d ba d7 ba 3c 7d b7 ca bd
       0.08960391 0.07025065 0.022807945 -0.09898279
0001e0 16 bd be 3c ad b2 c4 bc 26 22 98 3c e2 c3 5b 39
       0.023283523 -0.02401098 0.01857097 0.0002095844
0001f0 b2 a5 c1 bd 7c 95 bf bd 31 95 90 3a 29 8c 4f 3d
       -0.09455432 -0.09354684 0.0011030791 0.050670777
000200 e5 7c 4b 3d 07 de 83 bd 26 7b cb bc e0 d7 b2 3d
       0.049679656 -0.06438833 -0.024838995 0.08732581
000210 62 ef ca bc 2f 61 84 bd f9 ff c4 bd f2 35 e2 3c
       -0.02477235 -0.06463849 -0.096191354 0.027613614
000220 48 04 62 3d 72 7e 50 bd b8 0c a9 3d 2e 68 60 bd
       0.055179864 -0.050901838 0.08254379 -0.054786853
000230 4e 9d 76 3c 7a e8 10 3d 92 94 bf bc 3b 61 a0 bd
       0.015052153 0.035377957 -0.023386274 -0.07831045
000240 e5 c9 df bd 5b 42 93 bd 96 eb e2 bd 40 a9 8b bd
       -0.1092718 -0.07190391 -0.11080091 -0.06819391
000250 31 8c bc 3d 80 9e 40 3d 4e 8b 55 bc aa 43 87 3d
       0.09206427 0.047026157 -0.013033701 0.06604703
000260 42 b6 60 bd ea 38 58 3c 16 9f ca bd 8e 18 d3 bd
       -0.054861315 0.013197163 -0.098936245 -0.10307418
000270 a9 0f 8e bc a3 fd da 3c de b1 cd bc ef 3e 9e 3c
       -0.017341452 0.026732272 -0.025109228 0.019317118
000280 02 46 a2 bd b7 ab 26 3d ea 69 95 3d 6e d6 21 bc
       -0.07923509 0.040691104 0.07295592 -0.009877784
000290 44 60 a7 bd 72 51 0d bd f1 41 4f 3c d6 69 dc bb
       -0.08172658 -0.0345015 0.012649999 -0.006726484
0002a0 94 71 97 bd f6 44 0d 3c 05 ba 20 3d 75 f4 3c bc
       -0.0739471 0.008622399 0.039239902 -0.0115328925
0002b0 86 9d 3c bd 98 b8 9b 3b 9d 84 a1 bd 26 bf c0 bd
       -0.046048664 0.00475223 -0.07886622 -0.09411459
0002c0 b2 d3 c2 bd 86 e5 2c 37 3e 22 ec 3b ba 01 61 3c
       -0.09513034 1.0305439e-05 0.0072062304 0.013733322
0002d0 80 0e 79 3d 1f 6a 91 bb 57 77 0c bd f2 d8 7a bc
       0.060804844 -0.0044376994 -0.0342935 -0.015310513
0002e0 5a 36 99 bd ea 4c be 3c c7 62 9f 3d 87 3b b7 bb
       -0.0748107 0.023230035 0.07782512 -0.005591813
0002f0 ac 75 c9 bd d0 12 0f 3d 3d ce ce 3d 18 14 3f bd
       -0.09836897 0.03493005 0.100979306 -0.046650022
000300 16 12 b8 bd 02 89 02 be 27 a6 ad 3d 55 44 1f bd
       -0.089878246 -0.12747577 0.08478957 -0.038883526
000310 4d b6 94 3b 67 da 9d bd 02 8d 46 bd 59 01 58 3d
       0.0045383335 -0.077076726 -0.04847432 0.05273566
000320 88 f6 c0 3d 0f 13 ee bc 24 d4 36 3d f9 f4 e6 bc
       0.09422022 -0.029061822 0.044635907 -0.028192984
000330 12 95 33 bd 59 21 92 3d 61 65 95 3d 56 0c 97 3c
       -0.043843336 0.07135267 0.07294727 0.0184385
000340 d4 e7 c2 bd 68 ce 97 3d 99 26 d4 3c d3 92 66 3d
       -0.09516874 0.07412416 0.025897311 0.056292366
000350 68 6b b5 bd f8 d1 da bc ce 54 dc bc a8 ff 81 bd
       -0.08858377 -0.026711449 -0.026895907 -0.06347591
000360 34 06 b5 3c 76 99 80 3c 59 ab d1 3c 4b ec cb 3c
       0.022097684 0.015698176 0.0255944 0.024892947
000370 e1 64 d9 bd fc 4d c6 3c 3a 20 9b 3c 0e 1a 8e 3d
       -0.10614944 0.024207108 0.018936265 0.06938563
000380 30 f0 6c 38 17 75 ab bd 17 60 15 bb 78 20 48 3d
       5.6490477e-05 -0.083719425 -0.002279287 0.04885909
000390 ff 4a 59 3c 36 0d 1d 3d 69 a1 b4 3d 1b 88 97 3d
       0.013262509 0.038342677 0.08819849 0.07399007
0003a0 71 7d 3d 3c 03 d0 21 bd 63 79 6e bd 73 d8 02 bd
       0.011565552 -0.039505016 -0.058221232 -0.031944703
0003b0 c0 65 0f 3d f0 05 89 3d 8d 95 a3 bd c8 ec c1 bd
       0.035009146 0.066905856 -0.07987509 -0.094689906
0003c0 4e 73 92 bd 59 84 c4 bd fd 5b 9e bd 10 9f e4 3c
       -0.07150899 -0.09595556 -0.07732389 0.027907878
0003d0 fc a6 c9 bd fc 74 38 3d 80 de ab 3c 0d 2d 88 3d
       -0.09846303 0.04503344 0.02098012 0.06649218
0003e0 56 db 90 3b 89 c2 90 3b 7b ff c1 3d 78 76 4e bc
       0.004420678 0.0044177216 0.09472557 -0.012601487
0003f0 8a 93 06 3d 0a ec b9 bd c0 ad 86 bd b3 fc 9e 3c
       0.032855548 -0.09078224 -0.06576109 0.019407606

encoder.conv2d_3.bias f4 [64]
000000 3a 88 b1 3c ab 97 80 bd 73 2f d7 3b 2d 76 3a bd
       0.021671403 -0.06278928 0.0065669357 -0.045522857
000010 0b 30 02 3d 46 4b 8a bd c9 5f ae 3d ae 73 70 bc
       0.0317841 -0.067526385 0.08514363 -0.014676018
000020 49 af fb 3c df b1 e0 bc 31 26 ae bd db 34 16 bd
       0.03072323 -0.027428566 -0.08503378 -0.0366715
000030 20 76 31 bd 49 80 36 3d 34 94 3a bd ba db 6e bd
       -0.043325543 0.044555936 -0.045551494 -0.058315016
000040 ae 85 81 bc 83 78 70 bd 54 89 9a 3b e7 56 8d bd
       -0.015810814 -0.05870868 0.004716078 -0.06901341
000050 78 71 b2 3d 94 af aa 3c 0f eb 22 bd ed c8 eb bc
       0.08713049 0.020835675 -0.03977495 -0.028782332
000060 be f6 e7 bd 68 0b 7d bd d5 d4 82 3d 06 fa 69 3d
       -0.11326359 -0.061778456 0.06388251 0.057123207
000070 6c 67 66 3d d1 d8 17 bc 3c f6 e5 bd 9b 41 99 3d
       0.056250975 -0.009268002 -0.11228606 0.074832164
000080 89 57 61 3b 4c 15 86 3d 83 6a 7f 3d b0 9f ff 3c
       0.003438445 0.06547031 0.062357437 0.031204075
000090 85 0a 74 bd 67 b3 8a 3d ab f6 9f bc 03 cb 0f bd
       -0.059580345 0.067724995 -0.0195268 -0.035105716
0000a0 9b 05 15 bc d8 dc ac 3d 28 f3 40 3c da fa 14 3d
       -0.009095575 0.0844056 0.011776723 0.036372043
0000b0 13 0f f9 3c 58 04 4a 3c b2 e8 5e 3d 8a 23 76 3d
       0.030402696 0.012330137 0.054421134 0.060092486
0000c0 36 dd 5b bd 7d ce dd bc c8 10 dd bd 29 c8 f5 3d
       -0.05367776 -0.027076 -0.107942164 0.12001068
0000d0 e4 d8 2c bd 62 f2 40 3d 8c 2b a3 bd ea d6 5f bc
       -0.04219903 0.047106154 -0.0796729 -0.013662079
0000e0 dd 64 74 3d 8e af d0 bd d7 21 d4 bd 6e 7c c3 bd
       0.059666503 -0.101897344 -0.10358017 -0.095452175
0000f0 00 73 07 3d 1b 97 2f bd 49 1a db bd 4e d5 d6 bc
       0.033068657 -0.042868715 -0.10698373 -0.026224758

encoder.fc.weight f4 [16, 64]
000000 cf c7 22 be 74 65 5a 3d e7 32 69 bb 16 a5 37 be
       -0.15896533 0.05331941 -0.0035583319 -0.17934069
000010 a1 ce 7c 3d a1 a2 24 3d 09 ab 05 3c d4 e9 d4 3d
       0.061720494 0.040194158 0.008158454 0.10396162
000020 b6 f8 78 bd b5 e2 31 3d 8f d2 98 3d 91 78 09 3e
       -0.060784064 0.043429095 0.07462036 0.13424899
000030 74 85 51 bd 61 10 93 3d 64 f4 a8 bd 0d 28 32 3d
       -0.05115266 0.071808584 -0.08249739 0.043495227
000040 31 ba 2f bd 0c cf 13 be 29 a1 d8 bd dc 1c 72 3b
       -0.042902175 -0.14434451 -0.10577614 0.003694347
000050 9d 7f 3b bd ae e3 df 3d 35 bf bc 3d 95 38 7b bd
       -0.045776 0.10932098 0.09216157 -0.061333258
000060 27 d9 ec bd 73 b5 b4 3b 39 f7 c9 3d 21 5e 2a 3d
       -0.11564856 0.0055147945 0.09861607 0.041593675
000070 fe 19 30 bd 51 9c 8b 3d 7e c9 a6 bd c7 9f c8 bc
       -0.042993538 0.06816924 -0.081439 -0.02449025
000080 f0 79 f1 bd 0c 74 59 3d 3b 16 31 39 01 35 57 3d
       -0.11790836 0.053089187 0.00016888317 0.052540783
000090 38 b0 05 be 6e 51 ba bc ee d0 35 3d d0 5e eb bd
       -0.13055503 -0.022743907 0.044388704 -0.114926934
0000a0 f5 de e5 bc 55 a2 7a 3d 84 1b d4 ba f1 40 8e bd
       -0.028060416 0.06118997 -0.0016182517 -0.0694598
0000b0 1c ea 80 be 99 35 78 3d d8 cc 0a 3e b4 db 65 3b
       -0.2517861 0.06059799 0.13554704 0.003507358
0000c0 df 37 fb 3c 15 17 c8 3d f3 b7 e7 bd 57 8a 57 3b
       0.03066629 0.097700275 -0.113143824 0.0032888853
0000d0 26 2e 11 3e 94 3b fb bc 9a a2 cc 3d 35 cd a7 3d
       0.1417776 -0.030668058 0.09991951 0.08193437
0000e0 15 9a 1d 3d e0 a2 e9 3d ec 82 14 bd 18 48 a4 bc
       0.038477022 0.11408019 -0.03625767 -0.020053908
0000f0 0f bf 4e 3e a5 c6 41 bd b6 07 d8 3c 2d a2 8e 3d
       0.2019007 -0.047308583 0.026370864 0.06964526
000100 92 85 d8 bd 1c 8b 9a 3d 48 99 30 bd 7f 0a 16 be
       -0.105723515 0.07546064 -0.04311493 -0.14652441
000110 9f 86 82 bd 7f 0f d5 bc ab 71 05 bd 38 d2 c8 bc
       -0.06373333 -0.026008366 -0.032579105 -0.024514303
000120 3a 9c 8e bd a5 71 5e 3d a7 99 09 bb 54 e0 00 be
       -0.069633916 0.0543076 -0.0020996125 -0.12585574
000130 b8 f5 91 3d c7 7d d9 3c d1 4a c8 3c d7 96 39 bd
       0.07126945 0.026549233 0.024449738 -0.045309868
000140 cd 87 d3 bd 26 14 a8 39 62 e6 4b 3d 2b d7 e2 bd
       -0.10328636 0.0003205847 0.049780257 -0.11076196
000150 47 05 59 bd 45 9f 6b bd dc 6a b4 3d b8 e9 ca 3d
       -0.05298355 -0.057524938 0.08809444 0.099078596
000160 36 b2 ce bd 98 e3 9d 3b 30 11 bc bd 49 22 c0 bd
       -0.10092585 0.004818391 -0.09182966 -0.093815394
000170 d0 57 c9 bd fc 6b f9 bd a0 0a a5 bd 29 91 8b bb
       -0.09831202 -0.121787995 -0.08058667 -0.004259248
000180 d6 04 f1 3d df 05 9a 3d 43 c1 f6 bd aa 50 39 bd
       0.117685005 0.07520651 -0.120485805 -0.045242943
000190 1d 37 05 3c e4 2e fc bd 03 55 92 bd 80 08 a6 bd
       0.008130816 -0.12313631 -0.07145121 -0.0810709
0001a0 90 90 b1 3b 39 0b bd 3d 67 fb a5 3d 68 00 d5 bd
       0.0054188445 0.09230656 0.08104592 -0.10400468
0001b0 64 9a 18 3d d9 38 9e 3c 64 29 02 be 07 df 62 bb
       0.037256613 0.019314216 -0.12711102 -0.0034617798
0001c0 71 ec 9e 3d cc 84 73 3c 0d a7 65 3d 6e ca bd 3c
       0.07759941 0.014863204 0.056067515 0.023167815
0001d0 70 77 82 bd 90 3f 49 bc ed b4 ae bd ac 19 84 bd
       -0.06370437 -0.012283221 -0.085306026 -0.06450209
0001e0 60 33 c0 3d 45 cb 55 3d d8 ab e0 3d 78 88 2d bd
       0.09384799 0.052195806 0.109702766 -0.042366475
0001f0 34 fb f3 3d de 45 ed bd 30 ea 2b 3c c0 23 92 bd
       0.119131476 -0.11585592 0.010492846 -0.07135725
000200 00 2f 06 3e b3 2d df bd 6b 0e 97 bd 1e 02 dd bc
       0.13103867 -0.10897388 -0.07375797 -0.026978549
000210 95 14 42 bd 4a 64 d1 3d eb 34 f0 3b 88 bb 85 3d
       -0.04738291 0.10224207 0.007330527 0.06529909
000220 4f 8e 0a bd 9a 4c f9 bc cc d9 5d 3d ce 14 57 bd
       -0.033827122 -0.030432034 0.054162785 -0.052510075
000230 14 df f4 bd a3 37 09 bd 94 0d bc bd 20 4b 3f 3d
       -0.11956611 -0.033500325 -0.09182277 0.046702504
000240 e0 de f1 bc 58 cd 86 bc 9a e1 40 bc 1d 35 47 3d
       -0.02952522 -0.016455337 -0.011772538 0.048634637
000250 7f 2c d2 3d f6 64 cc bc 33 e6 c1 3d 7c 33 a7 3c
       0.10262393 -0.024950486 0.09467735 0.020410292
000260 86 e8 94 bc d9 6c b1 bd 6a c2 bd bc a5 d5 98 3d
       -0.018177282 -0.08663339 -0.023163993 0.074626245
000270 45 64 07 3d e3 f9 18 3d 5d 21 df bd 6a 1d fa 3d
       0.03305461 0.037347686 -0.108950354 0.122126415
000280 48 a1 0a bd 4e 3e 42 3c 62 cd d3 3d 83 1e 26 3d
       -0.033845216 0.011855675 0.10341908 0.040556442
000290 c1 83 90 3c 7a be cd bd a6 bb 56 bd a1 4b 84 be
       0.01764095 -0.10046096 -0.05242505 -0.2583895
0002a0 3b 02 5a 3d 59 c3 19 bd dc 41 a1 3d a9 bf 2f 3d
       0.053224783 -0.037539814 0.0787389 0.04290739
0002b0 f2 9c 16 3d 8f 70 06 3e e4 cc 83 3d 23 67 ff bd
       0.03677077 0.13128875 0.06435564 -0.12470844
0002c0 48 96 bf 3d dd bb 31 bc f5 72 85 3d 0e 3d c6 bc
       0.09354836 -0.010848013 0.06516067 -0.024199035
0002d0 91 a1 04 3e 36 1a 21 be 95 5a 04 3e ce fd 61 3b
       0.12952258 -0.15732655 0.1292518 0.0034483555
0002e0 09 31 99 bc ec a0 b3 bd 1f cf 0b be 10 7a 54 bd
       -0.01870014 -0.08770928 -0.13653229 -0.05187422
0002f0 f4 1a e6 3d c4 e7 5b bd 7f 23 e2 bd ed c8 7c 3d
       0.1123561 -0.053687826 -0.110419266 0.061715055
000300 fe 0c 17 be 51 26 11 bc 0a 05 90 bb 1f 50 0b 3e
       -0.1475105 -0.008859233 -0.004395132 0.13604783
000310 ff 6d c9 3c 30 c4 8e bd dc 1b 37 3d 10 8c 6b bc
       0.024588583 -0.069710135 0.044704303 -0.014376655
000320 78 b2 01 be 0e 5f c9 bd 3f d0 93 3d 58 ee f1 3d
       -0.12665737 -0.09832583 0.07217454 0.118130386
000330 14 f1 c2 3d 95 c1 c3 bd 62 4a 10 3e 1b 57 be 3d
       0.09518638 -0.09558407 0.14090875 0.09293958
000340 35 34 1c be 95 12 d5 bd 19 de a2 bd 1b 21 d7 bc
       -0.1525429 -0.10403935 -0.07952518 -0.026260903
000350 8f f6 e4 3d 7e d2 dd bd 57 79 90 3d 02 87 d9 bd
       0.1117984 -0.10831164 0.07054394 -0.10621454
000360 d7 1b a4 3d 73 61 56 bb a0 52 c7 3c 27 94 ce bd
       0.080131225 -0.0032711893 0.02433139 -0.100868516
000370 0d ad 49 3d e2 05 2b 3d 8d 7f 6b 3d d9 d6 d8 3d
       0.0492373 0.041753657 0.05749469 0.10587854
000380 ad 05 2e 3d 87 ae d5 bc 9b ac dc bd 3e b5 72 bc
       0.04248588 -0.026084198 -0.107751094 -0.014813719
000390 89 2f a5 bd a7 fb 99 bc f1 e2 3b bd 9f 01 90 be
       -0.08065707 -0.018796755 -0.045870725 -0.28126237
0003a0 10 12 a6 bd f9 55 9d 3c 76 b4 7e 3d 12 4e 28 be
       -0.08108914 0.019206034 0.06218382 -0.16436031
0003b0 ac 17 25 3e dc 1b 99 3d 62 30 5f bd 1a ab a1 3d
       0.16122311 0.07476017 -0.0544895 0.07893963
0003c0 76 a2 16 3d 3a f5 bd bd 64 4a 06 bc 40 e0 ef bd
       0.03677603 -0.09275289 -0.008196447 -0.11712694
0003d0 eb bf 70 3d 8b 52 74 3e 34 78 8d bd 9e dc 9f bd
       0.058776777 0.23859613 -0.069076926 -0.07805751
0003e0 a5 7d bf 3c 69 98 2a ba b8 36 e8 bd 06 80 a3 bd
       0.023375342 -0.0006507696 -0.11338562 -0.07983403
0003f0 f7 be 30 bd 92 73 11 bd 25 9a 79 bc 2f d9 00 be
       -0.04315087 -0.035510607 -0.015234505 -0.12582849

encoder.fc.bias f4 [16]
000000 c2 0c e9 3d 04 ec 97 bd 13 1e 53 3d c4 33 ce 3d
       0.113793865 -0.07418063 0.051542353 0.10068467
000010 b1 0d 74 bd 61 77 f0 bd ca 39 c4 3d b0 ba 94 bc
       -0.05958337 -0.1174152 0.09581335 -0.018155426
000020 8f 7b 04 3c 6f 73 93 3b 63 6e 9d 3c e1 05 b4 bd
       0.008086099 0.0044998447 0.019217676 -0.08790184
000030 5e 79 3d 3d 2b 3f ae 3b 39 0c f7 3d 80 41 05 be
       0.046258323 0.005317589 0.12062878 -0.13013268

decoder.decoder_fc.weight f4 [1152, 16]
000000 1f ac e5 3d fc bd 18 3e 52 4b da bb f8 29 3e be
       0.1121447 0.14916223 -0.006661811 -0.18570697
000010 4d 9b 1e bc 88 7f 16 3e 6f 5b 57 be 96 97 c1 bd
       -0.009680581 0.14697087 -0.21030973 -0.09452741
000020 36 f9 c7 bb 70 3b da bd bc 6f 7a 3e 57 b0 30 be
       -0.0061027063 -0.10655868 0.24456686 -0.17254768
000030 14 80 6f bd 91 e5 bf bc c2 d7 5e be c4 53 3d be
       -0.058471754 -0.023424895 -0.21761993 -0.18488985
000040 e6 b6 0f be b0 d6 38 be d8 3f f7 3d bc 1f 7b 3e
       -0.14034614 -0.18050647 0.12072724 0.24523824
000050 a6 a5 52 be 8c 65 4b 3e 50 c4 b8 bd 90 ec 6e 3e
       -0.20571002 0.19862956 -0.09021819 0.23332429
000060 ac 12 fa bd 24 8c f5 3d c2 21 0b 3e 88 c2 e3 bd
       -0.12210593 0.1198962 0.13587096 -0.11121088
000070 ac 8e 28 be a8 43 80 3d 4c f4 00 3e 6a e1 0b be
       -0.16460675 0.062629044 0.12593192 -0.13660207
000080 ca af b9 3d f8 05 df bd 9f e7 83 3e db 27 7f 3e
       0.09066732 -0.1088981 0.2576265 0.24917547
000090 6b 0d 78 bc ac 86 b3 bc ca 65 42 bd e0 e6 26 3e
       -0.015139918 -0.021914802 -0.047460355 0.1629901
0000a0 09 7b 3a 3d 6a 65 26 3e 9a 65 27 be 49 a4 04 bc
       0.04552749 0.16249624 -0.16347352 -0.008095809
0000b0 48 da dd 3d 35 5f a2 3d 98 99 66 3e 2a fa a1 3e
       0.108326495 0.079283156 0.22519529 0.31636173
0000c0 55 3a 18 be 1f 45 33 3e 57 7b 59 3e 24 72 98 bd
       -0.14866002 0.17506836 0.21238457 -0.074436456
0000d0 82 f2 cc 3d b3 82 5a 3e 85 be 60 bc b9 e1 f2 bc
       0.10007192 0.2133892 -0.013717298 -0.029648649
0000e0 15 aa 3e 3e 53 31 70 be 37 9d 95 3d 1e c2 de 3d
       0.18619569 -0.23456316 0.07305377 0.10876869
0000f0 bc aa 81 be ed 86 50 3e f7 ab 6e be ed 82 4f be
       -0.25325572 0.2036397 -0.23307787 -0.20264788
000100 65 bc 1d 3d 0e ab 8b 3d 08 41 2d 3e 3b 36 0e 3f
       0.038509745 0.068197355 0.16919339 0.555515
000110 b6 a6 45 bd f7 f2 07 3d ef bf 20 be b5 da 82 3e
       -0.04825469 0.033190694 -0.15698217 0.25557485
000120 4a 36 b2 be 7f 73 a3 3d 35 e9 43 bd a2 8a 12 be
       -0.34807044 0.079810135 -0.047829825 -0.14310697
000130 76 3d 15 bb 26 2d d8 3d e4 5c 7f 3e eb 9d 87 3e
       -0.002277223 0.105554864 0.24937779 0.2648767
000140 b9 ae 58 be df ec 00 3e 05 b1 3f be 34 fb 5a bd
       -0.21160401 0.12590359 -0.18719871 -0.053462222
000150 35 38 1c 3e 07 ce 84 3e 40 01 79 bd e7 de 32 bd
       0.15255816 0.25938436 -0.060792208 -0.043669607
000160 52 63 13 3e fb 9d 77 be b4 4c 36 3e c2 08 9e bd
       0.14393356 -0.24181359 0.17802697 -0.07716514
000170 7b 5b 21 3b 6d fc 4d 3c c9 4d c9 3c 92 b8 40 3e
       0.0024621177 0.01257239 0.024573224 0.18820408
000180 2f 9e 94 3d 12 04 b6 3d da 88 9a bd 10 57 8e 3e
       0.072567336 0.08887495 -0.075456336 0.27800798
000190 1a 68 85 3e 58 a5 fe bd 81 d1 53 bd 95 70 8a 3e
       0.26055986 -0.124338806 -0.05171347 0.27039018
0001a0 f1 d1 3b bf d8 7b 01 3e cf c3 88 be ee 16 a2 be
       -0.7336722 0.12644899 -0.2671189 -0.3165812
0001b0 a6 56 05 bd bc c9 f3 bd 0c 8e 87 3e ac c8 2e 3d
       -0.032553338 -0.11903712 0.2647556 0.042671844
0001c0 f8 52 2d bd b5 04 27 3e a0 2e 2a bb 44 36 91 3e
       -0.042315453 0.1631039 -0.0025967732 0.28361714
0001d0 2d 77 12 3d a3 1d 81 be 12 e5 39 3e 7b 14 8f 3d
       0.035758186 -0.25217924 0.1815379 0.06986328
0001e0 f7 53 67 be 2e 06 d1 bd 85 a2 92 be fb b7 b9 3d
       -0.22590624 -0.10206257 -0.28639618 0.090682946
0001f0 5d 69 96 3e fe 41 5b 3e 84 a7 47 be ca 62 68 bd
       0.2937726 0.21411893 -0.19497496 -0.056734838
000200 c9 24 07 bd d5 7a 6c be 71 82 23 be 22 91 24 3d
       -0.032994065 -0.23093732 -0.15967728 0.040177472
000210 8c 04 54 3d 03 2b 83 bd 6a 0f a8 3d ec dc 61 bd
       0.05176215 -0.06404688 0.08206065 -0.05514233
000220 44 d0 fd 3d 80 97 12 bb 7e 99 26 3e ca 7a 4e 3e
       0.12393239 -0.0022368133 0.1626949 0.20164028
000230 ae 3b 2c 3e 3a 47 04 3e 68 84 42 3e b8 0b 51 bc
       0.16819641 0.12917796 0.18995821 -0.012759142
000240 f1 c9 99 bd 16 eb 2e bd a9 b2 1e be 0a c2 3f 3d
       -0.075092204 -0.042704664 -0.15497841 0.04681591
000250 c2 46 29 3e 3b a1 11 be b8 93 ce bd 73 21 8f 3d
       0.16530898 -0.14221661 -0.10086769 0.06988802
000260 e5 bf 28 be 49 4f de 3c 5d 2f 55 3e 56 18 67 be
       -0.16479452 0.027137415 0.20818849 -0.22567877
000270 98 1b e0 bd 7d 7b 2c be f2 ce 13 3e ad c1 51 be
       -0.10942763 -0.16843982 0.14434412 -0.20484038
000280 ee 8d 82 3d 14 1e 8f 3e 50 58 07 3e ee b0 4d be
       0.06374727 0.27952635 0.13217282 -0.20087025
000290 d5 78 9b bd ad b1 fe bd 05 74 1b bd 0e 3e 33 3e
       -0.07591406 -0.12436233 -0.03795244 0.1750414
0002a0 bc e6 24 bc a2 97 c8 bd b6 a9 28 3e aa 8a 3a bd
       -0.010064777 -0.09794547 0.1647099 -0.045542397
0002b0 ce 7b 75 bc 51 37 8a bc 67 73 ec 3d 37 87 5a be
       -0.014983131 -0.01687208 0.11545449 -0.21340643
0002c0 c5 0a f4 3d 04 40 24 be 07 01 ba 3d 08 1c 74 3d
       0.119161166 -0.16040045 0.09082227 0.059597045
0002d0 79 59 85 be 9b 92 3b be 34 00 d2 3d 9d 53 6a be
       -0.26044825 -0.18317644 0.10253945 -0.22883458
0002e0 51 81 e7 bc cf 6c 5b 3e a0 38 a2 be ac 7a 2d be
       -0.028259905 0.21428226 -0.31683826 -0.16941327
0002f0 30 30 46 3d 57 21 23 3e 2b ab 0f 3e 73 50 b2 3d
       0.0483858 0.15930687 0.14030139 0.08706751
000300 48 64 3b be a9 12 3e 3d 03 c1 2e 3e 34 72 86 bd
       -0.18299973 0.046404514 0.17065816 -0.06564751
000310 b4 6e cb bb 66 49 3d be 10 d5 ed bd e5 a7 cb bc
       -0.006208265 -0.1848503 -0.11612904 -0.024860332
000320 40 75 03 be 2c df e8 bd 1d 6b f2 bd 7d 95 78 bd
       -0.12837696 -0.11370692 -0.118368365 -0.060689438
000330 7c a5 8f 3e f8 2c 10 3e 89 3d ff bd d4 17 b2 bd
       0.28055942 0.14079654 -0.12462909 -0.08695951
000340 43 b4 c4 3d 67 41 2a 3c 8b 4a f0 bd 03 80 43 3e
       0.09604695 0.01039157 -0.11732968 0.19091801
000350 e6 df 35 3e 87 a4 06 3e 0b 0e 00 be 21 73 9d 3e
       0.17761192 0.131487 -0.12505357 0.307519
000360 91 0a 65 be c2 9b 82 3e cc 4d ff 3e 73 80 cc 3d
       -0.22367312 0.2550946 0.49864042 0.09985437
000370 b5 e3 57 3d 19 a6 aa 3d a2 0c c5 3e ad 62 45 3d
       0.052707393 0.08332462 0.384862 0.048189808
000380 66 b7 c3 bc d1 45 0a 3b b5 47 fa 3d f9 0c 45 3d
       -0.023891162 0.0021098743 0.12220708 0.048108075
000390 a1 85 0b 3e f0 b0 1b be d1 16 60 3d f3 ef 89 3e
       0.13625194 -0.15204215 0.05470926 0.2694088
0003a0 a5 51 34 3e 0c c1 c5 3d 9c c6 5e bd 81 32 20 3e
       0.1760927 0.096559614 -0.054388627 0.15644266
0003b0 2c e4 8b 3e 19 90 53 be d6 4f cb 3c 6d 3b 39 3d
       0.2732252 -0.20660438 0.024818342 0.04522269
0003c0 50 bb 54 be 78 9c 1b 3e 80 fd 83 bb f8 8d 60 be
       -0.20774579 0.15196407 -0.0040280223 -0.21929157
0003d0 bc ab 7b be 8c 7c 98 bd 70 07 bb bd a0 c0 19 bc
       -0.2457723 -0.074456304 -0.09132278 -0.009384304
0003e0 60 40 ce bd 40 45 2f 3d 60 56 19 be e2 4d 1c be
       -0.10070872 0.04279065 -0.14974356 -0.15264085
0003f0 d0 0e 0e 3e 8e 5b 19 3e b0 27 26 be e0 55 14 3e
       0.13872838 0.14976332 -0.16226077 0.14485884

decoder.decoder_fc.bias f4 [1152]
000000 d8 41 67 3e a8 0c 3d be 66 49 e1 3d f2 8e 03 be
       0.22583711 -0.18461859 0.11000328 -0.12847498
000010 1a 43 3f 3e af f7 c8 3d bd ff 21 bd ae a0 2e 3e
       0.18677941 0.09812867 -0.03955053 0.17053482
000020 13 51 a0 3d 27 89 13 be 82 62 06 3e 9d 03 47 3e
       0.07827964 -0.14407788 0.13123515 0.19434972
000030 8d e5 03 3e b4 54 0b bd aa 6d 32 be 80 f7 ca bc
       0.12880535 -0.034016326 -0.17424646 -0.02477622
000040 45 97 d3 3d 50 3e 06 3e 5a b1 ad bd ea 58 53 3c
       0.10331587 0.13109708 -0.08481093 0.012899617
000050 2d cd 21 bd 16 a1 30 3e 25 cd 90 bd 92 5c 62 3e
       -0.03950231 0.1724895 -0.07070378 0.22105625
000060 4b 00 4f bd 22 1b 1b 3e 7c c9 61 3e e0 3f 68 bc
       -0.05053739 0.15147069 0.22049516 -0.014175385
000070 dd 30 1d 3e c7 d9 32 3d 6c d8 2d 3d 06 f7 11 3e
       0.15350671 0.04366472 0.042442724 0.14254388
000080 53 ba 19 be c5 fd 89 bd 75 21 dc bd 6c 9f e3 3c
       -0.15012483 -0.06737856 -0.10748569 0.02778598
000090 34 38 74 3e d3 32 de 3d 7a 52 70 be 89 b2 63 3e
       0.23849565 0.10849538 -0.23468962 0.22236075
0000a0 4f a0 ef 3d b7 9b 31 3e aa 37 39 be f9 0e 78 be
       0.11700498 0.17344557 -0.1808764 -0.24224462
0000b0 e6 60 3c be f8 bd 6a 3e a1 21 ca bd 5a 49 58 be
       -0.18396339 0.2292403 -0.098696955 -0.21121731
0000c0 94 4a c6 3d 80 5f 86 3e a4 e5 b4 3d f9 c3 5b 3d
       0.096821934 0.26244736 0.08832863 0.05365369
0000d0 c6 93 f9 3c a2 49 4e 3e b1 af 84 bd 46 f7 17 be
       0.030465972 0.20145276 -0.06478823 -0.14840421
0000e0 97 3b a0 3d ae 96 07 be 24 01 65 be a6 97 53 be
       0.07823866 -0.13241073 -0.22363716 -0.20663318
0000f0 75 01 be 3c d6 de 81 3e 72 49 49 3e 0e 53 77 3e
       0.023194054 0.25365323 0.19656923 0.24152777
000100 50 eb dd bc a9 dc 4d 3e 5f 69 e0 bd e6 d4 80 bc
       -0.027089745 0.20103706 -0.10957598 -0.015726518
000110 a0 81 82 bd 2d 25 72 3b 89 e1 1a bd c0 20 d1 3d
       -0.0637238 0.0036948428 -0.037812743 0.10211325
000120 d0 89 58 3e 95 cf 1a 3e 0e 19 0e 3b 1d f0 70 bd
       0.21146321 0.15118249 0.0021682414 -0.05882274
000130 ca f6 1c be b2 52 79 be 3d ea 9b bc 38 1a 61 3d
       -0.15328518 -0.24347952 -0.019032592 0.054956645
000140 1b 77 64 bc 7d 10 85 3c ba 2f 64 3e ac 15 23 bd
       -0.013944413 0.016243214 0.22283831 -0.03981559
000150 30 4e 69 3d 28 ac 4e 3e e8 c5 f5 bd 18 19 35 3d
       0.05695933 0.2018286 -0.12000638 0.044213384
000160 f1 3d eb bd b9 e6 3b 3d ab 7f 99 bc b9 f4 81 3d
       -0.11486424 0.04587433 -0.018737635 0.06345505
000170 16 c1 28 bd bb 82 61 3d 41 29 1b 3e a0 92 ae 3c
       -0.041199766 0.055056315 0.15152456 0.02131015
000180 40 90 60 3c b6 5d 94 3d 67 e2 40 3d c6 d1 a6 3c
       0.013706267 0.072444364 0.047090914 0.0203637
000190 91 d0 1a 3e 57 0b cd bc 86 49 88 be 7e 69 22 be
       0.15118624 -0.025029821 -0.26618594 -0.15860555
0001a0 93 ba 75 bd 38 77 43 bd 33 23 e0 3d e6 8c 44 be
       -0.059992384 -0.047721118 0.10944214 -0.19194373
0001b0 9c 9c 85 bc 05 2e c9 bd 56 63 15 3e 39 09 65 3d
       -0.016310029 -0.09823231 0.14588675 0.055917
0001c0 e4 f3 1c be 30 bb 5b be 9b a1 ae bc 1c 20 31 be
       -0.15327412 -0.21458125 -0.021317294 -0.17297405
0001d0 a3 82 fc 3d 64 f5 13 3e 61 5a 4e bc 7c d2 8b bc
       0.123296045 0.14449078 -0.01259479 -0.01706814
0001e0 9c 8c 13 be c5 7b cd 3d ac 7a 6b 3d 80 63 c3 3d
       -0.14409107 0.10033373 0.057490036 0.095404625
0001f0 d1 93 a7 3d ed d2 79 bd 9d d1 bc bc 38 6d 41 3e
       0.081824906 -0.06099217 -0.02304917 0.1888932
000200 b6 d1 13 be 5e 06 9a 3d 0c 61 30 3d b4 3a fe 3d
       -0.14435467 0.07520746 0.0430613 0.124135405
000210 a4 ab 3a be 76 e4 6d be cf 63 85 3e ad c7 f2 bd
       -0.18229538 -0.23231682 0.2605271 -0.118544914
000220 29 84 24 bd 1a 6a 60 be b8 fd 2a be d8 10 5a 3e
       -0.0401651 -0.21915475 -0.16698349 0.21295488
000230 85 e6 97 3d 43 80 16 be ba d9 34 bd e5 bd 00 3e
       0.07417015 -0.14697365 -0.044152953 0.12572439
000240 e1 27 5a 3e 3a ee 92 3e c3 a7 22 be ad 03 5a 3e
       0.21304275 0.28697377 -0.15884309 0.21290465
000250 f6 05 55 be 90 ec ea bd f4 0b da bd e9 53 9e bc
       -0.20803055 -0.11470902 -0.10646811 -0.01932712
000260 a7 d6 d4 3d df 9f 36 3c e8 f3 f5 bd 02 48 84 3e
       0.10392504 0.011146515 -0.12009412 0.25836188
000270 64 3f 8b 3d e2 73 21 3e 2d 05 67 3e b6 d3 d2 3d
       0.067992 0.15766862 0.22560568 0.10294287
000280 9a 0c 31 be 3d 37 80 be 51 05 f4 bd 06 c7 73 3c
       -0.17289963 -0.25042143 -0.119150765 0.014878994
000290 f2 d3 08 3e ed ec 3e 3e aa 41 7a be b4 ae 63 be
       0.133621 0.18645068 -0.24439111 -0.22234613
0002a0 77 6f dc 3d 9c 48 a4 3d fe fc 80 bc e7 ce 57 3b
       0.10763448 0.08021662 -0.015745636 0.003292972
0002b0 1f 77 75 3e ea 5a 04 3e 08 2a 36 be 2a 19 51 3e
       0.23971222 0.12925306 -0.17789471 0.20419756
0002c0 f9 0e ee 3d d3 2c 5c 3e 58 61 23 be d5 b4 c5 bd
       0.116239496 0.21501474 -0.15955102 -0.096536316
0002d0 61 97 ff 3d 8d 61 3f be f0 2d f7 3b 3e 12 fe bd
       0.12480045 -0.18689556 0.007543318 -0.12405823
0002e0 d1 48 15 3d 3f e8 ab 3d f1 13 f3 bd 2b ba 67 3e
       0.036446396 0.08393907 -0.11869038 0.22629611
0002f0 80 cd 0f 3e 84 f7 48 be 10 e6 4e 3d 89 07 83 3d
       0.14043236 -0.1962567 0.050512373 0.063979216
000300 0d f6 7c 3e ca 1b 69 be 26 2f 7e bb 08 36 f1 3c
       0.24703236 -0.22764507 -0.0038785427 0.02944471
000310 23 5f 4a 3d e6 ca 22 bd f8 3f 33 3e b2 9b 44 3e
       0.049407136 -0.03974428 0.17504871 0.19200018
000320 5c 19 2c be 2a a6 54 3e b7 88 20 3d 5d 36 d4 3d
       -0.16806549 0.20766512 0.03919288 0.103619315
000330 7e 73 30 be ff 9e 00 be 0b 89 90 bd a1 8e 8b 3d
       -0.17231557 -0.12560652 -0.07057389 0.06814314
000340 fa 1a cf 3d 18 ec 70 be ee 68 0e be b0 24 9c 3b
       0.10112567 -0.23527563 -0.13907215 0.0047651157
000350 e8 4b c7 3d 9c 3a 28 be 67 d9 7f 3e 20 c8 91 3e
       0.09731275 -0.16428608 0.24985276 0.28472996
000360 6a 7d 2c be 00 b2 bb bc 8b 5e 7d bd 47 0b b8 bd
       -0.16844717 -0.022912025 -0.06185774 -0.08986526
000370 10 3e b5 3c c4 5c 2d 3e 25 10 88 be 8b 0a 02 3e
       0.02212432 0.16929919 -0.26574817 0.12699334
000380 64 cc 2b 3e 7f fa 08 be ba d8 b7 bb 2c 51 29 3c
       0.16777188 -0.13376807 -0.0056105526 0.010334294
000390 74 b0 fb 3d 03 7f 05 be 06 0f 4a be 3f f4 1b be
       0.12289515 -0.13036732 -0.19732293 -0.15229891
0003a0 5f 6c a1 bc 65 07 d5 3d c6 af 58 3e a0 f9 a2 3c
       -0.019704996 0.10401801 0.21160802 0.019894421
0003b0 de 66 46 3e ef 5b 2e 3e 37 df 5f 3e 4f ea 33 3e
       0.19375178 0.17027257 0.21862493 0.1756985
0003c0 7c 44 50 3c 66 ce 48 be c6 4a ee 3c cf ad 2b 3e
       0.01271164 -0.19609985 0.02908839 0.16765521
0003d0 7f 7a 8b 3e 40 a2 53 be 45 d8 22 be 28 ef 76 be
       0.27241895 -0.20667362 -0.15902813 -0.24114668
0003e0 a4 46 59 3e 13 0f 9f 3d d3 ca f9 3d 78 7b f9 3d
       0.21218354 0.07766547 0.12196889 0.12181753
0003f0 14 b9 7e be c8 f0 84 3e 2b 03 14 3e 45 d2 b6 bc
       -0.24875289 0.25964952 0.14454333 -0.022317061

decoder.conv_t_1.weight f4 [64, 32, 1, 3]
000000 15 1d 88 3d c3 6b 70 bc b1 68 23 bc ce 06 08 3e
       0.06646172 -0.01467413 -0.009973691 0.13283846
000010 54 57 fb bc ba 93 39 3c 92 3c 13 bb ac 62 b2 3c
       -0.03068129 0.011326725 -0.0022466523 0.021775566
000020 87 db 15 bd 09 18 18 3e dc 44 66 3d 92 d8 0a bd
       -0.03658631 0.14852919 0.056218013 -0.033897944
000030 c4 22 ab bd ef 05 65 be e5 bd d1 bc ed 35 32 3d
       -0.083562404 -0.22365545 -0.025603244 0.04350846
000040 25 28 78 bd a9 95 59 3d 59 f5 1b 3e cc c5 16 3e
       -0.06058516 0.053121243 0.15230311 0.14723891
000050 c0 a6 f0 3d 6f 3d 96 bc 81 d8 43 3d 26 56 b3 bd
       0.11750555 -0.01833984 0.047813896 -0.08756666
000060 33 0d af 3d 50 c4 6f 3c db 1b eb 3c bc 8c 16 3e
       0.085474394 0.014634207 0.028699806 0.14702123
000070 a6 0f 3a 3c ed 7c 46 3d dd 5c 23 bd e5 5e d8 bd
       0.01135627 0.048458982 -0.039883483 -0.10564975
000080 64 2c e6 3c 51 f9 e7 3c aa ba c2 3d f8 92 1b 3d
       0.028097339 0.028317126 0.095082596 0.037981957
000090 1f 9b 90 3d 16 c6 cd 3c eb 5a d2 3b 7b 8e 9c 3c
       0.07060837 0.025118869 0.0064195297 0.019110909
0000a0 3d 4f 0f 3d 4a 11 df 39 20 c2 a7 3d 7e a4 83 bd
       0.034987677 0.00042546756 0.08191323 -0.06427859
0000b0 68 94 ae bc de 9b 8e bc f3 7f 04 3d 3c c3 a0 3d
       -0.021311 -0.017408308 0.032348584 0.07849738
0000c0 96 20 03 bd 16 db a0 3b de f1 0a 3a 8f 9e 50 3d
       -0.0320135 0.0049089296 0.0005300323 0.050932463
0000d0 13 61 a6 bd 1f d1 a8 bd e9 3d 08 bd 7a 9c 06 bb
       -0.08123984 -0.08243012 -0.033262167 -0.0020540045
0000e0 a0 ee 00 3d 5d 1e 9d 3d e5 62 15 3d 15 64 91 bd
       0.03147757 0.07671807 0.036471266 -0.07099167
0000f0 08 66 78 bd a0 6d e0 bd 48 d5 2d bd b1 de d3 3d
       -0.06064418 -0.10958409 -0.04243973 0.103452094
000100 c1 89 ad 3d b8 e0 33 3e 4a e7 7d bc 3d 1c 49 bd
       0.0847354 0.17566192 -0.015497038 -0.049099196
000110 a6 55 fd bc 2b f0 d2 bd 18 ed 9a be 6c 5e 98 bd
       -0.03092463 -0.10299715 -0.30259013 -0.074398845
000120 e7 e8 5f bd fe ee b4 bd cb 39 91 3d 69 b9 fd 3d
       -0.054665472 -0.08834647 0.07091101 0.1238888
000130 48 1e 84 3d 98 b6 39 3b a4 3e a6 3d fd 21 cf bb
       0.06451088 0.0028337594 0.081174165 -0.0063211904
000140 c9 07 d1 3d 8f e1 26 bd 04 0e e4 3b ad fa d5 3d
       0.10206563 -0.040742453 0.0069596786 0.10448203
000150 76 cc df ba e4 17 0a bd ca ee 50 3a 51 2a d3 bd
       -0.0017074484 -0.03371419 0.00079701527 -0.103108056
000160 d4 68 91 3d 6c 64 80 bd 68 84 16 3e b7 0c 3e bd
       0.071000725 -0.06269154 0.14698946 -0.046398845
000170 a8 39 42 bd 47 f2 ac 3d 0b cf ec 3c 5f ff 75 3c
       -0.047418267 0.08444648 0.02890732 0.0150144985
000180 cc d4 09 3d d9 7a 5d 3d 33 b1 91 3d 0c 18 2f 3d
       0.033650205 0.054072235 0.07113876 0.042747542
000190 ed 5f f3 3d 88 be 98 3d 08 be 34 3b cf a8 aa 3d
       0.11883531 0.07458216 0.0027579088 0.08332979
0001a0 4f 96 98 bd 38 36 9a 3d 1b 8b 58 bc 3d eb 84 bb
       -0.07450544 0.07529873 -0.013216759 -0.004056363
0001b0 83 21 94 bd d4 b3 94 3d 5c 31 a4 bc 47 05 28 be
       -0.07232954 0.07260862 -0.020043068 -0.16408263
0001c0 bb 87 3f bd 4e 7a cc 3c b3 19 8d 3d 18 4b b2 3d
       -0.046760302 0.024960663 0.06889667 0.08705729
0001d0 a9 af de 3d a4 06 b7 3d 55 25 d6 3c 5b 1e b0 3d
       0.10873348 0.089368135 0.026140848 0.0859954
0001e0 79 9c 53 3d a1 ff a7 bc 50 25 50 3d a5 d4 a1 bc
       0.051662896 -0.020507636 0.050816834 -0.019754717
0001f0 01 b4 bc 3d 9b 26 58 3d ca a1 a7 3d 2d e2 f5 bc
       0.092140205 0.052771192 0.08185156 -0.030015076
000200 3c ab 83 bc 24 a4 b6 bd 5d 49 50 bd 19 3a 9d bd
       -0.016072862 -0.08918026 -0.050851215 -0.07677097
000210 7b 0c 6c 3d 3a cf fc 3c 94 56 d2 bc 52 c7 8b 3b
       0.05762909 0.030860532 -0.02567605 0.004265704
000220 40 04 52 3c 6d 87 91 3c 07 7a 1b 3d 3c d7 04 3d
       0.012818396 0.017764771 0.03795817 0.032431826
000230 7f 90 f1 bd 11 f0 3e bc 2e 53 87 bd 10 1c e6 bc
       -0.117951386 -0.011653916 -0.06607662 -0.028089553
000240 f5 1f c5 bd 7a 63 b8 3d fd b4 1d 3a 11 62 19 3a
       -0.09625236 0.09003349 0.0006016044 0.00058511
000250 4f 30 7f bd d6 81 83 3d 62 cb ba 3d b3 90 c9 3d
       -0.06230193 0.064212486 0.091208234 0.09842052
000260 3e 17 25 bd af 2f 19 be cf a4 bc 3d 5a 36 2c 3d
       -0.04030537 -0.14959596 0.09211122 0.04204402
000270 51 15 86 bc 01 28 39 be 69 6e c2 bd f4 bd 93 3d
       -0.016367586 -0.18081667 -0.09493715 0.07213965
000280 b6 ea 3a bd 0b 3a e3 3c de ea 0b bd ba fc 02 3d
       -0.045633994 0.027737638 -0.034159534 0.0319793
000290 e4 df af 3d 8d ea 64 bd 4a d9 c6 be eb 80 92 bd
       0.085876256 -0.055887748 -0.38837653 -0.071534954
0002a0 5e 0b 1f 3d e5 4b cd bd 03 f1 b9 3d 3e 68 05 3e
       0.0388292 -0.10024241 0.090791725 0.13028046
0002b0 ce ad 0b bd d8 89 32 bc 3d bd 5b 3d 4c 76 df 3c
       -0.0341013 -0.010897122 0.05364727 0.027278088
0002c0 29 ed bc 39 10 e1 d5 3c 66 11 75 3d 15 59 1e bc
       0.00036034852 0.026108295 0.059831046 -0.0096647935
0002d0 bf dd 5a bd b4 7a 9e bc 22 d8 84 bb 5d da 2a bd
       -0.05343413 -0.019345619 -0.0040540854 -0.041712154
0002e0 b6 ee a6 3d 55 97 aa 3d 51 09 23 bd 06 3b b1 3d
       0.08150999 0.083296455 -0.039803807 0.08653836
0002f0 52 9a a4 3d 98 da a1 3d c8 7b bc 3d 70 71 a5 bd
       0.08037247 0.079030216 0.09203297 -0.08078277
000300 7b 6a ee 3d 2f e1 18 3d eb 65 7a 3d 37 8c d2 bc
       0.11641403 0.037324127 0.061132353 -0.025701625
000310 3d 7d 2a 3d d7 c5 95 3d ad 68 f0 bc 23 66 1d 3d
       0.041623343 0.073131256 -0.029346788 0.038427483
000320 30 c8 91 bd 64 72 52 bd e6 bf eb 3d 96 77 6b 3d
       -0.07118261 -0.051378623 0.11511211 0.057487093
000330 c9 ea 0d bc 4b 40 84 3d e1 77 f4 3c 7c e3 f7 bc
       -0.008661934 0.064575754 0.029842319 -0.03025984
000340 e4 89 62 3d d6 7a 61 3d b2 6d 7b bd cd 46 84 3d
       0.055307284 0.055048786 -0.06138391 0.06458817
000350 2a 1c ee 3d 4d a6 d2 3c c1 fd 74 3d 03 02 86 bd
       0.116264656 0.025714064 0.05981231 -0.065433525
000360 aa 32 04 3d 6e 5f 98 3c f5 d2 dc 3c 6f e8 89 3c
       0.03227488 0.018600192 0.02695606 0.016834466
000370 28 07 96 bd 3f dc bf 3d 23 2b 1e bd 6e 2b f1 3c
       -0.07325584 0.093681805 -0.038615357 0.029439654
000380 b9 90 72 3d d4 a6 2f bd b0 e2 c9 bd 1b 9d 8c 3a
       0.05922005 -0.04288371 -0.0985769 0.0010727973
000390 e5 af 8b 3d 39 7c de bd ed 07 4d bd 8a c6 52 bd
       0.068206586 -0.10863537 -0.050056387 -0.051458873
0003a0 f2 e4 bd bd ef 1e 95 3d de 95 09 3d c0 31 8a bd
       -0.092721835 0.07281291 0.03359019 -0.0674777
0003b0 a5 5e b5 bd 50 22 c2 3d ed 48 43 bd e5 65 c3 3d
       -0.08855943 0.09479201 -0.04767697 0.09540919
0003c0 c3 6a 85 bd a8 1b ff bd c1 54 aa bd 91 2e 93 3c
       -0.06514504 -0.12456447 -0.08316947 0.01796654
0003d0 cd 2c 6b bd ee 28 20 bd 4c c3 c4 3d 05 d2 a3 3c
       -0.057415772 -0.039101534 0.096075624 0.019997606
0003e0 e5 f0 9b 3d d8 4c 5e 3d 3a fb 98 3d 9b db 0d 3e
       0.07614306 0.054272503 0.07469793 0.13853304
0003f0 e8 97 c8 3d 07 4a 74 3d cf b8 1a 3d 7f b7 17 bd
       0.09794599 0.05964091 0.037773903 -0.03704023

decoder.conv_t_1.bias f4 [32]
000000 e0 b1 dc 3d a8 9b 44 b9 58 31 97 3c df 33 c4 3c
       0.107761145 -0.00018750003 0.018456146 0.023950515
000010 34 0f fb bd 79 24 f2 3b d1 17 69 bb 68 cf c2 bc
       -0.12258759 0.007389602 -0.0035567174 -0.02378054
000020 b2 c3 d8 3d 6f 70 9f 3d 98 86 b2 3c 78 fb 95 bd
       0.10584201 0.07785117 0.021792695 -0.073233545
000030 13 8f 4e 3d 08 c7 a3 b9 e8 e1 93 3d 02 90 32 3d
       0.050429415 -0.00031238073 0.072208226 0.043594368
000040 e2 df 98 3d 4d 22 be bd 63 a4 df 3d 28 84 c8 3d
       0.07464577 -0.09283886 0.10920026 0.09790832
000050 ca 99 3c bd 69 3c 96 3b 76 78 a2 3d 31 14 42 bd
       -0.046045102 0.004584838 0.07933132 -0.047382537
000060 3d ee 8b 3d 28 e4 04 3d ca e7 95 bc 7f de 7d 3d
       0.0683255 0.03244415 -0.018299002 0.061979767
000070 58 a1 4e bd 2b 00 a4 3d 69 80 61 3c 61 21 02 bd
       -0.05044684 0.080078445 0.0137635255 -0.031770114
