clustering/clustering/encoder_weights/building1_carla/lidar_encoder_autoencoder_building1_carla.pth (torch, 116304 bytes, 14 tensors)

encoder.conv2d_1.weight f4 [16, 1, 1, 3]
0.2727598 0.25269026 0.44365484 -0.05849397 -0.22362298 0.39072585 -0.033070084 -0.44839495
-0.2285892 0.35437074 0.15516213 0.21330628 0.32143113 -0.25563306 -0.14013563 -0.23185164
0.20597422 0.2554331 -0.31766814 -0.14887182 0.46866795 -0.5822203 0.4747819 -0.20194437
-0.33716285 0.10867976 -0.43172628 -0.40051645 0.39556167 0.5196835 -0.08246597 -0.016427685
-0.24706148 0.3886626 0.13074708 0.23073566 -0.41304195 -0.39337423 -0.1013124 0.14937772
-0.010503698 0.2596302 0.5835831 0.17876251 -0.2971721 0.040118273 -0.20850208 0.80367416
00000000: 2ca7 8b3e 9e60 813e ba26 e33e 6097 6fbd
00000010: 6cfd 64be 380d c83e 7f74 07bd 0694 e5be
00000020: 4a13 6abe 1570 b53e d2e2 1e3e f66c 5a3e
00000030: 9f92 a43e 56e2 82be b77f 0fbe 846a 6dbe
00000040: e8ea 523e 21c8 823e 66a5 a2be db71 18be
00000050: 3ff5 ef3e 640c 15bf 9d16 f33e 81ca 4ebe
00000060: 9ca0 acbe 7e93 de3d 3a0b ddbe 7e10 cdbe
00000070: 0f87 ca3e fa09 053f ebe3 a8bd 5a93 86bc
00000080: affd 7cbe c9fe c63e 90e2 053e f845 6c3e
00000090: 3c7a d3be 5968 c9be e07c cfbd 79f6 183e
000000a0: b417 2cbc 40ee 843e b465 153f 850d 373e
000000b0: f126 98be 0f53 243d 9281 55be 97bd 4d3f

encoder.conv2d_1.bias f4 [16]
0.5825895 -0.03104713 0.6334232 -0.05379378 0.054803822 0.20911992 0.26297134 0.28454497
-0.20426793 -0.33468202 0.30045915 0.58501434 -0.26255047 -0.15862077 0.11837245 -0.1541608
00000000: 9624 153f 8d56 febc 0628 223f de56 5cbd
00000010: f979 603d 8823 563e 2ea4 863e e1af 913e
00000020: 9d2b 51be 715b abbe c8d5 993e 80c3 153f
00000030: 046d 86be 7c6d 22be 416d f23d 54dc 1dbe

encoder.conv2d_2.weight f4 [32, 16, 1, 3]
0.038877107 0.007664306 -0.1312938 0.031850796 0.12260586 0.04194349 0.053795036 -0.0639371
0.09645237 0.05116351 -0.14217025 0.058941893 -0.07923324 0.056304827 -0.0052723614 -0.05917542
0.08348454 -0.026405716 0.10097599 -0.14041369 0.009051587 -0.08847684 0.073025644 0.023055756
0.110838674 -0.024429668 -0.12320476 0.0059133847 0.009032179 0.09761667 0.030823661 0.013577501
0.087560646 -0.12027742 -0.092019126 0.10433767 0.022072325 0.14249726 0.001766424 0.060219657
-0.10476625 0.104710124 0.026582789 0.06835647 -0.09253047 0.11599797 -0.045279324 -0.11750508
0.12782134 -0.07807115 0.14949723 1.2536412 -0.7953343 -0.9885618 0.3097297 0.10512925
0.190169 -0.105852924 -0.12913673 0.035647903 0.11226408 -0.5252096 -0.4424403 0.02648493
0.20102127 0.13712297 0.40601116 0.27978763 -0.048624698 -0.16864915 0.2360967 0.0154345855
0.029693926 -0.14212403 0.123468444 -0.07901443 0.30294973 -0.5888738 0.23919566 0.11946129
0.24121042 -0.0035293645 -0.057091758 0.08643275 0.05228652 0.017882934 -0.09914002 -0.069805875
-0.082737304 -0.3096906 -0.19053446 -0.24015221 0.25611967 0.08716149 0.15020494 -0.3582755
0.097955465 -0.08441671 -0.06889408 0.09266375 0.07696449 -0.046675123 -0.1350391 -0.12699845
0.07360894 -0.02051286 -0.016989285 0.067821525 0.07523606 -0.129549 0.10451421 0.0557832
-0.103944525 -0.07171302 0.014826805 -0.12863989 -0.12364932 0.020267738 0.08718988 0.033438858
-0.120906934 -0.09895409 0.069474556 -0.12405328 0.11541056 -0.0051647183 0.073239945 0.039312582
0.015496821 0.0801156 -0.041023567 -0.14088082 0.059154462 0.034684155 -0.120757 -0.08601579
0.0738829 -0.08208112 -0.037541755 -0.07192454 0.07031545 -0.122550815 -0.046846673 -0.005072888
-0.060547464 -0.062172934 0.13592821 -0.13490431 -0.04797156 0.11468666 -0.107607014 -0.0613521
-0.1361396 0.059494637 0.14450647 0.106665954 -0.21249773 0.04832403 -0.2219508 -0.03556825
0.16219783 0.13018268 0.012457189 -0.008130977 -0.11207027 -0.17727953 0.12160358 -0.07366056
-0.047888156 -0.13011752 -0.062382378 -0.09526447 0.0096596265 0.16604775 -0.078726016 0.056651227
0.057073135 0.08583504 0.08580424 0.009616438 -0.027587399 -0.07822866 0.010516177 0.029959701
-0.10726602 0.046465654 -0.08452154 0.0976549 0.12922479 0.025869997 0.17382066 0.023590814
0.14281109 0.061689757 -0.03147968 0.18563747 -0.19443582 -0.45951688 0.31111825 0.3051759
0.33381087 0.0150340125 -0.026407827 -0.12530673 0.06047748 -0.08790141 0.28269157 0.037665017
0.117164634 -0.02360547 -0.06420113 0.092417754 -0.10365027 0.067361034 0.22119017 0.069973506
-0.03853126 0.022140892 -0.13912407 0.28025472 0.16022353 -0.22159377 0.26377496 0.11873741
0.3736104 -0.06474315 -0.101211265 0.037570104 0.077945225 0.12097784 0.012710128 0.0065347403
0.0964435 0.032946512 -0.1142691 -0.0010776798 0.12736292 -0.033699878 0.035823204 -0.48018286
0.14152189 -0.023546886 0.026106194 0.16419327 0.06855571 0.17531888 0.2300526 0.10072352
-0.01239546 -0.12141041 -0.017244454 0.09326762 -0.14698827 -0.17361644 -0.19193389 0.08153134
00000000: 9a3d 1f3d dc24 fb3b e271 06be fb75 023d
00000010: c818 fb3d f0cc 2b3d 2f58 5c3d 74f1 82bd
00000020: d288 c53d d490 513d 1495 11be 0e6d 713d
00000030: 0945 a2bd e49f 663d c6c3 acbb ed61 72bd
00000040: f1f9 aa3d cd50 d8bc 80cc ce3d 9bc8 0fbe
00000050: 1c4d 143c 5833 b5bd 788e 953d 6ddf bc3c
00000060: 63ff e23d ba20 c8bc c752 fcbd 11c5 c13b
00000070: b4fb 133c 40eb c73d e781 fc3c 2b74 5e3c
00000080: ff52 b33d 0254 f6bd 8674 bcbd fdae d53d
00000090: 05d1 b43c cdea 113e 5b87 e73a e3a8 763d
000000a0: b08f d6bd 4372 d63d 26c4 d93c 7afe 8b3d
000000b0: 9d80 bdbd 5890 ed3d d076 39bd 81a6 f0bd
000000c0: 99e3 023e c4e3 9fbd cd15 193e 5177 a03f
000000d0: 079b 4bbf 6312 7dbf e494 9e3e 014e d73d
000000e0: aabb 423e 6bc9 d8bd 6b3c 04be 8903 123d
000000f0: b6ea e53d 2374 06bf 8987 e2be edf6 d83c
00000100: 85d8 4d3e f769 0c3e b2e0 cf3e 5340 8f3e
00000110: b12a 47bd 5db2 2cbe 55c3 713e 58e1 7c3c
00000120: ad40 f33c f688 11be 06dd fc3d 51d2 a1bd
00000130: 3a1c 9b3e 6fc0 16bf b5ef 743e 1fa8 f43d
00000140: ddff 763e e94c 67bb 0cd9 69bd a703 b13d
00000150: 642a 563d 3b7f 923c ec09 cbbd 62f6 8ebd
00000160: 2d72 a9bd c48f 9ebe 771b 43be 76ea 75be
00000170: 1e22 833e b981 b23d 53cf 193e e36f b7be
00000180: e09c c83d abe2 acbd 5718 8dbd 7ec6 bd3d
00000190: 8f9f 9d3d 6a2e 3fbd b147 0abe e20b 02be
000001a0: 49c0 963d 960a a8bc 1d2d 8bbc 03e6 8a3d
000001b0: 5d15 9a3d 7ea8 04be 8c0b d63d ed7c 643d
000001c0: dee0 d4bd 47de 92bd 21ec 723c 2dba 03be
000001d0: db3b fdbd 8708 a63c 9c90 b23d 2ff7 083d
000001e0: 0e9e f7bd 71a8 cabd ad48 8e3d a50f febd
000001f0: 5f5c ec3d cc3c a9bb d3fe 953d 3b06 213d
00000200: 61e6 7d3c a613 a43d 5408 28bd 1043 10be
00000210: f34b 723d f910 0e3d 724f f7bd 0c29 b0bd
00000220: eb4f 973d 251a a8bd 62c5 19bd 2c4d 93bd
00000230: 8c01 903d ecfb fabd 4ce2 3fbd 783a a6bb
00000240: 9e00 78bd 0ca9 7ebd c430 0b3e 5b24 0abe
00000250: d47d 44bd d7e0 ea3d 1161 dcbd 574c 7bbd
00000260: 2e68 0bbe a6b0 733d 81f9 133e ae73 da3d
00000270: 0199 59be 6bef 453d 1247 63be 03b0 11bd
00000280: 3017 263e 9c4e 053e 3d19 4c3c ca37 05bc
00000290: 1985 e5bd c488 35be 4c0b f93d 59db 96bd
000002a0: 5f26 44bd 873d 05be aa84 7fbd 051a c3bd
000002b0: 6943 1e3c 6c08 2a3e 1b3b a1bd 1e0b 683d
000002c0: 85c5 693d 48ca af3d 22ba af3d 448e 1d3c
000002d0: f8fe e1bc 5936 a0bd 0b4c 2c3c 0c6e f53c
000002e0: 49ae dbbd c552 3e3d a119 adbd 4bff c73d
000002f0: 8153 043e 51ed d33c 0bfe 313e 8641 c13c
00000300: 123d 123e 66ae 7c3d d6f0 00bd c017 3e3e
00000310: 2f1a 47be cc45 ebbe e44a 9f3e 0440 9c3e
00000320: 42e9 aa3e 3851 763c 3a55 d8bc 6850 00be
00000330: 3cb7 773d a805 b4bd f3bc 903e a246 1a3d
00000340: 03f4 ef3d 4260 c1bc e27b 83bd 8545 bd3d
00000350: 9846 d4bd 95f4 893d ad7f 623e 454e 8f3d
00000360: f4d2 1dbd d160 b53c 8a76 0ebe 8c7d 8f3e
00000370: a311 243e 7ae9 62be 830d 873e 992c f33d
00000380: dd49 bf3e 0e98 84bd da47 cfbd 1ce3 193d
00000390: bfa1 9f3d 3bc3 f73d 243e 503c 6021 d63b
000003a0: 2b84 c53d ecf2 063d eb05 eabd ef40 8dba
000003b0: 6d6b 023e e208 0abd 5abb 123d 87da f5be
000003c0: 1deb 103e 66e5 c0bc a8dc d53c 4822 283e
000003d0: f066 8c3d cb86 333e e992 6b3e 2248 ce3d
000003e0: 5416 4bbc 05a6 f8bd 3e44 8dbc 1803 bf3d
000003f0: 1884 16be 82c8 31be 518a 44be e7f9 a63d

encoder.conv2d_2.bias f4 [32]
0.036798354 -0.049670584 0.007630616 0.11685483 0.12513712 0.041196454 0.048744094 -0.016348107
-0.14035511 0.086425886 0.034209143 -0.024185846 0.07877675 0.125813 0.06298271 -0.08919379
0.08335158 -0.13803363 0.06685437 0.07158291 -0.062405307 -0.0025884244 -0.019403908 -0.025653552
-0.09864774 -0.0790539 0.071202144 -0.10213691 -0.033487808 -0.019002616 0.06258524 -0.06510052
00000000: dfb9 163d 6273 4bbd 3f0a fa3b 9651 ef3d
00000010: f223 003e 9dbd 283d e3a7 473d 77ec 85bc
00000020: 40b9 0fbe 0e00 b13d e31e 0c3d 6521 c6bc
00000030: b455 a13d 20d5 003e 14fd 803d 3cab b6bd
00000040: 3cb4 aa3d b058 0dbe f2ea 883d 109a 923d
00000050: b59c 7fbd 8ea2 29bb f2f4 9ebc 6627 d2bc
00000060: d407 cabd 03e7 a1bd 6ed2 913d 282d d1bd
00000070: 832a 09bd 60ab 9bbc b12c 803d 6c53 85bd

encoder.conv2d_3.weight f4 [64, 32, 1, 3]
0.03595601 -0.099686824 0.050988212 0.07522334 -0.09753984 -0.030728253 -0.010338134 0.059077784
0.067333035 0.012155469 0.022912053 -0.079015546 0.07094973 -0.036390558 0.075517826 -0.039051317
-0.08140621 -0.08939283 -0.046968292 -0.015452646 -0.0038135455 0.07317412 0.010295648 0.0768955
-0.06130171 -0.01604839 -0.094894655 0.027246445 0.046095256 -0.052597728 -0.015673338 -0.066920385
-0.03310392 0.038039688 -0.07283001 -0.08869708 -0.017773015 -0.09733521 0.07053276 0.042171966
0.08914834 -0.082112394 -0.07957126 0.05610866 0.051366817 -0.045087107 -0.05084691 -0.039412294
0.04493995 -0.05137981 0.08662075 -0.07489934 -0.007863405 -0.045722283 -0.051604956 0.04542899
0.09793447 -0.098361485 -0.097152255 -0.028605338 -0.061222903 -0.06448157 -0.088969186 0.075613454
0.04651412 -0.031881295 -0.036297206 -0.09458108 0.08565797 0.062225394 -0.056103926 -0.09690267
0.09109849 -0.08047603 0.09011838 -0.09245434 -0.09146436 0.044530127 -0.08205437 -0.009416539
-0.0047242753 0.097151674 -0.008536884 0.06250415 -0.07990967 0.058411106 -0.0984307 0.019749139
-0.08636465 -0.09212304 -0.0048616743 -0.026098026 0.06556075 -0.05366283 -0.059489142 0.066021115
-0.0982607 0.015992679 -0.04823018 -0.6154907 0.2880476 -0.08921825 0.097479925 0.058393016
-0.06644687 0.06211276 -0.06302082 -0.07593173 -0.10758051 0.08967829 -0.096125916 0.02257828
-0.0025936558 0.046596333 0.085529394 -0.08864772 0.023152718 -0.080139145 0.05795534 -0.081784405
0.03541762 0.0874722 -0.062379513 0.11256381 0.026261229 0.06520693 -0.06938209 -0.066482805
0.08380552 0.07384831 -0.10756043 -0.06555222 0.06727715 0.079000555 0.09600968 0.08104176
-0.025093693 -0.18950897 0.053359948 0.06501114 0.10152395 0.080251165 -0.074689716 -0.058737177
-0.2744685 -0.18534896 0.088438004 -0.09711581 -0.0076124906 0.031980965 0.009922192 0.02264603
-0.08311758 -0.06268774 0.08531791 -0.057209726 0.056924947 0.0395693 -0.12760238 0.056664035
-0.10084428 0.04328514 0.08194027 0.10192747 0.087817915 0.08353996 -0.074015506 0.103675
0.024319733 0.052700575 0.081741706 -0.04293122 0.061723612 -0.06378256 -0.05560818 -0.05882378
0.046493765 0.05030705 0.036981862 -0.103444435 -0.042870075 0.019061841 0.030620422 0.04354495
-0.021507854 -0.061593033 -0.03438356 0.066897154 -0.0674874 0.007247817 0.059223287 -0.03031283
-0.09240386 -0.10048405 -0.020784905 0.053197365 -0.032191705 -0.05662037 0.045736887 0.061398398
-0.04000778 -0.06337167 0.06662125 -0.063985184 -0.005906956 0.07867174 -0.05656562 -0.0003733975
0.088669226 0.006603855 -0.07141356 0.037802413 -0.074783884 0.026960015 -0.041552108 0.047388934
0.050230686 -0.091491215 0.098401405 0.077965006 -0.0318246 0.005987731 0.024206985 -0.09055788
-0.060499456 0.07588521 0.005355693 -0.06543635 -0.027445324 -0.0027303763 -0.048428085 0.07344662
-0.09101552 -0.08863204 0.015492613 -0.055267267 0.030086165 0.0146175325 0.006644127 -0.014285185
-0.022531271 0.0069652684 0.012348434 -0.098446876 -0.060030453 0.012083637 -0.082830146 0.09978139
0.08770085 0.06447029 0.0198929 0.0036879724 -0.09013134 -0.07600528 -0.0497537 0.03939408
00000000: 9c46 133d 9b28 ccbd 04d9 503d b20e 9a3d
00000010: f8c2 c7bd d1b9 fbbc 4761 29bc 8cfb 713d
00000020: e7e5 893d bb27 473c 0fb2 bb3c e7d2 a1bd
00000030: 184e 913d 440e 15bd 17a9 9a3d 46f4 1fbd
00000040: 4db8 a6bd 9713 b7bd d361 40bd 182d 7dbc
00000050: adec 79bb 50dc 953d 14af 283c 637b 9d3d
00000060: 8017 7bbd ea77 83bc 2158 c2bd f033 df3c
00000070: 61ce 3c3d b770 57bd 5f65 80bc 8e0d 89bd
00000080: fa97 07bd 81cf 1b3d e627 95bd d1a6 b5bd
00000090: b798 91bc af57 c7bd 7b73 903d 83bc 2c3d
000000a0: 6893 b63d 8b2a a8bd 42f6 a2bd 32d2 653d
000000b0: 0366 523d 42ad 38bd d944 50bd c96e 21bd
000000c0: f412 383d a373 52bd 3866 b13d d364 99bd
000000d0: 83d5 00bc 4a47 3bbd b85f 53bd c013 3a3d
000000e0: de91 c83d bf71 c9bd c3f7 c6bd be55 eabc
000000f0: dec4 7abd ea0e 84bd 7a35 b6bd 3adb 9a3d
00000100: 9785 3e3d f695 02bd 61ac 14bd bab3 c1bd
00000110: 726d af3d 0ee0 7e3d 3bcd 65bd e874 c6bd
00000120: d891 ba3d 9ed0 a4bd fc8f b83d b358 bdbd
00000130: ab51 bbbd 3965 363d 1f0c a8bd d447 1abc
00000140: 18ce 9abb 75f7 c63d 49de 0bbc 2d02 803d
00000150: aea7 a3bd 7c40 6f3d 0996 c9bd f2c8 a13c
00000160: f3df b0bd 01ab bcbd ae4e 9fbb 87cb d5bc
00000170: b744 863d 8ecd 5bbd e3aa 73bd 1436 873d
00000180: e83c c9bd 1403 833c 028d 45bd cc90 1dbf
00000190: fa7a 933e 0fb8 b6bd 8ea3 c73d 842d 6f3d
000001a0: 4c15 88bd f369 7e3d 0f11 81bd 1882 9bbd
000001b0: 2c53 dcbd 40a9 b73d aadd c4bd 16f6 b83c
000001c0: 53fa 29bb ccdb 3e3d 092a af3d f08c b5bd
000001d0: c5aa bd3c fe1f a4bd 9462 6d3d 957e a7bd
000001e0: 1112 113d a024 b33d a981 7fbd db87 e63d
000001f0: ca21 d73c 368b 853d 3218 8ebd 2328 88bd
00000200: 3aa2 ab3d c83d 973d a548 dcbd 3e40 86bd
00000210: 9ac8 893d 0bcb a13d b9a0 c43d 39f9 a53d
00000220: 4a91 cdbc a40e 42be f68f 5a3d 9024 853d
00000230: caeb cf3d b95a a43d ecf6 98bd 6596 70bd
00000240: 2387 8cbe 1ecc 3dbe fc1e b53d a7e4 c6bd
00000250: 3372 f9bb 79fe 023d b190 223c 2b84 b93c
00000260: 8d39 aabd 6e62 80bd 28bb ae3d bf54 6abd
00000270: 222a 693d 6b13 223d 33aa 02be 8c18 683d
00000280: 7287 cebd c24b 313d 4dd0 a73d 59bf d03d
00000290: e1d9 b33d 0017 ab3d 7195 97bd 8f53 d43d
000002a0: 2d3a c73c 8fdc 573d 3268 a73d a6d8 2fbd
000002b0: e6d1 7c3d 6ea0 82bd 67c5 63bd 34f1 70bd
000002c0: 3f70 3e3d c40e 4e3d 4b7a 173d adda d3bd
000002d0: 8898 2fbd 9427 9c3c aed7 fa3c 315c 323d
000002e0: 3d31 b0bc fa48 7cbd c7d5 0cbd 6001 893d
000002f0: d536 8abd 187f ed3b 1e94 723d 9d52 f8bc
00000300: 3c3e bdbd 95ca cdbd 1b45 aabc 7be5 593d
00000310: 73db 03bd c3ea 67bd 9a56 3b3d e37c 7b3d
00000320: 33df 23bd 02c9 81bd b970 883d aa0a 83bd
00000330: 238f c1bb a61e a13d 5ab1 67bd 90c4 c3b9
00000340: 3698 b53d 2765 d83b 4641 92bd b4d6 1a3d
00000350: 4b28 99bd 40db dc3c 8b32 2abd e61a 423d
00000360: b1be 4d3d bf5f bbbd ad86 c93d 1eac 9f3d
00000370: 835a 02bd ba34 c43b ba4d c63c 6976 b9bd
00000380: 47ce 77bd b469 9b3d cf7e af3b 7e03 86bd
00000390: 04d5 e0bc 1df0 32bb 875c 46bd 2e6b 963d
000003a0: 5866 babd b784 b5bd bbd4 7d3c ee5f 62bd
000003b0: 4377 f63c 607e 6f3c fab6 d93b 690c 6abc
000003c0: 8093 b8bc e83c e43b 1651 4a3c 849e c9bd
000003d0: 7ee2 75bd 72fa 453c daa2 a9bd 2f5a cc3d
000003e0: 819c b33d 0009 843d 6ff6 a23c e9b1 713b
000003f0: c896 b8bd a8a8 9bbd 89ca 4bbd b05b 213d

encoder.conv2d_3.bias f4 [64]
-0.08104284 0.0509497 -0.08239821 0.17520382 -0.09624623 -0.011958564 0.11282774 0.050479233
0.054649778 0.042372923 0.090954416 -0.0007285067 -0.09148076 -0.07704039 0.0060356776 0.025782676
0.071193196 -0.04949001 0.07355311 0.02615702 0.09720625 -0.0056896443 -0.058140617 -0.01988592
0.2078669 0.1092995 -0.10810712 0.014988086 -0.07726707 -0.07876167 -0.00051042816 0.048651032
-0.10462822 0.10646325 -0.007891957 0.100514054 -0.037396923 0.033077244 0.041709494 0.088620864
0.0034203709 -0.07575706 0.09658598 -0.12553188 -0.0095807845 0.08586236 0.042755846 -0.015638264
-0.09649864 -0.08182831 0.120519154 -0.091765165 -0.022301931 0.053287283 0.06016555 -0.06845382
-0.046760667 0.058359854 -0.08908619 -0.00800992 -0.014311828 0.024182167 0.08172899 0.05876852
00000000: caf9 a5bd a2b0 503d 65c0 a8bd a168 333e
00000010: be1c c5bd daed 43bc 3b12 e73d 50c3 4e3d
00000020: 72d8 5f3d 3b8f 2d3d 4f46 ba3d 42f9 3eba
00000030: 445a bbbd 5ac7 9dbd efc6 c53b 3136 d33c
00000040: bdcd 913d 09b6 4abd 03a3 963d 3f47 d63c
00000050: 1214 c73d 3270 babb db24 6ebd cce7 a2bc
00000060: 10db 543e 6bd8 df3d 4467 ddbd 9790 753c
00000070: 333e 9ebd cc4d a1bd 41ce 05ba 4e46 473d
00000080: 5247 d6bd 6809 da3d 444d 01bc 50da cd3d
00000090: 842d 19bd 017c 073d 93d7 2a3d db7e b53d
000000a0: 4d28 603b 8426 9bbd dfce c53d 6e8b 00be
000000b0: b9f8 1cbc 9bd8 af3d c120 2f3d d11b 80bc
000000c0: 14a1 c5bd 9a95 a7bd bfd2 f63d 60ef bbbd
000000d0: 8ab2 b6bc c443 5a3d 2770 763d 8431 8cbd
000000e0: 1d88 3fbd be0a 6f3d d272 b6bd 0a3c 03bc
000000f0: 287c 6abc ae19 c63c 8761 a73d 42b7 703d

encoder.fc.weight f4 [16, 64]
0.08297089 -0.031843085 -0.04586351 -0.022340428 0.06334959 0.041323394 0.26105532 0.0043408624
0.104564235 -0.0071865027 0.051283155 -0.3028476 0.095658965 0.043976825 -0.08653472 0.08520527
0.33087116 -0.07328959 -0.033934638 0.010204795 0.03844719 -0.05037439 0.0007797648 -0.0056171557
-0.40462318 0.058350142 -0.05969024 -0.044952393 -0.011386213 -0.028378235 -0.10596346 -0.053781737
0.10565057 -0.009543682 0.057695314 -0.33178794 -0.025014754 -0.10093098 0.3466415 0.056167413
0.098524146 -0.035348564 -0.1208196 0.09280042 0.0048858062 0.04631112 0.072656155 0.013411395
0.064829096 0.00036698784 0.16545977 -0.022773996 0.030235793 -0.017505335 -0.03902267 0.031129882
0.01456143 0.09363742 0.0002784431 0.067664996 -0.09858977 0.1237069 0.08118649 -0.22259457
-0.011290699 0.04056277 0.09357327 0.3004943 -0.0874829 -0.01797619 -0.41649628 -0.013510373
0.035046294 -0.055144683 0.11403632 0.24084385 -0.06973318 -0.050631743 -0.028734103 0.08375625
-0.009203377 0.050300583 3.70999e-05 -0.015327216 0.007363192 0.08839073 -0.11968282 0.07968677
0.05651879 0.06663608 0.06031833 0.103535645 -0.056052536 -0.091166444 0.066287346 -0.043443315
-0.04383477 -0.024102584 0.111625895 0.35809538 0.00485089 0.09010124 -0.27685213 -0.09673379
-0.12596548 -0.09142578 0.07959345 0.087919034 -0.112840064 0.07201796 0.08693662 0.0008957289
0.10471816 0.06226451 -0.036160592 0.08974831 0.019055447 0.09549293 0.07847389 0.0026552677
0.055893466 0.13260761 0.09457159 -0.0015145049 0.034482986 -0.0992147 -0.00023712085 -0.034074176
-0.06491728 0.11207088 0.046701506 0.11133804 -0.09568156 -0.08042583 -0.2093648 -0.13364436
0.08626192 -0.008168262 0.09619071 0.24365559 0.09550746 -0.038501833 -0.09885009 -0.08061957
-0.049062822 0.070169866 -0.0709795 -0.015206691 -0.15157469 -0.11827828 -0.055676006 0.049581036
0.25413707 -0.09915278 0.06571858 0.04563266 0.074746974 0.11319472 0.013184493 0.04472128
-0.08200509 -0.007922645 0.00308928 0.18972142 -0.077683344 0.016379924 -0.2618032 -0.059774593
-0.04724897 0.06666082 -0.04025091 -0.06332144 -0.00752262 -0.049120516 -0.075534225 -0.11814504
0.06416479 -0.08636835 -0.118394904 -0.09867053 -0.045718744 -0.11675373 -0.05324337 0.0137311965
-0.022625819 -0.13602437 -0.032939464 0.095015615 0.019653525 -0.1018893 -0.11870367 -0.025354156
-0.028332978 0.09756459 0.056755006 -0.0017663067 0.11638743 -0.017097564 0.06461127 -0.15859383
-0.030740015 -0.090284824 -0.03596116 -0.042555775 0.00046803057 -0.04869622 -0.06860673 -0.10864964
-0.08853924 -0.0708919 -0.13155855 -0.14664905 -0.030931432 0.0052621914 0.11766553 0.026367215
0.21522652 0.064163364 0.088544816 -0.06927093 0.028722007 -0.023693845 -0.06588236 -0.11067278
0.046901338 -0.09870582 0.07813234 0.1861051 0.058851175 0.024531696 -0.27136493 -0.097078204
-0.11370126 0.03251441 0.050154015 0.10220824 -0.08803672 -0.02640599 -0.12349805 -0.12907314
0.028400555 0.0037691877 -0.008714828 0.118826315 -0.056341656 -0.027240323 0.07543883 0.1152551
0.11383122 -0.11096011 0.103417814 -0.10924419 0.10350771 -8.228072e-05 0.011015747 -0.11090149
00000000: a4ec a93d e56d 02bd 60db 3bbd 4603 b7bc
00000010: 6ebd 813d b842 293d 0ba9 853e cb3d 8e3b
00000020: c625 d63d c17c ebbb 490e 523d d70e 9bbe
00000030: d9e8 c33d 0b21 343d 1e39 b1bd 1a80 ae3d
00000040: f267 a93e da18 96bd 0cff 0abd 0332 273c
00000050: cd7a 1d3d 6055 4ebd 2169 4c3a 1e10 b8bb
00000060: c52a cfbe 8f00 6f3d c17d 74bd 0020 38bd
00000070: 3d8d 3abc 7979 e8bc 5f03 d9bd 3d4a 5cbd
00000080: 535f d83d 1b5d 1cbc ec51 6c3d 1ce0 a9be
00000090: beeb ccbc e7b4 cebd ff7a b13e cd0f 663d
000000a0: 07c7 c93d a8c9 10bd 4470 f7bd 260e be3d
000000b0: 1d19 a03b bbb0 3d3d c0cc 943d 78bb 5b3c
000000c0: 1ec5 843d 4668 c039 496e 293e 8890 babc
000000d0: 0eb1 f73c 5967 8fbc 3cd6 1fbd 1804 ff3c
000000e0: 1093 6e3c fac4 bf3d 00fc 9139 f293 8a3d
000000f0: 6fe9 c9bd 0b5a fd3d 1a45 a63d d5ef 63be
00000100: a0fc 38bc 2625 263d 58a3 bf3d 64da 993e
00000110: 3c2a b3bd ce42 93bc 003f d5be 9d5a 5dbc
00000120: b48c 0f3d 64df 61bd e08b e93d c59f 763e
00000130: 45d0 8ebd 3b63 4fbd c863 ebbc 6688 ab3d
00000140: c3c9 16bc fc07 4e3d b79b 1b38 011f 7bbc
00000150: ee46 f13b 3306 b53d 441c f5bd d132 a33d
00000160: 3f80 673d 7f78 883d 5a10 773d 7f0a d43d
00000170: 5897 65bd 79b5 babd a9c1 873d 9ef1 31bd
00000180: 168c 33bd c872 c5bc 1e9c e43d 4758 b73e
00000190: 37f4 9e3b 0087 b83d 90bf 8dbe 5e1c c6bd
000001a0: 18fd 00be 703d bbbd e401 a33d e50e b43d
000001b0: b118 e7bd 277e 933d d40b b23d 59cf 6a3a
000001c0: 7a76 d63d 1209 7f3d 211d 14bd f6cd b73d
000001d0: 2b1a 9c3c cc91 c33d ebb6 a03d 0004 2e3b
000001e0: 8cf0 643d 4aca 073e c0ae c13d 5a82 c6ba
000001f0: 083e 0d3d 1431 cbbd a5a3 78b9 5d91 0bbd
00000200: 5af3 84bd 6b85 e53d 144a 3f3d 3305 e43d
00000210: b2f4 c3bd 4cb6 a4bd ba63 56be 11da 08be
00000220: 17aa b03d 2dd4 05bc a3ff c43d da80 793e
00000230: 6a99 c33d 19b4 1dbd ea71 cabd e01b a5bd
00000240: 19f6 48bd 38b5 8f3d b35d 91bd 7c25 79bc
00000250: 6536 1bbe e23b f2bd 860c 64bd 7c15 4b3d
00000260: 411e 823e 9d10 cbbd 7697 863d 50e9 3a3d
00000270: f114 993d a2d2 e73d c603 583c a92d 373d
00000280: 49f2 a7bd fbcd 01bc 8575 4a3b 5546 423e
00000290: 7218 9fbd 312f 863c 120b 86be 34d6 74bd
000002a0: 2388 41bd 7885 883d 23de 24bd acae 81bd
000002b0: 4f80 f6bb 9832 49bd b0b1 9abd 07f6 f1bd
000002c0: d468 833d e4e1 b0bd 0779 f2bd c613 cabd
000002d0: 9443 3bbd 941c efbd b815 5abd d0f8 603c
000002e0: c859 b9bc f949 0bbe 88eb 06bd 8c97 c23d
000002f0: 6e00 a13c 56ab d0bd e91a f3bd 85b3 cfbc
00000300: 901a e8bc f2cf c73d f077 683d 6b83 e7ba
00000310: 885c ee3d 3110 8cbc ea52 843d 6c66 22be
00000320: 7cd2 fbbc 40e7 b8bd 024c 13bd f74e 2ebd
00000330: 0062 f539 b075 47bd af81 8cbd b483 debd
00000340: 1054 b5bd c62f 91bd 49b7 06be 2b2b 16be
00000350: ea63 fdbc 766e ac3b a0fa f03d 0f00 d83c
00000360: 5764 5c3e 1568 833d fc56 b53d ebdd 8dbd
00000370: 6a4a eb3c 9819 c2bc 55ed 86bd 69a8 e2bd
00000380: 9e1b 403d 4726 cabd d903 a03d 5692 3e3e
00000390: ee0d 713d b2f6 c83c 58f0 8abe f0d0 c6bd
000003a0: 35dc e8bd d42d 053d 4c6e 4d3d 8e52 d13d
000003b0: 994c b4bd 6051 d8bc 8cec fcbd c02b 04be
000003c0: 48a8 e83c 7a04 773b a3c8 0ebc 365b f33d
000003d0: 82c6 66bd 1927 dfbc ac7f 9a3d de0a ec3d
000003e0: 5820 e93d 0e3f e3bd b8cc d33d 6bbb dfbd
000003f0: dafb d33d 208e acb8 647b 343c 5220 e3bd

encoder.fc.bias f4 [16]
0.02713615 0.06360369 -0.06626497 -0.10364811 -0.025943255 0.09947912 0.02802356 0.031858817
0.14047864 0.048106696 -0.0024362558 -0.10234984 0.10095562 0.08051199 0.077491626 0.05694591
00000000: a24c de3c a742 823d eeb5 87bd 7645 d4bd
00000010: f386 d4bc b5bb cb3d aa91 e53c 647e 023d
00000020: a2d9 0f3e 870b 453d 97a9 1fbb cb9c d1bd
00000030: d2c1 ce3d 78e3 a43d eeb3 9e3d 1d40 693d

decoder.decoder_fc1.weight f4 [64, 16]
-0.13794734 -0.20099916 0.013962518 -0.067535475 -0.16765696 0.18710516 0.0060552172 0.14689234
0.051431503 -0.019391987 -0.08430231 0.009383361 -0.09212735 -0.20742087 -0.104962416 -0.18367054
-0.26516676 0.03681274 0.21935835 0.090713896 -0.0413149 -0.4321995 -0.22482628 -0.063054815
-0.28604928 0.011304452 0.6628 -0.033761848 -0.26669362 -0.15297538 -0.086913705 0.13120033
0.08897066 0.094670415 0.16682628 0.05331087 0.0046324134 -0.046785176 0.08773261 0.0794937
0.15312245 0.026076883 -0.045511752 0.23849967 0.24601296 0.048028737 -0.18020758 0.14440644
0.372704 0.06571467 0.12297368 -0.2452727 0.0036130094 -0.23198274 0.1546528 -0.18458448
0.0031914944 0.22181654 0.21183175 0.030899916 0.12264459 0.20104215 -0.383635 -0.2292395
0.14855488 0.023236237 0.12510823 0.0013212801 0.039932836 0.12835231 0.3564293 -0.11587294
0.08392863 -0.08904677 -0.03861952 -0.09881164 -0.21465093 -0.06391504 0.14773893 0.06577586
-0.15676944 0.26360205 -0.23627926 -0.09774173 -0.039939426 0.15840535 -0.009085724 -0.07203996
0.22841166 0.15051599 0.09868317 -0.21107697 -0.23103611 0.2254946 0.18233398 0.06389549
-0.34528404 0.2071294 0.21123646 -0.10390138 -0.059928652 -0.11969739 -0.21827465 -0.1573097
-0.019877492 0.2092257 0.026634932 -0.20201422 -0.0731474 -0.19131835 0.23390646 0.086727776
0.029659718 -0.17374122 -0.023721159 0.15100726 -0.22353658 0.09297195 0.014680982 -0.20956075
0.052372545 -0.24482304 -0.050349236 0.059307367 0.11505297 -0.20225716 0.07562849 0.24643576
-0.2773654 0.26474288 -0.059665952 0.048375264 0.031611364 -0.25789806 0.037699364 0.094539754
-0.18963066 0.23632939 -0.16867474 -0.13635886 -0.22183919 -0.06644089 0.27448696 0.3323097
0.108504325 0.11204171 -0.22577298 0.23123208 0.09196663 0.17498529 0.05273643 0.24939093
-0.06587702 -0.12827331 0.1877918 0.070424765 -0.096146315 -0.14718199 -0.17264146 -0.09133586
0.032170817 -0.14455356 0.04624163 -0.13925724 -0.005946096 0.038520746 0.28778157 -0.19457544
-0.03285134 -0.14115691 -0.20127569 -0.046166755 0.23065566 0.015214811 -0.09804384 -0.049461838
0.12298735 -0.25619173 -0.040833604 -0.17041893 -0.181882 0.16372456 -0.14231558 0.021686152
-0.20780341 -0.24039875 0.16245787 0.25310403 0.219231 -0.10314447 -0.22714038 0.19824848
-0.08495832 0.2311766 -0.021722654 0.17837724 0.0028959305 -0.110230535 -0.19298904 -0.11641573
0.041634545 -0.020933231 -0.028430821 0.29521534 -0.19805183 0.102311395 0.16852108 -0.010903325
0.21579175 -0.0866637 -0.17327087 -0.28020495 -0.034436602 -0.0070935017 -0.17033236 0.28644088
0.21785612 -0.06283039 0.22558673 -0.0027942762 0.1899487 0.28294095 0.014279179 0.060279593
0.068515085 -0.062314734 0.20454606 -0.03740094 -0.018895073 0.21499833 -0.12572208 0.054484714
-0.13332373 -0.10979377 -0.20221946 -0.08502051 -0.14708802 0.111961946 -0.19496067 0.19090892
0.18920024 0.16095501 -0.0677007 0.0740628 0.18188822 -0.22552647 -0.3476867 0.22203843
-0.061129924 0.06496513 0.1496214 -0.07056056 0.08194412 0.22761175 0.13891278 -0.13117613
00000000: 1142 0dbe b9d2 4dbe 0cc3 643c 0a50 8abd
00000010: 44ae 2bbe 7f98 3f3e d86a c63b f26a 163e
00000020: d7a9 523d f2db 9ebc b1a6 acbd abbc 193c
00000030: 44ad bcbd 2366 54be 89f6 d6bd 2114 3cbe
00000040: f0c3 87be f5c8 163d 7a9f 603e 35c8 b93d
00000050: d039 29bd 4149 ddbe dc38 66be e222 81bd
00000060: 0d75 92be 4f36 393c 43ad 293f dd49 0abd
00000070: 118c 88be 94a5 1cbe d0ff b1bd 6159 063e
00000080: 4036 b63d 90e2 c13d 82d4 2a3e 805c 5a3d
00000090: 80cb 973b d0a1 3fbd 28ad b33d 98cd a23d
000000a0: 22cc 1c3e 309f d53c 886a 3abd 4239 743e
000000b0: d2ea 7b3e c8b9 443d 5688 38be 48df 133e
000000c0: 0fd3 be3e 6a95 863d a0d9 fb3d c428 7bbe
000000d0: 3dc8 6c3b e28c 6dbe 4e5d 1e3e b703 3dbe
000000e0: 6428 513b e023 633e 6cea 583e d221 fd3c
000000f0: 162d fb3d fedd 4d3e cf6b c4be c2bd 6abe
00000100: c51e 183e ec59 be3c 5f1c 003e ce2e ad3a
00000110: 9d90 233d ca6e 033e e77d b63e cb4e edbd
00000120: c6e2 ab3d 275e b6bd 802f 1ebd c25d cabd
00000130: 74cd 5bbe e3e5 82bd e048 173e 7eb5 863d
00000140: 2b88 20be d9f6 863e 31f3 71be d12c c8bd
00000150: 8697 23bd 0335 223e 4adc 14bc b089 93bd
00000160: bfe4 693e dd20 1a3e 671a ca3d 9024 58be
00000170: bb94 6cbe 0ee8 663e c2b5 3a3e a3db 823d
00000180: 12c9 b0be bb19 543e 5f4e 583e 3fca d4bd
00000190: bf77 75bd e823 f5bd 6483 5fbe cb15 21be
000001a0: 1fd6 a2bc 433f 563e 8031 da3c d1dc 4ebe
000001b0: 4ece 95bd f5e8 43be 2d85 6f3e 559e b13d
000001c0: f0f8 f23c 38e9 31be e052 c2bc a6a1 1a3e
000001d0: c6e6 64be 1468 be3d 8088 703c 1897 56be
000001e0: 9884 563d e4b2 7abe 003b 4ebd 48ec 723d
000001f0: e4a0 eb3d 801c 4fbe 1ce3 9a3d a859 7c3e
00000200: d602 8ebe 618c 873e 4964 74bd 2425 463d
00000210: eb7a 013d 370b 84be a66a 1a3d 0f9e c13d
00000220: 8a2e 42be 5500 723e 12b9 2cbe a8a1 0bbe
00000230: d029 63be 2912 88bd 8e89 8c3e 7f24 aa3e
00000240: 8437 de3d 2076 e53d 0831 67be 1ac8 6c3e
00000250: 0059 bc3d 582f 333e 2802 583d 5660 7f3e
00000260: 88ea 86bd 145a 03be 7e4c 403e dc3a 903d
00000270: 5ce8 c4bd e0b6 16be ecc8 30be 4c0e bbbd
00000280: 8cc5 033d d905 14be dd67 3d3d 7399 0ebe
00000290: 78d7 c2bb eec7 1d3d 1b58 933e c93e 47be
000002a0: 208f 06bd 708b 10be 371b 4ebe 5a19 3dbd
000002b0: ff30 6c3e 8b47 793c 35cb c8bd 7f98 4abd
000002c0: cbe0 fb3d 902b 83be 2341 27bd 4d82 2ebe
000002d0: 463f 3abe 69a7 273e 2dbb 11be 28a7 b13c
000002e0: 6bca 54be 172b 76be 5b5b 263e da96 813e
000002f0: 177e 603e 683d d3bd 7d97 68be a601 4b3e
00000300: a1fe adbd 8fb9 6c3e b5f3 b1bc 86a8 363e
00000310: a7c9 3d3b 8cc0 e1bd eb9e 45be 5f6b eebd
00000320: fc88 2a3d 2b7c abbc c1e7 e8bc 7726 973e
00000330: 19ce 4abe a388 d13d ca90 2c3e dca3 32bc
00000340: 83f8 5c3e bd7c b1bd eb6d 31be 0677 8fbe
00000350: 650d 0dbd 9b70 e8bb 9b6b 2ebe 61a8 923e
00000360: ad15 5f3e 38ad 80bd 3500 673e 2d20 37bb
00000370: e981 423e a3dd 903e 38f3 693c bce7 763d
00000380: a351 8c3d bc3d 7fbd 8674 513e ba31 19bd
00000390: d7c9 9abc 8628 5c3e 4abd 00be 5d2b 5f3d
000003a0: 0486 08be 8edb e0bd 9e12 4fbe 3c1f aebd
000003b0: 3e9e 16be 4e4c e53d c5a3 47be a17d 433e
000003c0: b5bd 413e 64d1 243e aaa6 8abd 3dae 973d
000003d0: e840 3a3e 69f0 66be fe03 b2be 0b5e 633e
000003e0: 5f63 7abd 700c 853d 5a36 193e 0e82 90bd
000003f0: 52d2 a73d 0e13 693e 273f 0e3e 0953 06be

decoder.decoder_fc1.bias f4 [64]
0.18495372 -0.15120853 -0.09291318 -0.036402695 0.042080533 -0.17501566 0.13984968 -0.1371918
0.012244037 -0.21010327 -0.11337128 0.15494937 0.14312829 -0.06676508 -0.2597774 0.12127824
-0.023822425 -0.15595093 0.24365157 -0.09034161 -0.19904019 0.2500167 -0.20661114 0.20515095
-0.12584415 0.052096196 -0.24240208 0.20782338 0.2741876 0.16821817 -0.2875716 0.09872949
-0.1807736 -0.029366633 -0.21921161 0.107529506 0.21080796 -0.027026622 -0.009267807 -0.14660056
-0.19046667 0.15564382 -0.010800926 0.25266474 0.14095928 -0.033110507 -0.18751259 -0.101672955
0.14555986 0.14301868 0.014849722 0.14805618 -0.027434647 0.028128207 -0.0013343726 0.1798194
-0.098758966 0.15788905 0.17083493 -0.21656097 0.059625614 -0.19971585 0.030221684 0.23485479
00000000: 8264 3d3e 69d6 1abe 4449 bebd fe1a 15bd
00000010: a35c 2c3d 4e37 33be c134 0f3e 027c 0cbe
00000020: 379b 483c 5025 57be 342f e8bd 0cab 1e3e
00000030: 3990 123e 21bc 88bd 8b01 85be ba60 f83d
00000040: 3f27 c3bc 9ab1 1fbe cc7f 793e 0605 b9bd
00000050: 31d1 4bbe 3002 803e df91 53be 1713 523e
00000060: 4add 00be d262 553d 4038 78be a7cf 543e
00000070: 5162 8c3e 6241 2c3e 963c 93be b032 ca3d
00000080: b71c 39be 4b92 f0bc 0279 60be 6e38 dc3d
00000090: 0bde 573e ef66 ddbc 00d8 17bc 751e 16be
000000a0: b209 43be 1861 1f3e 5ef6 30bc 465d 813e
000000b0: a157 103e e29e 07bd 4d03 40be e939 d0bd
000000c0: a50d 153e 7d73 123e 404c 733c 0a9c 173e
000000d0: a0be e0bc 206d e63c 1de6 aeba 9422 383e
000000e0: 2442 cabd abad 213e 5aef 2e3e 29c2 5dbe
000000f0: fd39 743d 5082 4cbe 7793 f73c c67d 703e

decoder.decoder_fc2.weight f4 [128, 64]
-0.095369816 0.095688015 -0.11175087 0.04321295 -0.042275906 -0.087304756 0.028076515 0.085928485
-0.031935826 0.050423622 0.082678854 -0.09592424 0.0417078 -0.11580853 0.038136274 0.09261434
0.11533208 -0.046853542 0.01105316 0.008081287 0.0044947118 0.033721924 0.09663278 0.116439655
-0.025535643 -0.032892525 0.030003875 -0.0677561 -0.041587695 0.0130547285 -0.007267162 0.02631998
0.045818582 0.108481616 0.04654783 0.03731051 0.008262396 0.10535543 0.056965634 -0.075349346
0.043714955 0.11776294 0.114591226 -0.056074753 -0.09079088 0.11523786 0.0647085 0.102094665
0.012828901 0.095538184 -0.038055733 -0.06297575 0.0032951385 0.06376314 -0.065938875 0.058800414
-0.030330509 -0.09789255 0.06698367 -0.046372697 -0.054457664 -0.09024976 -0.09862356 -0.11340134
0.096976355 -0.7332295 0.08555901 -0.104055926 -0.13381283 0.1181532 0.10001683 -0.0856836
0.10364416 0.037513822 -0.09247015 -0.049668357 0.065058485 -0.20761915 0.13072336 -0.15835246
0.06491896 0.1209777 0.09650803 -0.07786065 -0.024673078 -0.10511994 -0.022416724 -0.13284832
-0.035464436 0.04395107 -0.07129198 0.102157645 -0.048708636 -0.095678434 0.44015032 -0.23074476
0.020855874 -0.13048646 -0.09778534 -0.15341154 0.07062528 0.067220286 0.04492344 0.1256051
0.06774293 -0.03757677 0.012553215 -0.11550354 0.07895237 -0.0811111 0.06778479 -0.0660875
0.06604334 -0.0019680457 0.00014064026 -0.041723568 0.11199291 0.0034922196 -0.1144394 0.00962032
0.038640067 0.061247293 0.028432429 0.005430907 -0.030432358 0.08854133 -0.06324706 -0.20797339
-0.055366635 -0.1509318 -0.01192154 -0.29506287 -0.10473996 0.13054197 0.18783386 0.0970881
-0.004177496 0.087582424 0.0320849 -0.0570191 0.013774834 0.037951346 -0.03177081 -0.0726941
0.039234683 0.04522699 -0.09319889 -0.012153927 0.11045559 0.05453638 0.16294873 -0.0862674
0.11005667 -0.016209284 -0.02130559 0.1388339 -0.30876648 -0.022374263 -0.36979574 0.018183514
-0.025164913 -0.03688348 0.09502058 0.0066783284 0.058622204 0.08344923 -0.068538845 -0.10664801
0.035161614 0.07242024 -0.09527972 0.0957213 0.10801663 0.0006070824 -0.06901557 -0.041586258
0.12148985 0.11753513 0.010019639 0.099851966 0.073228896 -0.035492964 0.12121706 0.063758306
-0.118278295 0.8410048 0.013529643 0.08485544 0.13992494 -0.26409525 -0.10263572 -0.030949187
0.064817436 0.22939213 -0.08458568 0.14026847 0.0674957 0.04201232 0.13601643 -0.11293785
0.060711134 -0.06703508 -0.046714425 0.01046437 0.07458431 -0.03066881 0.07414071 -0.16558582
0.09080078 0.03517939 -0.05346851 0.10392858 0.018516757 0.07508439 0.02325652 0.028154492
0.05991181 0.14527519 -0.064429656 0.11239512 0.05068557 0.100488394 0.21745588 -0.07389351
0.115098365 -0.11354449 0.12409298 -0.045573257 0.039686903 -0.07901921 0.082993194 0.0012409504
0.07360262 -0.08156985 -0.1465034 0.008379768 -0.009301595 -0.078990735 -0.04384327 0.040281836
0.1010023 -0.095739275 0.0444569 -0.057225365 -0.104719564 -0.06023972 -0.054157667 0.02353564
0.12014649 -0.5421506 0.07889445 -0.10656474 -0.03299124 0.28377604 -0.08274923 0.040614758
00000000: 4051 c3bd 14f8 c33d a4dd e4bd 1000 313d
00000010: 8029 2dbd d6cc b2bd b800 e63c 46fb af3d
00000020: 24cf 02bd 0089 4e3d 8853 a93d ee73 c4bd
00000030: ccd5 2a3d 062d edbd c834 1c3d 96ac bd3d
00000040: 3a33 ec3d 80e9 3fbd 5018 353c 6067 043c
00000050: 6048 933b 0020 0a3d 68e7 c53d ea77 ee3d
00000060: 2030 d1bc 50ba 06bd b0ca f53c b6c3 8abd
00000070: dc57 2abd 80e3 553c 6021 eebb 009d d73c
00000080: 44ac 3b3d 9c2b de3d f0a8 3e3d e8d2 183d
00000090: 005f 073c 96c4 d73d cc54 693d c250 9abd
000000a0: 740e 333d b22d f13d ceae ea3d a4ae 65bd
000000b0: 92f0 b9bd d401 ec3d e485 843d 0217 d13d
000000c0: 5030 523c 86a9 c33d 54e0 1bbd 6ef9 80bd
000000d0: 40f3 573b 4096 823d f60a 87bd b4d8 703d
000000e0: b077 f8bc e47b c8bd bc2e 893d 4cf1 3dbd
000000f0: 000f 5fbd ded4 b8bd 26fb c9bd f63e e8bd
00000100: 8a9b c63d eeb4 3bbf 9039 af3d 461b d5bd
00000110: 3b06 09be 4efa f13d a0d5 cc3d e27a afbd
00000120: 6443 d43d 18a8 193d fd60 bdbd 0c71 4bbd
00000130: 623d 853d 1d9a 54be 58dc 053e 2627 22be
00000140: 3bf4 843d 28c3 f73d 01a6 c53d 6875 9fbd
00000150: 321f cabc 2049 d7bd 47a3 b7bc 6409 08be
00000160: 2843 11bd 0a06 343d 8801 92bd 0738 d13d
00000170: b582 47bd 0ef3 c3bd 625b e13e 5b48 6cbe
00000180: f0d9 aa3c 3e9e 05be ae43 c8bd ea17 1dbe
00000190: fda3 903d caaa 893d a401 383d a09e 003e
000001a0: cebc 8a3d 19ea 19bd 00ac 4d3c 1f8d ecbd
000001b0: c8b1 a13d 941d a6bd c1d2 8a3d e258 87bd
000001c0: bb41 873d 54fa 00bb d578 1339 55e6 2abd
000001d0: 8a5c e53d b9dd 643b 345f eabd 8c9e 1d3c
000001e0: 0c45 1e3d 71de 7a3d 20eb e83c c0f5 b13b
000001f0: 484d f9bc 2855 b53d ad87 81bd faf6 54be
00000200: 20c8 62bd de8d 1abe 9052 43bc 7b12 97be
00000210: e781 d6bd cbac 053e 8557 403e 20d6 c63d
00000220: 60e3 88bb 6a5e b33d 756b 033d dc8c 69bd
00000230: d7af 613c df72 1b3d 1c22 02bd a5e0 94bd
00000240: 8cb4 203d f03f 393d 0fdf bebd 4421 47bc
00000250: 8a36 e23d 8a61 5f3d 08dc 263e f6ac b0bd
00000260: 6465 e13d 55c9 84bc 1089 aebc 792a 0e3e
00000270: a416 9ebe 3b4a b7bc de55 bdbe 98f5 943c
00000280: a626 cebc 2213 17bd 269a c23d e1d5 da3b
00000290: d61d 703d 6ee7 aa3d 185e 8cbd 466a dabd
000002a0: a005 103d 1051 943d 0422 c3bd 8709 c43d
000002b0: d337 dd3d 9c24 1f3a 0958 8dbd 5a56 2abd
000002c0: accf f83d 42b6 f03d 6929 243c 307f cc3d
000002d0: 08f9 953d 1261 11bd a640 f83d b793 823d
000002e0: e43b f2bd 174c 573f 70ab 5d3c b0c8 ad3d
000002f0: 7c48 0f3e 7e37 87be ad32 d2bd 2689 fdbc
00000300: 01bf 843d c5e5 6a3e 423b adbd 8aa2 0f3e
00000310: 303b 8a3d 1c15 2c3d e447 0b3e f64b e7bd
00000320: 3dac 783d b049 89bd a057 3fbd c072 2b3c
00000330: a9bf 983d 283d fbbc 16d7 973d 548f 29be
00000340: c2f5 b93d 4418 103d cc01 5bbd 82d8 d43d
00000350: 74b0 973c d8c5 993d 7584 be3c 40a4 e63c
00000360: 1666 753d 05c3 143e b2f3 83bd 6a2f e63d
00000370: ac9b 4f3d dccc cd3d c1ac 5e3e 7b55 97bd
00000380: b1b8 eb3d 038a e8bd 7624 fe3d 06ab 3abd
00000390: bc8e 223d d3d4 a1bd 56f8 a93d 63a7 a23a
000003a0: f8bc 963d 180e a7bd fd04 16be 4b4b 093c
000003b0: b865 18bc e5c5 a1bd 0095 33bd 91fe 243d
000003c0: 4bda ce3d f412 c4bd 7018 363d 2565 6abd
000003d0: 3677 d6bd edbd 76bd 6ed4 5dbd d1cd c03c
000003e0: 5d0f f63d 62ca 0abf 6a93 a13d 9d3e dabd
000003f0: d321 07bd 184b 913e 6e78 a9bd a95b 263d

decoder.decoder_fc2.bias f4 [128]
-0.0923613 -0.0929567 -0.08340854 -0.056324396 0.10488486 0.013519039 0.036044866 -0.034908816
0.12195576 -0.10649752 -0.05064833 0.11448087 0.047000498 0.13098021 -0.13059732 -0.059288714
-0.13939829 -0.03384551 0.04220451 -0.03918737 -0.13767648 -0.09832902 0.11586398 0.05756714
-0.027718194 0.096057795 0.11864946 -0.009135261 -0.07481406 -0.0509964 -0.08430466 -0.09561784
-0.10359289 -0.05896362 0.09079265 0.03780023 -0.088244654 0.123855464 -0.08822891 -0.007369004
-0.10380104 -0.009187847 -0.06634103 -0.111370035 0.09435053 0.0912986 -0.07262088 -0.12481374
-0.029263198 0.060398947 0.058111556 -0.012735245 0.057132952 -0.0973063 0.077468544 0.048256192
0.07425 0.040990844 -0.10117857 0.0019966592 -0.0959676 0.066817485 -0.014003456 -0.02748921
0.02246687 0.053573485 -0.067193985 -0.016369868 -0.056210577 -0.15030563 0.12578572 -0.09881365
-0.017596329 -0.02593203 0.112103984 0.09604198 0.04676135 -0.09285116 0.068498686 -0.050270494
0.08096159 0.122866504 0.13988163 0.053062752 -0.0035403387 -0.09815977 -0.12474929 0.06323401
-0.071749195 -0.07336553 -0.068985626 0.1289108 0.1428286 0.05744808 -0.048289154 -0.01754123
0.11521596 0.11170053 -0.061759077 0.09722964 -0.016025916 -0.023703493 0.047638718 -0.024452507
-0.05152077 0.0015346459 -0.08807641 0.058991272 0.11204769 0.089485094 -0.018282529 -0.102803126
-0.12533057 -0.13784218 0.097983 0.06274609 0.13290796 0.1011149 0.052481275 0.02189787
0.07349621 0.06171343 0.15055908 0.1385829 -0.0064973305 0.15508486 -0.07709344 0.014224851
00000000: ec27 bdbd 1560 bebd 19d2 aabd 69b4 66bd
00000010: e0cd d63d f67e 5d3c c8a3 133d 8cfc 0ebd
00000020: f1c3 f93d 5f1b dabd a074 4fbd f274 ea3d
00000030: 9883 403d ad1f 063e 4ebb 05be b9d8 72bd
00000040: 6dbe 0ebe 97a1 0abd a3de 2c3d f082 20bd
00000050: 10fb 0cbe ba60 c9bd 184a ed3d 85cb 6b3d
00000060: 4411 e3bc f3b9 c43d 7dfe f23d 10ac 15bc
00000070: 1d38 99bd 9ae1 50bd eca7 acbd 49d3 c3bd
00000080: 8228 d4bd d683 71bd 7ff1 b93d 6ad4 1a3d
00000090: 9db9 b4bd efa7 fd3d 5cb1 b4bd b077 f1bb
000000a0: a495 d4bd a088 16bc cedd 87bd f915 e4bd
000000b0: da3a c13d c3fa ba3d 42ba 94bd 599e ffbd
000000c0: 60b9 efbc e364 773d 6206 6e3d 7da7 50bc
000000d0: 3e04 6a3d 8748 c7bd d4a7 9e3d 49a8 453d
000000e0: 6210 983d 04e6 273d b636 cfbd 62da 023b
000000f0: a98a c4bd 9bd7 883d c06e 65bc 0d31 e1bc
00000100: 710c b83c df6f 5b3d 009d 89bd 1a1a 86bc
00000110: 103d 66bd b8e9 19be f9cd 003e d05e cabd
00000120: 2d26 90bc 696f d4bc c696 e53d a8b1 c43d
00000130: d488 3f3d c028 bebd 0a49 8c3d 6fe8 4dbd
00000140: 31cf a53d 6fa1 fb3d 213d 0f3e 5458 593d
00000150: 0705 68bb fd07 c9bd 8e7c ffbd d580 813d
00000160: 3ef1 92bd ab40 96bd 5648 8dbd 3101 043e
00000170: a941 123e ae4e 6b3d d9ca 45bd a0b2 8fbc
00000180: 58f6 eb3d 3fc3 e43d 16f7 7cbd 5520 c73d
00000190: c848 83bc d42d c2bc d120 433d a050 c8bc
000001a0: 7107 53bd 2c26 c93a 6861 b4bd d5a0 713d
000001b0: 4279 e53d f643 b73d 3ec5 95bc 728a d2bd
000001c0: a856 00be 8026 0dbe 50ab c83d 0681 803d
000001d0: 0619 083e 5415 cf3d 9bf6 563d 2963 b33c
000001e0: 2e85 963d 39c7 7c3d 292c 1a3e ade8 0d3e
000001f0: 8fe7 d4bb 91ce 1e3e 2ae3 9dbd 590f 693c

decoder.decoder_fc3.weight f4 [72, 128]
0.005192597 0.0062260753 -0.0138718765 0.052310057 0.0562148 0.002609061 0.05339254 0.08273874
0.06368596 0.084178135 -0.026008673 0.07283687 -0.028694943 0.1141056 -0.013838446 -0.040240683
-0.039436243 0.051805828 0.0869586 0.027756454 0.00886515 0.0062365006 -0.006148799 0.0006240912
-0.008551421 -0.0012738261 0.011167667 -0.06553194 0.09819739 0.103329204 -0.029897472 0.062431626
0.046666536 -0.011903999 -0.0045075514 -0.03746001 -0.06592374 0.03862439 -0.041801035 -0.02736586
0.06463506 0.0024275463 -0.030588144 0.065301664 -0.069531426 -0.026138512 0.0855825 0.02610567
0.028294591 0.0689149 -0.029959742 -0.063677646 0.014580108 -0.021667914 0.005887631 0.02171932
-0.05710957 -0.005919594 0.026842006 0.097873986 -0.012189144 0.00865107 -0.0016376263 0.014206726
-0.049584594 -0.021303553 -0.084020875 0.07825525 0.07593686 -0.0136139775 0.028672133 0.01840652
0.045079265 0.05711745 0.10334448 -0.028522199 -0.068296336 0.03694699 0.022756273 0.015359782
-0.016429638 0.0669585 0.09412896 0.051839873 0.047623433 0.00081072096 -0.047148887 0.03555528
0.052406553 0.02318579 0.073600836 -0.009893252 0.08162346 -0.06963062 0.0019122157 0.07761643
0.00174031 0.07529864 -0.00013737295 -0.0063389195 0.03630637 0.013412345 0.08281733 0.050200943
-0.004328787 -0.075461194 0.011524972 0.03480886 -0.070753396 -0.00774061 -0.016520772 -0.040402934
-0.036025245 0.067196935 0.06155838 -0.0150216585 -0.009425794 0.016832298 0.063171305 -0.053597778
-0.07875146 0.12316972 0.057779055 0.024611762 0.024379076 0.07864905 0.055487502 -0.06488765
0.048411787 -0.073455065 0.046837423 0.015937064 -0.06609766 0.068043984 -0.012809325 0.03796259
0.09706959 0.016768187 0.07934221 -0.007226211 0.09891909 0.0076679 -0.068758465 -0.07212766
-0.001737537 -0.027868858 -0.005439437 0.111764595 0.013302304 0.07147679 0.078957565 0.058113623
0.0902603 0.034218702 -0.02943045 0.057529423 -0.08046899 -0.004565953 -0.040109728 0.021749109
0.018227015 -0.08756823 -0.045775257 0.0006937235 -0.0072134226 0.050909113 0.08800601 -0.043052074
0.043084815 -0.019366225 -0.027849447 -0.010647578 -0.034613512 0.049605913 -0.07097145 0.032168575
0.017379526 0.06586003 0.009441076 -0.07783975 0.05570745 -0.050911166 0.04175331 0.05933759
-0.004740024 0.0076419907 0.008972445 -0.0030593302 -0.020046966 0.09848539 -0.044004723 -0.0084993495
-0.06099321 -0.040510923 0.074589446 0.046871286 0.055966906 0.006306756 0.038457926 -0.05578027
0.06203491 0.045947284 0.07278159 -0.036396742 -0.03869186 0.022936147 0.10058064 -0.03058722
0.08598804 -0.050887372 0.0806723 -0.032415647 0.06890855 -0.022205994 -0.024669522 0.024567347
0.042170785 0.008525658 0.055915024 -0.020555593 0.09043137 0.08018753 0.00950167 0.024576047
-0.031021977 0.01850944 0.033136375 0.077371575 0.06605661 0.0020451457 -0.012281088 -0.0652916
0.04681141 0.08298007 0.01392593 -0.021598889 0.011749558 0.039745394 0.012747672 0.049956556
-0.047707453 0.0332228 0.09512652 -0.07342609 0.005508386 -0.06083548 0.017369678 0.0047770496
-0.03187054 -0.033708803 0.10635979 0.10564047 -0.03597106 0.09942343 0.030552179 0.037696227
00000000: a926 aa3b 1b04 cc3b de46 63bc 1243 563d
00000010: 7d41 663d c8fc 2a3b 23b2 5a3d ee72 a93d
00000020: c96d 823d 9665 ac3d 2410 d5bc 7f2b 953d
00000030: a811 ebbc 32b0 e93d a6ba 62bc 6ad3 24bd
00000040: e687 21bd 5932 543d 5a17 b23d 8161 e33c
00000050: 223f 113c 8f5b cc3b dd7b c9bb 0d9a 233a
00000060: 421b 0cbc 83f6 a6ba 97f8 363c 9c35 86bd
00000070: b71b c93d 439e d33d 8beb f4bc 4eb8 7f3d
00000080: 6925 3f3d fe08 43bc 15b4 93bb ab6f 19bd
00000090: 0703 87bd 9c34 1e3d 9037 2bbd 5e2e e0bc
000000a0: 635f 843d 7817 1f3b fd93 fabc e1bc 853d
000000b0: 7e66 8ebd 6f20 d6bc e145 af3d 8fdb d53c
000000c0: 0fca e73c 4123 8d3d 226e f5bc 6d69 82bd
000000d0: 68e1 6e3c e980 b1bc 07ed c03b b7ec b13c
000000e0: b9eb 69bd 27f9 c1bb c4e3 db3c 2872 c83d
000000f0: fab4 47bc 38bd 0d3c 9fa5 d6ba 54c3 683c
00000100: 3719 4bbd ca84 aebc 2313 acbd 4a44 a03d
00000110: c984 9b3d 290d 5fbc d2e1 ea3c 45c9 963c
00000120: 09a5 383d fdf3 693d 45a6 d33d 63a7 e9bc
00000130: f3de 8bbd ba55 173d 5d6b ba3c 98a7 7b3c
00000140: 7397 86bc 8a21 893d afc6 c03d 0c56 543d
00000150: ca10 433d 9086 543a 311f 41bd 6aa2 113d
00000160: 41a8 563d 20f0 bd3c 09bc 963d 4e17 22bc
00000170: 332a a73d 809a 8ebd 50a3 fa3a 5df5 9e3d
00000180: 1d1b e43a 2c36 9a3d c50b 10b9 b6b6 cfbb
00000190: fdb5 143d 74bf 5b3c 229c a93d 819f 4d3d
000001a0: 7fd8 8dbb 668b 9abd 3cd3 3c3c bc93 0e3d
000001b0: 28e7 90bd f1a4 fdbb 9256 87bc 8c7d 25bd
000001c0: 358f 13bd 8c9e 893d a424 7c3d 671d 76bc
000001d0: a56e 1abc e3e3 893c f55f 813d 5889 5bbd
000001e0: 7248 a1bd 6840 fc3d bba9 6c3d 9b9e c93c
000001f0: a1b6 c73c c112 a13d dd46 633d d1e3 84bd
00000200: 704b 463d 9c6f 96bd 99d8 3f3d 728e 823c
00000210: 365e 87bd a55a 8b3d 34de 51bc a97e 1b3d
00000220: 6ccc c63d 705d 893c 2b7e a23d dac9 ecbb
00000230: 1896 ca3d 0243 fb3b 3dd1 8cbd abb7 93bd
00000240: 11be e3ba 3b4d e4bc 4e3d b2bb d6e4 e43d
00000250: e8f1 593c 6c62 923d 81b4 a13d 8d08 6e3d
00000260: 64da b83d e928 0c3d 2118 f1bc f9a3 6b3d
00000270: edcc a4bd fd9d 95bb 194a 24bd 302b b23c
00000280: d250 953c f956 b3bd d67e 3bbd ffda 353a
00000290: 935e ecbb 1386 503d 7f3c b43d 5f57 30bd
000002a0: b479 303d eba5 9ebc 8624 e4bc 2e73 2ebc
000002b0: e6c6 0dbd 922f 4b3d 7b59 91bd 32c3 033d
000002c0: 825f 8e3c a0e1 863d beae 1a3c 726a 9fbd
000002d0: 7f2d 643d 3a88 50bd 8505 2b3d f90b 733d
000002e0: 3452 9bbb aa69 fa3b 2901 133c 0b7f 48bb
000002f0: 8939 a4bc b5b2 c93d 4c3e 34bd db40 0bbc
00000300: 04d4 79bd c8ee 25bd 5ac2 983d 1bfc 3f3d
00000310: 8e3d 653d e7a8 ce3b 0f86 1d3d da79 64bd
00000320: 5118 7e3d 3833 3c3d 840e 953d c014 15bd
00000330: 5b7b 1ebd 96e4 bb3c 39fd cd3d 0d92 fabc
00000340: 7f1a b03d 476f 50bd 8537 a53d 45c6 04bd
00000350: ed1f 8d3d 58e9 b5bc bd17 cabc 7641 c93c
00000360: 46bb 2c3d 34af 0b3c 2707 653d 3464 a8bc
00000370: 1534 b93d 5c39 a43d e4ac 1b3c b553 c93c
00000380: cd21 febc 1ca1 973c 02ba 073d fd74 9e3d
00000390: b048 873d da07 063b 9e36 49bc 9ab7 85bd
000003a0: 52bd 3f3d 74f1 a93d 9529 643c 27f0 b0bc
000003b0: 3881 403c 11cc 223d 9ddb 503c 3f9f 4c3d
000003c0: e468 43bd a114 083d b1d1 c23d 6b60 96bd
000003d0: b17f b43b a02e 79bd db4a 8e3c cc88 9c3b
000003e0: af8a 02bd 3e12 0abd 29d3 d93d 085a d83d
000003f0: 6456 13bd 839e cb3d 9048 fa3c 5c67 1a3d

decoder.decoder_fc3.bias f4 [72]
-0.043826826 0.058266494 0.037101794 -0.0005290348 0.08463564 -0.059865016 0.06038744 -0.06636472
-0.00037197792 0.035440363 0.0020368933 0.06103758 0.05902277 0.035597067 0.104691066 0.034386255
-0.056876283 -0.05201376 0.016470827 0.020361772 -0.018569395 -0.026058013 -0.045794096 0.032312
-0.02808219 0.041387863 -0.023867251 -0.02132805 0.013694021 0.045836747 0.008432938 -0.0018395213
0.04103729 0.032155618 -0.028862009 0.019011661 0.07465003 0.016218422 0.07939804 0.03336832
-0.027526611 -0.011266369 -0.029032318 0.009411142 0.06389015 -0.051849425 0.062874064 -0.060866114
0.012651116 0.081753656 0.015132204 0.073926196 -0.03296196 -0.004306548 -0.050751913 -0.05604461
0.10571188 -0.03501473 -0.007158116 -0.046809465 0.056478076 0.019433906 0.055329558 0.07370657
0.008401604 0.09572967 0.056077052 0.04412361 -0.03491694 0.07305082 0.029453726 -0.07287766
00000000: c283 33bd d9a8 6e3d 0df8 173d edae 0aba
00000010: 7355 ad3d 0535 75bd d258 773d 3aea 87bd
00000020: 0806 c3b9 ea29 113d 667d 053b 8b02 7a3d
00000030: dcc1 713d 3bce 113d 4568 d63d 9ad8 0c3d
00000040: 1bf7 68bd 610c 55bd d4ed 863c bbcd a63c
00000050: d81e 98bc 9d77 d5bc 9792 3bbd 9659 043d
00000060: 9f0c e6bc 5286 293d 4185 c3bc 2ab8 aebc
00000070: e35c 603c 50bf 3b3d 4e2a 0a3c 181c f1ba
00000080: b816 283d 9cb5 033d 0570 ecbc 58be 9b3c
00000090: 1de2 983d 7fdc 843c 719b a23d 38ad 083d
000000a0: 7d7f e1bc 9496 38bc 2fd5 edbc 3131 1a3c
000000b0: d7d8 823d 1060 54bd 1ec4 803d bf4e 79bd
000000c0: a046 4f3c 766e a73d 10ed 773c 9e66 973d
000000d0: 1f03 07bd f11d 8dbb 3de1 4fbd 088f 65bd
000000e0: 787f d83d 9b6b 0fbd a18e eabb 48bb 3fbd
000000f0: 8e55 673d db33 9f3c 3fa1 623d 78f3 963d
00000100: e2a6 093c eb0d c43d 0db1 653d f5ba 343d
00000110: 1105 0fbd ab9b 953d f148 f13c e240 95bd
