clustering/clustering/encoder_weights/ros2_bigbag_5/lidar_encoder_autoencoder_ros2_bigbag.pth (torch, 95560 bytes, 14 tensors)

encoder.conv2d_1.weight f4 [16, 1, 1, 3]
0	0xbea306d6	-0.31841153
1	0x3e29a723	0.16567664
2	0xbddcbcc5	-0.107781924
3	0x3cfeea9e	0.031117734
4	0x3f069135	0.5256532
5	0x3e692038	0.22766197
6	0xbf16528a	-0.58719695
7	0x3eda83ac	0.42678583
8	0x3eb4a257	0.35280105
9	0xbdc82030	-0.09771764
10	0x3dda4de2	0.10659386
11	0xbe35b19c	-0.17743534
12	0x3ea9af32	0.33141476
13	0x3e5104c7	0.20411979
14	0x3e7067c5	0.23477085
15	0xbbcd5bd0	-0.0062670484
16	0xbe719096	-0.23590311
17	0x3eddd4af	0.43326327
18	0xbdd8adb8	-0.10580009
19	0xbe018eb3	-0.12652092
20	0x3eae3cc8	0.34030747
21	0xbf0d46dc	-0.5518625
22	0xbee8848f	-0.45413634
23	0x3e647386	0.22309694
24	0xbecd7c7b	-0.40134034
25	0xbedd3791	-0.43206456
26	0x3d896b32	0.06709899
27	0x3e62721e	0.22113845
28	0xbf03df80	-0.5151291
29	0xbe8602db	-0.26174054
30	0x3e8ef739	0.2792299
31	0x3d7a882a	0.061165012
32	0xbf01fe8d	-0.5077904
33	0x3df171d4	0.11789289
34	0x3e6a1882	0.22860911
35	0xbeeb515a	-0.45960504
36	0x3d1a3ed5	0.037657578
37	0x3ef19c54	0.4718958
38	0x3e584608	0.21120465
39	0xbe8c1f0b	-0.27367434
40	0xbe50e470	-0.20399642
41	0xbeb4a583	-0.35282525
42	0x3eab69a7	0.33479044
43	0xbec3e3d3	-0.38259754
44	0xbf09e876	-0.5387033
45	0x3e15bcc3	0.14622788
46	0x3f0c7bc1	0.54876333
47	0x3d7b938f	0.06142002

encoder.conv2d_1.bias f4 [16]
0	0xbe8e018e	-0.2773556
1	0xbe945390	-0.28970003
2	0xbe856a75	-0.26057783
3	0xbec24c29	-0.3794873
4	0xbcedb79c	-0.029018216
5	0x3ed59d27	0.4172146
6	0xbf025bad	-0.50921136
7	0xbefa69da	-0.48908883
8	0x3f0024e1	0.5005627
9	0xbebadc54	-0.36496222
10	0x3ee2fba7	0.4433262
11	0x3de585ec	0.11207184
12	0xbd93fad6	-0.072255775
13	0xbeb4803d	-0.35254088
14	0x3f16072b	0.5860469
15	0xbb89e576	-0.004208262

encoder.conv2d_2.weight f4 [32, 16, 1, 3]
0	0xbdab8341	-0.08374644
1	0xbd144224	-0.03619589
2	0x3da0a093	0.07843127
3	0xbe37dc06	-0.17955026
4	0x3d06a2a1	0.03286994
5	0xbd519630	-0.05116862
6	0xbd7b8147	-0.061402585
7	0x3e1774eb	0.14790694
8	0x3d9ca069	0.07647783
9	0x3ddaeae5	0.10689334
10	0xbc3eb936	-0.011640837
11	0xbda14430	-0.07874334
12	0xbd0ea0a4	-0.034821168
13	0x3deac507	0.11463361
14	0xbe1fbe29	-0.15599884
15	0x3d9fc0b3	0.07800426
16	0x3d8e77c4	0.06956437
17	0x3c88cdd1	0.016699703
18	0xbd8f6c64	-0.07003096
19	0x3dad2c9b	0.084557734
20	0xbde2ad80	-0.11068249
21	0xbdd7499f	-0.10512089
22	0x3d9e3093	0.077241085
23	0xbdd02ba8	-0.10164577
24	0x3dd159c5	0.102222
25	0xbc260e3d	-0.010135231
26	0xbdfa0fce	-0.12210046
27	0xbd64c1af	-0.055848774
28	0x3c6961dd	0.014244524
29	0x3e114805	0.1418763
30	0x3d57336c	0.052539274
31	0x3e2bc7f6	0.16775498
32	0x3d8d32e8	0.06894475
33	0xbe5131b4	-0.20429116
34	0x3e3ee82b	0.18643253
35	0x3e98dbe8	0.29855275
36	0x3dcdd456	0.100502655
37	0xbde2cec3	-0.11074593
38	0x3d3e446f	0.046451982
39	0x3dc56346	0.096380755
40	0xbda4df8b	-0.0805045
41	0x3d969164	0.0735195
42	0x3eac0de3	0.33604345
43	0x3ebe454e	0.3716225
44	0x3ec6aa33	0.38801727
45	0xbdd183c4	-0.102302104
46	0xbcae1f43	-0.021255141
47	0xbe09facf	-0.13474582
48	0x3d9704e1	0.073739775
49	0x3c3937d4	0.011304814
50	0x3e09d1eb	0.13458984
51	0x3d3a9e85	0.045561332
52	0xbe00794a	-0.12546268
53	0x3d703537	0.0586445
54	0xbdb1e9ea	-0.08687194
55	0xbdae3184	-0.08505538
56	0xbe06347b	-0.13105957
57	0xbd91d5c0	-0.07120848
58	0xbdde046d	-0.10840688
59	0x3bc984d8	0.0061498694
60	0xba8338e8	-0.0010011466
61	0x3ded75e6	0.11594753
62	0x3dd12bbd	0.102134205
63	0xbe19fa95	-0.15036996
64	0xbce19ce6	-0.027540635
65	0xbddb70b0	-0.10714853
66	0x3d648252	0.055788346
67	0xbdfe3a14	-0.12413421
68	0x3d05f4d6	0.032704197
69	0xbd54eb7a	-0.05198238
70	0x3da9506b	0.08267292
71	0xbd52f201	-0.051500324
72	0x3c8add7a	0.016951311
73	0x3e02e6ff	0.1278343
74	0xbe12b220	-0.14325762
75	0x3dc83422	0.097755685
76	0x3d6aaa53	0.05729134
77	0xbdd58007	-0.1042481
78	0x3dfef153	0.12448373
79	0xbdd71636	-0.10502283
80	0xbd50091d	-0.05078994
81	0xbc691fc5	-0.014228766
82	0xbd01a76b	-0.031653803
83	0x3d35f1c0	0.044420004
84	0xbcc6903a	-0.024238694
85	0x3d7fca59	0.062448833
86	0xbe11e3c2	-0.14247039
87	0xbd76bfb1	-0.060241405
88	0x3d55d311	0.05220324
89	0xbd1509b9	-0.036386225
90	0xbdb05380	-0.08609676
91	0xbde832ff	-0.11337852
92	0xbdca169b	-0.09867593
93	0x3dcc60d1	0.09979404
94	0x3e040bea	0.1289517
95	0xbdf6cc61	-0.12050701
96	0xbc9c2a26	-0.019063067
97	0x3de116a2	0.10990645
98	0xbd3bafaf	-0.04582184
99	0xbe111573	-0.14168338
100	0x3c51b861	0.012800307
101	0x3de946eb	0.1139048
102	0xbd8f20ec	-0.06988701
103	0xbd623cdb	-0.055233818
104	0xbd813b84	-0.0631018
105	0xbd9b0a0d	-0.075702764
106	0x3df722fb	0.12067219
107	0x3de507c2	0.1118312
108	0x3dd454d0	0.10367739
109	0x3d350df8	0.044202775
110	0x3d8c512e	0.06851421
111	0xbd1747c1	-0.036933664
112	0xbdcb4881	-0.099259384
113	0x3e07fb12	0.1327937
114	0x3def75c3	0.11692383
115	0x3e0fde6b	0.1404969
116	0xbda385a3	-0.079844736
117	0x3d891013	0.06692519
118	0x3b635d47	0.0034693049
119	0x3de4ba73	0.11168375
120	0xbd9d537c	-0.07681939
121	0x3e0ab7ef	0.13546728
122	0xbce5cced	-0.028051818
123	0xbdfafd9c	-0.122554034
124	0xbcea59c4	-0.028607257
125	0xbdb89f15	-0.090147175
126	0xbd61f347	-0.055163648
127	0xbda750a4	-0.08169678
128	0xbd9ed2f9	-0.077550836
129	0xbdeeebfb	-0.116661035
130	0xbdcfa88b	-0.10139569
131	0xbd95050d	-0.07276354
132	0xbdef46a5	-0.11683396
133	0x3e0a1351	0.13483931
134	0x3d2150c3	0.03938366
135	0xbda4a630	-0.0803951
136	0x3d96f660	0.07371211
137	0xbda88e31	-0.08230246
138	0xbc3f0f3d	-0.011661348
139	0xbe019ae6	-0.12656745
140	0xbd6f9255	-0.058489162
141	0xbd8975f8	-0.06711954
142	0x3d0ac7b8	0.033881873
143	0xbe011803	-0.12606816
144	0x3dbc8331	0.0920471
145	0xbde71c7b	-0.11284729
146	0x3d375427	0.04475799
147	0x3dae7bf7	0.08519738
148	0xbda07901	-0.0783558
149	0xbb905f83	-0.004405917
150	0xbcf29c21	-0.029615464
151	0xbda227cd	-0.07917748
152	0x3d2d0592	0.04224164
153	0x3d63bcd4	0.055600002
154	0xbcf80765	-0.030276963
155	0xbd522330	-0.05130309
156	0xbdcff0dc	-0.10153362
157	0xbdde20da	-0.1084611
158	0x3d7ca171	0.0616774
159	0x3d1446fe	0.036200516
160	0xbe07ad3b	-0.13249676
161	0xbd0c1ac4	-0.034205213
162	0xbdbb907d	-0.09158418
163	0xbd2a2615	-0.041540224
164	0x3d2fc378	0.042911023
165	0xbdf4c856	-0.119522735
166	0xbe093ae6	-0.13401374
167	0xbd37b067	-0.044845965
168	0x3d3063eb	0.04306404
169	0x3d3002ab	0.042971294
170	0xbd9c70ec	-0.07638726
171	0xbdc6ac64	-0.0970085
172	0x3e09ea07	0.1346818
173	0xbce67f53	-0.028136885
174	0x3d8456bc	0.06461856
175	0xbe10289a	-0.14077988
176	0x3e0ea652	0.13930634
177	0xbdb81913	-0.089891575
178	0x3d1ad2a5	0.037798543
179	0x3e082faa	0.13299432
180	0x3cac3071	0.021019192
181	0x3db50fa3	0.08840873
182	0x3ddf3622	0.10898997
183	0xbd94f9a6	-0.07274179
184	0xbc7156e7	-0.014730192
185	0x3d2ecac2	0.042673834
186	0x3d371379	0.044696305
187	0x3dfe9697	0.124310665
188	0xbc2658ff	-0.010153054
189	0xbe06202f	-0.13098215
190	0xbe06f753	-0.13180284
191	0xbd257aee	-0.040400438
192	0x3d98675f	0.074415915
193	0x3cf60ca0	0.030035317
194	0x3d088a92	0.033335276
195	0x3c11871c	0.00888231
196	0x3da4e1b2	0.080508605
197	0x3d30422a	0.04303185
198	0xbde80e24	-0.11330822
199	0x3df84a0e	0.121235
200	0x3e59b890	0.21261811
201	0xbde92f7e	-0.113860115
202	0xbc8469c0	-0.016163707
203	0x3d6caf40	0.05778432
204	0xbd86012a	-0.06543191
205	0xbd1edfd7	-0.03878769
206	0x3df66146	0.12030272
207	0x3d976558	0.07392377
208	0x3caa740d	0.02080729
209	0xbdaf4cc6	-0.08559565
210	0x3d61cb9b	0.055125814
211	0xbd340ef1	-0.04395956
212	0xbde59c38	-0.11211437
213	0x3e0ac795	0.13552697
214	0xbd068c36	-0.03284856
215	0x3e0e6dd4	0.13909084
216	0x3d0667c2	0.032813795
217	0x3dccc358	0.09998196
218	0xbd82147a	-0.06351562
219	0x3d8c0e25	0.06838635
220	0xbe0e835c	-0.13917297
221	0x3c5eaa96	0.013590476
222	0x3e160464	0.14650112
223	0xbdc3c1d1	-0.09558452
224	0xbd8b96d6	-0.06815879
225	0xbcd6ffc1	-0.026245
226	0x3d9b06bc	0.07569644
227	0xbc8dd0b5	-0.017311433
228	0x3a2fa439	0.00067001913
229	0x3d6f9a62	0.05849684
230	0xbe0069f5	-0.1254042
231	0x3d5d9fd0	0.054107487
232	0xbdf6c8ce	-0.12050019
233	0x3e032210	0.12805963
234	0x3e189588	0.14900792
235	0x3d25b5f2	0.04045672
236	0xbdbaef07	-0.09127622
237	0x3dfa4f05	0.12222103
238	0xbdd745fe	-0.10511397
239	0x3d8b343b	0.067970715
240	0x3d8975b7	0.067119054
241	0x3dea1bb8	0.11431068
242	0xbc783539	-0.015149408
243	0xbdee2a81	-0.11629201
244	0x3d52e0c2	0.051483877
245	0x3da1ab28	0.078939736
246	0xbe061389	-0.1309339
247	0xbde2ac87	-0.11068063
248	0xbe0a2d52	-0.13493851
249	0xbd5063a7	-0.050876286
250	0xbd34d6a2	-0.044150002
251	0x3dae83de	0.085212454
252	0x3c3fb98e	0.0117019545
253	0xbdaff95e	-0.08592485
254	0x3d7518d7	0.059838142
255	0xbda0a652	-0.07844223

encoder.conv2d_2.bias f4 [32]
0	0x3e488e28	0.19585478
1	0xbd9cd4d0	-0.07657778
2	0xbdf93610	-0.12168515
3	0xbdcf2c9d	-0.10115931
4	0x3e244305	0.16041191
5	0xbcfa0e65	-0.030524442
6	0x3d9d01ae	0.07666336
7	0x3d6de6c6	0.05808141
8	0xbd8ee714	-0.069776684
9	0xbcdb467b	-0.026767006
10	0x3d1da437	0.038486686
11	0x3bad85fa	0.0052955123
12	0x3d980173	0.074221514
13	0x3d29cb4e	0.041453652
14	0x3e13acdf	0.14421414
15	0x3d079483	0.033100616
16	0x3d62e92c	0.05539815
17	0xbd880b0f	-0.06642734
18	0xbd9139f5	-0.070911326
19	0xbda7ce5e	-0.08193658
20	0x3e085ce9	0.13316692
21	0x3e1769f4	0.14786512
22	0xbd683b8b	-0.05669741
23	0x3d857387	0.06516176
24	0x3da6ca71	0.081440814
25	0xbca85591	-0.020548614
26	0xbd4db790	-0.050223887
27	0xbda1e490	-0.07904923
28	0x3e1a91df	0.15094708
29	0x3bdb8ae3	0.006699906
30	0x3e1aee2b	0.15129916
31	0x3c12dfea	0.008964518

encoder.conv2d_3.weight f4 [64, 32, 1, 3]
0	0x3e342306	0.17591485
1	0x3c8e8425	0.017396996
2	0x3d2ac7c3	0.041694414
3	0xbdb76481	-0.089547165
4	0x3da655d2	0.08121838
5	0xbd745ccd	-0.059658814
6	0x3a14be23	0.00056740845
7	0xbdae7f11	-0.0852033
8	0xbd566fb9	-0.05235264
9	0x3d7cbfa8	0.061706215
10	0xbd5b9db6	-0.0536172
11	0xbdc0c612	-0.09412779
12	0x3d5fd966	0.054650687
13	0xbd985463	-0.074379705
14	0x3c69185e	0.014227001
15	0xbd5af8e5	-0.05346002
16	0x3d7f19e0	0.062280536
17	0xbbcd3bb8	-0.0062632225
18	0x3d94e72e	0.072706565
19	0x3d4d070d	0.050055552
20	0xbd37a718	-0.044837087
21	0xbdf54fd3	-0.11978116
22	0xbe9a4668	-0.3013184
23	0xbea8f2b4	-0.32997668
24	0xbda396a2	-0.07987715
25	0x3d683fe1	0.056701545
26	0x3d953ff9	0.072875924
27	0xbe0c1cd9	-0.1368288
28	0xbd977e10	-0.073970914
29	0x3da57f0f	0.08080875
30	0xbe6e1ec4	-0.23253924
31	0xbbfb65dd	-0.007672055
32	0x3d950077	0.07275479
33	0x3b3ec567	0.002910936
34	0xbdb3f3f9	-0.087867685
35	0xbea253f0	-0.31704664
36	0xbd84986b	-0.06474384
37	0xbdc21647	-0.09476905
38	0x3db723c8	0.089423716
39	0xbe510111	-0.20410563
40	0xbde31ed1	-0.11089862
41	0xbc978b89	-0.018499153
42	0x3da33c17	0.079704456
43	0xbc57d90f	-0.013174309
44	0x3cabf9c8	0.020993128
45	0xbda6a627	-0.0813716
46	0xbdb8874e	-0.09010182
47	0xbd427607	-0.04747584
48	0xbd80ac25	-0.06282834
49	0xbca629f9	-0.020283686
50	0x3d136733	0.03598709
51	0xbd24ee0c	-0.04026608
52	0xbdb5b7a9	-0.08872921
53	0xbd0f9267	-0.03505173
54	0x3d5e1d69	0.054227266
55	0x3cc8538a	0.024453897
56	0xbd2c4724	-0.042060032
57	0x3d9c0170	0.07617462
58	0x3d9ebf80	0.077513695
59	0x3ce80b17	0.0283256
60	0x3e568a67	0.20951234
61	0x3e052360	0.13001776
62	0xbea756f5	-0.3268353
63	0x3c1acb9a	0.009447956
64	0xbe36bf3e	-0.1784639
65	0x3e397adf	0.18113278
66	0x3d88b700	0.066755295
67	0x3d3d82a2	0.04626716
68	0xbd99e511	-0.07514394
69	0x3e392602	0.18080905
70	0xbd1e5e6f	-0.038664278
71	0x3e448e86	0.19194993
72	0x3e110d12	0.14165142
73	0xbe337526	-0.17525157
74	0x3d74b9a7	0.059747364
75	0x3db9ff81	0.09081937
76	0xbd05a2f1	-0.032626096
77	0x3dc89633	0.09794273
78	0xbd56a2b0	-0.052401245
79	0xbd5b82a7	-0.053591397
80	0x3d57f9b8	0.052728385
81	0xbe1a8c2d	-0.15092535
82	0xbe12762d	-0.14302893
83	0x3e1c56bb	0.1526746
84	0x3d9d74d3	0.07688298
85	0x3e08a698	0.133448
86	0xbdd1ece0	-0.102502584
87	0x3e8d5c53	0.276095
88	0x3dfdd42c	0.12393984
89	0x3d6f1c73	0.05837674
90	0xbd9f96fd	-0.077924706
91	0x3df25ae3	0.118337415
92	0x3e1c582a	0.15268007
93	0xbd6925e1	-0.05692089
94	0xbd58e867	-0.05295601
95	0x3c8b8962	0.017033283
96	0xbd9a98a0	-0.07548642
97	0xbe43d51a	-0.1912426
98	0xbeb66293	-0.3562208
99	0x3d9a4f43	0.07534649
100	0xbd72d83c	-0.05928825
101	0x3da3936a	0.079871014
102	0x3d9e09fe	0.077167496
103	0x3db0a13a	0.086245015
104	0xbb4e02be	-0.003143474
105	0x3d8b6916	0.06807153
106	0x3dbd90e1	0.09256149
107	0x3c381744	0.011236016
108	0xbcfd3ea6	-0.030913662
109	0x3dee4e21	0.11635996
110	0x3dac550a	0.084146574
111	0x3d66689c	0.056252107
112	0xbdb86845	-0.09004263
113	0xbd51aafb	-0.05118845
114	0xbd8eab82	-0.06966306
115	0xbd3a7510	-0.045521796
116	0x3ae4aa73	0.0017445817
117	0xbeee1b22	-0.46505076
118	0xbe547978	-0.20749462
119	0x3d99862a	0.07496293
120	0x3d3f1b30	0.046656787
121	0x3cccc793	0.024997508
122	0xbd70ae05	-0.058759708
123	0x3d02c1d6	0.031923138
124	0x3d483c71	0.048885766
125	0xbbfdf234	-0.00774982
126	0x3daecc17	0.08535021
127	0xbca38eb8	-0.019965515
128	0xbcbfb0be	-0.023399707
129	0xbd279c12	-0.040920325
130	0x3dcf0049	0.10107476
131	0x3dd6c166	0.104861066
132	0xbd2e484d	-0.04254942
133	0xbd98fab9	-0.074696966
134	0x3dc47738	0.09593052
135	0x3d93ab98	0.07210463
136	0x3da99145	0.08279661
137	0xbcde6eec	-0.027152501
138	0x3dd9f5ee	0.106426105
139	0x3c030402	0.007996561
140	0x3dcb5d94	0.09929958
141	0xbdcd0b47	-0.100119166
142	0xbbbe449e	-0.0058065196
143	0xbdcf87c5	-0.10133318
144	0x3dc91530	0.09818494
145	0xbcc5be4e	-0.024138596
146	0xbc03edca	-0.008052299
147	0x3a1e9294	0.00060490635
148	0xbd7de48d	-0.06198554
149	0x3da35c56	0.07976596
150	0xbd8acbad	-0.06777129
151	0x3c9b808c	0.018982194
152	0x3d0ad728	0.033896595
153	0x3cbd74de	0.023127016
154	0xbd27da92	-0.04097993
155	0xbc1b3cfb	-0.009474988
156	0x3dd13ae2	0.10216309
157	0xbd5ed610	-0.054403365
158	0x3ccbc918	0.024876162
159	0xbd85c620	-0.0653193
160	0xbd6f0ca4	-0.058361664
161	0x3d421b71	0.04738945
162	0xbce37693	-0.027766502
163	0x3d800d48	0.06252533
164	0x3da0c21f	0.07849526
165	0xbd046314	-0.03232105
166	0x3d8a6267	0.0675705
167	0x3cd2f006	0.025749218
168	0xbd2b4188	-0.041810542
169	0x3dded1a4	0.108798295
170	0x3de0bdb8	0.10973686
171	0xbc210b02	-0.009829285
172	0xbd007cf9	-0.031369183
173	0x3d8b2f79	0.06796164
174	0x3c16b8fa	0.009199375
175	0x3d86dd65	0.065851964
176	0x3d945b05	0.07243923
177	0xbd9dc04e	-0.07702695
178	0x3b0ed00a	0.0021791481
179	0x3d96a201	0.073551185
180	0x3d9de3ea	0.07709487
181	0x3c56732b	0.013088982
182	0xbce5b519	-0.028040456
183	0xbd46ce38	-0.04853651
184	0x3c8d3ef2	0.017241929
185	0xbede7630	-0.43449545
186	0x3d2202cd	0.039553452
187	0x3bc9c328	0.0061572976
188	0x3de1e89f	0.11030697
189	0x3d0599a2	0.03261722
190	0x3df102a9	0.117680855
191	0x3d816c86	0.06319527
192	0xbcc29f80	-0.023757696
193	0xbcbbecec	-0.022940122
194	0x3d13323d	0.035936583
195	0x3d47def2	0.0487966
196	0xbcbb99d9	-0.022900509
197	0xbdb8e0ab	-0.09027227
198	0xbd3ff42f	-0.04686373
199	0x3cab59df	0.020916877
200	0x3d6c7b1e	0.0577346
201	0x3d641fec	0.055694506
202	0x3d89c8f7	0.06727784
203	0x3d3d07ad	0.0461499
204	0xbc9f6143	-0.019455558
205	0xbd51a93e	-0.051186793
206	0xbd74dab5	-0.059778888
207	0x3d1e53ed	0.038654257
208	0x3d98b694	0.07456699
209	0xbdae00da	-0.08496256
210	0xbb68628e	-0.0035459134
211	0x3d2de559	0.04245505
212	0x3d5e2450	0.05423385
213	0x3dfe4081	0.12414647
214	0xbea5e179	-0.32398584
215	0xbe40e48a	-0.1883718
216	0xbc44c271	-0.012009249
217	0x3da1ceae	0.07900749
218	0xbd5508bb	-0.05201028
219	0xbd8f9b2d	-0.07012019
220	0x3d62b460	0.0553478
221	0xbda5b1a4	-0.08090523
222	0x3b756439	0.003744377
223	0x3b612662	0.0034355153
224	0xbcc91a44	-0.024548657
225	0x3e01961b	0.12654917
226	0x3d4808ff	0.048836704
227	0x3e1a09e9	0.15042843
228	0x3d6194b4	0.055073455
229	0x3dcb15f9	0.099163
230	0xbdc364c8	-0.09540707
231	0x3dda015e	0.10644792
232	0xbaf5d960	-0.0018756799
233	0xbccc1217	-0.02491097
234	0xbcc4ccc5	-0.024023423
235	0x3c237c5d	0.009978381
236	0xbd319db9	-0.043363307
237	0x3cc0c8fc	0.023533337
238	0xbb95ea81	-0.004575074
239	0xbd934985	-0.07191757
240	0xbda0b625	-0.07847241
241	0xbd59ebf3	-0.053203534
242	0xbe263232	-0.16230085
243	0x3d8295cf	0.0637623
244	0x3c2d6c30	0.010584876
245	0x3d8e1335	0.06937257
246	0x3d2a1e1e	0.04153263
247	0x3d23d9db	0.040002685
248	0xbc87cc21	-0.016576828
249	0x3daa04b3	0.083016776
250	0x3c6bb15d	0.014385548
251	0x3d004740	0.03131795
252	0x3d2c6e3d	0.04209732
253	0xbe9a067c	-0.30083072
254	0xbe0ef878	-0.13961971
255	0xbce37d0f	-0.027769594

encoder.conv2d_3.bias f4 [64]
0	0xbd0677a9	-0.03282896
1	0xbd0b6959	-0.034036014
2	0x3cbe0b46	0.023198735
3	0x3c86e16d	0.016464913
4	0xbdb9dcc3	-0.0907531
5	0x3d3da0f8	0.04629609
6	0x3d521c1b	0.051296335
7	0xbdbfc630	-0.09363973
8	0xbd9ac79b	-0.07557603
9	0xbd984822	-0.07435633
10	0xbd384fd3	-0.044998
11	0x3d7ee08f	0.062225875
12	0x3be497c5	0.0069761
13	0x3d916e94	0.07101169
14	0x3d97688a	0.07392986
15	0x3dad29f6	0.08455269
16	0x3d957823	0.07298305
17	0xbc40bb93	-0.011763471
18	0xbd6a5e47	-0.057218816
19	0xbd8167f3	-0.06318655
20	0xbcb1a6a2	-0.021685902
21	0x3d97ca3b	0.07411619
22	0xbc107b8d	-0.008818519
23	0xbd02aa07	-0.031900432
24	0xbd89c5fc	-0.06727216
25	0xbcf474df	-0.029840885
26	0xbd501c8d	-0.05080848
27	0xbd80d9e5	-0.0629156
28	0xbcfef70c	-0.03112366
29	0x3d96bccd	0.0736023
30	0xbcc98d85	-0.024603615
31	0x3d11ecee	0.035626344
32	0xbd8e1110	-0.06936848
33	0x3da2dd85	0.07952408
34	0xbc25690e	-0.010095848
35	0x3dafd865	0.08586196
36	0xbbbab6af	-0.005698047
37	0x3ca8ee2f	0.020621387
38	0xbce3a085	-0.027786503
39	0xbdc6331f	-0.09677719
40	0xbd61f983	-0.055169594
41	0x3ceab7bc	0.028652065
42	0x3df9caf5	0.12196914
43	0xbd8cd220	-0.06876016
44	0x3d97ac52	0.07405914
45	0x3ce7dfa8	0.02830489
46	0xbde91efd	-0.11382864
47	0x3d6d2d9d	0.05790483
48	0x3dc3e0ab	0.095643364
49	0x3daa32ef	0.08310496
50	0x3cb38af0	0.021916837
51	0x3c2a7aa2	0.0104052145
52	0x3d40db5b	0.047084194
53	0xbd8ed531	-0.06974257
54	0x3d069cdb	0.032864433
55	0xbce67e3f	-0.02813637
56	0x3de129ff	0.10994338
57	0x3d8bc155	0.068239845
58	0xbdb33395	-0.08750073
59	0x3dd0406b	0.10168537
60	0x3c9e444d	0.019319678
61	0x3ddd767a	0.10813613
62	0xbc95ee9b	-0.018302253
63	0x3c5602e9	0.013062217

encoder.fc.weight f4 [16, 64]
0	0x3e92acf0	0.28647566
1	0x3d8d7d37	0.069086485
2	0x3d67e9d3	0.056619477
3	0xbcae9819	-0.02131276
4	0x3ddce762	0.1078632
5	0xbcb9cb0c	-0.022679828
6	0xbd8dc080	-0.06921482
7	0xbdeef704	-0.11668208
8	0xbdf1356c	-0.117777675
9	0xbd6f517c	-0.05842732
10	0xbc8839d5	-0.016629139
11	0x3d1bb7ed	0.038017202
12	0xbd7f762b	-0.062368553
13	0x3c0b1ac7	0.008490271
14	0xbc1b7638	-0.009488635
15	0x3d74abcd	0.059734154
16	0xbdbdac02	-0.092613235
17	0x3d685c04	0.056728378
18	0xbdc52f26	-0.096281335
19	0x3d238d92	0.039929934
20	0xbd951a6c	-0.0728043
21	0x3da04db8	0.07827324
22	0xbcd1b171	-0.025597306
23	0x3ccbfdcc	0.024901293
24	0x3d4323d8	0.047641605
25	0xbddc0c6c	-0.10744557
26	0xbdead23c	-0.1146588
27	0xbde374ea	-0.11106284
28	0x3dee7149	0.11642701
29	0x3dc29c21	0.095024355
30	0xbd5c4cd3	-0.053784203
31	0x3b9ba8b2	0.0047503347
32	0x3c28255f	0.010262816
33	0x3e354225	0.17701013
34	0x3dd81a35	0.105518736
35	0xbc4e1eaf	-0.012580558
36	0xbd23a461	-0.039951686
37	0xbd43429b	-0.04767094
38	0xbc12c910	-0.00895907
39	0xba81b080	-0.000989452
40	0x3dd365e0	0.103221655
41	0xbd1645ed	-0.03668778
42	0x3e100cfb	0.14067452
43	0xbcb708fd	-0.022343153
44	0xbca56bb6	-0.020192962
45	0xbb236e2f	-0.00249375
46	0x3db83e98	0.08996314
47	0x3e8abf2a	0.27098972
48	0xbd38216e	-0.044953756
49	0xbddbc33c	-0.107305974
50	0xbd3c37a2	-0.045951493
51	0xbcdad91c	-0.026714854
52	0x3db69b8c	0.08916387
53	0x3c9843a8	0.018586949
54	0xbe026878	-0.12735164
55	0xbd24e75e	-0.04025971
56	0xbcaab009	-0.020835893
57	0x3e046888	0.129305
58	0xbd1b9428	-0.03798309
59	0x3d5d063c	0.053961024
60	0x3c788bd6	0.015170058
61	0xbc966a1f	-0.01836115
62	0xbde34aa8	-0.11098224
63	0x3d10a7ad	0.035316158
64	0xbd6ed8cd	-0.058312226
65	0x3d974393	0.07385936
66	0xbd3f59a1	-0.046716336
67	0x3b827697	0.003981422
68	0xbdcbc9f6	-0.0995063
69	0x3e029ae0	0.12754393
70	0x3cd09338	0.025460824
71	0xbc4176a0	-0.011808068
72	0xbc915090	-0.01773861
73	0xbd889092	-0.066681996
74	0x3d68724c	0.056749627
75	0x3d00602b	0.031341713
76	0xbcd17d6f	-0.025572507
77	0x3d3ea36b	0.046542566
78	0x3b533f61	0.0032233822
79	0xba2811a5	-0.00064113206
80	0x3c07a929	0.008280077
81	0xbdbb0877	-0.09132474
82	0x3da939d4	0.08262983
83	0x3e1f215c	0.1554007
84	0x3deebb1a	0.116567805
85	0xbdb015f4	-0.08597937
86	0x3e03acdc	0.1285891
87	0x3d0d2945	0.034463186
88	0xbd5402be	-0.051760428
89	0x3ddba296	0.1072437
90	0x3d9a9376	0.07547657
91	0xbc2c0260	-0.010498613
92	0x3ca2c6cd	0.019870186
93	0x3c0234df	0.007947176
94	0x3dc1f2af	0.09470116
95	0x3cbbeb7b	0.022939434
96	0x3dbbc30c	0.091680616
97	0xbda2f84d	-0.07957516
98	0xbecd0d9b	-0.40049443
99	0x3c9e76a7	0.019343687
100	0x3da4d038	0.08047527
101	0x3c63227f	0.013863205
102	0xbd81cfe8	-0.06338483
103	0xbdaf7d04	-0.08568767
104	0x3e175594	0.14778739
105	0xbcea39ab	-0.028591951
106	0xbd41adb9	-0.047284815
107	0x3d9a1e33	0.07525291
108	0x3e4e502d	0.20147772
109	0xbdbb5dcc	-0.0914875
110	0xbd481407	-0.048847225
111	0x3e65491c	0.2239117
112	0xbda95dbb	-0.08269831
113	0x3d6afb55	0.057368595
114	0xbde1d3fb	-0.1102676
115	0xbd8ee171	-0.06976593
116	0xbda47dd2	-0.08031811
117	0xbd3e4578	-0.04645297
118	0xbd8bb5cd	-0.06821785
119	0xbde44301	-0.111455925
120	0x3e05c4bb	0.13063328
121	0xbd2d6956	-0.042336784
122	0x3d112920	0.03543961
123	0x3c19c435	0.009385158
124	0x3bca8c40	0.00618127
125	0x3ce06d4d	0.027395869
126	0x3d820bda	0.06349917
127	0x3c990455	0.018678823
128	0xbea4c810	-0.32183886
129	0xbdb47374	-0.088110834
130	0x3c5e8abd	0.0135828825
131	0xbe188df2	-0.14897898
132	0xbd38dd4a	-0.045132913
133	0xbd43b328	-0.04777828
134	0xbd040968	-0.032235533
135	0x3daa1d64	0.08306387
136	0xbda01b38	-0.078176916
137	0xbd43fb98	-0.04784736
138	0x3d6d75fd	0.05797385
139	0xbc150649	-0.009095737
140	0x3d7f2c8a	0.062298335
141	0xbce84f72	-0.028358195
142	0x3c6fa3db	0.0146264685
143	0xbd3778db	-0.04479299
144	0xbd994ae1	-0.07484985
145	0x3d2ce187	0.042207267
146	0xbe025a3f	-0.12729739
147	0x3e100e88	0.14068043
148	0x3cd6ead8	0.02623503
149	0x3d261d92	0.040555544
150	0x3e083fa0	0.13305521
151	0x3e0581b3	0.13037758
152	0x3d3add22	0.045621045
153	0xbd0d99b0	-0.034570396
154	0x3db6653c	0.08906028
155	0xbdb58082	-0.088624015
156	0xbdea8f24	-0.11453083
157	0xbe0ce10a	-0.1375772
158	0x3ded532a	0.11588128
159	0x3dc858f1	0.09782589
160	0x3cc52063	0.024063295
161	0x3da5ba3c	0.08092162
162	0x3e90394a	0.28168708
163	0x3b313091	0.0027037004
164	0xbd93f166	-0.072237775
165	0x3a325185	0.00068023085
166	0x3dd8ab0e	0.10579501
167	0x3d8ee2dc	0.06976864
168	0x3be7f8fa	0.007079241
169	0x3da58533	0.08082046
170	0xbda5f400	-0.0810318
171	0x3dcee551	0.101023324
172	0x3da7f57f	0.082011215
173	0xbdd74afb	-0.10512348
174	0x3d24d940	0.04024625
175	0xbe0bc221	-0.13648273
176	0xbdb42a68	-0.08797151
177	0x3df9beb7	0.12194579
178	0x3de1ea60	0.110310316
179	0x3d3afa65	0.04564895
180	0x3db9f7aa	0.09080441
181	0x3cfbc148	0.030731812
182	0x3dc05d5b	0.09392806
183	0xbd816463	-0.06317975
184	0xbccdd345	-0.025125155
185	0xbcb4b0dc	-0.02205699
186	0xbdb6bd34	-0.089228064
187	0x39bc0164	0.0003585919
188	0x3dfc1a64	0.12309721
189	0xbdacf987	-0.08446031
190	0x3bd6258a	0.0065352367
191	0x3dc7396f	0.097277515
192	0xbe31a89d	-0.17349477
193	0x3d9409a0	0.07228398
194	0x3db5e022	0.088806406
195	0x3d94b3b4	0.07260838
196	0xbd5eafa2	-0.054366715
197	0xbd92cdcb	-0.07168158
198	0x3da85b62	0.08220555
199	0xbdbaf622	-0.09128977
200	0x3c4cfc80	0.012511373
201	0x3d8bc928	0.06825477
202	0x3dbe8a3a	0.093037084
203	0xbdeb9b64	-0.11504248
204	0x3c586e21	0.0132098505
205	0x3df549b0	0.119769454
206	0x3db35de5	0.08758143
207	0xbd31edf6	-0.043439828
208	0xbbf151af	-0.007364474
209	0x3dcec6d4	0.10096517
210	0x3d3ff95c	0.046868667
211	0x3ccc1ad2	0.024915133
212	0x3d541724	0.05177988
213	0xbd6e0822	-0.058113225
214	0xbc743b7e	-0.014906762
215	0x3dbba0ad	0.09161506
216	0x3db83956	0.08995311
217	0xbc2f68f4	-0.010706175
218	0x3d06f21e	0.032945745
219	0x3b05ccc0	0.002041623
220	0x3ddc7e86	0.1076632
221	0x3c99e9a8	0.018788174
222	0xbdc18267	-0.094487004
223	0x3d275d80	0.040860653
224	0x3d53cfde	0.05171191
225	0xbd8609d6	-0.06544845
226	0xbe91a8fa	-0.2844923
227	0xbd87a62c	-0.06623492
228	0x3dc30cd5	0.09523932
229	0x3c075a20	0.008261234
230	0xbb972f40	-0.004613787
231	0x3dcac78a	0.0990134
232	0xbddf8d52	-0.109156266
233	0xbd4111f5	-0.047136266
234	0x3d7d0e67	0.061781313
235	0xbc213d08	-0.009841211
236	0xbccf475d	-0.025302583
237	0xbcfd8282	-0.03094602
238	0x3c920004	0.017822273
239	0xbd764929	-0.060128365
240	0xbd6090c3	-0.054825556
241	0xbdbada07	-0.09123617
242	0x3d08786c	0.03331797
243	0xbd4522b0	-0.048128784
244	0x3c075d40	0.008261979
245	0xbd8d9f82	-0.06915189
246	0xbd76438b	-0.060123008
247	0xbc57cb55	-0.013171037
248	0xbd504c97	-0.05085429
249	0xbdf7a230	-0.12091482
250	0xbc5b5560	-0.013387054
251	0x3daa8048	0.08325249
252	0xbd825884	-0.06364539
253	0xbdbb094b	-0.09132632
254	0xbda9b23d	-0.082859494
255	0xbdb95d16	-0.09050958

encoder.fc.bias f4 [16]
0	0xbda8709d	-0.08224604
1	0x3c4d5d6e	0.012534482
2	0x3e07f786	0.13278016
3	0xbde3bf1c	-0.111204356
4	0x3d43f2fa	0.047839142
5	0xbd8b96e0	-0.068158865
6	0x3dc41c30	0.09575689
7	0xbddeda0b	-0.10881432
8	0xbd926ac5	-0.07149271
9	0x3dc5ba9f	0.09654736
10	0xbc48a583	-0.012246492
11	0x3d9a4f47	0.07534652
12	0xbe05b022	-0.1305547
13	0x3dd2990a	0.10283096
14	0x3dbbf76d	0.09178052
15	0x3cd4803a	0.02594005

decoder.decoder_fc1.weight f4 [64, 16]
0	0xbe827d7b	-0.2548636
1	0x3e4574b8	0.19282806
2	0x3db89b64	0.090140134
3	0x3df17d02	0.117914215
4	0x3e0955f4	0.13411695
5	0x3ddad23f	0.106846325
6	0x3e7c3acf	0.24631809
7	0xbe1ab964	-0.15109783
8	0xbcb6f53a	-0.02233373
9	0x3d9fb2bf	0.07797765
10	0x3d8bac4a	0.06819971
11	0x3cd3ea5b	0.025868585
12	0x3daff664	0.08591917
13	0x3e483d9f	0.19554757
14	0x3d8f055f	0.06983446
15	0xbdb7fecf	-0.08984148
16	0xbda2948e	-0.07938491
17	0x3e463732	0.19356993
18	0xbbbe6588	-0.0058104433
19	0x3d424366	0.047427557
20	0xbe91eb33	-0.28499755
21	0xbe314191	-0.17310168
22	0x3e6b8ba6	0.2300249
23	0xbdf87943	-0.12132504
24	0xbe635382	-0.22199824
25	0x3d72c8f0	0.05927366
26	0xbe30ccdd	-0.17265649
27	0x3e34f967	0.17673264
28	0xbe5addc2	-0.21373656
29	0x3e5d1e2a	0.21593538
30	0xbe1b2f2a	-0.1515471
31	0xbe41145d	-0.18855424
32	0x3e2b0b4e	0.16703531
33	0xbcfedb50	-0.031110436
34	0x3c706f40	0.014674962
35	0x3e508730	0.2036407
36	0xbe33844c	-0.17530936
37	0xbcaf4a20	-0.02139765
38	0x3da12c90	0.07869828
39	0x3e14eed2	0.14544228
40	0x3e1f1606	0.15535745
41	0x3e1f29a4	0.15543228
42	0x3def31d4	0.11679426
43	0xbe1436b8	-0.14473999
44	0x3e243e9a	0.16039506
45	0x3ddc63a0	0.107611895
46	0xbdf01d1c	-0.11724302
47	0xbb39ac00	-0.002833128
48	0xbdb1a117	-0.086733036
49	0x3e863d28	0.26218534
50	0x3e0fc323	0.14039283
51	0xbd9f768f	-0.07786285
52	0xbd26a4f4	-0.040684655
53	0x3e60e1d0	0.2196114
54	0xbe5d27c0	-0.21597195
55	0xbe0b21f4	-0.13587171
56	0x3e1658ea	0.14682356
57	0xbe06e6a4	-0.1317392
58	0xbe2903c0	-0.16505337
59	0x3dc451e3	0.09585931
60	0xbdc62099	-0.09674186
61	0x3e81eb68	0.25374913
62	0xbbe436da	-0.0069645466
63	0x3e1e85d0	0.15480733
64	0xbe02b60a	-0.12764755
65	0x3daeaa1c	0.085285395
66	0xbd152b25	-0.0364181
67	0xbe364614	-0.1780017
68	0xbd9b2856	-0.07576053
69	0xbe750d93	-0.2393096
70	0xbbe7c813	-0.0070734113
71	0xbd7c1302	-0.061541565
72	0xbd86d259	-0.065830894
73	0x3e3cceda	0.18438283
74	0xbdf1ac82	-0.118004814
75	0xbd63a0b6	-0.055573188
76	0xbd2a6e6c	-0.041609213
77	0x3c64ae1a	0.013957525
78	0xbe14dc23	-0.145371
79	0xbe14a5f4	-0.14516431
80	0xbe5c15ca	-0.21492687
81	0xbe1b1c05	-0.15147407
82	0x3d41b6e8	0.047293574
83	0x3cf81be4	0.030286737
84	0xbd4108cf	-0.04712754
85	0x3dd5d73a	0.10441442
86	0x3e852198	0.26002192
87	0xbdddfa8e	-0.10838805
88	0x3d45ec6d	0.048321176
89	0x3dafb11e	0.08578704
90	0x3d9a9013	0.07547011
91	0xbe5efa4b	-0.21775167
92	0x3caf8a11	0.02142814
93	0xbe130936	-0.14358982
94	0xbe51bfaa	-0.2048327
95	0xbde0c390	-0.109748006
96	0xbdf64950	-0.12025702
97	0x3e072951	0.13199355
98	0xbe85055f	-0.2598066
99	0xbc0c347b	-0.008557434
100	0xbe93d3d6	-0.28872555
101	0x3e4a4107	0.19751368
102	0xbe27d3a9	-0.16389336
103	0x3e5b85d3	0.21437769
104	0xbd03e162	-0.032197364
105	0xbe042183	-0.12903409
106	0xbd4ad113	-0.049515795
107	0xbd0f5a8a	-0.034998454
108	0xbe5eca50	-0.21756864
109	0x3dda965a	0.106732085
110	0x3d0433af	0.03227585
111	0x3e6707cb	0.22561567
112	0x3d8078a0	0.062730074
113	0xbe44dc7c	-0.19224733
114	0xbe2d28be	-0.16910073
115	0x3deae5f4	0.11469641
116	0x3e1f7796	0.15572962
117	0xbcf0c450	-0.029390484
118	0xbdcf78ec	-0.10130486
119	0xbe7c8582	-0.24660304
120	0xbc23d8e0	-0.0100004375
121	0x3e7581a6	0.23975238
122	0x3e786d40	0.24260426
123	0x3e3589c8	0.1772834
124	0x3e2f3a60	0.17112112
125	0xbd263218	-0.040575117
126	0x3d9637c4	0.07334855
127	0xbe60fb3e	-0.21970841
128	0xbcd54700	-0.026034832
129	0xbe3ec89c	-0.18631214
130	0x3e139eca	0.14416042
131	0x3ccbae10	0.024863273
132	0x3e6d5aa6	0.23179111
133	0x3e1fdec0	0.15612316
134	0xbe40bb22	-0.18821386
135	0xbe4cd8e6	-0.20004615
136	0x3be09840	0.006854087
137	0xbd442ba8	-0.047893196
138	0xbe3e5ae0	-0.18589354
139	0xbdc72cfc	-0.09725377
140	0x3e39600e	0.18103048
141	0xbc5c9fc0	-0.013465822
142	0x3c310b00	0.010805845
143	0x3d02f570	0.03197235
144	0x3eb2a831	0.34893945
145	0x3eb2083d	0.3477191
146	0x3dc80271	0.09766091
147	0xbd29f39b	-0.041492086
148	0xbdfe8c82	-0.124291435
149	0xbd423090	-0.047409594
150	0xbe3d1b9b	-0.18467562
151	0xbeb28672	-0.348682
152	0x3e97b925	0.29633442
153	0xbc4b7db7	-0.0124201095
154	0x3e859c97	0.2609603
155	0xbcfd4ab7	-0.030919416
156	0xbe08ef04	-0.13372427
157	0x3ea93d7c	0.3305472
158	0xbd9a501d	-0.07534812
159	0x3d1d676c	0.03842871
160	0xbe47fd54	-0.19530231
161	0xbe097808	-0.13424695
162	0xbbb8f840	-0.005644828
163	0xbe176752	-0.14785507
164	0x3dec75f0	0.11545932
165	0xbddf9ad4	-0.10918203
166	0x3ccb96d0	0.024852186
167	0xbd75d9e0	-0.060022235
168	0x3dee3f04	0.11633113
169	0xbde41044	-0.11135915
170	0xbd816fb0	-0.06320131
171	0xbe528f52	-0.20562485
172	0xbe27658e	-0.16347334
173	0x3e0bae16	0.13640627
174	0x3deaa660	0.11457515
175	0x3c505c40	0.012717307
176	0xbd4aec06	-0.049541496
177	0x3e63c937	0.22244726
178	0x3db7b2c6	0.08969645
179	0xbdc0339a	-0.09384842
180	0xbd86722d	-0.06564746
181	0xbe2db729	-0.16964401
182	0xbe34804b	-0.17627065
183	0x3c0b1028	0.008487739
184	0xbdb762b6	-0.089543745
185	0x3d9c8e90	0.07644379
186	0xbe1bf5ab	-0.15230434
187	0x3dd0ca80	0.10194874
188	0xbe5ce743	-0.21572594
189	0xbda2eaea	-0.079549626
190	0x3e2311b4	0.15924722
191	0xbc92f7ec	-0.017940484
192	0x3d931f41	0.071836956
193	0xbe8d5e07	-0.276108
194	0xbe1bdb3e	-0.15220353
195	0xbea0a496	-0.3137557
196	0x3cc828b6	0.024433475
197	0xbe5ba454	-0.21449405
198	0xbf13cd87	-0.57735485
199	0x3dc86f41	0.09786845
200	0x3ef30003	0.47460946
201	0xbee0cca0	-0.43906116
202	0x3ee28d8a	0.4424861
203	0x3dbdeac7	0.09273296
204	0xbea87b89	-0.3290675
205	0x3dfe1562	0.12406422
206	0xbd561d60	-0.052274108
207	0x3e1d89ea	0.15384641
208	0xbe13d060	-0.14434958
209	0xbc825ae7	-0.015912486
210	0xbe5519ea	-0.20810667
211	0xbe5c7603	-0.21529393
212	0x3e0d53a7	0.13801442
213	0xbb93d97a	-0.004512009
214	0x3e1206b5	0.14260371
215	0x3e0d1e6f	0.1378114
216	0xbe179ec6	-0.14806661
217	0xbe58281b	-0.21109049
218	0xbdb5bd0f	-0.08873951
219	0xbd251fd3	-0.040313553
220	0xbe457a25	-0.19284876
221	0xbe441677	-0.19149195
222	0x3def6d5b	0.1169078
223	0xbe4b45d3	-0.19850855
224	0x3de7059c	0.11280367
225	0xbcdeb130	-0.027184099
226	0x3e0213a0	0.12702799
227	0xbe5f56ca	-0.21810451
228	0x3e037870	0.12838912
229	0x3e7f08f0	0.24905753
230	0x3d8614c0	0.065469265
231	0xbc880450	-0.016603619
232	0xbda78b80	-0.081809044
233	0xbcc49040	-0.023994565
234	0x3d9adc38	0.07561535
235	0xbe04877e	-0.12942311
236	0x3e3a9c7a	0.18223754
237	0xbcf5d450	-0.030008465
238	0xbe4a36a2	-0.19747403
239	0x3ba4f740	0.0050343573
240	0xbd3faad0	-0.04679376
241	0xbe254cc0	-0.16142559
242	0x3e7dc620	0.2478261
243	0xbc1b7860	-0.009489149
244	0x3e7e7878	0.24850643
245	0xbe2a3a1a	-0.16623726
246	0x3e192b90	0.14958024
247	0xbb689980	-0.0035491884
248	0x3e6e14f0	0.23250175
249	0x3e7a86a6	0.24465427
250	0x3e60ec72	0.21965197
251	0x3e46aefe	0.19402692
252	0x3e05229c	0.13001484
253	0xbddd3d58	-0.10802716
254	0xbe089526	-0.13338146
255	0xbe31edec	-0.17375916

decoder.decoder_fc1.bias f4 [64]
0	0xbd0ac40b	-0.033878367
1	0xbdd39035	-0.1033024
2	0xbdddc64c	-0.10828838
3	0xbd575274	-0.052568868
4	0x3d4ec440	0.050480127
5	0x3e13966a	0.14412847
6	0xbd65624d	-0.05600195
7	0xbe25b440	-0.16182041
8	0xbe02daae	-0.12778732
9	0xbe413755	-0.18868764
10	0xbe651ef0	-0.22375083
11	0x3e4fee59	0.20305766
12	0x3e0c246e	0.13685772
13	0x3ddff8af	0.109361045
14	0xbe394a3c	-0.18094724
15	0xbe10d318	-0.14143026
16	0x3e2219c2	0.15830138
17	0xbe3618b0	-0.17782855
18	0xbe28df58	-0.16491449
19	0x3cff9164	0.031197257
20	0xbe5e52aa	-0.21711221
21	0xbdcc33dc	-0.09970829
22	0xbe4eede7	-0.2020794
23	0xbb334a3e	-0.0027357484
24	0xbe1c5c05	-0.15269478
25	0x3e5a2f73	0.21307163
26	0x3e222220	0.1583333
27	0x3cfe3a34	0.031033613
28	0x3cb84004	0.022491463
29	0x3e5fe661	0.21865226
30	0x3e38b9e1	0.18039657
31	0xbe221ef2	-0.15832117
32	0xbe459fa6	-0.19299182
33	0xbde530a9	-0.11190922
34	0x3bd97b80	0.006637037
35	0xbe922faf	-0.28552005
36	0xbcad47fe	-0.021152493
37	0xbe265099	-0.16241683
38	0x3e660776	0.22463784
39	0x3d360957	0.0444425
40	0x3e84a4dc	0.25907028
41	0x3e1f8811	0.15579249
42	0x3d5cdb9e	0.05392038
43	0xbe51b022	-0.20477346
44	0xbe3f5d60	-0.18687963
45	0x3db03e2c	0.08605608
46	0x3dde8792	0.10865702
47	0xbe4d87fa	-0.20071402
48	0xbc840a06	-0.01611806
49	0xbc3bd477	-0.01146423
50	0x3d34d177	0.044145074
51	0x3e098909	0.13431181
52	0x3dd46789	0.1037131
53	0x3c709acd	0.014685345
54	0xbda06564	-0.07831839
55	0x3e71721f	0.2357869
56	0x3e2cfc00	0.16893005
57	0xbd6ee2c9	-0.058321748
58	0xbe09b09d	-0.13446279
59	0x3e880a97	0.2657058
60	0xbe53cd48	-0.20683777
61	0x3c00221b	0.007820631
62	0xbe08328a	-0.13300529
63	0xbce4e350	-0.027940422

decoder.decoder_fc2.weight f4 [128, 64]
0	0xbb5e1faa	-0.0033893385
1	0xbc9878a4	-0.018612213
2	0xbd369bc8	-0.04458216
3	0x3e0012ee	0.12507221
4	0xbd1cce8b	-0.038282912
5	0x3da4dabe	0.08049534
6	0x3de8bab3	0.11363735
7	0xbda4e0e4	-0.08050707
8	0x3cdd9c88	0.027052179
9	0xbde3a336	-0.111151144
10	0x3d02e8dc	0.031960353
11	0x3e0862e2	0.13318971
12	0x3d66346f	0.05620235
13	0xbda8e3fd	-0.0824661
14	0xbdb382ec	-0.08765206
15	0x3dca02a6	0.098637864
16	0x3e09da18	0.13462102
17	0xbdb069c8	-0.08613926
18	0x3cb8d0cc	0.0225605
19	0xbdbfe07b	-0.09368988
20	0x3bbb9b00	0.0057252645
21	0xbdf45cb1	-0.11931742
22	0xbc8caf4a	-0.017173428
23	0xbd29cb05	-0.04145338
24	0x3cd68818	0.026187941
25	0xbd54f7be	-0.051994078
26	0xbca68760	-0.020328224
27	0x3dfadf05	0.12249569
28	0x3d1630db	0.036667686
29	0x3e02d324	0.12775856
30	0x3def6fc3	0.11691239
31	0x3d166ab4	0.036722854
32	0x3dbd94fe	0.09256934
33	0xbd115d5a	-0.035489418
34	0x3ddb864c	0.107189745
35	0xbdb6f83f	-0.08934068
36	0x3e0594eb	0.13045089
37	0x3e61f0c0	0.22064495
38	0x3e0a4d5b	0.13506071
39	0xbb8a7abc	-0.004226057
40	0x3db05d8e	0.08611594
41	0x3e05f2af	0.13080858
42	0x3cdc7cc2	0.026914958
43	0xbd0eb019	-0.03483591
44	0xbebcdb59	-0.368861
45	0x3ded7d50	0.11596167
46	0x3d7a70c5	0.0611427
47	0xbd2d4c28	-0.042308956
48	0xbd572d33	-0.05253334
49	0xbd495069	-0.04914895
50	0xbd8219e7	-0.06352597
51	0x3daa8b1f	0.083273165
52	0x3dbcb902	0.09214975
53	0x3d352874	0.044228032
54	0x3d530d4c	0.051526353
55	0x3da5bb78	0.080923975
56	0xbd43db71	-0.047816698
57	0xbd2ad813	-0.04170997
58	0x3da2e8b2	0.07954539
59	0x3da00f40	0.07815409
60	0xbd5316a8	-0.05153528
61	0x3d67069f	0.0564028
62	0x3dd0f7e6	0.10203533
63	0x3d4de4ac	0.050266907
64	0x3d8342f0	0.06409252
65	0xbdce5962	-0.10075642
66	0xbdfd91d4	-0.1238133
67	0xbde99745	-0.114058055
68	0xbde23bdf	-0.11046576
69	0xbdfcb6c0	-0.12339544
70	0xbdf135e4	-0.11777857
71	0x3df9287e	0.121659264
72	0xbd6f6f9c	-0.05845605
73	0x3de452c6	0.111486
74	0xbd7b0050	-0.061279595
75	0x3cbeabb0	0.023275226
76	0x3cf752a0	0.030190766
77	0x3c4be94f	0.012445762
78	0x3d194db8	0.037427634
79	0xbdad2318	-0.08453959
80	0xbbb2d221	-0.005457178
81	0x3db48fd4	0.088164955
82	0x3dc94224	0.098270684
83	0x3d3952d4	0.045245007
84	0x3c5474b0	0.012967274
85	0xbdda172c	-0.10648951
86	0xbd98a3c2	-0.07453109
87	0xbddbe22a	-0.10736497
88	0x3d8a3b9c	0.06749651
89	0x3c4e3875	0.012586703
90	0xbde3031e	-0.11084579
91	0xbdc4d437	-0.09610789
92	0x3d3ce198	0.04611358
93	0xbd9831d3	-0.07431378
94	0xbbf057c3	-0.0073346808
95	0x3c9769a0	0.018482983
96	0xbd58959c	-0.052877054
97	0xbd3b3458	-0.045704216
98	0x3dafd576	0.08585636
99	0xbd9ed422	-0.07755305
100	0xbc42669b	-0.011865283
101	0xbb61c340	-0.0034448653
102	0xbdc17614	-0.0944635
103	0x3dccab28	0.09993583
104	0x3d486ed9	0.048933838
105	0x3d2c1d53	0.042020153
106	0x3d491ddc	0.04910074
107	0x3c526b10	0.0128429085
108	0xbdcb79b6	-0.09935324
109	0xbd019888	-0.031639606
110	0x3d142e39	0.036176894
111	0x3cf32300	0.029679775
112	0x3d6c3b9a	0.057674028
113	0x3c204fde	0.009784667
114	0xbdc5f30e	-0.096655
115	0xbd0cfab2	-0.03441877
116	0xbe0e6fcf	-0.13909839
117	0x3b6ea000	0.0036411285
118	0xbdd28134	-0.1027855
119	0xbd4d7b7d	-0.050166596
120	0x3c83c151	0.016083391
121	0x3d7cad15	0.0616885
122	0xbd5497d4	-0.051902607
123	0x3d11ee76	0.035627805
124	0xbbf7c460	-0.0075612515
125	0x3c1b54b6	0.009480646
126	0x3deee598	0.11664885
127	0xbd4e1b78	-0.050319165
128	0xbd75e56d	-0.06003325
129	0x3d0b6879	0.03403518
130	0xbd85e6d4	-0.065381676
131	0xbdb18965	-0.08668784
132	0x3c992fbd	0.018699521
133	0x3c1590b2	0.009128736
134	0xbdbda6f7	-0.09260362
135	0xbc56f980	-0.013121009
136	0x3c829d20	0.015944064
137	0x3c099a40	0.0083985925
138	0x3dbc03c2	0.09180404
139	0x3d30c258	0.04315409
140	0xbd8da740	-0.06916666
141	0xbd468a74	-0.048471883
142	0xbd196380	-0.037448406
143	0x3cfbabe8	0.03072162
144	0x3da13607	0.07871633
145	0xbd3220e8	-0.043488413
146	0xbdce1c68	-0.10064012
147	0x3d91687a	0.071000054
148	0xbb231a80	-0.0024887621
149	0xbca32f50	-0.019920021
150	0x3ddd34e4	0.10801104
151	0x3cb5b2b9	0.022179948
152	0xbde57e72	-0.11205758
153	0x3d122124	0.035676137
154	0x3b89d31d	0.004206075
155	0xbd248d74	-0.040173963
156	0xbd35caf6	-0.04438301
157	0xbdafc865	-0.08583144
158	0x3c93d064	0.018043704
159	0x3de5c714	0.11219612
160	0x3d764688	0.060125858
161	0xbd5d036d	-0.053958345
162	0x3d18472c	0.03717725
163	0xbcbc17b6	-0.022960525
164	0x3c8e6387	0.017381443
165	0x3d9d1e6d	0.07671819
166	0xbe0d7ab9	-0.13816346
167	0xbd37c684	-0.044867054
168	0x3c6dddc1	0.014518202
169	0xbe04c193	-0.12964468
170	0xbd8a6f20	-0.06759477
171	0x3d83143f	0.06400346
172	0x3de2c847	0.11073356
173	0xbde90543	-0.11377957
174	0xbe050af3	-0.12992458
175	0xbd1b3fbc	-0.03790258
176	0x3c5baba0	0.013407618
177	0xbdb70aff	-0.08937644
178	0x3d6de5c9	0.05808047
179	0xbb834522	-0.004006044
180	0xbdd088f3	-0.10182371
181	0x3c9ec793	0.019382274
182	0x3d7c3260	0.06157148
183	0xbc79897d	-0.015230534
184	0x3ca49d06	0.020094406
185	0x3d376f61	0.044783954
186	0xbe01e565	-0.12685163
187	0xbdf4346c	-0.11924061
188	0x3cb66258	0.02226369
189	0x3dd4ae7b	0.10384842
190	0x3da8a9e0	0.08235526
191	0x3de6e862	0.11274792
192	0x3d6e3ae5	0.058161635
193	0x3e1212c4	0.14264971
194	0xbdaaa7f0	-0.08332813
195	0x3d00fd02	0.031491287
196	0x3da6f86b	0.08152851
197	0xbd88ad6a	-0.06673701
198	0xbd832eec	-0.06405434
199	0x3dd21372	0.10257615
200	0x3d3e1634	0.046407893
201	0x3e5a76a0	0.21334314
202	0x3d23c180	0.039979458
203	0x3db7956a	0.08964045
204	0xbeac1450	-0.33609247
205	0x3dd6fde9	0.10497648
206	0x3cadbb30	0.021207422
207	0x3d7cc5c8	0.061712056
208	0x3d820347	0.06348281
209	0xbdb1a0a4	-0.08673218
210	0xbcb5933c	-0.022164933
211	0xbdbc430c	-0.09192476
212	0x3da930f0	0.08261287
213	0x3d4a5efb	0.049406987
214	0x3db0ebfd	0.08638761
215	0xbe120561	-0.14259864
216	0x3d17b1c3	0.03703476
217	0x3d680134	0.056641772
218	0xbd8ea46a	-0.06964953
219	0x3ca868cc	0.020557784
220	0x3d896052	0.06707825
221	0x3e0db79e	0.13839576
222	0x3deab1b8	0.114596784
223	0xbdc8a98c	-0.097979635
224	0xbd345874	-0.044029668
225	0xbd8a5136	-0.06753771
226	0xbd8421ba	-0.06451745
227	0xbcea011b	-0.02856498
228	0xbd8882f4	-0.06665602
229	0xbe08b5f2	-0.13350657
230	0xbdc796b7	-0.097455435
231	0x3de820d3	0.11334386
232	0x3d7e9842	0.062156923
233	0xbcda391b	-0.026638558
234	0x3daedd88	0.085383475
235	0x3e4e6afa	0.20157996
236	0x3e908c2e	0.2823195
237	0xbc8d1d21	-0.017225804
238	0x3d11be70	0.035582006
239	0x3d47e83c	0.04880546
240	0xbdb4ce57	-0.08828419
241	0x3dd23cb8	0.102654874
242	0x3dc84084	0.097779304
243	0x3be571d1	0.0070020934
244	0xbdcf31fb	-0.10116955
245	0xbda7df79	-0.08196921
246	0x3cf42ee0	0.029807508
247	0x3da9b653	0.08286729
248	0x3dcef6c0	0.101056576
249	0xbc27fe31	-0.010253475
250	0xbe63c784	-0.22244078
251	0xbd2fd7a0	-0.042930245
252	0xbd3168f0	-0.043312967
253	0x3e0bd3e8	0.13655055
254	0x3dca466e	0.09876715
255	0xbdee8172	-0.116457835

decoder.decoder_fc2.bias f4 [128]
0	0x3d9d811d	0.07690642
1	0x3d6d25a3	0.05789722
2	0xbd39d5de	-0.045369975
3	0x3c1501e9	0.009094694
4	0x3dc1e4da	0.09467478
5	0xbb65c34e	-0.0035059038
6	0x3e07d6d9	0.13265552
7	0xbcc2b09f	-0.02376586
8	0xbe161767	-0.14657365
9	0x3d56d290	0.0524469
10	0x3e07e7cd	0.13272019
11	0xbbe386a3	-0.00694354
12	0xbd4312d2	-0.04762537
13	0x3d5b48ad	0.053536106
14	0xbd4dc3cb	-0.05023555
15	0x3c92d635	0.017924407
16	0x3dd64312	0.104620114
17	0x3dada088	0.084778845
18	0x3dfba232	0.12286796
19	0xbdd5cf93	-0.10439982
20	0x3d845314	0.064611584
21	0xbd2456ee	-0.040121965
22	0xbe12167f	-0.14266394
23	0x3e0beea0	0.13665247
24	0x3dcab771	0.0989827
25	0x3e0371b2	0.1283634
26	0x3e156589	0.14589514
27	0xbdb9ea82	-0.09077932
28	0xbd2abf9a	-0.04168663
29	0x3e0fb3e0	0.1403346
30	0x3d8c2c60	0.06844401
31	0x3da685e2	0.08131005
32	0xbc90ab5c	-0.017659836
33	0x3c781cba	0.015143568
34	0x3db1abf1	0.08675373
35	0x3d54b1bf	0.051927324
36	0x3d84b60c	0.06480035
37	0x3dac558e	0.08414756
38	0x3c6ec8a9	0.014574208
39	0x3ddfdc1e	0.10930656
40	0x3da76fe3	0.081756376
41	0x3cb1111a	0.0216146
42	0x3dc7a094	0.09747425
43	0xbcc4a730	-0.024005502
44	0x3e074c52	0.13212708
45	0xbdb69632	-0.08915366
46	0x3dc8a29b	0.097966395
47	0x3e073dc6	0.13207158
48	0x3d98feb2	0.07470454
49	0xbcfdc408	-0.030977264
50	0x3de3f16a	0.111300305
51	0x3df8c8e2	0.1214769
52	0xbd5a0cfa	-0.05323503
53	0xbdb6d8ec	-0.08928093
54	0x3d1bbd35	0.03802224
55	0x3da37329	0.079809494
56	0x3e069117	0.13141285
57	0x3e0c943d	0.13728423
58	0xbdf1fe20	-0.118160486
59	0xbda14288	-0.07874018
60	0xbda3d46c	-0.07999501
61	0xbd294590	-0.041326106
62	0x3d7dd9a9	0.061975155
63	0x3e01912a	0.12653032
64	0xbd961964	-0.073290616
65	0x3de336fe	0.11094473
66	0xbd5fd2ca	-0.054644383
67	0xbd3d0dd1	-0.046155754
68	0xbe049b87	-0.12949954
69	0xbde7c871	-0.11317528
70	0x3de0e627	0.10981398
71	0xbde2d790	-0.110762715
72	0xbd66d0e8	-0.056351572
73	0x3e0ded56	0.13860068
74	0xbd32a4dd	-0.043614257
75	0x3dc5f9ee	0.09666811
76	0x3d8182b2	0.06323756
77	0x3e184cb9	0.14873017
78	0xbd0c8c1c	-0.034313306
79	0xbd53fb1e	-0.051753156
80	0xbc557ad2	-0.013029771
81	0x3c62cc09	0.013842591
82	0xbdd411ba	-0.103549436
83	0x3d858a10	0.06520474
84	0x3ded7f29	0.115965195
85	0x3d247b95	0.04015692
86	0xbd0fae34	-0.035078242
87	0x3df97b2a	0.12181695
88	0xbd1fabc3	-0.038982164
89	0xbe081391	-0.13288714
90	0x3d3cfee3	0.046141516
91	0xbde4ac4d	-0.11165676
92	0x3cb06c4b	0.021536013
93	0x3dc26f97	0.0949394
94	0x3d9c071d	0.07618544
95	0x3db6ebd9	0.08931703
96	0x3dd1a454	0.10236421
97	0xbddbe662	-0.107373014
98	0x3d28c55c	0.04120384
99	0x3e122fa6	0.14275989
100	0xbdc975d6	-0.098369285
101	0xbd30aace	-0.043131642
102	0x3da62d35	0.08114091
103	0x3b288fcd	0.0025720478
104	0x3cded5d2	0.027201567
105	0x3d218a4e	0.03943854
106	0xbccb51f9	-0.024819361
107	0xbdce9ec7	-0.10088878
108	0x3b525000	0.003209114
109	0xbcdde930	-0.027088732
110	0x3d1ab5a9	0.0377709
111	0x3d47a213	0.04873855
112	0xbdd31a5d	-0.10307763
113	0x3d3ffea2	0.046873696
114	0x3db7add9	0.08968706
115	0x3e1c8e28	0.15288603
116	0xbd22f87a	-0.039787747
117	0x3db50c01	0.0884018
118	0x3d8a6b04	0.06758693
119	0x3d77f277	0.060533967
120	0x3d8d7e64	0.06908873
121	0x3dc673da	0.09690066
122	0xbc914ef0	-0.017737836
123	0xbd9df69d	-0.077130534
124	0x3dafff62	0.08593632
125	0x3bd68bcd	0.0065474273
126	0xbe0b60c4	-0.13611132
127	0xbdcc1a74	-0.09965983
